backup/hopper-medium-v2/rcsl/rcsl/timestamp_23-0905-073429&1/checkpoint/policy.pth (torch, 498555 bytes, 10 tensors)

rcsl.backbone.model.0.weight f4 [200, 12]
0	0xbfb1bfa3	-1.3886608
1	0xc10ea0b6	-8.914236
2	0xc00f1080	-2.235382
3	0x3f8d84d5	1.1056162
4	0xc0295218	-2.6456356
5	0xbe6bfc90	-0.23045564
6	0xc00375da	-2.054068
7	0x3fd8f822	1.6950724
8	0x3fc60db3	1.5472931
9	0x3f8b57c6	1.0886161
10	0xbdb28af1	-0.08717907
11	0xbd0d3cd4	-0.03448184
12	0x3e1044e6	0.14088783
13	0xbff91924	-1.9460797
14	0xbef72800	-0.48272705
15	0xbf833bab	-1.0252584
16	0xbfe189bd	-1.7620159
17	0x3f8ce227	1.1006516
18	0x3fa25e6e	1.2685068
19	0x3e96af4d	0.2943062
20	0x3f4abef9	0.7919765
21	0xbf050c70	-0.51972103
22	0xbe391b83	-0.18076901
23	0xbd3ea3fe	-0.046543114
24	0x4047ed3d	3.1238549
25	0xc121e600	-10.118652
26	0x4048a23d	3.1349022
27	0x400e128a	2.2198815
28	0xbf253ba5	-0.64544135
29	0x3ecf6985	0.40510193
30	0xc00753b5	-2.114484
31	0xbff2bb71	-1.8963453
32	0x4024f221	2.5772784
33	0xbeb7df73	-0.35912666
34	0xbff5f2ff	-1.9214782
35	0x3b0b5cbc	0.002126499
36	0x3f3837bb	0.7196004
37	0x407de985	3.967378
38	0xbf8ef3da	-1.1168168
39	0x405c5aca	3.4430413
40	0x404ed23a	3.2315812
41	0x3f155bc8	0.5834317
42	0xbc28447d	-0.010270235
43	0x400e064e	2.2191348
44	0x3f1205c0	0.57040024
45	0xbd905917	-0.070482425
46	0xbf4ef0a9	-0.8083597
47	0xbde27d58	-0.11059064
48	0x3e2a5609	0.16634382
49	0x40b29bf1	5.581536
50	0xc0604ecd	-3.5048096
51	0x40702e1f	3.752815
52	0xc04fd2ef	-3.2472494
53	0xbf635d2e	-0.88814056
54	0xbfa117f1	-1.2585431
55	0xbfa1f3bd	-1.2652508
56	0x3f800739	1.0002204
57	0x3fa29b96	1.2703731
58	0xbe24637a	-0.16053572
59	0xbd101b6c	-0.0351824
60	0xbfe93ef5	-1.8222338
61	0xc1332b92	-11.198137
62	0xc0c813f1	-6.2524343
63	0xc11b80ea	-9.718973
64	0xc089b163	-4.3029037
65	0x3f953a1f	1.1658362
66	0xc047e03e	-3.1230617
67	0xbf369afb	-0.7133023
68	0xbf85124c	-1.0396209
69	0xbe74b79f	-0.23898171
70	0x3f790e41	0.97287375
71	0x3a9fdbff	0.0012196301
72	0xbe8bc264	-0.27296746
73	0xc1050cb8	-8.315605
74	0x3fab319d	1.3374516
75	0xbf9e7754	-1.2380166
76	0xbe9d2cc5	-0.3069822
77	0xbe8cde22	-0.27513224
78	0xbf1ce1c0	-0.6128197
79	0x3f9130b2	1.1342986
80	0xbeb7cab6	-0.35896844
81	0xbf1c6f0d	-0.6110695
82	0x3df5a0c6	0.11993556
83	0xbcc647b5	-0.024204114
84	0x3e53c83f	0.20681857
85	0xbfd72b0a	-1.681001
86	0xbf8ef1eb	-1.1167578
87	0x3f271d66	0.65279233
88	0x3ff498b1	1.9109098
89	0x3fb48bff	1.4105223
90	0x3f852318	1.0401335
91	0xbfd34e1b	-1.6508211
92	0xbe93f2aa	-0.28896075
93	0x3f90db36	1.1316898
94	0xbf708451	-0.939519
95	0xbe181a1e	-0.14853713
96	0x40179f4e	2.3690982
97	0x4157b8da	13.48263
98	0xc0832f55	-4.099528
99	0x40648451	3.570576
100	0xc05e2ed2	-3.4716077
101	0xc065e98a	-3.592379
102	0xbf9832d4	-1.1890512
103	0xbd8a738a	-0.067603186
104	0x3fe061e8	1.7529879
105	0x3f8e8b2e	1.1136224
106	0x3f7586a7	0.9590859
107	0x3a9e05e6	0.0012056201
108	0x3e408237	0.18799673
109	0x3d5a17a9	0.05324522
110	0x3dd2b8cd	0.10289154
111	0x3e65ec09	0.22453322
112	0x3e871dd7	0.26389953
113	0xbe4e9974	-0.20175725
114	0x3d3d30dd	0.046189178
115	0x3e52680a	0.205475
116	0x3e4bac56	0.1988996
117	0x3e42240f	0.18959068
118	0xbe4b6d3b	-0.19865887
119	0xbe5f5425	-0.21809442
120	0x3ffc5b3f	1.9715346
121	0xc0161b77	-2.3454263
122	0x4098e04f	4.7773814
123	0x3ff0191f	1.8757666
124	0x40f8edee	7.779044
125	0xc00e4b70	-2.2233543
126	0xbe1f7a1d	-0.15573926
127	0x4085063e	4.157012
128	0x3f8bad55	1.0912272
129	0x3d9c333c	0.0762696
130	0xbf288d14	-0.6584027
131	0x3b297384	0.0025856206
132	0x407984ee	3.8987384
133	0x3eda7ec5	0.42674842
134	0x40b66849	5.70023
135	0x4098940c	4.768072
136	0x3f7cd4fc	0.9876249
137	0xbf620687	-0.8829121
138	0x3eebda16	0.46064824
139	0x401077bf	2.2573087
140	0xc023c7a4	-2.55906
141	0xbfd48d2c	-1.6605582
142	0xbe9bf410	-0.30459642
143	0x3c0047a5	0.007829581
144	0x3f1bf582	0.6092149
145	0xbfbb77d8	-1.4645948
146	0xbdad073c	-0.084486455
147	0xbee5bb9c	-0.44869697
148	0xbf2a88d4	-0.66615033
149	0x3f6f3670	0.9344244
150	0xbee4ab12	-0.44661766
151	0x3fe12760	1.7590141
152	0xbf2409b5	-0.6407731
153	0xbcdbb020	-0.026817381
154	0xbee161fa	-0.44020063
155	0xbf26ee12	-0.65207016
156	0xc03db4a9	-2.9641516
157	0x4083b7d4	4.11619
158	0xbf89d127	-1.0766953
159	0x3fccb355	1.5992228
160	0xc087f32a	-4.248433
161	0x3fcec16d	1.6152779
162	0x406f49ef	3.7388875
163	0x40566c55	3.350362
164	0xc07115f8	-3.7669659
165	0xbf079a31	-0.5296965
166	0x3e1d9fa1	0.15392925
167	0x3a5cb45b	0.0008419209
168	0xbee3f492	-0.4452253
169	0x3f88203b	1.0634836
170	0x3d74d940	0.0597775
171	0x3f53003e	0.82422245
172	0x3f2d7d62	0.67769444
173	0xbf273806	-0.6531986
174	0x3fc150b6	1.5102756
175	0xbe8a7be2	-0.2704764
176	0x3d25c950	0.04047519
177	0x3e8d64b8	0.27615905
178	0xbe87f959	-0.26557425
179	0xbd3ccb44	-0.046092287
180	0xbd76e349	-0.06027535
181	0xc18394d3	-16.447668
182	0xc03d5c78	-2.9587688
183	0xc0347d1a	-2.8201356
184	0xc08ac963	-4.3370833
185	0x3e9ff0f1	0.3123851
186	0xbfdfbf71	-1.7480298
187	0xbf9cc2e0	-1.2246971
188	0x3ee0bba4	0.43893158
189	0xc01b3106	-2.4248672
190	0xbdd8cee7	-0.105863385
191	0x3a5bf8fb	0.0008391288
192	0x3f09fa8a	0.5389792
193	0x412c23ea	10.758768
194	0x3fd6a0da	1.6767838
195	0xc036aa51	-2.8541453
196	0x408c8d2c	4.392233
197	0x3fa6b404	1.3023686
198	0x40115bde	2.2712321
199	0xbff2eaae	-1.8977869
200	0xbf8ca42f	-1.0987605
201	0xbfcbe670	-1.5929699
202	0x3fd7706c	1.6831183
203	0x3afc9fbc	0.0019273679
204	0x3e8a3b3c	0.26998317
205	0x40051d1f	2.0799024
206	0x3fc657ca	1.5495541
207	0xbe78eaef	-0.2430837
208	0xbfdf9b38	-1.7469244
209	0xbe5cf422	-0.21577504
210	0x3f521d83	0.8207628
211	0xc047803c	-3.1172018
212	0x3d5503a7	0.052005436
213	0xbf5a0f1f	-0.8517932
214	0x3fd74f27	1.682103
215	0xbe6869b4	-0.22696573
216	0xbfb8a3a7	-1.4424943
217	0x4086124e	4.1897345
218	0xc041b2a9	-3.0265296
219	0x405de53b	3.467116
220	0xbf988be8	-1.1917696
221	0x3f68f788	0.910027
222	0xbfa64cea	-1.2992222
223	0xbf9072a0	-1.1284981
224	0x3fc4c3d3	1.5372261
225	0x3fab06f7	1.33615
226	0xbdc79dc7	-0.097468905
227	0xbdccaa03	-0.09993365
228	0x3f0c3678	0.5477061
229	0x3f91ec2f	1.1400203
230	0xbf512364	-0.81694627
231	0x3f17f581	0.59358984
232	0x3ee5ac8c	0.44858205
233	0xbc61b372	-0.013775693
234	0xbf4c22d5	-0.7974065
235	0x3da25102	0.07925607
236	0xbf9194f0	-1.1373577
237	0x3f36a908	0.7135167
238	0x3f88a75d	1.0676075
239	0xbfa6a74f	-1.3019809
240	0xc015bb47	-2.3395555
241	0x3f79865c	0.9747064
242	0xc09ada47	-4.839145
243	0xbedc9467	-0.43081972
244	0xbfeda4c3	-1.8565906
245	0x3f2e52e5	0.68095237
246	0xbf305d25	-0.6889213
247	0xc05a12ca	-3.4073968
248	0x3f0e2738	0.55528593
249	0x3fcb20fa	1.5869439
250	0xbd2cd1e3	-0.04219235
251	0xbc3f2125	-0.011665617
252	0xbee5a899	-0.44855192
253	0x40d4cee0	6.6502533
254	0x3cca1df6	0.02467249
255	0x3fc41571	1.5319043

rcsl.backbone.model.0.bias f4 [200]
0	0xbfc979c8	-1.574029
1	0x386d1adb	5.6530214e-05
2	0x3fd6d54c	1.6783843
3	0x3ed3a5eb	0.41337523
4	0x3f1665d5	0.58749133
5	0xbf4c1cd2	-0.79731476
6	0xbf45ecb3	-0.773143
7	0x3ec63cf4	0.3871838
8	0x407b37d0	3.9252815
9	0xbe6d9dc9	-0.23204722
10	0x3f812d4c	1.0091949
11	0x3ff5e732	1.921118
12	0x3ea37e87	0.3193247
13	0xbfdffe22	-1.749943
14	0x3e8792b5	0.26479116
15	0xbdc13277	-0.094334535
16	0x3f7f8155	0.9980672
17	0x3d8a5613	0.067546986
18	0xbf97d4aa	-1.1861775
19	0x3ee2bebc	0.44286144
20	0xbe8ffc71	-0.28122285
21	0xbf2c8746	-0.6739391
22	0xbe6a59f2	-0.22885874
23	0x3f9d9537	1.2311162
24	0xbea4d48e	-0.32193416
25	0xbfa97740	-1.3239517
26	0x3f82f5fe	1.0231321
27	0x3c876975	0.016529778
28	0x3eff05a0	0.4980898
29	0xbf9b31b9	-1.2124549
30	0xbe8b0ed5	-0.27159753
31	0x3ef9f563	0.48820028
32	0x3eed6653	0.4636713
33	0x3f79fcd4	0.9765141
34	0xbe427ccf	-0.18992923
35	0xbe08f9e5	-0.13376577
36	0xbf08495c	-0.5323694
37	0xbec139a6	-0.37739295
38	0xbe45fd98	-0.1933502
39	0x3e9fa6ff	0.31182095
40	0xbe6a3fa4	-0.2287584
41	0x3eae482f	0.34039447
42	0x3ebbea34	0.3670212
43	0x3e8b5e83	0.27220544
44	0x3f375c79	0.7162548
45	0x3e2463ce	0.16053697
46	0x3f4a04d8	0.7891364
47	0xbf7bb229	-0.98318726
48	0x3d38a1aa	0.04507605
49	0xbf8a8ed7	-1.0824841
50	0x3c2d94c6	0.010594552
51	0x3d8729c4	0.06599763
52	0xbeea5569	-0.45768288
53	0x3fd34189	1.6504375
54	0xbee83572	-0.45353276
55	0x3eaa6ea9	0.33287552
56	0x3db21338	0.08695072
57	0xbce07432	-0.027399156
58	0xbf2f1cee	-0.6840352
59	0xbe8d3e83	-0.27586755
60	0xbe8a0ff0	-0.26965284
61	0x3e12b3f6	0.14326462
62	0xbe7ff018	-0.24993932
63	0x3fd8fb5e	1.6951711
64	0x3f03079e	0.511835
65	0x3cecf7e4	0.028926797
66	0xbfceb4f8	-1.6148977
67	0xbf536f1d	-0.8259142
68	0xbfa8d055	-1.3188578
69	0x3f0f3b98	0.5595031
70	0xbe471442	-0.19441321
71	0xbf6389c4	-0.8888209
72	0x3d47dadb	0.0487927
73	0xbea5e78f	-0.32403228
74	0x3de0e187	0.10980516
75	0x3f51d73a	0.81969035
76	0x3f1e4f9c	0.61840224
77	0x3ec7e6c1	0.3904324
78	0x3f122c32	0.57098687
79	0xbe2e64a2	-0.17030576
80	0xbfb1bb45	-1.3885275
81	0x3f76b038	0.9636264
82	0xbf237f7c	-0.638664
83	0x3f401c3f	0.750431
84	0xbd8ba4ef	-0.06818568
85	0xbf134ecb	-0.57542104
86	0x3febecd8	1.8431654
87	0x3f7b0ce7	0.9806656
88	0x3eee136c	0.46499193
89	0x3e3610c8	0.17779839
90	0x3fe7267f	1.8058623
91	0x3fa379d1	1.277155
92	0xbe443386	-0.1916028
93	0x3f478f81	0.77953345
94	0x3ef1d613	0.47233638
95	0x3efdd48f	0.49576232
96	0x3d89cc63	0.06728437
97	0x3f1243ea	0.5713488
98	0xbe098b0e	-0.13431951
99	0xbf0c58a7	-0.5482277
100	0xbf02bf5d	-0.5107325
101	0xc000148c	-2.001254
102	0x3ee3e727	0.44512293
103	0x3d08b7fa	0.03337858
104	0xbf031ec8	-0.51218843
105	0x40062fb3	2.0966613
106	0xbe3ea958	-0.18619287
107	0x3ec47ce3	0.3837653
108	0xbf273906	-0.65321386
109	0xbda26841	-0.07930041
110	0xbfcc1cd4	-1.5946298
111	0xbfa874c7	-1.3160638
112	0xbf9ce6e0	-1.2257957
113	0xbe681bec	-0.22666901
114	0xbf69d318	-0.9133773
115	0xbee1ef99	-0.4412811
116	0x3f208c24	0.6271384
117	0xbd25e5c6	-0.040502332
118	0xbf0d510c	-0.5520179
119	0x3f0570d1	0.5212527
120	0xbdbf06e8	-0.09327489
121	0xbeb78235	-0.35841528
122	0xbe225449	-0.15852465
123	0xbcf9b468	-0.030481532
124	0x3ccad124	0.02475793
125	0x3faec42a	1.3653615
126	0xbfa7a36c	-1.3096747
127	0xbf95a1ac	-1.1689963
128	0x3dbb94e6	0.091592595
129	0x3f71145a	0.9417168
130	0x3d01f903	0.031731617
131	0xbe14ce74	-0.1453188
132	0x3f0cdfc7	0.5502896
133	0xbf5dd796	-0.86657083
134	0x3e538562	0.2065635
135	0xbe84d144	-0.25940907
136	0xbece8b36	-0.40340585
137	0xbf4de71d	-0.80430776
138	0xbe84ab81	-0.25912097
139	0x3f2deef8	0.6794276
140	0xbda6bfa5	-0.08142022
141	0xbecec0fd	-0.40381613
142	0x3ed1f54b	0.41007456
143	0xbe2829c5	-0.16422184
144	0x3f20d18f	0.6281976
145	0x3e1ff04a	0.15619007
146	0x3ff4176b	1.9069647
147	0x4028c9b4	2.637311
148	0x401dfd32	2.4685788
149	0xbfd13682	-1.634476
150	0x3da42bb3	0.080161475
151	0xbf9890e6	-1.191922
152	0xbf43c68b	-0.7647483
153	0x3ed366f8	0.41289496
154	0xbe511eef	-0.20421956
155	0x3f08092c	0.53138995
156	0x3ecdbb22	0.40181834
157	0x3d4e3aef	0.050349172
158	0xbec8cfd0	-0.39221048
159	0xbf6de576	-0.92928255
160	0xbfec650a	-1.8468335
161	0xbee3ddc8	-0.44505143
162	0xbe67d93c	-0.22641462
163	0xbd749c5c	-0.05971943
164	0x3f300704	0.68760705
165	0xbec5af90	-0.38610506
166	0x3f192ebc	0.59836936
167	0x3e5eaf0b	0.21746461
168	0x3d52d585	0.05147316
169	0xbd4620d0	-0.048371136
170	0x4012175d	2.282676
171	0x3f179e4d	0.5922592
172	0xbe86d1e4	-0.2633201
173	0x3fe0950b	1.7545484
174	0x3f4787ca	0.7794157
175	0xbe6f31c9	-0.23358835
176	0x3e3761b7	0.17908369
177	0xbfb4eb7f	-1.4134368
178	0xbce9c347	-0.028535498
179	0xbe9f22aa	-0.31081134
180	0xbba6a771	-0.0050858785
181	0xbeb5228a	-0.35377914
182	0x3f6ec44c	0.93268275
183	0xbeb6e289	-0.35719708
184	0xbf26144a	-0.6487471
185	0x3f1f5fe4	0.6225569
186	0x3e7d1351	0.247144
187	0xbf1a8b9d	-0.6036928
188	0x401bf877	2.43704
189	0xbce867ea	-0.028369863
190	0xbf00b10a	-0.5027014
191	0xbcdf5b02	-0.027265076
192	0xbeeb113f	-0.45911595
193	0x3f1eff88	0.6210866
194	0xbf1ba002	-0.6079103
195	0xbd26dede	-0.040739886
196	0x4005cb2b	2.0905254
197	0x403abd55	2.917806
198	0x3dfe2513	0.12409415
199	0xbd07e80c	-0.03318028

rcsl.backbone.model.2.weight f4 [200, 200]
0	0x3dcb984f	0.0994116
1	0xbf932a72	-1.1497328
2	0xbe8a0d7b	-0.2696341
3	0x3f69fe0a	0.9140326
4	0x3f5ec286	0.8701557
5	0x3e1a4d71	0.15068604
6	0x3e4739fd	0.19455715
7	0xbb398626	-0.0028308718
8	0xbfa43bd7	-1.2830762
9	0xbd98578f	-0.074385755
10	0x3f0ca88b	0.54944676
11	0xbf75a4af	-0.9595441
12	0xbf945f99	-1.1591674
13	0xbe9fd4f3	-0.31217155
14	0xbe23935c	-0.15974182
15	0x3da8b6f7	0.08238023
16	0xc00a03ce	-2.1564822
17	0xc023e42a	-2.560801
18	0x3f3f153f	0.74641794
19	0xbf8f6281	-1.1201936
20	0xbdfc58d7	-0.12321632
21	0x3ec8b8e9	0.39203575
22	0x3d47d3b2	0.048785873
23	0x3f9e815a	1.2383225
24	0x3c0fc91f	0.008775978
25	0xbe897911	-0.2685018
26	0x3f05cfd9	0.52270275
27	0xbf9675b5	-1.1754671
28	0xbef4a570	-0.4778247
29	0xbe634fe2	-0.22198442
30	0xbfb475f0	-1.4098492
31	0xbf2843c1	-0.65728384
32	0xbf648c5f	-0.8927669
33	0x3e22116c	0.15826958
34	0x3eb15a55	0.3463923
35	0xbd7c87ae	-0.06165283
36	0xbd02cafd	-0.031931866
37	0x3fe165f2	1.7609236
38	0x3d38d9ca	0.045129575
39	0xbf8ff826	-1.1247604
40	0xbf845c8a	-1.0340741
41	0xbfcf05ee	-1.6173685
42	0xc00eb557	-2.229818
43	0xbf271dad	-0.65279657
44	0x3f811433	1.0084289
45	0x3e0c9e5a	0.13732281
46	0xbee7ef81	-0.45299914
47	0xbecc482d	-0.39898816
48	0xbf045782	-0.51696026
49	0xbf9a304e	-1.2045991
50	0xbcc25d17	-0.02372603
51	0x3e217cf9	0.1577033
52	0xbf1cb691	-0.61216074
53	0xbf5c7727	-0.8611931
54	0xbe90cf5e	-0.2828321
55	0xc0544ea2	-3.3172994
56	0xbd37506a	-0.044754423
57	0xbf9ef735	-1.2419192
58	0x3f548056	0.83008325
59	0x3d792b39	0.060832236
60	0xbf38b64c	-0.7215316
61	0xbf666a33	-0.900058
62	0x3c810f26	0.015754294
63	0xc06c47cf	-3.6918828
64	0x3bda471e	0.00666131
65	0x3f0343b1	0.51275164
66	0x3f9de01f	1.2334021
67	0xbf8615c2	-1.047539
68	0x3e2d9804	0.1695252
69	0xbf496c80	-0.7868118
70	0x3f0eb1db	0.55740136
71	0x3fb37c60	1.4022331
72	0xbc136c73	-0.008998024
73	0xbda6be00	-0.081417084
74	0x3fcbc417	1.5919217
75	0x3e99bade	0.3002538
76	0x3e87341e	0.2640695
77	0xbe4140b7	-0.18872343
78	0x3f0f3825	0.55945045
79	0x3ebc2442	0.36746413
80	0x3e83c4ee	0.25736183
81	0xbf8188a9	-1.011983
82	0x3dd01477	0.10160153
83	0x3f3f4270	0.7471075
84	0x3ec86f07	0.39147207
85	0xbe8970c6	-0.26843852
86	0xbf77bbca	-0.9677092
87	0x3e86f7bd	0.26360884
88	0x4037d46a	2.8723397
89	0xbed96d38	-0.4246614
90	0xbcdb950d	-0.026804471
91	0xbf3bd99e	-0.7337893
92	0x3de92107	0.113832526
93	0xbf3d0b37	-0.7384524
94	0xbc8a27c8	-0.016864672
95	0xbf19d8e1	-0.60096556
96	0x4009a2fe	2.1505733
97	0x3fb5d372	1.4205153
98	0xbe56fb79	-0.20994367
99	0x3fae330d	1.360933
100	0xbf813cc2	-1.0096667
101	0xbdad2e82	-0.08456136
102	0xbe74dc1f	-0.23912095
103	0xbe6b5b16	-0.22983965
104	0xbee7073e	-0.45122713
105	0xc0034fe0	-2.0517502
106	0xbca0ffd8	-0.019653246
107	0xbcfa7270	-0.030572146
108	0xbc2ab112	-0.010418193
109	0x3d834217	0.0640909
110	0x3e904499	0.28177336
111	0xbf0300f9	-0.5117336
112	0xbe9bd263	-0.3043395
113	0xbfdf4f61	-1.74461
114	0x3f3eb733	0.7449829
115	0x3efe0efd	0.4962081
116	0x3dc58a58	0.096455276
117	0xbd955870	-0.07292259
118	0xbdb1fc89	-0.086907454
119	0xbf240b51	-0.6407977
120	0x3ea92d96	0.33042592
121	0x3c3e6d18	0.01162269
122	0xbc775482	-0.015095832
123	0xbf1b83b7	-0.60747856
124	0xbe181f5e	-0.14855716
125	0xbfc11c2d	-1.5086724
126	0x3f94472f	1.1584224
127	0xbf3fb914	-0.7489178
128	0x3eda7f79	0.4267538
129	0xbf127cfc	-0.5722196
130	0x3e86ebfc	0.26351917
131	0x3ce4805e	0.027893241
132	0xbe387be8	-0.18016016
133	0xbf4f2715	-0.8091901
134	0xbd16b2e6	-0.036791705
135	0xbd5bed40	-0.053693056
136	0x3e0bc3ba	0.13648883
137	0x3e6f791a	0.2338604
138	0xbf922cc6	-1.1419914
139	0x3ee8974c	0.4542793
140	0xbe6beb47	-0.2303897
141	0x3f07c02e	0.5302762
142	0x3eb73f6f	0.35790583
143	0x3caf50b9	0.021400796
144	0xbf898077	-1.0742329
145	0x3ffa14a9	1.9537555
146	0xc076d3fe	-3.856689
147	0x3ea87b32	0.3290649
148	0xbe760480	-0.24025154
149	0xbe34246d	-0.1759202
150	0xbf8ec8d7	-1.1155041
151	0x3f285d82	0.6576768
152	0xbcc6e051	-0.024276884
153	0x3f0ab3dd	0.541807
154	0x3e821f78	0.25414634
155	0x3e0e21ca	0.13880077
156	0x3dd6cfe8	0.10488874
157	0xbf68471c	-0.90733504
158	0x3f0da215	0.5532544
159	0x3f789ab4	0.9711106
160	0x3e8e51a0	0.2779665
161	0xbfe8b39d	-1.8179814
162	0x4018a2f9	2.384947
163	0xbeac7559	-0.3368328
164	0x3f1e1eb6	0.6176561
165	0x3ef36889	0.47540691
166	0xbefeb99e	-0.4975099
167	0xbf9bf1bc	-1.2183146
168	0xbec81175	-0.3907582
169	0x3d80f0c1	0.0629592
170	0x3d48657b	0.048924904
171	0x3f71fb9f	0.9452457
172	0xbdd9a281	-0.10626698
173	0x3e7f6531	0.24940945
174	0x3f2d35cd	0.6766022
175	0x3d826bfe	0.06368254
176	0xbf0b6617	-0.5445265
177	0x3eccdda8	0.4001286
178	0xbf10f7ad	-0.56627923
179	0xbed9d5e4	-0.42545998
180	0x3f086f3b	0.53294724
181	0xbf856a3d	-1.0423046
182	0xbe4009d0	-0.18753743
183	0xbb742207	-0.0037251727
184	0x3f288fdf	0.6584453
185	0xbea3854c	-0.31937635
186	0xbe762e3c	-0.24041075
187	0x3f90bd25	1.1307722
188	0x3d05a31c	0.032626256
189	0x3d1f506c	0.038895056
190	0x3fe13694	1.7594781
191	0xbda1272f	-0.07868802
192	0xc01e15a3	-2.4700706
193	0xbe814e8c	-0.2525524
194	0x3ce44398	0.027864262
195	0xbd104301	-0.03522015
196	0xbec6df49	-0.38842228
197	0xbf0f8d4a	-0.56074965
198	0x3f967a3a	1.175605
199	0x3e95401d	0.29150477
200	0xbc963c61	-0.018339338
201	0xbad0e318	-0.001593682
202	0xbca9e45f	-0.020738779
203	0xbd9a1a18	-0.07524508
204	0x3d3cd38b	0.04610018
205	0xbcc36400	-0.023851395
206	0xbc2b7c94	-0.010466713
207	0x3d2e117c	0.042497143
208	0x3cdd35e2	0.027003232
209	0xbc92a5d2	-0.017901335
210	0x3bcbd65d	0.0062206225
211	0xbd756c05	-0.05991747
212	0xbd5aa32a	-0.05337826
213	0xbd4fe25a	-0.050752975
214	0x3c2d3867	0.010572529
215	0xbda451c5	-0.08023409
216	0x3bcb9444	0.006212743
217	0xbc19544a	-0.009358475
218	0xbd56d4df	-0.052449103
219	0x3d4ad26e	0.049517088
220	0x3d52c215	0.051454622
221	0xbd828058	-0.06372136
222	0x3d212967	0.039346125
223	0x3d20feb9	0.039305422
224	0x3d87ccd0	0.06630862
225	0xbd78621c	-0.06064044
226	0x3d679674	0.056539968
227	0xbc123ac9	-0.008925148
228	0x3b9aaa4e	0.004720009
229	0xbd3e32b0	-0.046435058
230	0xbd88b44a	-0.066750124
231	0xbcf21fa8	-0.02955611
232	0xbdba2abe	-0.09090184
233	0xbc820b05	-0.015874395
234	0x3c903505	0.017603407
235	0xbd4dcf38	-0.050246447
236	0x3cdf63eb	0.027269324
237	0xbd9a9390	-0.075476766
238	0x3d0bd20c	0.034135863
239	0xbd8e2d20	-0.06942201
240	0xbd577a5e	-0.052606933
241	0x3d1b3816	0.037895285
242	0xbd4d359d	-0.050099958
243	0xbd9bc549	-0.076059885
244	0xbd2780a8	-0.04089418
245	0xbd0ff5b1	-0.03514642
246	0xbd1d18da	-0.03835378
247	0x3d79481b	0.06085978
248	0xbd785ed1	-0.0606373
249	0x3cdc7cc8	0.02691497
250	0xbd4fc59c	-0.050725564
251	0xbcfdf727	-0.03100164
252	0xbd6807e8	-0.056648165
253	0xbdc1ec8c	-0.09468946
254	0xbd1cf4c5	-0.038319368
255	0xbcacda3a	-0.021100152

rcsl.backbone.model.2.bias f4 [200]
0	0xbe8203de	-0.25393575
1	0xbdb87bb0	-0.090079665
2	0xbf00a9ac	-0.502589
3	0xbd337fa0	-0.043822885
4	0x3cdb7d5f	0.02679318
5	0xbca5d404	-0.020242698
6	0xbdca7699	-0.09885902
7	0x3f95a644	1.1691365
8	0x3d04dede	0.032439105
9	0xbd216b3d	-0.03940891
10	0xbf17838b	-0.59185094
11	0xbc825967	-0.015911771
12	0xbd098046	-0.033569597
13	0xbfe66d28	-1.8002062
14	0xbdeccefe	-0.11562918
15	0x3c6b9d89	0.014380821
16	0x3d008484	0.031376377
17	0x3c337ba7	0.010954774
18	0xbee9faf3	-0.45699272
19	0xbee590c8	-0.44837022
20	0xbdc39fe7	-0.09551983
21	0xbdb7c0e8	-0.08972341
22	0xc0076b90	-2.11594
23	0xbd5758b0	-0.052574813
24	0x3cc9d680	0.024638414
25	0xbd3d9747	-0.046286847
26	0xbc3110a0	-0.010807186
27	0xbb9ea2fb	-0.004841206
28	0xbfce02a5	-1.6094557
29	0xbd3d1d13	-0.046170305
30	0xbd9f1b6f	-0.077689044
31	0xbce0ca38	-0.027440175
32	0x3d0bebf5	0.034160573
33	0xc0279d80	-2.618988
34	0xbe9593e8	-0.29214406
35	0xbdacad7d	-0.08431528
36	0x3c7a8f18	0.015292905
37	0x3b79a3f3	0.0038092106
38	0xbdd24633	-0.10267296
39	0x3cfc4787	0.030795826
40	0x3d68c5b6	0.056829177
41	0xbdcc51ec	-0.09976563
42	0xbd992dc4	-0.07479432
43	0xbc78cf24	-0.015186105
44	0x3c2e8ea0	0.010654122
45	0xbea60e2c	-0.32432687
46	0x3d57e1ce	0.05270558
47	0xbcddd882	-0.027080778
48	0xbd31685c	-0.043312415
49	0x3ee9dbff	0.45675656
50	0xbcd6a941	-0.026203753
51	0xbe9e2fdb	-0.30895886
52	0xbdb55231	-0.088535674
53	0x3cdace46	0.026709687
54	0x3f169046	0.58813894
55	0xbc2c60ca	-0.010521123
56	0xbf56a130	-0.838397
57	0xbcbab63c	-0.022791974
58	0x3fa68383	1.3008884
59	0xbfd0b8b0	-1.6306362
60	0xbf2cbc14	-0.67474484
61	0x3de01f61	0.10943485
62	0xbfe31229	-1.7739917
63	0xbfd27469	-1.6441776
64	0xbdfa4df5	-0.122219004
65	0xbf00ea08	-0.50357103
66	0xbd8671b3	-0.06564655
67	0x3fb07d65	1.3788267
68	0xc02af5e0	-2.671257
69	0x401ced9f	2.4520032
70	0xbd94a4f2	-0.07258023
71	0xc0193b8f	-2.3942602
72	0x3c9452fa	0.018105973
73	0x3b4f2932	0.0031610248
74	0x40544545	3.3167279
75	0xbdb57584	-0.08860305
76	0xbdbf16ac	-0.09330496
77	0x3ff068e8	1.8782015
78	0x3ed21b58	0.41036487
79	0x3eb7b1aa	0.35877734
80	0xbeed6e3c	-0.46373165
81	0x3c43af6c	0.011943679
82	0xbdcd6d58	-0.10030621
83	0x3dcb36a7	0.099225335
84	0xbebd5224	-0.3697673
85	0xbf761130	-0.96119976
86	0xbda3a776	-0.07990925
87	0xbd522c27	-0.05131164
88	0x3d6417f6	0.055686913
89	0xbd346904	-0.044045463
90	0xbdf84fca	-0.121245936
91	0xbd93a674	-0.07209483
92	0xbc07f11f	-0.008297234
93	0x3f6ed7bb	0.9329793
94	0xbe68ef58	-0.22747552
95	0xbd5ae79c	-0.053443536
96	0x3d862e37	0.065517835
97	0xbdc2d2e3	-0.0951288
98	0xc00ccafa	-2.1998887
99	0x3f9b6a9c	1.214191
100	0x3f898af1	1.0745527
101	0xbfb92b0d	-1.4466263
102	0x3c9f6297	0.019456191
103	0x402f23d6	2.7365623
104	0xbd5a4090	-0.053284228
105	0xbf8d2dc7	-1.1029595
106	0xbe0f66df	-0.14004086
107	0x3fa32616	1.2745998
108	0x3d1c7273	0.038195085
109	0x3b0e6c78	0.0021732133
110	0x3f36e351	0.7144061
111	0xbd8eb791	-0.06968606
112	0xbd9257f1	-0.0714568
113	0xbfbba4c0	-1.4659653
114	0x3c8ea5c7	0.017413033
115	0xbd85812a	-0.06518777
116	0xbecfeec0	-0.4061184
117	0xbca84e30	-0.020545095
118	0xbc8dab3a	-0.017293561
119	0xbfb5dc77	-1.4207906
120	0x3dc9e95e	0.098589644
121	0xbd95613e	-0.07293938
122	0xbd7575ff	-0.059926983
123	0xbc528d67	-0.012851096
124	0x406ad17e	3.6690364
125	0x3ced0b12	0.028935943
126	0xbf76bfa7	-0.9638619
127	0xbdd24dae	-0.102687225
128	0xbd3c3cc1	-0.045956377
129	0xbcc4dfec	-0.024032556
130	0x3f11d5b1	0.5696669
131	0xbd17dc52	-0.03707535
132	0xbf08bc83	-0.53412646
133	0xbb68a550	-0.0035498925
134	0xbea4daa2	-0.32198054
135	0xbce5b1e7	-0.028038932
136	0xbfedd50b	-1.858064
137	0xbf2a68ac	-0.66565967
138	0xbd3126a3	-0.043249737
139	0xbd92a59f	-0.07160496
140	0xbffa91d2	-1.9575751
141	0xbedcfe80	-0.43162918
142	0xbe466a10	-0.19376397
143	0x3ccba44f	0.024858622
144	0xbc8d3adb	-0.017239979
145	0xbcbce008	-0.023056045
146	0x3ff9a266	1.9502685
147	0x3f6df7aa	0.9295603
148	0xbf0d2c81	-0.5514603
149	0x3fbaae38	1.4584417
150	0xbd90d9c2	-0.07072784
151	0xbfae6b62	-1.3626521
152	0xbf8806ab	-1.0627035
153	0xbf4c8a07	-0.79898113
154	0x3e5953fe	0.21223447
155	0x40430aa3	3.0475242
156	0xbd924ca7	-0.071435265
157	0xbe18f8c4	-0.14938647
158	0x3e7ac04c	0.24487418
159	0xbeab3ad4	-0.3344332
160	0x3dcbb727	0.09947043
161	0xbf9d18b7	-1.2273167
162	0xbfbb99b5	-1.4656283
163	0x3c04eb37	0.00811272
164	0xbda73056	-0.08163516
165	0xbd79448b	-0.060856383
166	0x3d1091dc	0.035295352
167	0x3c874b6e	0.01651546
168	0xbfb5d61c	-1.4205966
169	0xbce92782	-0.028461222
170	0xbd21e14b	-0.039521497
171	0x3c0a1ef6	0.008430233
172	0xbf7bdf09	-0.983872
173	0x3f658d8f	0.89669126
174	0xbeebd050	-0.46057367
175	0x3d13aed1	0.03605539
176	0xbc7a3dd9	-0.015273535
177	0xbd9d76a9	-0.07688648
178	0x3d0628a6	0.03275361
179	0xbef8cf6f	-0.4859576
180	0x3f71b637	0.9441866
181	0xbf65d4d5	-0.8977788
182	0xbe9399d8	-0.2882831
183	0xbfd0c98f	-1.6311511
184	0x401bde25	2.4354336
185	0xbd0b0e3b	-0.033949118
186	0xbea8e033	-0.3298355
187	0xbd38c102	-0.04510594
188	0xbbd3bb76	-0.006461556
189	0x4007c176	2.121183
190	0x3cd263b7	0.025682313
191	0x3ccd4a31	0.025059791
192	0x40038bd9	2.0554106
193	0xbff4dba7	-1.9129533
194	0xbe193056	-0.14959845
195	0x3e5e7c04	0.21726996
196	0xbf7581de	-0.95901287
197	0xbd72ea16	-0.059305273
198	0xbdcb130a	-0.09915741
199	0x40205e21	2.5057452

rcsl.backbone.model.4.weight f4 [200, 200]
0	0xbed2ab2b	-0.41146216
1	0xbd1fbfb3	-0.039001178
2	0x3e53dbd3	0.20689325
3	0x3d02dd4c	0.031949326
4	0xbc71fae8	-0.014769293
5	0x3f441e8a	0.766091
6	0x3d8e5c12	0.06951155
7	0xbdf556f1	-0.119794734
8	0xbd8f7635	-0.07004968
9	0xbc3be4e2	-0.011468144
10	0x3f948474	1.1602921
11	0xbca89194	-0.02057723
12	0xbd7677eb	-0.060172956
13	0xbeaeed9d	-0.3416566
14	0xbf5f374d	-0.8719376
15	0x3cf0f6c2	0.029414538
16	0x3e07b226	0.13251552
17	0xbd31fc0c	-0.04345326
18	0x3c290f54	0.010318596
19	0x3c5644cf	0.013077929
20	0x3d2dfd64	0.04247798
21	0x3d6284d0	0.05530244
22	0xbef09c32	-0.46994168
23	0x3d040824	0.032234326
24	0xbbc965ea	-0.0061461823
25	0x3c4fbdd2	0.012679534
26	0xbd855c78	-0.06511778
27	0xbd01828b	-0.031618636
28	0x3f4d7129	0.80250794
29	0x3b2f5b3e	0.0026757265
30	0x3d82239a	0.06354447
31	0xbcd68354	-0.026185669
32	0x3b4248e7	0.0029645504
33	0xbef7706a	-0.48327953
34	0x3e891f00	0.26781464
35	0xbd05526b	-0.032549303
36	0xbbe9a739	-0.00713053
37	0xbd6f3efe	-0.058409683
38	0x3e4d8644	0.2007075
39	0x3dcbcda5	0.09951333
40	0xbd42a6d3	-0.047522377
41	0xbb939f89	-0.004505102
42	0xbd209e1a	-0.039213277
43	0xbc2bb174	-0.01047932
44	0xbd41b13c	-0.047288164
45	0xbea012d1	-0.31264356
46	0x3e6e1275	0.23249228
47	0x3cbd98f7	0.023144228
48	0xbd47ab00	-0.048747063
49	0xbf126570	-0.5718603
50	0xbb830edb	-0.0039995736
51	0x3dda7687	0.106671385
52	0xbd5d2518	-0.053990453
53	0x3d8a326c	0.067478985
54	0xbde843f9	-0.1134109
55	0xbd5a3227	-0.053270485
56	0xbeab93d4	-0.3351122
57	0xbd8ad072	-0.06778039
58	0xc00a5e81	-2.162018
59	0x3e2942dd	0.16529413
60	0xc03225f6	-2.783567
61	0xbc8005f6	-0.015627842
62	0x3e576d37	0.21037756
63	0xbec9f5b6	-0.39445275
64	0xbcdd6a73	-0.027028298
65	0x3d0f9fc6	0.03506448
66	0x3d2f1ee2	0.04275406
67	0xc023d08f	-2.5596044
68	0xbf7b5e44	-0.9819071
69	0x3e16d9e1	0.14731552
70	0xbd774f86	-0.060378574
71	0xbf8344a8	-1.0255327
72	0xbf62c04e	-0.88574684
73	0x3d28e068	0.041229635
74	0x3ed75336	0.42055672
75	0xbd623576	-0.055226766
76	0x3d661d21	0.056180123
77	0x3e32a71e	0.17446563
78	0x3f41839b	0.7559144
79	0xbebc1c6d	-0.36740437
80	0x3e8cc592	0.27494484
81	0xbd782aa6	-0.060587548
82	0x3c07f8f6	0.008299103
83	0x3f07d073	0.53052443
84	0xc038ce80	-2.8876038
85	0xc0265592	-2.5989728
86	0x3d5e2d15	0.054242212
87	0xbcfcbea4	-0.030852623
88	0xbd1a0097	-0.03759822
89	0x3c9354d0	0.017984778
90	0x3aa81720	0.0012824275
91	0xbd1ff17f	-0.039048668
92	0xbd748d09	-0.059704814
93	0xbdb8fa25	-0.09032086
94	0xbc57562e	-0.013143105
95	0xbf4bfc07	-0.7968144
96	0x3ea98ca6	0.3311512
97	0x3cb14606	0.021639835
98	0xbeb615dc	-0.35563552
99	0xbca12c33	-0.019674396
100	0x3e1596dd	0.14608331
101	0xbdb2fa30	-0.08739126
102	0x3cedeb32	0.029042814
103	0x3dfe6f5a	0.124235824
104	0xbd51d605	-0.051229496
105	0x3ecb9770	0.39763975
106	0xbe4abd61	-0.19798805
107	0xbf349a65	-0.7054809
108	0x3be02e7c	0.006841479
109	0xbd9c097b	-0.07618996
110	0xbf869d8a	-1.0516827
111	0xbd175485	-0.03694584
112	0xbba05dfc	-0.0048940163
113	0xbf0a14cc	-0.53937984
114	0xbc06ce99	-0.008227968
115	0x3d807bc6	0.06273608
116	0x3efbb866	0.49164122
117	0xbd339153	-0.043839764
118	0x3c9bed8f	0.019034175
119	0xbfb4bd59	-1.4120284
120	0x3f0794e8	0.5296159
121	0xbd0e7e6b	-0.03478853
122	0xbd366a65	-0.04453506
123	0xbd87c673	-0.06629648
124	0x3ef2a21e	0.4738931
125	0xbd28a4a7	-0.04117265
126	0x3f07a702	0.5298921
127	0xbd7d1ae7	-0.061793234
128	0xbca2cd9a	-0.01987343
129	0x3bc2fca7	0.0059505287
130	0xc03637e2	-2.8471608
131	0x3d8aa3a2	0.06769492
132	0x3da754c2	0.08170463
133	0xbd170000	-0.036865234
134	0xbf2f141c	-0.6839006
135	0xbd3db013	-0.046310496
136	0xbeca3f12	-0.39501244
137	0xbf45c64e	-0.77255714
138	0x3d852359	0.06500883
139	0xbc85c243	-0.016327983
140	0xbeb8366a	-0.35979015
141	0xbf6c2ad3	-0.92252845
142	0xbe0454f6	-0.12923035
143	0xbbd941b3	-0.0066301464
144	0xbd9c71ea	-0.07638915
145	0xbd51491d	-0.051095117
146	0x3d4335c2	0.04765869
147	0xbf1a29f6	-0.6022028
148	0xbe13ebab	-0.14445369
149	0xbf46a903	-0.7760164
150	0xbca60fcf	-0.02027121
151	0xbecd8211	-0.40138295
152	0xbfa42ce1	-1.2826196
153	0x3d9b589e	0.07585262
154	0xbe28bac6	-0.16477498
155	0x3edeb7a1	0.43499473
156	0xbe83e9ee	-0.25764412
157	0xbd82d189	-0.06387622
158	0xbfca3c08	-1.579957
159	0x3e33f29e	0.1757302
160	0xbe042be8	-0.12907374
161	0xbfd0c0d7	-1.630885
162	0xbe3564f2	-0.17714289
163	0x3d5467bf	0.051856752
164	0xbd2a3cb3	-0.041561794
165	0xbd5647df	-0.052314635
166	0x3cf5bbdd	0.029996807
167	0xbd9e5e4f	-0.07732832
168	0x3e3e052d	0.18556662
169	0xbd1b348b	-0.037891906
170	0xbd087e4d	-0.033323575
171	0xba4f3606	-0.00079044735
172	0xbe914ff8	-0.28381324
173	0x3cb23679	0.02175449
174	0xc000422e	-2.0040393
175	0xc018c3ad	-2.386943
176	0xbd6e8e10	-0.05824095
177	0xbbf2fa12	-0.0074150646
178	0x3d29a5c2	0.041417845
179	0x3f470cd4	0.7775395
180	0x3dacc616	0.084362194
181	0x3e972520	0.29520512
182	0x3ed1bf37	0.40966198
183	0xbeade0b6	-0.33960503
184	0x3d15eaab	0.03660075
185	0x3d48fe2f	0.049070533
186	0xbe963bf2	-0.2934261
187	0x3ce7d37e	0.02829909
188	0x3ee00499	0.43753508
189	0x3e1cf9be	0.15329644
190	0x3d82424e	0.06360303
191	0xbd49f25f	-0.04930341
192	0xbe270f2f	-0.16314386
193	0x3dbd1a2e	0.09233509
194	0xbdd588dd	-0.10426495
195	0xbf691eb3	-0.9106247
196	0x3f379b68	0.71721506
197	0xbca88e54	-0.02057568
198	0xbd384b75	-0.044993836
199	0xbf9c985e	-1.2233999
200	0xbfc1f81e	-1.5153844
201	0x3d8e0e4c	0.06936321
202	0xbee317d6	-0.44354123
203	0x3ce10911	0.027470144
204	0x3c6b1a6b	0.01434956
205	0x3e2a18a4	0.16610962
206	0x3ccac624	0.024752684
207	0xbdcd88ff	-0.100358956
208	0x3d3394ee	0.043843202
209	0x3d0754cd	0.033039857
210	0xbe446f98	-0.19183195
211	0xbd190e44	-0.03736712
212	0x3c6ea04b	0.014564584
213	0xbe56bf1e	-0.20971343
214	0xbd39b6e1	-0.045340423
215	0xbc9423e6	-0.018083524
216	0xbee551da	-0.4478901
217	0xbb9cd87e	-0.00478655
218	0xbe03ce6a	-0.1287171
219	0xbd1011a5	-0.035173077
220	0xbcaaf375	-0.020868042
221	0xbceef865	-0.029171178
222	0xbe9b364b	-0.3031486
223	0xbd902062	-0.070374265
224	0x3da4bb85	0.08043579
225	0x3bfef4cf	0.0077806483
226	0x3d3218b9	0.04348061
227	0xbda5a864	-0.080887586
228	0xbe2e28de	-0.17007777
229	0x3d114e28	0.035474926
230	0x3d38640b	0.045017283
231	0xbd2926f6	-0.04129692
232	0xbc4b84e9	-0.012421825
233	0x3e91c9af	0.28474185
234	0x3ef394b2	0.47574383
235	0xbd103955	-0.035210926
236	0xbd1bd1d5	-0.03804191
237	0x398c1d90	0.00026724907
238	0xbe3d45e6	-0.18483695
239	0x3e6a79da	0.22898045
240	0xbf40475d	-0.7510889
241	0xbcc8e3fa	-0.02452277
242	0xbd5195dd	-0.05116831
243	0x3bcca9f9	0.0062458483
244	0xbc6eee60	-0.0145832
245	0xbce418c3	-0.027843839
246	0x3f4fddf7	0.81198066
247	0xbc3065c1	-0.0107664475
248	0x3db3405f	0.08752512
249	0xbe06e47c	-0.13173097
250	0xbd57f749	-0.052726064
251	0x3f60e21d	0.8784502
252	0x3d0d32f7	0.034472432
253	0x3cb1df75	0.021712998
254	0xbe53796b	-0.20651786
255	0x3c9e800d	0.019348169

rcsl.backbone.model.4.bias f4 [200]
0	0xbd2eb736	-0.042655192
1	0xbeb397d1	-0.35076764
2	0xbdea802c	-0.11450228
3	0x3fbbe512	1.4679282
4	0xbf7abbf0	-0.9794302
5	0xbdc0772d	-0.09397731
6	0xc03ec51c	-2.9807806
7	0x3e6403b5	0.22267039
8	0x3eceab72	0.40365177
9	0x405a1be2	3.4079518
10	0xbc996ac7	-0.018727673
11	0xbd2aa041	-0.041656736
12	0xbecaa890	-0.39581728
13	0xbdd9660a	-0.106151655
14	0xbdd3ba2e	-0.10338245
15	0xbe1c4c8e	-0.15263578
16	0xbfadf401	-1.3590089
17	0xbd682805	-0.05667879
18	0xbed9fc1e	-0.42575163
19	0x3dbd0228	0.09228927
20	0x3f39ea6b	0.7262332
21	0xbd18ca71	-0.03730244
22	0xbdbfb66d	-0.09360967
23	0xbdbaf5b6	-0.09128897
24	0xbea80f75	-0.32824293
25	0x406aedb1	3.6707575
26	0xbf8ada33	-1.0847839
27	0x3f997fe2	1.1992152
28	0x3f29f7aa	0.6639353
29	0xbd83e318	-0.06439799
30	0x3c9e6672	0.01933596
31	0xbf86c0f1	-1.0527631
32	0xbe1c2307	-0.15247737
33	0x3fe52e41	1.790474
34	0x3f0c0a56	0.5470327
35	0xbec35fb0	-0.3815894
36	0xbda2b2e3	-0.07944276
37	0xbf0fffad	-0.56249505
38	0xbe1bf0cd	-0.15228577
39	0xbcf3ae2a	-0.029746134
40	0xbd4dfcea	-0.050290026
41	0xbdd0125d	-0.101597525
42	0x4044d5bd	3.0755455
43	0xbf3bf54e	-0.7342118
44	0x3f496767	0.78673404
45	0x3e03b470	0.128618
46	0xbef37953	-0.475535
47	0xbf72e5e6	-0.9488205
48	0x3e6874ce	0.22700807
49	0x3ee30bb1	0.44344857
50	0xbeaa160f	-0.33219954
51	0x3f66d89f	0.9017429
52	0x3fa455ad	1.2838646
53	0xbf02acab	-0.5104472
54	0xbc7d1d3f	-0.015448867
55	0xbdb3149e	-0.08744167
56	0xc0618600	-3.5238037
57	0x40024f91	2.0361063
58	0xbea4e770	-0.32207823
59	0xbf5e4254	-0.8681996
60	0x3e2c18a7	0.16806279
61	0xbce2e3af	-0.027696459
62	0xbde1d68e	-0.11027251
63	0xbfa3255e	-1.2745779
64	0x3f6fb428	0.9363427
65	0x3e35fc44	0.17772013
66	0xbb5c8687	-0.003364952
67	0xbef15b0f	-0.47139785
68	0x3ee54713	0.44780788
69	0x3d8078eb	0.06273063
70	0x3eb5594a	0.35419685
71	0x3e3373b5	0.17524607
72	0xbda8a24e	-0.08234082
73	0x3e5f3360	0.21796942
74	0xbf249071	-0.642829
75	0x3f80eabb	1.0071634
76	0xbeb55786	-0.35418338
77	0xbb053331	-0.0020324702
78	0xbe069d60	-0.13145971
79	0xbf7d06c5	-0.98838454
80	0xbfe19df1	-1.7626325
81	0xbf0ca5aa	-0.54940283
82	0xbf084633	-0.53232116
83	0x3c8eaecc	0.017417334
84	0x401fff94	2.4999743
85	0x3a8df9d0	0.0010831896
86	0xbf3ebd5c	-0.7450769
87	0xbe209626	-0.15682277
88	0x3c9e95af	0.019358484
89	0xc0971975	-4.7218575
90	0x3f9dacc7	1.2318352
91	0xbb5af35f	-0.003340922
92	0xbf0a0f6a	-0.5392977
93	0xbfa51fdf	-1.2900351
94	0xc0120cf5	-2.2820408
95	0xbce61691	-0.028086932
96	0xbc2db7ec	-0.010602932
97	0x3f00d1bc	0.5032003
98	0xbef5ad38	-0.47983718
99	0xbead5359	-0.33852652
100	0x3e3b839c	0.18311924
101	0xc008045f	-2.1252668
102	0x3ee6202b	0.44946417
103	0x3f34329e	0.70389736
104	0xbdae1726	-0.08500509
105	0x3f613b1b	0.8798081
106	0x3f0748ee	0.52845657
107	0xbeac4946	-0.33649653
108	0x3fc9e32b	1.5772451
109	0x3c8c2407	0.017107023
110	0xbda43db2	-0.0801958
111	0xbdce13d0	-0.10062373
112	0xbf4d6ac9	-0.80241066
113	0x3fc4013a	1.5312874
114	0xbe92469e	-0.28569502
115	0x3ed98bac	0.42489374
116	0xbe04a0f0	-0.12952018
117	0x3eb86ae3	0.36019048
118	0x3e9b4aea	0.30330592
119	0xbd91f896	-0.07127492
120	0x3ff43849	1.9079677
121	0x3f4056c8	0.7513242
122	0xbeef86ea	-0.4678262
123	0xbdabf9c9	-0.08397252
124	0xbd950c49	-0.07277734
125	0xbe1d874f	-0.15383647
126	0x3e70b3aa	0.23506036
127	0x3d7917ca	0.060813703
128	0xc073deda	-3.8104768
129	0x3fa5d163	1.2954525
130	0x3fe29ccc	1.7704101
131	0xbddb9033	-0.10720863
132	0x3a940ffb	0.0011296266
133	0x3ef48b26	0.47762412
134	0xbd2f1324	-0.042742863
135	0xbfafdc67	-1.3739136
136	0xbd833edf	-0.06408476
137	0x3baf6a0c	0.005353218
138	0x3f6afb10	0.9178934
139	0xbdfd0f0c	-0.123563856
140	0xbf041e88	-0.51609087
141	0xbfb0a7b6	-1.3801181
142	0xbfa9d517	-1.3268155
143	0x3f464064	0.77442
144	0xbfc15514	-1.5104089
145	0xbd6898c0	-0.0567863
146	0x3f9fd63b	1.2487253
147	0xbefd8fe7	-0.4952385
148	0xbfb9c02b	-1.451177
149	0xbdbd5d70	-0.092463374
150	0xbfcb98b6	-1.5905979
151	0xbdb2f722	-0.08738543
152	0xbe189945	-0.14902218
153	0x3d7f443a	0.062320925
154	0xbf7e9fea	-0.9946276
155	0xbd22817f	-0.03967428
156	0xbfcfd74a	-1.6237576
157	0x3f320bc6	0.69549215
158	0x3d9e2fe9	0.07723982
159	0xbe61dcea	-0.22056928
160	0xbd5348e5	-0.05158319
161	0x3fdd6d18	1.7298918
162	0xbcd21ac1	-0.025647523
163	0x3cb959b1	0.022625776
164	0x3f4fe492	0.81208146
165	0x3cc95ce7	0.024580432
166	0xbf465d38	-0.7748599
167	0x3f8a6be4	1.0814176
168	0x3f78d5a3	0.97200984
169	0x40189251	2.3839304
170	0xbfa4cfce	-1.2875917
171	0xbba85759	-0.005137366
172	0x3f29cefa	0.66331446
173	0x3fba82e0	1.457119
174	0xbee693f5	-0.45034757
175	0x3c8e9165	0.017403314
176	0xbe74590c	-0.23862094
177	0x3da6f434	0.08152047
178	0x3f70740e	0.93927085
179	0xc029c6ea	-2.6527658
180	0xbdd98a45	-0.10622076
181	0xbdf27439	-0.11838574
182	0xbd89b65b	-0.06724235
183	0x3d6e1c0d	0.05813222
184	0x3e1377b7	0.14401136
185	0x3d87af79	0.06625266
186	0x3c5b12f1	0.013371215
187	0xbd9bbe8e	-0.07604705
188	0xb9877708	-0.00025837892
189	0xbd9175ba	-0.07102533
190	0xbdb526ab	-0.08845266
191	0xbf572622	-0.8404256
192	0x3fa4fdbc	1.2889934
193	0x3ef19ebd	0.4719142
194	0x3eeda03e	0.46411318
195	0xbda07ff6	-0.078369066
196	0xbf9b11e7	-1.2114838
197	0xbd641531	-0.055684272
198	0xbd6e7d87	-0.05822518
199	0xbe9f807a	-0.31152707

rcsl.backbone.model.6.weight f4 [200, 200]
0	0xbf068743	-0.52550143
1	0x3cf09d88	0.029371992
2	0x3d272a89	0.04081205
3	0x3e334ac0	0.17508984
4	0x3f01010c	0.5039222
5	0x3dce9c89	0.100884505
6	0xbec1693a	-0.37775594
7	0x3e4a7c01	0.19773866
8	0x3e38cdf2	0.18047312
9	0x3e75c90c	0.24002475
10	0x3d3ad6ba	0.045614935
11	0x3c2121be	0.009834705
12	0x3caf493e	0.02139723
13	0x3d133846	0.03594234
14	0x3d218b4c	0.039439484
15	0xbd31ca75	-0.04340597
16	0xc03e5b89	-2.9743369
17	0xbe217115	-0.15765794
18	0xbf1194c0	-0.568676
19	0x3e20144c	0.15632743
20	0x3e3fd326	0.1873289
21	0x3c3bc221	0.011459858
22	0x3d1ba8b2	0.038002677
23	0x3f0c83d3	0.5488865
24	0xbcc20ac1	-0.023686768
25	0x3c3a3ebe	0.011367498
26	0xc02d6f80	-2.7099304
27	0xbf551f5e	-0.8325099
28	0xbeae840f	-0.34085128
29	0xbd29f1be	-0.04149031
30	0xbd088390	-0.033328593
31	0x3de41a0b	0.1113778
32	0xbec9d601	-0.39421085
33	0xbc8978a5	-0.01678116
34	0x3e9b17cb	0.3029159
35	0xbecd39a9	-0.40083054
36	0xbe5a4ab7	-0.21317564
37	0xc0024588	-2.0354939
38	0x3cf3ae30	0.029746145
39	0x3c9a7c58	0.01885812
40	0x3db80ac0	0.089864254
41	0xbb40878d	-0.002937767
42	0x3cc25e02	0.023726467
43	0xc05b1b9f	-3.4235609
44	0xbe773285	-0.24140365
45	0xbda89cb0	-0.08233011
46	0xbdc4ac6e	-0.09603201
47	0xbd468dac	-0.048474953
48	0x3ecf9a79	0.4054754
49	0xbe6b2961	-0.22965004
50	0xc00b4ed4	-2.1766863
51	0xbe43be3f	-0.19115542
52	0x3c95e2e1	0.01829666
53	0x3ef4d23c	0.47816646
54	0xbc9ac7d4	-0.018894114
55	0xbc03260e	-0.008004678
56	0x3e780a19	0.24222602
57	0x3e2d713e	0.1693773
58	0xbf16e92f	-0.5894956
59	0xbdcfc27b	-0.10144516
60	0xbf0dfc06	-0.5546268
61	0xbd3437bd	-0.04399847
62	0x3c3616c9	0.011113831
63	0xbea48341	-0.3213139
64	0x3ee976a0	0.45598316
65	0xc01464c9	-2.3186514
66	0xbd81ccd9	-0.063379
67	0x3d205dc2	0.039151914
68	0xbe00b584	-0.12569243
69	0xbe1ae775	-0.15127356
70	0xbd75c871	-0.06000561
71	0x3f6514c5	0.89484817
72	0x3d07041f	0.032962915
73	0xbe8984b3	-0.26859054
74	0xbdce04d4	-0.10059515
75	0x3e26e51a	0.16298333
76	0xbdee26d8	-0.116285026
77	0x3cb23e58	0.021758243
78	0x3ba49ae5	0.0050233477
79	0xbec124c9	-0.37723377
80	0x3e04fe75	0.12987693
81	0xbfd54e12	-1.666445
82	0xc01f4612	-2.4886518
83	0xbcb4324f	-0.021996645
84	0x3f04f888	0.5194173
85	0xbd2a388d	-0.041557837
86	0xbaf8f5ae	-0.0018994117
87	0x3c73f678	0.014890306
88	0xbe91c861	-0.2847319
89	0xbea8ee4d	-0.3299431
90	0xbdcc94ce	-0.0998932
91	0xbd8e16f6	-0.06937973
92	0xbe091773	-0.13387851
93	0xbe0510db	-0.12994711
94	0xbf1209c8	-0.57046175
95	0x3d8fb10a	0.070161894
96	0x3cbfc5d3	0.02340976
97	0xbe2ea35c	-0.17054504
98	0xbf84b0a8	-1.0366411
99	0xbee95666	-0.4557373
100	0xbde3e23f	-0.111271374
101	0xbfc54252	-1.5410864
102	0xbda64b32	-0.08119811
103	0xbe4ae24a	-0.19812885
104	0xbd68c4ac	-0.056828186
105	0x3dea5efc	0.11443898
106	0xbf2c9b44	-0.67424417
107	0x3f19765c	0.5994623
108	0x3eb55d46	0.35422724
109	0x3c926def	0.017874686
110	0x3c245b94	0.0100316
111	0x3d76b70f	0.060233172
112	0x3e2ec51e	0.17067382
113	0x3e7689ad	0.24075957
114	0x3e547ef9	0.20751561
115	0x3e097a26	0.13425502
116	0xbe9ac657	-0.30229446
117	0xbd32b93b	-0.04363368
118	0xbe194618	-0.14968145
119	0x3d1977ae	0.03746765
120	0xbed043c6	-0.40676707
121	0xbd42d79d	-0.047568906
122	0x3e381f35	0.17980655
123	0x3d6f9d46	0.058499597
124	0x3dba0e0c	0.090847105
125	0x3e7174e5	0.23579748
126	0x3e08a474	0.13343984
127	0xbd704528	-0.058659703
128	0x3d5bfafd	0.053706158
129	0xbf10fec4	-0.5663874
130	0xbfabf15b	-1.3433031
131	0xc006bea4	-2.1053858
132	0xbca4165c	-0.020030193
133	0xbee88c5c	-0.45419586
134	0x3e05258d	0.13002606
135	0xbe167104	-0.1469155
136	0xbd039bdd	-0.032131065
137	0x3dce4c6d	0.10073171
138	0x3d800a45	0.06251959
139	0xbc974d2c	-0.018469416
140	0xbd660b66	-0.056163214
141	0x3d03d675	0.032186944
142	0x3b96a1f6	0.004596944
143	0x3c18d4bf	0.009328066
144	0x3d0234ef	0.031788763
145	0x3f1eb44b	0.61993855
146	0xbe767818	-0.2406925
147	0xbe42558e	-0.18977949
148	0x3e8c16ba	0.2736109
149	0xbd0e7545	-0.034779806
150	0xbdfde136	-0.12396471
151	0x3cd667ed	0.026172603
152	0xbde78995	-0.113055386
153	0xbf3af7a4	-0.7303412
154	0xbbb075e6	-0.0053851483
155	0x3be48d44	0.006974848
156	0xbdd09407	-0.10184484
157	0xbdaeb3cf	-0.085303895
158	0xbe85c84f	-0.26129386
159	0xbdd6bab3	-0.10484829
160	0x3ab6192b	0.0013892999
161	0xbd66f8f5	-0.056389768
162	0x3d7ab555	0.061208088
163	0x3e21dbba	0.15806475
164	0x3d9ed81d	0.07756064
165	0x3d1ab289	0.03776792
166	0xbea32cab	-0.31870016
167	0xbdff734c	-0.12473163
168	0xbe43d074	-0.19122487
169	0xbe2616d9	-0.16219653
170	0xbebb26a2	-0.36552912
171	0xbd5d0053	-0.053955387
172	0xbcd6952c	-0.026194178
173	0xbe8fdb10	-0.2809682
174	0x3f40ff55	0.75389606
175	0xbd1b4e91	-0.037916724
176	0x3e29081f	0.16507004
177	0x3f337e0c	0.7011421
178	0xbe5d0998	-0.21585691
179	0xbe883019	-0.26599196
180	0xbdba2d37	-0.09090655
181	0x3d85c914	0.06532493
182	0xbce3db63	-0.027814573
183	0xbeb067ff	-0.34454343
184	0x3d5d5d3d	0.054043997
185	0xbd6b650b	-0.05746941
186	0x3c7c7b63	0.015410277
187	0xbc28c4dc	-0.010300841
188	0x3d73d2ac	0.059527084
189	0xbc5ac35e	-0.013352243
190	0xbcf7b3db	-0.030237129
191	0x3d3c141f	0.045917626
192	0x3db693a7	0.08914881
193	0x3e82620b	0.25465426
194	0x3ddf33b8	0.108985364
195	0x3e026161	0.1273246
196	0x3e8e2acf	0.27767035
197	0x3d42db4b	0.047572415
198	0x3d968d85	0.073512115
199	0x3ea3ec72	0.3201633
200	0xbe1d935c	-0.15388244
201	0xbe01dd0e	-0.12681982
202	0xbee1f573	-0.44132575
203	0xbecbe9a1	-0.39826682
204	0xbea1d718	-0.31609416
205	0x3d1e5dd8	0.038663715
206	0xbe2744f9	-0.16334905
207	0xbf8a6650	-1.0812473
208	0x3e99c2a3	0.3003131
209	0xbe49e13b	-0.19714825
210	0x3cbb4316	0.022859138
211	0xbc41806c	-0.011810403
212	0xbf2d60c6	-0.6772579
213	0xbdaa42c9	-0.083135195
214	0x3cc0a834	0.023517706
215	0xbcdc7d9e	-0.026915368
216	0xbf80c1fe	-1.0059202
217	0xbf000f9b	-0.5002381
218	0x3e0ecbcb	0.13944928
219	0x3eb7e58b	0.35917315
220	0xbf902663	-1.1261715
221	0xbd456458	-0.0481914
222	0x3d8aeed6	0.067838356
223	0x3d84832d	0.06470332
224	0xbf200650	-0.6250963
225	0xbf39701b	-0.72436684
226	0x3e0b3761	0.13595344
227	0x3e3d25ba	0.18471423
228	0x3cbb44f9	0.022860037
229	0x3d8b2ae4	0.0679529
230	0x3d85e78b	0.06538304
231	0xbe313dec	-0.17308778
232	0x3d8d5650	0.069012284
233	0xbbaf3296	-0.0053466065
234	0x3efd72f9	0.4950178
235	0xbcc5d447	-0.024149073
236	0x3ef8240b	0.48465
237	0xbcaabffa	-0.020843495
238	0xbd200ecd	-0.039076615
239	0xbc9fca66	-0.01950569
240	0x3e065392	0.13117817
241	0x3cf9def3	0.030501818
242	0xbd9c523a	-0.07632871
243	0xbf23e8b9	-0.6402698
244	0x3f1196de	0.5687083
245	0xbfb2a901	-1.3957826
246	0xbdaaff98	-0.08349532
247	0xbe15eef6	-0.14641938
248	0xbea5c743	-0.32378587
249	0xbf0671dc	-0.52517486
250	0xbfcefb3f	-1.6170424
251	0xbed65e89	-0.41869
252	0xbeb2405a	-0.3481472
253	0xbef0d576	-0.47037858
254	0x3d464c8f	0.048412856
255	0xbd3ee339	-0.046603415

rcsl.backbone.model.6.bias f4 [200]
0	0x3e9908d1	0.2988954
1	0xbf946517	-1.159335
2	0x3fd46189	1.6592265
3	0x3f150dda	0.5822426
4	0x3f929b94	1.1453729
5	0x3f190d14	0.5978558
6	0xbfcaa611	-1.583193
7	0x3fe8bb26	1.8182113
8	0x3ed706c4	0.4199735
9	0x3ef46d28	0.4773953
10	0xbf0305e2	-0.5118085
11	0x3f85dac9	1.0457393
12	0xbf86069f	-1.0470771
13	0xbd6b2dc6	-0.0574167
14	0xbd46e33f	-0.048556563
15	0xbe685b10	-0.22690988
16	0x3fa7ddbe	1.3114545
17	0xbf06b4ba	-0.52619517
18	0x3f41413b	0.7549016
19	0x3f3e6a93	0.7438137
20	0x3f235ce6	0.63813627
21	0xbf8b880b	-1.0900892
22	0x402769f4	2.6158419
23	0x3f576a5d	0.8414667
24	0xc0071fce	-2.1113162
25	0xbff53c86	-1.9159095
26	0xc03cea2e	-2.9517932
27	0xc016fb51	-2.3590891
28	0xbed49b3f	-0.41524693
29	0xbe5a6650	-0.21328092
30	0x3e43a327	0.19105206
31	0xbf46a405	-0.77594024
32	0xbe1d3a5f	-0.15354298
33	0xbdbcc2cd	-0.09216843
34	0x3fd476d8	1.6598768
35	0xbe5fb500	-0.2184639
36	0x3f1bee83	0.60910815
37	0xbdf25719	-0.11833019
38	0x3e1c173d	0.1524324
39	0x3ea3c3e2	0.31985384
40	0xbe092fa1	-0.13397075
41	0xbe59b42f	-0.21260141
42	0xbd8d84c9	-0.069100924
43	0x3dcccce2	0.10000016
44	0xbe5a4e9e	-0.21319053
45	0xc00efe76	-2.234281
46	0x3f3ea548	0.7447095
47	0x4008229b	2.1271122
48	0x3f2f7f1a	0.68553317
49	0x3f174702	0.59092724
50	0x3f9c6d3c	1.2220836
51	0xbfffd08c	-1.9985518
52	0x3f9f0be8	1.2425508
53	0x3d409527	0.047017243
54	0x406d270f	3.705509
55	0xbc37a28c	-0.011208188
56	0xbe10923b	-0.14118282
57	0xbf5c5aaa	-0.8607584
58	0xbe1a25aa	-0.1505343
59	0x400e5358	2.223837
60	0xbedda075	-0.43286481
61	0xbfba5904	-1.4558415
62	0xbfac825f	-1.3477286
63	0xbfc993a6	-1.5748184
64	0xbe5a66e5	-0.21328314
65	0x3feda977	1.8567342
66	0xbe46a5ad	-0.19399138
67	0xbcb9c6ef	-0.022677867
68	0xbc29dcf3	-0.01036762
69	0xc03d9c73	-2.962674
70	0x3eed82ab	0.46388754
71	0xbf96b967	-1.177533
72	0x3fe43769	1.782941
73	0xbcfb3afe	-0.030667778
74	0xbe281daf	-0.16417573
75	0x3f13efdc	0.5778787
76	0x3fb35081	1.4008943
77	0x3e6af96a	0.22946706
78	0x3f07f10c	0.53102183
79	0xbce467bb	-0.027881494
80	0xbf0d919f	-0.55300325
81	0xbf666c25	-0.90008765
82	0xbf9a6096	-1.2060726
83	0x3bd91c6c	0.0066257026
84	0x3f955aa6	1.1668289
85	0xbf3ea7cf	-0.74474806
86	0xbe0f935b	-0.14021055
87	0x3e90856b	0.2822679
88	0xbe1eed2f	-0.15520166
89	0x3ffc3211	1.9702779
90	0xbd5cffb5	-0.0539548
91	0x3e958eda	0.2921055
92	0xbe0a873a	-0.13528147
93	0x3f303caf	0.68842596
94	0xc04a8602	-3.1644292
95	0x3f03c072	0.51465523
96	0x3ff337f0	1.9001446
97	0x3fff189c	1.9929385
98	0x3ede6e7e	0.43443674
99	0xbdb0ee18	-0.08639163
100	0xbeed5f92	-0.46361977
101	0xbf056f8e	-0.52123344
102	0xbf3d7914	-0.74012876
103	0x3d31aeb6	0.043379508
104	0xbe18aad3	-0.14908914
105	0x3eb1f500	0.34757233
106	0x3f81d77e	1.0143888
107	0xbed983e3	-0.42483434
108	0x3dbdec50	0.09273589
109	0x3e125c16	0.1429294
110	0x3f18aaf1	0.59635836
111	0xbf49c729	-0.7881952
112	0xbef63d1b	-0.48093495
113	0x3eefecf7	0.46860477
114	0xbdfb3ad9	-0.12267084
115	0x3f27aefe	0.6550139
116	0xc0246d3a	-2.5691667
117	0xbf49938c	-0.78740764
118	0xbd8ce8fb	-0.06880375
119	0xbe1b4ce3	-0.15166049
120	0xbf12c638	-0.5733371
121	0xbf5557eb	-0.8333728
122	0xbe2b7237	-0.16742788
123	0xbdbdde45	-0.0927091
124	0x3f8ce5ab	1.1007589
125	0xbf8108f4	-1.0080857
126	0xbda4779b	-0.080306254
127	0xbf4ea7c0	-0.80724716
128	0x3f2a52ea	0.66532767
129	0x3f6db414	0.928529
130	0x3f5dbecf	0.86619276
131	0xbfe3b2ce	-1.7788942
132	0x3e280402	0.16407779
133	0xbba93097	-0.005163263
134	0xbf8ed647	-1.1159142
135	0x3f2afe25	0.66794044
136	0x3fa71594	1.305346
137	0x3f3fdccc	0.74946284
138	0x3f6f914e	0.9358109
139	0xbe7e4e8a	-0.24834648
140	0x3ee57745	0.44817558
141	0xbde41809	-0.11137397
142	0x3ff2e7a4	1.8976941
143	0xbce53d1c	-0.02798324
144	0x3ff6c1fa	1.9277947
145	0xbf2199df	-0.63125414
146	0xbdd75331	-0.105139144
147	0x3e4d83f7	0.20069872
148	0xbf40da28	-0.7533288
149	0x400468a4	2.0688868
150	0x3e4d20dc	0.20032066
151	0xbd810254	-0.06299272
152	0xbf61b5c4	-0.8816798
153	0xbf8b77ba	-1.0895913
154	0xbe5777b9	-0.21041764
155	0xbf3dfe60	-0.7421627
156	0x3f8fa056	1.1220806
157	0xbe14f7e6	-0.14547691
158	0xbea487c2	-0.32134825
159	0xbfa814aa	-1.3131306
160	0x3d235e5b	0.039884906
161	0x3ed98fd1	0.42492536
162	0x3ececb1f	0.40389344
163	0x3f5e29b7	0.867824
164	0xbe1e6ffb	-0.15472405
165	0xc05fcb01	-3.4967654
166	0x3ebb83e4	0.36624062
167	0x3f3e7469	0.7439638
168	0x3de1125c	0.1098983
169	0x3fd08352	1.6290076
170	0xbf1006da	-0.56260455
171	0x3fa3fa6b	1.2810796
172	0x3fe189aa	1.7620137
173	0xbd277db3	-0.04089136
174	0xbd58e0a1	-0.052948598
175	0x3f06066c	0.5235355
176	0xbda4ba22	-0.080433145
177	0x3f96bf5f	1.1777152
178	0xbe24243b	-0.16029446
179	0x3ecfba81	0.4057198
180	0xbe4e3482	-0.20137218
181	0x403881b9	2.8829176
182	0x3e1dedc9	0.15422739
183	0x3e6333b2	0.22187689
184	0x3fdc3254	1.7202859
185	0x3e1d6e33	0.15374069
186	0x3fce59c3	1.6121143
187	0x3eb15467	0.34634706
188	0xbdbfef1c	-0.09371778
189	0x3fa34b86	1.2757423
190	0xbeb7bc5b	-0.3588589
191	0xbec20b57	-0.37899277
192	0x3ebd8a8f	0.37019774
193	0x3fb45b87	1.4090432
194	0xbd4e297b	-0.050332528
195	0xbf2d343b	-0.6765782
196	0xc02fde6d	-2.7479508
197	0xbdeb8f57	-0.11501949
198	0xbd10e9ae	-0.035379104
199	0xbec38804	-0.3818971
