backup/linearq_newenv/rcsl_0.75expert/timestamp_23-0926-150955&160-[16]/checkpoint/policy.pth (torch, 1945 bytes, 3 tensors)

rcsl.backbone.model.0.weight f4 [16, 2]
0.0013009458 0.38016352 -0.58198076 -0.5203875 -0.21777953 0.119402185 0.03545748 0.5551749
-0.07029822 0.18073028 -0.21369691 -0.13899271 -0.6755334 -0.46830416 -0.2515393 0.13086525
0.29684305 0.41321626 -0.47937673 -0.30791873 0.23402956 0.58958036 -0.20118032 0.5091663
-0.24836707 0.11900637 0.6690894 -0.357973 -0.44515052 -0.17901486 -0.24312972 0.6131235
00000000: 7f84 aa3a cba4 c23e b1fc 14bf 1d38 05bf
00000010: 9901 5fbe 2289 f43d dd3b 113d f11f 0e3f
00000020: 83f8 8fbd 5c11 393e 5dd3 5abe 1b54 0ebe
00000030: c2ef 2cbf 90c5 efbe c2c9 80be 8a01 063e
00000040: d0fb 973e 1591 d33e de70 f5be 86a7 9dbe
00000050: 72a5 6f3e bdee 163f 3702 4ebe b958 023f
00000060: f053 7ebe 9db9 f33d 7149 2b3f 3d48 b7be
00000070: c5ea e3be ac4f 37be fff6 78be a9f5 1c3f

rcsl.backbone.model.0.bias f4 [16]
-0.69478655 -0.32550448 -0.8199086 -0.4217776 -0.6675917 0.6078276 0.31552404 0.7996196
0.2731633 -0.36252198 -0.110890724 -0.45655528 -0.42543364 0.5212413 0.4461405 0.18911244
00000000: 88dd 31bf 86a8 a6be 88e5 51bf 3cf3 d7be
00000010: 4ae7 2abf 979a 1b3f 5e8c a13e dfb3 4c3f
00000020: 0fdc 8b3e 7b9c b9be ad1a e3bd 9dc1 e9be
00000030: 70d2 d9be 1270 053f 876c e43e b1a6 413e

rcsl.backbone.model.2.weight f4 [1, 16]
-0.11337439 -0.009020597 0.063296944 0.24334683 0.10011945 0.033773214 0.16762158 -0.3453595
0.04927918 -0.19382638 -0.17171961 -0.12439487 0.22552764 0.027431723 -0.14808813 0.07337756
00000000: d530 e8bd 20cb 13bc d4a1 813d e92f 793e
00000010: 6d0b cd3d c855 0a3d fea4 2b3e f6d2 b0be
00000020: f7d8 493d 6c7a 46be 44d7 2fbe bdc2 febd
00000030: b8f0 663e 7eb8 e03c 6aa4 17be f946 963d
