backup/hopper-medium-expert-v2/rcsl/timestamp_23-0830-214008&0/model/policy.pth (torch, 498555 bytes, 10 tensors)

rcsl.backbone.model.0.weight f4 [200, 12]
00000000: c1c8 54c0 85bd 1c42 6fb7 5dbf 6239 ff40
00000010: 63cc 02c1 9421 1440 eb3a cdbf 86f2 9d3f
00000020: c500 2640 0c6b 0440 dee8 62be 7365 7cbc
00000030: 0b5b 02c0 4447 1740 6d54 743e d0a4 8940
00000040: e819 1bc1 9bb5 4dbf 69a3 a1bf 9527 b63f
00000050: d3a7 b2bf 2764 ef3f 8645 29bf 83ff 49bd
00000060: c65c a4bd a39c a43d 0339 973e 0277 67be
00000070: 44e4 19be 021f cebd 78f9 a8bd c5eb 803e
00000080: d0c1 5cbe c793 67bd 3d68 d0bd 362e 99be
00000090: ea30 b23f 2a8a 2740 06ab 0d40 48de b0bf
000000a0: 99c9 27c0 a0fe 24c0 2981 57bf 4107 06c0
000000b0: edf1 a43e ed4a 9b3e 273c f23f 2003 d8bd
000000c0: 7bee 85be cdc5 883d 4bac ba3e be3e 113f
000000d0: 49df 8e3e 35fc f6bd 8d8a a13e 5e62 a73d
000000e0: 5200 8abc 3d83 b0bd 8499 7abd af45 6cbe
000000f0: 7e99 8ec0 39f4 a740 ae45 9ec0 aab9 84c0
00000100: 8756 abbf 66da 2b3f 6c0a 613f ba7f c13e
00000110: e7c0 933e 4f0f 783f 96ca 9b3c b556 7bbd
00000120: 9884 a33c 529f 8b3e 27c6 de3e bf78 b53e
00000130: ee83 353e c4d5 c6be cb3d b83d 3113 60be
00000140: 715d 79bd e911 2e3e b81c 1d3e 93c2 aebe
00000150: 350a 25bd d717 f6bb caf3 043d b812 ebbc
00000160: 7eb7 5d3e 9af3 80be f8c0 893d 3c13 453e
00000170: e04d 023e 08b0 233e c31e 46be 82d8 8cbe
00000180: 486a c93d 3f6c d1bd f347 de3f d780 02c0
00000190: ef68 a33f 02cd 2e3f 9367 a23f db98 b8be
000001a0: d321 bbbf c214 1b40 b957 c2bf aabb 09bf
000001b0: 1377 3fc0 0d3f fd3f 6f3a cb3f 5909 6cc0
000001c0: f483 b6c0 d9bd 47bf 3d9e f43f 69ed 71bf
000001d0: 8603 1ec0 ceee 85bf 273f ac3f 575e 71bd
000001e0: 2c02 153e a717 8abf b198 eabe 4c0c af3f
000001f0: d2f9 7bbf 6a50 79be 3068 3b40 0f00 b7c0
00000200: 4bea e4bf cd23 143f 6273 78be 8055 79bf
00000210: 8ac2 4a41 b5ac a4c0 c91e cf41 98ba e2c0
00000220: c98a 83c0 37c0 c8c0 d1fd 4bc0 2304 aac1
00000230: bb26 a041 479f 2841 f36a 983f c02b df36
00000240: 8919 93be fcc3 20be 9499 663e 7e17 cc3c
00000250: 50a8 2fbe 9849 80be 168a 76be bb7a 8bbe
00000260: 2281 f2bc 5240 043e ad83 013e 579c 9dbe
00000270: b342 55c1 c679 cec1 bd8b e4c0 b607 0042
00000280: 54f3 43c0 eb3d cfc0 6e75 35c1 d236 65bd
00000290: 3e6c 8340 d038 af3f 19db d7bf 362f 04bd
000002a0: e11a 0abf 8601 afbe ca38 053f 1524 3e3d
000002b0: cff3 e33e c700 69bd dca3 74be fee8 583e
000002c0: a817 4a3d 50c3 6d3d d216 a73d 113f 94be
000002d0: de8d 24bf edbe 63c1 ee08 1040 74b4 ee3e
000002e0: 3113 23be e895 23c0 cb0a 62bf 9633 4c3f
000002f0: 67f3 39c0 0fcc a63e 685b 9e3f e32e f2be
00000300: a818 a7be 91b1 1d3d 4a9c c8bd 22e5 97bd
00000310: 4036 01be 729c 293a c306 e9bd 8216 e8bd
00000320: f7c2 ea3c 76d2 943e ae18 2cbe 3e7e aabe
00000330: 0fba 17c0 1f7e d940 e734 843f 2e4e c0c0
00000340: 4dc4 fdbf 20f5 f43e c11c 0f40 db75 0c40
00000350: bee3 14c0 7e4e c8bf b03b ef3b 6bce 1abe
00000360: 538b 02c1 3e42 4b41 63b1 56c0 13cb aac0
00000370: 67d0 d1bf a986 573f c6b3 883e 0bcc 5fbf
00000380: 587e 11bf 5bc7 573f a0bb a1bf ae68 48bd
00000390: 48a0 62bf 4849 fbbb c7d4 3d3e d059 0a40
000003a0: 604b 823f 6098 d6bd bf00 193f f015 f0bd
000003b0: 6893 3ebe cb8a 8cbd 83fb 24be c47c 00be
000003c0: cd83 49c0 3b21 1941 bea8 27c0 753c b6bf
000003d0: 8c70 1240 b8b9 ecbf 7d8c 9fbe 6e76 69c0
000003e0: 8083 81be cc3d 7c40 2382 ecbf 81f1 47be
000003f0: fc8b d5be 8afa 783f 2da2 693f faa7 68c0
-3.324753 39.185078 -0.8660802 7.9757547 -8.174899 2.3145494 -1.6033605 1.2339637
2.593797 2.0690336 -0.22159144 -0.015405047 -2.0368068 2.3637247 0.23860331 4.3013687
-9.693825 -0.8035523 -1.2627994 1.423083 -1.3957466 1.8702439 -0.6612171 -0.04931594
-0.08025508 0.080376886 0.29535684 -0.22603992 -0.15028483 -0.10064508 -0.082507074 0.25179878
-0.21558309 -0.056537416 -0.10176132 -0.2991807 1.3921177 2.6178079 2.2135634 -1.3817835
-2.6216795 -2.578041 -0.8418146 -2.0941927 0.32215825 0.303306 1.8924607 -0.10547471
-0.2615851 0.066783525 0.36459574 0.5673636 0.27904728 -0.120598234 0.31551018 0.08173059
-0.016845856 -0.08618782 -0.06118156 -0.23073457 -4.456237 5.2485623 -4.946006 -4.147664
-1.3385781 0.67130125 0.8790653 0.3779276 0.2885811 0.9689836 0.019017499 -0.061361987
0.019960687 0.2726999 0.43510553 0.35443684 0.17726108 -0.38834965 0.08996161 -0.21882321
-0.06088013 0.1699902 0.15342987 -0.34132823 -0.040292937 -0.007510166 0.032459058 -0.02869545
0.21652028 -0.25185853 0.06726259 0.19245619 0.1272502 0.1598512 -0.19347672 -0.27508932
0.09834725 -0.102257244 1.7365707 -2.0391138 1.2766398 0.6828157 1.2687858 -0.3605412
-1.4619697 2.423142 -1.5183021 -0.5380198 -2.9916427 1.9784867 1.5877208 -3.6880705
-5.7036076 -0.7802406 1.911079 -0.94502884 -2.468965 -1.0463502 1.3456773 -0.05892786
0.1455161 -1.0788468 -0.4581962 1.3675628 -0.9842807 -0.24347082 2.928234 -5.718757
-1.7884 0.5786713 -0.24262765 -0.9739609 12.672495 -5.1460824 25.890032 -7.0852776
-4.1106915 -6.2734637 -3.1873667 -21.25202 20.018911 10.538886 1.1907638 6.651011e-06
-0.2873042 -0.15699762 0.22519523 0.024913546 -0.1715405 -0.25056148 -0.24076113 -0.27242073
-0.029602591 0.12915161 0.12647887 -0.3078334 -13.328784 -25.80946 -7.142058 32.00753
-3.0617266 -6.4763083 -11.341169 -0.055960484 4.106963 1.3689213 -1.6863738 -0.032271586
-0.53947264 -0.3418085 0.5203978 0.04642113 0.4452195 -0.056885507 -0.23890632 0.2118263
0.049338967 0.058047593 0.081586495 -0.28954366 -0.6427897 -14.234113 2.250545 0.4662205
-0.1592529 -2.5560246 -0.8829772 0.79766214 -2.905481 0.3257756 1.2371645 -0.47301397
-0.32636 0.03849942 -0.09795435 -0.074167505 -0.12618351 0.00064701505 -0.11378243 -0.11332418
0.02865742 0.2906682 -0.1680629 -0.3329944 -2.370731 6.7966456 1.0328645 -6.0095434
-1.9825531 0.47843266 2.23613 2.1946933 -2.3264003 -1.5648954 0.0073008165 -0.15117805
-8.159015 12.703672 -3.3545768 -5.3372893 -1.6391724 0.8418985 0.26699656 -0.8742072
-0.5683341 0.8428857 -1.2635384 -0.048927955 -0.8852582 -0.007668648 0.185382 2.1617317
1.0179253 -0.10478282 0.59766763 -0.11722934 -0.18610919 -0.0686241 -0.16111569 -0.12547594
-3.1486695 9.570613 -2.6196742 -1.42372 2.2881193 -1.8494177 -0.31161872 -3.6478534
-0.2529564 3.9412718 -1.8477215 -0.1952572 -0.41708362 0.9725729 0.91263086 -3.6352525

rcsl.backbone.model.0.bias f4 [200]
00000000: e126 66c0 6546 2ac0 9457 54be e43d 833c
00000010: 0e7f 69be f56e 9cbe fedb 8ebe a929 abbe
00000020: 589b 93bf b9cd eabf edf3 8bbd 92be 1641
00000030: feb4 cfbc dbad bfc0 6d40 f9bd 4cfd c7bf
00000040: ccdb 81be 1a57 ecbf 5bdc 62c0 f35a 0cbf
00000050: 8036 d4bf ce93 8bbe d9b6 b23f 775d eabf
00000060: 0e55 e7bd e9b8 24c0 8186 6ac0 69ed 5fbf
00000070: f91c 2d3f 4018 31c0 ea74 59bf 86e1 fbbe
00000080: 754f 0fbf 6ad5 20bf 0a15 d9bf e942 29c1
00000090: df97 edbd f67a cbc0 aeac febd f8bd 84bf
000000a0: e04f 3ac0 4007 173e 5e89 5cc0 56dd d9c0
000000b0: 25c4 68bf 5600 debc 4998 e640 6990 dbbf
000000c0: 6aea e6bf 5109 5abf 39da 813d c0d2 c13c
000000d0: 6794 f940 3eff 17c0 21a7 3ebf d1f4 393f
000000e0: 68f3 c9c0 b83f c1bd 46fb 2dc0 86f7 bfbf
000000f0: 02ed d1bf 9ac9 f940 57cc 3ebf ae96 f6bf
00000100: 3f16 67bf f511 533f 3943 5fbd 32bd 3cbf
00000110: 584e 36be ba66 183f 2173 7cbf b63c 46bd
00000120: 47df f7bf aeec 433e 0a5c 0cc0 259c c9bf
00000130: 17c8 4dbf e380 39c0 29c8 14bf f16b 073f
00000140: cb88 6bc0 fe5b 41c0 0b2e 94bf c708 56bd
00000150: 5305 91bf 81ad 03c0 ed93 aabf 0594 b3c0
00000160: 0aec 81be dda7 f9bf 7677 b0bf ed05 98bd
00000170: f196 0d3d 943d c63d 9751 47be 8090 acbd
00000180: 8a91 8bbf 6c45 7940 bea4 a8bf ab24 e240
00000190: 14fd a4bf cb8d 45c0 31cb 4bbe a9a1 4a40
000001a0: 03b4 7fbf 986b d5bf 5b71 71c0 6196 283e
000001b0: 9555 91be d616 9bbf b619 60be 507d 48bf
000001c0: 2815 3dbf 0504 7ac0 5387 d33d a79b 7bc0
000001d0: 8da9 28c0 c59b a140 2ea9 16bf 4ad7 46bf
000001e0: 0a85 98be 2dcd 9d3d 4ae8 6dbe 88e9 17bf
000001f0: 1abb 9040 6658 ce3e ed1d 123e 6e83 8fbe
00000200: ed4f 98bb 9a9b 6ebe 004f 0ec0 a444 8440
00000210: d5ea 72bf 075c 7cc0 83b5 1ac0 6be1 e03f
00000220: 2612 223f 2f74 163e d964 93bf 163e 29bf
00000230: 4940 0f40 d578 5bc0 5770 90c0 e349 75be
00000240: 7e75 a2bf 96d2 683e 14c7 93be a898 fabf
00000250: 2ffb 64be 5d72 963f 2936 70bf 132e eb3e
00000260: d065 84bf 386e 283e 6900 853f a850 573e
00000270: d9c7 6f3f 294d a93f 4564 74bf 5274 abbf
00000280: cb41 d3be c1d9 0ec0 d7ba 0a3e 6493 fabe
00000290: bd2f 98bc a0c1 54bd 8270 94bf f64b 3fc0
000002a0: ad84 143f fff8 9abe 793a 89be f6c4 e7be
000002b0: 238d b9bc bcc5 8ebf 669d 9b3f b717 bdbd
000002c0: dc8e fa40 cd81 0641 90d3 fa3f fe57 05bf
000002d0: 2dd4 b4be bd3e 67be f0ca c740 de0b 14c1
000002e0: d440 2fbe 2bd7 ebbf 3b97 073e f5ac 06c0
000002f0: 9897 d3bd 861c 9bbf a7d3 43c0 09a3 813f
00000300: 2008 bcbe 8e21 08bf a63b 92be 12b1 c0bf
00000310: f1f4 1e3e 18f2 aebf 7fb5 813d 55f1 6fbe
-3.596123 -2.6605465 -0.20736533 0.016020723 -0.22802374 -0.30553403 -0.27902216 -0.33430222
-1.1531782 -1.8344032 -0.068336345 9.421526 -0.025354858 -5.9899726 -0.12170491 -1.5624175
-0.25363004 -1.8464081 -3.5446994 -0.5482628 -1.6579132 -0.27261204 1.3962051 -1.8309773
-0.1129552 -2.573786 -3.6644595 -0.87471634 0.67622334 -2.767105 -0.8494402 -0.49195498
-0.55980617 -0.62825644 -1.6959546 -10.5788355 -0.11601233 -6.35876 -0.1243528 -1.0370474
-2.9111252 0.1474886 -3.4458842 -6.8082685 -0.9092429 -0.02709977 7.2060895 -1.7153445
-1.8040287 -0.85170466 0.06340451 0.023660064 7.7993655 -2.3749537 -0.7447377 0.72639185
-6.3109627 -0.094359815 -2.7184615 -1.4997413 -1.6400454 7.8058596 -0.7453055 -1.9264734
-0.9026832 0.82449275 -0.054507468 -0.7372619 -0.17803323 0.5953175 -0.9861317 -0.048397742
-1.9365014 0.19133255 -2.1931176 -1.5750777 -0.8038344 -2.8984916 -0.5811792 0.5289908
-3.6802242 -3.0212398 -1.1576551 -0.052254464 -1.132975 -2.0574648 -1.3326393 -5.611819
-0.25375396 -1.9504353 -1.3786457 -0.07423005 0.034567777 0.09679714 -0.19464718 -0.08425999
-1.090379 3.8948622 -1.3175275 7.066976 -1.2889733 -3.0867794 -0.1990173 3.166117
-0.9988405 -1.667346 -3.7725437 0.16463615 -0.28385606 -1.2116344 -0.21884808 -0.7831621
-0.73860407 -3.9064953 0.103285454 -3.9313753 -2.6353486 5.050265 -0.588519 -0.77672255
-0.29789 0.0770515 -0.23233142 -0.59340715 4.5228395 0.40301818 0.14269228 -0.2802996
-0.0046482 -0.23301545 -2.2235718 4.133379 -0.94889575 -3.943117 -2.4173286 1.7568792
0.6330894 0.14692758 -1.1515151 -0.6611036 2.2382987 -3.42925 -4.5137134 -0.23953967
-1.2692106 0.22736582 -0.28862822 -1.9577837 -0.22361444 1.1753651 -0.9383264 0.4593359
-1.0343571 0.16448295 1.039075 0.21026862 0.9366432 1.3226672 -0.954655 -1.3394873
-0.41261134 -2.2320406 0.13547836 -0.48940575 -0.01857745 -0.051942468 -1.1596835 -2.9890113
0.5801495 -0.30268094 -0.26802424 -0.45267457 -0.022650307 -1.1154094 1.2157409 -0.09233039
7.829939 8.40669 1.9595814 -0.5208739 -0.35318127 -0.22582527 6.2435226 -9.252897
-0.17114574 -1.8425039 0.13241284 -2.1043065 -0.103316486 -1.211808 -3.0597932 1.0127879
-0.3672495 -0.531762 -0.28561133 -1.5054038 0.15523125 -1.3667631 0.06333446 -0.23431905

rcsl.backbone.model.2.weight f4 [200, 200]
00000000: ac62 3c3c 76a8 a7bd 1379 c2bc 777e c9bd
00000010: 3e71 e5bb 69f0 9e3b 3391 9e3c de7d 49bd
00000020: 87bd e2bc 5152 b6bd b512 8dbd c464 9ebc
00000030: a95c 8dbd 9b2f d3bc a0ad cbbd c456 b8bd
00000040: 9d63 70bc ee8b f5bd 52ea 693d 1f55 463d
00000050: 5642 8cbd 8648 e9bc ff2a 143d a781 623c
00000060: 5441 6cbd 3d06 c9bd 340f a43c 0a6a b6bd
00000070: 0d4a d3bc 21e1 37bc 4f79 05bd a0cd 87bd
00000080: 3149 abbd 5836 25bd f683 5cbd 76c5 b43c
00000090: 2004 7fbd adfd 1e3d d460 5b3b 6586 85bc
000000a0: cbf9 9abd 7b54 b5bb 3983 3dbd b831 30bd
000000b0: 677e ae3b 0984 6e3d da9e 23bd c746 603c
000000c0: 2058 bcbb f111 d6bc eb82 053d 16ed 173d
000000d0: 87bd d73b 719d a4bd 6fe0 133c 79bb 55bd
000000e0: 6afa 65bd 6f54 dfbc 77b0 95bb 99ec 073d
000000f0: d48c 89bd 0295 ba3c a1d3 673c 1a32 13bd
00000100: 85e2 f9bc b5e9 dd3c 3b85 56bc 612c 79bd
00000110: f219 abbb 56dd b53a cf58 253c b552 11bd
00000120: c7fd cfbc 9d29 713b db82 d6bd 410c bebc
00000130: 2408 e13c 619c 5fbc 1c7e d3bb 7031 2f3c
00000140: ea12 1ebd 697c aebd ab25 a1bd 9a41 7a3d
00000150: 22cc a7bd 867a 6abc 881f b7bd 358b 59bd
00000160: f36c 363c 9465 87ba 033a 923c 8efc f2bb
00000170: 9fa9 13bd 305f 953c 6cc2 a73b db4e 13b9
00000180: a27b 2f3d 4d31 c4bd 2f64 9f3c 8d06 fdbc
00000190: b830 0dbc 1912 44bd c85b a53c 8c6e b2bd
000001a0: 577e 72bd 072f 40bd d3c1 5abd f50e 573d
000001b0: 0d4f 523d 5ce4 0c3c 61fa 43bd 8bd4 c9bd
000001c0: 62db e6bd ee50 34bc 8332 d2bd 038a 0fbe
000001d0: 1fe8 a3bd 5a89 74bd fc8d 0fbd f0ce 8bbd
000001e0: e6a9 a7bd faad 893d ef51 5abc 868f 243d
000001f0: b233 89bd 6972 65bd fa98 a9bc 3c09 4fbd
00000200: 12b4 68bd fa8b 483d 4f81 b2bc b785 f2bd
00000210: a18b 953d 39a1 05bd 1d40 debd a2c6 b2bd
00000220: 4e3a 73bd e0c0 d6bd f3f5 4f3d dcb2 473d
00000230: e3f2 a2bc 5519 dabd 4dd6 62bd f308 4cbd
00000240: 0ac4 80bc b19e f1bc c369 e6bc dee8 80bd
00000250: 3ccb 073d 8abd ef3c e5f4 18bd 8e76 47bd
00000260: e022 5bbd efb1 43bd a4b5 bebd 1496 623d
00000270: 56d3 f9bc d8f6 1a3c d0c5 c8bd 54af 2ebd
00000280: 154c c63c 7cf7 84bd 8ada 043d 4db2 5dbd
00000290: edaa 213c 05bc 65bc 2f7f f5bb 9e33 d33c
000002a0: b8a8 7fbb d3b9 1ebc 7345 50bd 0f3f 8ebc
000002b0: afdf 9abc 7fc3 bcbc ceb2 5abd dbb6 893d
000002c0: c264 b83c 63fc b83c 0e6e 42bd 8550 063d
000002d0: e9f5 83bd 0cf1 d53c e8c8 cbbc f264 c0bb
000002e0: cb2e 44bc be89 90bd 2403 08bd 534d dd3c
000002f0: 5208 43bd 435c 68bd cbb2 0bbc a9be 79bb
00000300: 00b2 73bd 2370 a4bd 8ecf 0cbd 17d1 a43c
00000310: 268c 2fbd 9a1d 743c 8752 4f3d 401a f0bc
00000320: 6f9e c3bd 060d 8bbd 5eb5 343c 2e87 97bc
00000330: 3783 e1bb d242 fb3c 7e32 f33c 63c1 b6bc
00000340: ae78 a8bc 9fb6 ca3b fa76 d3bb 4f5b 50bd
00000350: 2ea7 eabc 8ed4 403d c799 c8bc 5ec4 b0bc
00000360: 46f9 81bd a0f8 71bd 4aa1 5bbb 626f 99bc
00000370: 472c 47bd 0352 ef3c 706f cfbb e345 8b3c
00000380: 3545 b13c d154 b3bd 063a 31bd 2789 c3bc
00000390: 2d5e b6bc 0d55 38bd 69ea f9bc 1ea2 6bbc
000003a0: 8f63 9f3c af8c 683d 9cc5 ef3c ec18 0cbc
000003b0: f54f bdbc 339e ed3a e82b 3dbb b02b 9bbc
000003c0: ea5c 823c 77cd 85bd 5a6f 8bbd a4d4 b0bd
000003d0: ff30 f7bc f641 0fbd 9234 9abd 1b7a 1d3d
000003e0: f62a 5ebc 1b81 49bd 7cf5 ebbc 2d4a 983c
000003f0: df7d 0cbe 77de 04bc 07a2 11bc 9ed0 3fbd
0.011498135 -0.08186428 -0.023739373 -0.098385744 -0.007002025 0.0048504365 0.019356346 -0.049192302
-0.027678264 -0.08902419 -0.06888334 -0.019335158 -0.06902439 -0.025779536 -0.09945226 -0.09000924
-0.014672187 -0.1198958 0.05710823 0.04842102 -0.0684859 -0.028476965 0.036173817 0.013824857
-0.05767949 -0.09815643 0.02002678 -0.08906944 -0.025792146 -0.0112231085 -0.032586392 -0.06631017
-0.083635695 -0.04033503 -0.053836785 0.022066813 -0.062259793 0.038816143 0.0033474462 -0.016299436
-0.075671755 -0.0055337525 -0.04626772 -0.043016165 0.005325127 0.058231387 -0.039946415 0.01368875
-0.00574781 -0.026131602 0.032595556 0.037091337 0.0065838727 -0.08037842 0.009025677 -0.05218074
-0.056147017 -0.02726194 -0.0045681554 0.03318462 -0.06716314 0.02277613 0.014149577 -0.035936452
-0.03050352 0.02708898 -0.013093288 -0.06083334 -0.005221599 0.0013875167 0.010091974 -0.035479266
-0.025389565 0.0036798485 -0.104741774 -0.023199202 0.027469702 -0.0136481235 -0.0064542424 0.010692939
-0.038592257 -0.08519823 -0.07868513 0.06109772 -0.08193232 -0.014311438 -0.08941561 -0.053111274
0.011134374 -0.0010329955 0.017849928 -0.007415361 -0.036050435 0.018233865 0.0051196124 -0.00014048388
0.042842515 -0.09579716 0.019456951 -0.030886913 -0.0086175725 -0.04786882 0.020185366 -0.087124914
-0.05920252 -0.04691985 -0.0534075 0.0525045 0.05134492 0.008599367 -0.0478462 -0.098549925
-0.11272313 -0.011005623 -0.102635406 -0.14017491 -0.08003258 -0.0597013 -0.035047516 -0.068265796
-0.081867024 0.067226365 -0.013325199 0.040175937 -0.06699313 -0.056017313 -0.020702828 -0.050545916
-0.056812353 0.048961617 -0.021790175 -0.1184191 0.07302023 -0.032624457 -0.108520724 -0.087292925
-0.059381776 -0.10486007 0.050771665 0.048754558 -0.019891208 -0.10649363 -0.055380154 -0.049813222
-0.015718479 -0.029494615 -0.028126603 -0.06294416 0.033152804 0.029265184 -0.037342925 -0.048697047
-0.053500056 -0.047777113 -0.09311989 0.055318907 -0.03049628 0.009458266 -0.09803355 -0.042647675
0.0242062 -0.064925164 0.032434978 -0.05412512 0.009867412 -0.014021878 -0.007491968 0.025781449
-0.0039010476 -0.009687859 -0.050847482 -0.017364053 -0.018905489 -0.023042439 -0.053393178 0.0672433
0.022508983 0.022581285 -0.047468238 0.032791633 -0.06443388 0.026115917 -0.024876073 -0.0058714086
-0.011974047 -0.07057522 -0.03320612 0.02701441 -0.047615357 -0.056728613 -0.008526514 -0.0038108027
-0.059495926 -0.08029201 -0.034377627 0.020119233 -0.042858265 0.014899636 0.050615814 -0.029309392
-0.09551703 -0.067895934 0.011029569 -0.018497076 -0.006882097 0.03067151 0.029687162 -0.02230901
-0.020565357 0.006186321 -0.006453392 -0.05086833 -0.02864417 0.047077708 -0.02448739 -0.02157801
-0.06346373 -0.059074998 -0.0033512884 -0.01872987 -0.04862621 0.02921391 -0.006330423 0.017001098
0.021639446 -0.08756412 -0.043268226 -0.02386911 -0.022261703 -0.045002986 -0.030507283 -0.0143819135
0.019456653 0.05677479 0.029269032 -0.008550864 -0.023109416 0.0018128812 -0.0028865281 -0.01894173
0.015913446 -0.0653333 -0.06808348 -0.08634308 -0.03017473 -0.034975015 -0.07529558 0.038446527
-0.013560047 -0.04919539 -0.02880358 0.018590057 -0.13719891 -0.00810968 -0.008888728 -0.046829812

rcsl.backbone.model.2.bias f4 [200]
00000000: d34d 13bd e2f9 80bd 3335 bebb 290e 0540
00000010: c995 82bd 5922 0240 055d 18c0 0707 763c
00000020: 3386 54bd 6050 5fbd b1ac 05bd c5b3 2cbe
00000030: 3080 cfc0 ffe9 c140 ba4a 33c1 c06e 05be
00000040: 8d89 953f da58 24c0 305c b4bf 0c18 f3bf
00000050: 32b1 8640 0d47 8d3c e44d 92bd 56c9 49c0
00000060: 322f 98bd ae83 aabd ea9d 5dc0 b405 98bf
00000070: 1110 80bd 9ee7 abc0 6be8 b6c0 ce7f 8bbf
00000080: db67 cbbe 5346 e2c0 a3c7 2ebe 95a5 55bf
00000090: 3d6b 2cbd 7eff 2fbd 39fc 013c 0206 2a3f
000000a0: dc4b a0bd 0441 b6bd 5ca5 6a3e c269 25c1
000000b0: 4a9d c5bd e705 2c3d 90ec c7c0 b781 dcbe
000000c0: 443c 8dc0 e519 aa40 244d 883f dd39 a9bd
000000d0: ad5c 4b3c a2f4 a9bd f6c5 58bf c3c0 c2bd
000000e0: a873 01c0 a8f1 f9bd c56a 963f 0e9b 633f
000000f0: ada9 5cbd 626c 0cbe 813b 3bbe edfd 3240
00000100: 3e88 28bf f5d7 95bd 9844 123d 0e82 0540
00000110: a667 6cbf 1e0d 3ebd 31c1 783f 24cc 13c0
00000120: bde2 6540 8790 adbd 313b fd3f c199 89bf
00000130: 3a64 70bf 9185 44bc bc7f 02c0 1dd1 b7bd
00000140: 28e2 08be 3552 cd3c b0b4 733c f128 f6c0
00000150: 19ea ac3e 04c0 9dbd 780d 1a40 39bf a3bb
00000160: 6b30 9a3f bb35 4ebd c4f2 14c0 5853 56bc
00000170: b61f b8bf 27bb 5ec0 0e9b c0c0 b5ff 0abe
00000180: 98fd c336 d067 bac0 d173 bfbd 0d15 b8c0
00000190: d7fa 263c 5305 d0c0 4ac5 a2bf ff43 d63f
000001a0: 39ee d4bc 7053 923f 69c2 1ac0 7da7 71bd
000001b0: 44d6 83bc 4846 dac0 2763 d73c 0be8 42c1
000001c0: 5b0a 0c3d 6ef7 a7bd ff97 5ac1 ccb1 cfbc
000001d0: d52d 843e a46f b6bd 9f22 eb3f 2ba1 06bd
000001e0: cb18 bdbd 7cb2 92c0 4b67 0bbd da19 46be
000001f0: 9a6f 15c1 dae8 1bbc 54ec 0abf 42e5 cbbd
00000200: 5a29 51bc 522f d5bc d7d6 da3c c9a0 f0bc
00000210: 620b 7fbd 9446 21bd c79f c3bd 7942 05be
00000220: 8591 34c0 e008 14bd b3f1 103c b244 08be
00000230: 6e87 bdbc 887e d13c e355 46bd 8e0d c4bd
00000240: 3a07 be3e 3385 85bd ea48 c8bd 8683 c2bd
00000250: 0bf1 0abd 0dfb 0340 e263 e5bd 3914 433d
00000260: c98d d8be 8501 83bd c1bd f7bd 7f0b e1bd
00000270: e308 f83f b24b 90bf dbf4 7e3f f510 a03b
00000280: 97cf 23bd 9898 48bd 95d1 98bd 8a36 13bd
00000290: 58ee 44be f501 f8c0 90f3 2c3d 07a0 a1bc
000002a0: bac6 0ebd 5668 94bd 5f55 2ebe b38a c3bd
000002b0: 2d61 33bd 16dc 6abd f720 6abf 3207 8040
000002c0: 0c18 8bc0 60e0 1dbd 326e 1ebd 553e 9cbd
000002d0: ed6a 0fc1 197e f13c 2fd0 35bd 4f12 7ec1
000002e0: 2a37 1a3d 485f edbd 876a 86bd 95af b4c0
000002f0: f1d4 06be 90b8 d340 65b3 c8bc 333e 8940
00000300: 88ec 25bb 6e39 2fbd 8890 8dbf e8e5 4cbe
00000310: 81ac 2cbd f031 3b41 e76e 38c1 fbf5 11bd
-0.03596289 -0.06297661 -0.0058046817 2.0789893 -0.063762255 2.0333464 -2.3806775 0.015016324
-0.051885795 -0.05452001 -0.032635394 -0.16865452 -6.484398 6.059814 -11.205744 -0.13030529
1.1682602 -2.567923 -1.4090633 -1.8991714 4.2091303 0.017245794 -0.07143763 -3.1529136
-0.07430877 -0.08325897 -3.4627633 -1.187674 -0.062530644 -5.3720236 -5.7158713 -1.0898378
-0.39727673 -7.0710845 -0.17068343 -0.83455783 -0.042094458 -0.042968266 0.00793367 0.6641542
-0.07826969 -0.088991195 0.22914642 -10.33832 -0.09649141 0.041997816 -6.2476273 -0.43067715
-4.4136066 5.315661 1.0648541 -0.0826299 0.012412232 -0.08298613 -0.84677064 -0.09509423
-2.022684 -0.122042954 1.1751333 0.8890847 -0.053872753 -0.1371322 -0.18284418 2.7967484
-0.6583289 -0.07316581 0.035709947 2.086063 -0.92345655 -0.04639923 0.97169787 -2.3093348
3.591964 -0.08474832 1.9783689 -1.0750047 -0.93902934 -0.011994735 -2.0390463 -0.08975432
-0.13367522 0.025063613 0.014874622 -7.6924977 0.33772352 -0.0770264 2.407072 -0.0049971608
1.2046026 -0.05034421 -2.3273172 -0.013081394 -1.4384677 -3.4801729 -6.0189276 -0.13574107
5.840975e-06 -5.8251724 -0.09348262 -5.7525697 0.010191641 -6.50065 -1.2716458 1.6739501
-0.0259925 1.1431713 -2.4181159 -0.05899762 -0.01609338 -6.8210793 0.026292397 -12.181651
0.034189563 -0.0820149 -13.662108 -0.025353335 0.25816217 -0.089080125 1.836994 -0.032868546
-0.092332445 -4.5842876 -0.034034055 -0.19345799 -9.339746 -0.009515965 -0.5426686 -0.09955837
-0.012766207 -0.02602354 0.026713772 -0.029373543 -0.062266715 -0.03937395 -0.095519595 -0.13013639
-2.8213818 -0.036141276 0.008846688 -0.13307455 -0.023135867 0.02557303 -0.04842175 -0.09572898
0.37114888 -0.06519546 -0.09779532 -0.09497742 -0.033921283 2.062198 -0.11200692 0.047626708
-0.42295673 -0.06396774 -0.120967396 -0.10988521 1.9377712 -1.12731 0.9959237 0.004884834
-0.039992895 -0.04897365 -0.074618496 -0.035940684 -0.19231546 -7.750239 0.042224467 -0.019729627
-0.03485749 -0.07246463 -0.17024754 -0.09547939 -0.043793846 -0.057338797 -0.9145655 4.0008783
-4.3466854 -0.03854406 -0.03867931 -0.076290764 -8.963605 0.029479073 -0.044387992 -15.87947
0.037650265 -0.11590439 -0.06563287 -5.6464334 -0.13167168 6.6162796 -0.024499604 4.2888427
-0.0025317986 -0.04277938 -1.1059732 -0.20009577 -0.0421567 11.699692 -11.527076 -0.035634976

rcsl.backbone.model.4.weight f4 [200, 200]
00000000: d5af 8c3d 3432 033d 6f92 f9bb 8abb a73c
00000010: 2c43 8fbd 88ff 77bd 217f 373e 2810 853c
00000020: b203 823d a02b 07bd 1bb0 5bbb b2cd afbd
00000030: 2c18 3b3e 02be 37be 8b8a b33e 593c 30bd
00000040: ad37 e7bf 6324 55be 8232 babe 7d55 4abd
00000050: 367c ad3e 0c98 8cbd 4100 9c3d 966b 1e3f
00000060: e4b1 1fbd e98d 35bd 1e4a 5b3f d99b 2e3f
00000070: 4cdb 643d 67e0 e13c 5e88 5abe 1eb7 03be
00000080: b94e 37bf 5023 7a3f f2d0 0dbe fbe5 80bd
00000090: db83 1b3d baf8 ac3c e6ad 69bd d967 24bf
000000a0: e9bb ffbd 1cce 3bbb 9fbf 923d 458f cc3d
000000b0: 8f30 29bb 1832 a0be f4f0 b2be 134b ac3d
000000c0: 020f b2be 78ef 76be f49a b1bd 66dd 443d
000000d0: 4b6b 87bc ea17 273b 498b fd3b 7aeb 7ebd
000000e0: eef1 2b3e 8bdf 813d 654f 97be ee4d 833f
000000f0: f0a5 373d 61fc 403d 29fd 3d3e 06ce 81bf
00000100: 76bc a63d 6fd8 763d 3eca ec3c c887 a1bf
00000110: 6f6b 26bf 3166 1a3c 1c76 82bc 8352 cd3d
00000120: e102 2ebf 0bcf bcbc 9ac3 7abc 03ba f8be
00000130: 29a6 6e3e 3a3f a73d 3e18 16bf 9f4e 22bd
00000140: 2319 7a3d ab57 b33b 790b 78bb 58f9 95bd
00000150: d6c3 c8bd bdb7 06bd f57a 73bf bd65 763c
00000160: 9c10 82bb b4e1 12bc f94a efbd 71ea ab3d
00000170: 44b6 dbbd 3f22 ed3d 0239 cabd f397 483d
00000180: 0044 31bd 45b7 a13c 459e 0d3d 9894 26c0
00000190: 283d 14bd 0c70 3ebe 6d6b 57be b123 fcbe
000001a0: eabb 883a d3e9 3f3e f5aa fabe e241 413d
000001b0: d421 aebb 511b 38bf 32bb 33bd 66e6 be3b
000001c0: 7a60 d4bd 8f1a 8d3b 11f0 8d3d b097 443d
000001d0: 9588 423e d226 1bbc 025e 0dbf 9c3e 70bd
000001e0: 6362 033d 6bb1 893e ed27 403d 838d 3f3e
000001f0: 932d 32be b990 7ebd 10a9 d1be 8f39 873d
00000200: 947c 313d 15f0 b73a 35d1 c53b 5b3f 11bd
00000210: 2f02 fc3c c051 8cbd 23ad 0b3c 19ae d9bc
00000220: 0f82 94bd 8017 a8bd 8ffd e63b 72be 6c3d
00000230: fb47 86bd e83b f73b 8ae4 a5bc 198f 27bd
00000240: 8ba7 b1be e183 aebc 2645 83bd a2f1 923d
00000250: e827 9f3d 397e ad3c 3f3d 03be 8e96 7abd
00000260: 7770 a03d 901e a6bd 79d5 a93d 6df1 e0bc
00000270: 0dd5 413e a228 113f 2a3e ab3e 4f85 22bd
00000280: a05f 88bd 97b5 1c3b f66c 8cbd d927 12bd
00000290: 06d1 ff3c c2bc 1cc0 2483 1f3d 5af5 1b3c
000002a0: 89b0 2dbd 7423 923d 73a1 f4bb 5517 c93a
000002b0: 189f da3c 950a db3b 7083 953d 3659 3fbf
000002c0: edb4 a03e 80ed 79bd ced5 3b3b e22a fcbb
000002d0: 5ca9 f73e 5124 363d 181a 27bc 01ec 2bc0
000002e0: 0ca1 123d fd8b 203d 26e2 23bd 24ae cb3e
000002f0: ef80 4a3c fce9 9a3e bcc4 3b3b c551 e03e
00000300: 5e4e 423d e27b dcbd acba b4be 2de5 babe
00000310: f4e4 623d 5cd9 91bf 0c67 42bf 9e9c 51bd
00000320: e999 3abd deac 0f3d 6e7d 033d 23aa b73e
00000330: 00b8 ad3c f380 b83d 81a9 33bc 7ffb afbd
00000340: 9280 44be 73f0 b8bd 8628 06bd b235 afbd
00000350: 3cbe b3bf 2594 983d fa6b e4bd c348 813d
00000360: 8957 f3be 2688 17bf 3e5f 38bf 6d34 c13c
00000370: 7fca 36be 005c 893c 3423 973d 7855 5dbe
00000380: e243 45bd a909 0c3d d17a 2fbf 1af0 8fbf
00000390: 823b 503d bf7f 333f 1f5f 44be 7973 ba3d
000003a0: b517 82bc a61c 85bf efaf 733d fcf4 09bf
000003b0: 4122 9ebc 7f1b 0f3d 6937 6b3d 7d1e 30bf
000003c0: 39d2 08be eaad c63d 2698 3f3f c1d0 7ec0
000003d0: 9c93 8b3c e92b 1fc0 79f8 e3be 59ab 06bf
000003e0: 5364 f3bf f3eb 0d3f 89b3 6d3d 4543 ac3d
000003f0: bea1 5b3d 7b95 d1bc 71c9 e6be b48e 833d
0.06869475 0.0320303 -0.007616333 0.020475168 -0.06995234 -0.060546428 0.1791959 0.016243055
0.06348361 -0.03300059 -0.0033521715 -0.08584155 0.1827094 -0.17943576 0.35066637 -0.043026302
-1.8063866 -0.20814662 -0.3636666 -0.049397934 0.33883828 -0.06864938 0.07617236 0.61882913
-0.03898801 -0.04432479 0.8565997 0.68206555 0.0558732 0.027572824 -0.21341082 -0.12862822
-0.71604496 0.9771013 -0.13849238 -0.06293865 0.037967544 0.021114696 -0.057050608 -0.6422096
-0.12487013 -0.0028656786 0.07165455 0.09988264 -0.0025816297 -0.31288218 -0.34949458 0.08412757
-0.34777075 -0.24114788 -0.08672133 0.048062705 -0.016530653 0.0025496432 0.0077375514 -0.062236287
0.16791508 0.063414656 -0.2955276 1.0258157 0.044835985 0.047115687 0.18553604 -1.0140998
0.08141415 0.060265 0.02890503 -1.2619562 -0.6500768 0.009423778 -0.01592546 0.100255035
-0.6797314 -0.023047945 -0.015305424 -0.48579416 0.23305573 0.081663564 -0.5863074 -0.03962576
0.06105913 0.0054730973 -0.0037848635 -0.07322949 -0.09802978 -0.03289007 -0.9510949 0.015038905
-0.003969265 -0.008964945 -0.11684222 0.083943255 -0.10728124 0.115787975 -0.098741546 0.048973035
-0.04327774 0.01974071 0.034574766 -2.6028194 -0.036191136 -0.1859743 -0.21037073 -0.4924598
0.0010431979 0.1874154 -0.48958555 0.04718197 -0.005314091 -0.7191668 -0.043879695 0.0058258055
-0.10369964 0.0043061445 0.06930555 0.047996223 0.18997414 -0.009469705 -0.5522157 -0.05865346
0.03207625 0.26893172 0.046913076 0.18706326 -0.17400198 -0.062149737 -0.40949297 0.06602775
0.043331698 0.0014033342 0.0060369023 -0.03546081 0.03076276 -0.0685153 0.008525166 -0.026572274
-0.07251369 -0.08207607 0.0070492695 0.05779881 -0.06556698 0.007544983 -0.020250577 -0.040907953
-0.34698138 -0.02130312 -0.064096734 0.07174994 0.077712834 0.021178352 -0.12816332 -0.061178736
0.07833951 -0.08111298 0.0829267 -0.02745887 0.18928929 0.56702626 0.33445865 -0.039677914
-0.06658864 0.0023911947 -0.0685672 -0.035682533 0.0312276 -2.4490209 0.038943425 0.009518946
-0.042404685 0.071356684 -0.0074655353 0.0015342036 0.02668719 0.006684611 0.0730046 -0.747455
0.31388035 -0.061017513 0.0028661373 -0.0076955417 0.48371398 0.044468228 -0.010199092 -2.6862795
0.035798118 0.039196003 -0.040010594 0.39781296 0.012359842 0.3025664 0.0028651198 0.43812385
0.047438018 -0.10765816 -0.3529867 -0.36502972 0.055394128 -1.1394458 -0.7593849 -0.051174752
-0.045556936 0.03507697 0.03210204 0.35871992 0.021205902 0.0900897 -0.010965706 -0.08592891
-0.1918967 -0.09030237 -0.03275349 -0.085551634 -1.404243 0.07450131 -0.111534074 0.06312706
-0.47527722 -0.5919212 -0.7202033 0.023584569 -0.17850684 0.016767502 0.07379761 -0.21614635
-0.04816044 0.0341889 -0.6854678 -1.1245148 0.050838 0.701168 -0.19176911 0.09104056
-0.015880445 -1.0399368 0.059493955 -0.5388944 -0.019303443 0.03493833 0.05742589 -0.6879652
-0.13361444 0.0970114 0.74841535 -3.9814913 0.01703816 -2.487055 -0.44525507 -0.52605206
-1.9014992 0.55438155 0.058032546 0.08411268 0.053621046 -0.025583973 -0.45075563 0.06423703

rcsl.backbone.model.4.bias f4 [200]
00000000: 86cd dbbf 82ae 0741 0f43 51c0 a0b4 42c0
00000010: 6c06 dbbd 0e65 0fc1 97ab 6e41 103d 02be
00000020: 13ef c740 742d 29be caa7 00be 67f6 d2bf
00000030: 47a9 b0c0 a023 a3bd 5f12 f0bb 9da5 c0bd
00000040: 1c40 67be b3a7 91bf ebec 05be e98c 8bc0
00000050: 71ae 12be e7ab efc0 3321 36be 4da3 d8bf
00000060: da3b 3440 0f7d d7c0 27c3 73c0 c5c5 fcbd
00000070: c357 2041 a74e 0ac0 3048 b63e 7f7c 91bd
00000080: fe01 a6bf 3fce 1cbe a065 2c3f db8f aabd
00000090: 77ff dfbd 53b9 34be 6d7c de3f 65c0 5a3e
000000a0: 6c5d c2c0 4b5e dc3f 4ca2 70c0 da87 f8c0
000000b0: 4d09 89c0 e92d 43bd 2b2a 7abd 13a7 fcc0
000000c0: 5788 2e40 d8af 62c0 1baf b8c0 6e62 31be
000000d0: 8708 5040 7eac 923e a162 e1bf 6a4b 1ec0
000000e0: dabd e1bd d545 f8c0 0464 6b40 b5b3 e240
000000f0: 27f1 16be dcc9 8bc0 f0b0 70bd d7da 11c1
00000100: aa52 98be 71c2 3ec0 abc0 333f 990b 9abe
00000110: 4bcf 033f bd11 15be b00e f0bd 0cb7 c2c0
00000120: 36d6 8740 a423 3f3f 3929 4ebc 5db0 11be
00000130: 38a6 4b3d 0ce6 d7bf 8297 a83f 5375 2240
00000140: f6cc 06be ea1c 87c1 5ba8 e2bf 154d ce40
00000150: 3cf1 4bc1 c2f1 dbbd 4db3 16be 5c88 09be
00000160: fbad 7b40 6031 7c40 0e61 1441 1f7a 7540
00000170: 9fc2 6cc0 6c6f 0e40 7a20 d1c0 1671 9340
00000180: 45e3 b4bf 77c7 9abd 351c 42be 4a69 c7c0
00000190: eaa9 61bc 2e62 d340 565c cb40 7ea9 72bf
000001a0: b8bd 7cc0 2c9b 083c f047 f23f 753c 23bc
000001b0: 9a63 b23f 3653 3fc0 a30f b5bd 4b28 283f
000001c0: 275f ca3f 2d5c 8fbf d4f6 cec0 02a6 eac0
000001d0: bcf5 6ec0 466b 49c0 ba5b 4f40 b467 c5bf
000001e0: 0140 a3c0 3d92 5540 65d7 0340 a318 03c1
000001f0: b0cc 63c0 0996 99c0 c6d1 77c0 1f14 adc0
00000200: cfff abbd f19f d0c0 7f3f acc0 19f0 2541
00000210: e1e3 1abe 3a08 f6bf ac2b 4ec0 7251 cfbd
00000220: 3040 e1bf 5385 b6c0 e1ad f6c0 5ada 0fc1
00000230: edb8 c43a ee48 3dc1 bff7 b0bd 0b91 653e
00000240: 7a39 f43f eb8e 6640 c9ea 683f 9c1e e8c0
00000250: aac4 e1bf 2049 c1bd b4e3 a6c0 cead 23be
00000260: 8037 7ec0 6a15 ebbf e91d 733f 1b39 623f
00000270: 8465 9040 1bdd 41c1 25c4 7ec1 8900 0cbe
00000280: 9191 dbbd 4e75 efbc f25c 2340 281f a5bc
00000290: 95fc 4440 cd36 d2bc e051 84bd f23f 93c0
000002a0: e055 bebf cc92 08c1 c9a1 88be 9647 97bd
000002b0: 774a ccbd 23ae 5c3c 29f6 9240 e501 6ac0
000002c0: db92 93bd c0a7 34bd f914 b4bc c9fa e0bd
000002d0: b531 05c1 41fc dabe ca9b e0c0 e5ff 7f3f
000002e0: 4fa5 9dc0 a41d b1bd e26c fbbd 25b8 c23f
000002f0: b81a fd3f 9be0 f1c0 4deb 9040 a987 9cbd
00000300: fd44 dfbf 714d 2d41 7bca 8cbe 3e1a 9040
00000310: f4b1 aec0 929a 5640 8e73 49bf 3473 21c0
-1.7172096 8.480104 -3.269718 -3.0422745 -0.10694584 -8.962172 14.916892 -0.12718606
6.247934 -0.16521245 -0.12564006 -1.6481446 -5.5206637 -0.07965779 -0.0073264088 -0.09406588
-0.2258305 -1.1379303 -0.13078658 -4.360951 -0.14324357 -7.489734 -0.17786102 -1.6924835
2.816153 -6.734016 -3.8087862 -0.12342409 10.021426 -2.1610506 0.3560195 -0.07103824
-1.2969358 -0.15313052 0.6734257 -0.083282195 -0.10937398 -0.1764882 1.7381722 0.21362455
-6.073904 1.7216276 -3.7599058 -7.7665834 -4.2823853 -0.047651205 -0.06107537 -7.895395
2.7270715 -3.5419827 -5.771375 -0.17322704 3.2505205 0.28647226 -1.7608224 -2.473353
-0.110225394 -7.7585244 3.6779795 7.084437 -0.1474043 -4.368391 -0.05876249 -9.115928
-0.29750568 -2.9806178 0.70215863 -0.30086973 0.5148818 -0.14557548 -0.117215514 -6.0848446
4.244899 0.7466376 -0.01258307 -0.14227434 0.049719065 -1.686708 1.3171237 2.538411
-0.13164124 -16.889118 -1.7707628 6.4469094 -12.746395 -0.10739471 -0.14716835 -0.13430923
3.932494 3.9405136 9.273695 3.8355787 -3.6993787 2.2255507 -6.5352144 4.6075544
-1.4131857 -0.07557576 -0.18956073 -6.2316027 -0.013773421 6.605735 6.3550215 -0.94789875
-3.9490795 0.008337777 1.8928204 -0.009963145 1.3936646 -2.9894538 -0.08840873 0.6568648
1.5810288 -1.1200005 -6.4676304 -7.3327646 -3.7337484 -3.1471725 3.2399735 -1.5422273
-5.101563 3.3370507 2.0600216 -8.193515 -3.5593681 -4.799565 -3.8721786 -5.408706
-0.08398401 -6.519524 -5.382751 10.371118 -0.15125991 -1.922126 -3.2214155 -0.10122956
-1.7597713 -5.703775 -7.7087255 -8.9908085 0.0015008725 -11.830305 -0.08641004 0.22418611
1.908004 3.602473 0.90983254 -7.2537365 -1.7638142 -0.094377756 -5.215296 -0.1598427
-3.9721375 -1.836591 0.94967514 0.88368386 4.512392 -12.116481 -15.922887 -0.13672079
-0.10721124 -0.02923074 2.552548 -0.020156458 3.0779164 -0.025660897 -0.06460929 -4.601556
-1.4869957 -8.535839 -0.26685932 -0.07386701 -0.099751405 0.013469252 4.592549 -3.6563656
-0.07205745 -0.04410529 -0.021982657 -0.109853335 -8.3246355 -0.4277058 -7.019017 0.9999984
-4.9264293 -0.086482316 -0.12276627 1.5212446 1.9773779 -7.5586677 4.5287232 -0.076430626
-1.7442929 10.831407 -0.2749823 4.5032034 -5.459223 3.3531842 -0.7869195 -2.5226564

rcsl.backbone.model.6.weight f4 [200, 200]
00000000: d83f b1bd 74f8 05c0 d847 08bf b2ec 833e
00000010: 484a c23d 42e1 b2be c144 7e3e a712 cebd
00000020: f3e2 c2bd 53e9 ecbd f58f fe3b 210c 853e
00000030: c0bb c13d 4aed 9abd 74ea 363d ac0b 9ebd
00000040: 9f40 573d a680 a73d 2660 a33d 73bb 5fbd
00000050: f846 4d3d b016 97be 92a2 99bd 299d 1ebe
00000060: b832 133d 710c 753d 1278 873d cb53 88bd
00000070: 6490 d2bd 70b1 cfbd 1858 403e 631a 773d
00000080: 15c6 3cbe 21ba c53c 7782 a6bd 6866 a6bc
00000090: ffa7 2abd a610 c7bd 7119 89bd 2957 55bf
000000a0: 83c8 e23b bbc6 40be cd60 ddbe 0d56 a83e
000000b0: e70b 8cbe e73e a43b a3f7 9c3c bb3d 1dbd
000000c0: 54a2 bc3e 8197 a03e 02de 143d 9aa8 5b3d
000000d0: 5e64 eebd 403d 39be 8cf8 cebd 0c41 563d
000000e0: c481 083d ffa0 0cc0 ed1c c2bc 5a64 8a3c
000000f0: 315e 463c 5b41 de3d d67d 613d 4d33 0fc0
00000100: 49c1 923e f172 a8ba 73d4 f3be 409f 6c3e
00000110: 8836 d33e 6ed1 40bd 3d4c b2bc 1cc4 adbd
00000120: 7885 a1bd 43b2 eb3d e158 133d 3c80 dabc
00000130: 99e5 2cbf b3ff 4ebe 5206 79bf e852 32be
00000140: 30ee 20bb c773 38bd bd78 78bd 40d1 c7be
00000150: 2fc6 e8be 6314 babd c02b 783c b90f 23bd
00000160: c28f a1bd f662 a1c0 d83b f0be eb25 3cbe
00000170: 41f6 6a3b bd58 b3bd 4359 45bd 702c 5dbe
00000180: b8de 77bd 0f3d 66bc 7690 1cbe dc99 343e
00000190: 2051 a5bd 709d c6bd 6b65 82be 6e7b 1fbe
000001a0: 975b aebd 7811 523d 48ae 9dbd 2ed3 703d
000001b0: 4f00 ecbf 6eb0 e6bd 8e89 013e c402 d2be
000001c0: 365f 663e d797 54be 29b9 64c0 d011 26bf
000001d0: b078 c4c0 a9e8 4e3e 6fb9 51be 7d06 1a3d
000001e0: 25aa 543d 943b 1e3d 99c6 873e 7507 2c3e
000001f0: fefa 103d 1462 6c3d cc2a 2cbe a785 553e
00000200: cf34 c5bc 6c50 0c3d d8ef 3fbe 63ee cbbe
00000210: 0dfc 2cbb 698d fa3d 312a acbe b2a3 6dbd
00000220: 2a64 f1bf 0e25 3c3e 165a b73d ef78 09bf
00000230: 95d8 e33c 34f5 92be bba4 bcbc 1a3e d23d
00000240: 0e81 5ebe e3f2 a7bc d16c 86bd 6161 873e
00000250: facb 8bbf 5dbc 873d 67f0 76be d5d3 3b3b
00000260: 2ada 2abe b770 b03d 770a 99bd c65b 4abe
00000270: 25ce 3ebf dce0 853e 57d4 b1bf ce53 dc3d
00000280: 9787 5ebc f4ad bbbb 4e36 fdbe 46c9 05be
00000290: 4bab 2e3e cdb0 99bd 7f37 7e3c c9fc b2bf
000002a0: 8ee4 15bd 85b9 8dbd 2046 ccbe 41db 6ebc
000002b0: 6f1e 85bc 1222 c6bc 806c 183d 26de 37c0
000002c0: 3c7b 43ba 8ec3 be3d 6442 5e3d 9322 1bbd
000002d0: 90e5 3ebe 7654 7cbe 4503 533d 7aba 933c
000002e0: 70fd 7e3e 5d02 2fbd c09d 97bc 2040 5c3d
000002f0: 59fa b73e 5cd6 75bc dac2 36be 7241 663d
00000300: 47d8 11bf 6b5d 8b3e 14da 1b3d 9c42 6dbd
00000310: 7220 b9bd 43fb 13be 82d7 d8bd 7523 c23c
00000320: 1019 4f3d 8ee0 6f3c 72eb 34be 1879 57be
00000330: 74c4 21bc c8c5 1bbe be0e 16c0 2301 e03b
00000340: c241 11bf 6c00 9ebd 9642 143d 9a50 bcbb
00000350: f6e1 fabe eb94 6cbd 9d71 bb3c 5b95 673c
00000360: fe28 1abd caf1 143d cf72 4bbd 1037 573f
00000370: 4d23 86bc 72a0 c9be 1181 29bd 2ec9 bc3e
00000380: 08f9 533e 898e 65c0 6f87 933d 2251 61bd
00000390: a87c a9bd c26f 423e a838 563d b9c0 d63c
000003a0: 0921 913d e91f 593d b39b 36bf 8de5 65bd
000003b0: ec84 073a edf9 263d 86b6 e1be 8ced edbf
000003c0: 11ac 86bd 2ba6 67be 7291 babd c62a 0fbe
000003d0: e183 3fc0 0cb3 d0bc c4de 85be b6ed 40bf
000003e0: 1608 c23e 59b9 9fbe 50f3 d3be c0b2 4f3b
000003f0: a789 32bd 07f0 9cbd 4e1d 183f 6df2 053e
-0.08654755 -2.0932894 -0.53234625 0.25766522 0.09486824 -0.34937483 0.24830915 -0.100621514
-0.095159434 -0.115679406 0.007768626 0.25985816 0.094596386 -0.075647905 0.044657186 -0.0771707
0.05255186 0.081788346 0.07977323 -0.054622125 0.05011651 -0.29509497 -0.07501711 -0.1548964
0.03593704 0.05982632 0.066146985 -0.06656607 -0.102814466 -0.101412654 0.18783605 0.0603279
-0.18434937 0.024136605 -0.08130353 -0.020312503 -0.04166412 -0.09719972 -0.06694306 -0.8333612
0.0069208755 -0.1882581 -0.43237916 0.32878152 -0.2735283 0.0050123814 0.019161051 -0.03838895
0.36842597 0.31365588 0.036344536 0.053627588 -0.11640237 -0.18089771 -0.10106 0.052308127
0.03332688 -2.1973264 -0.023695434 0.016893554 0.012107418 0.10852309 0.055051647 -2.2375062
0.2866309 -0.0012851638 -0.47623023 0.23107624 0.41252542 -0.047074728 -0.021764869 -0.084846705
-0.07886785 0.1150861 0.035973433 -0.026672475 -0.6753784 -0.20214729 -0.9727527 -0.17414439
-0.0024556033 -0.04503229 -0.06066202 -0.39026833 -0.45463702 -0.0908592 0.01514715 -0.039809916
-0.07888748 -5.04333 -0.46920657 -0.1837384 0.0035852345 -0.0875716 -0.04818083 -0.21598983
-0.060515136 -0.014052643 -0.15289482 0.17636818 -0.08072114 -0.096979976 -0.25468 -0.15574428
-0.08513563 0.05128619 -0.07699257 0.058795147 -1.8437594 -0.1126412 0.12650129 -0.41017735
0.22497258 -0.20761047 -3.5738013 -0.6487093 -6.1397324 0.2020594 -0.20480894 0.037603844
0.051920075 0.038631037 0.26518705 0.1679972 0.035395615 0.057710722 -0.168132 0.20851766
-0.024073033 0.034256384 -0.18743837 -0.39830312 -0.002639535 0.12234003 -0.3362594 -0.05801744
-1.8858693 0.1837351 0.089527294 -0.53700155 0.027813235 -0.287027 -0.023027768 0.10265751
-0.21728918 -0.02050156 -0.06563724 0.26441482 -1.0921624 0.06627724 -0.24115144 0.0028660197
-0.16684785 0.08615249 -0.07472699 -0.19761571 -0.745333 0.26148117 -1.3892926 0.10758172
-0.013582132 -0.005727524 -0.49455494 -0.13065061 0.1705753 -0.07504425 0.015516161 -1.3983394
-0.03659492 -0.06920151 -0.3989725 -0.014578641 -0.016249863 -0.024186168 0.03721285 -2.8729339
-0.0007457023 0.09314643 0.054262534 -0.03787477 -0.18642259 -0.24641594 0.05151679 0.018033255
0.24901366 -0.042726863 -0.018507838 0.053772092 0.35933188 -0.015004721 -0.17847767 0.056214757
-0.5697064 0.2721971 0.038049772 -0.05792485 -0.090393916 -0.14451317 -0.1058798 0.023698548
0.05056101 0.01464094 -0.1766794 -0.21042287 -0.009873498 -0.15212166 -2.3446498 0.006836073
-0.56740963 -0.07714924 0.036196314 -0.005746913 -0.4900052 -0.057759207 0.022881323 0.01413473
-0.03763675 0.0363634 -0.049670037 0.84068394 -0.016374255 -0.39380223 -0.041382853 0.36872238
0.20700467 -3.5868247 0.07203566 -0.055009015 -0.082757294 0.18987945 0.052300125 0.026214944
0.07086379 0.053008948 -0.7133133 -0.05612712 0.0005169648 0.04076569 -0.44084567 -1.8588119
-0.06575788 -0.22621982 -0.09109773 -0.1398116 -2.9924242 -0.025476001 -0.2614652 -0.7536272
0.37896794 -0.31196097 -0.4139657 0.0031692237 -0.043588307 -0.07662969 0.59419715 0.1308076

rcsl.backbone.model.6.bias f4 [200]
00000000: 50c1 f9be eef2 823f 80a7 4cc0 fbfd 8f3f
00000010: f2ce 99bf cc21 05c0 58a4 2dc0 c136 53c0
00000020: ef24 1dc0 0063 09c1 8f13 40be e187 d9c0
00000030: ad97 8abf 8b3c a6c0 b578 a33f 9f3e d0c0
00000040: 19c3 2ebe d31b ec3f 4db2 4fc0 54a6 8ec0
00000050: bfc0 ab3f 5380 1cbe 12f3 983f 9cc9 5bbe
00000060: 9702 ddbe bec2 8440 8214 8740 ec28 36c1
00000070: b27e 0b3f e261 e73e 45ea 703f ccaf 3dc1
00000080: 651d d6bf 919c e6bd 127c c7bf 8a8b 243f
00000090: 1afa 70be ad0b 9bbe 26ba 08c1 373c bbc0
000000a0: 6e4a d4c0 ff47 d8bf 2479 f03f 2e4a a9c0
000000b0: 86f3 fdbf 83e1 a4be 1c59 80be 5964 a0c0
000000c0: c0dc 59bf ae5a 25bf 8ec5 0cc0 4bc8 9ac0
000000d0: 5ed6 0140 7173 0140 9f9a 88be 6320 c53e
000000e0: 2499 563f e6c1 3c40 5d38 b3bf b280 4bbe
000000f0: 14b8 4e40 95ac bfbe addb 6c40 e656 913f
00000100: d9ed 96bf bb51 a8c0 19f7 4dc1 7b7a 6540
00000110: 3c18 70be ac9a e83f 95db 46c0 1b3c fdbf
00000120: ba71 76c0 d7b3 a03f 5b88 d3c0 b1ea 1341
00000130: 648c 53be d100 dbbe 588f 3dbe a870 66be
00000140: 0da5 683f 90d8 9cbe 5a05 90c0 18fb 54bf
00000150: 5fdb 5d40 e9c3 8fbe d84a a3c0 2a04 efc0
00000160: 5b82 cc3f 5558 9ec0 fdb9 b440 494c 11c1
00000170: cc60 9dc0 4c4a 0fc0 ade8 79c0 70cf bb3f
00000180: e0a6 74be 7098 eec0 327c d440 2f54 70be
00000190: 48ac 9ebf bce6 733f 5cc2 3f3f 64aa 2140
000001a0: 771e 8540 f833 b1be 7b05 a840 09d2 c640
000001b0: 4124 67c0 19a5 22c0 2be9 a740 d3c4 4cc0
000001c0: d92a 5bbe 03fe 83c1 c598 b4c0 d366 8abe
000001d0: c7a8 8dc0 66e2 c7bf 0e2a 2dbf 20b5 c7be
000001e0: a84e 6fc0 2b85 efbf 5951 c9c0 0ce8 8ac0
000001f0: c2f4 a73f 3986 ac3f cb30 3cc0 10db 2e40
00000200: efd4 08c0 d93a c1c0 64b9 b4c0 1aae c2bd
00000210: 5db9 33c0 451a 813e f71d 58be 6cc8 3ac1
00000220: 747b 5fc0 b5f3 50bd 8786 67bf 2539 39c0
00000230: a765 bdbf c6f9 edbd dfca acbd 8e5d 5f3f
00000240: 462e 81c0 483b ed3f e72b 6f40 a081 14c1
00000250: ca5d afbe 6c92 723f 543b b2c0 811c b2c0
00000260: e2de 72be d529 0540 39f6 7dc0 be21 7bbf
00000270: 1a74 32bf ce30 6d40 7c7f 73bf ccee 48c0
00000280: c9e9 7e40 d4fd b5bf 3c20 e4bf dd17 7fbe
00000290: ad1a 8f40 63db 57c0 7c36 92c0 83e0 b8c0
000002a0: 7f31 49c0 3a66 5c3f 72b0 c140 a9f4 6b40
000002b0: b2e0 e13f aedb a740 d890 793e e256 22c0
000002c0: 6498 ac40 71ec bfbf 1d8e c13f 758d 09bf
000002d0: d561 a2c0 303f dcc0 bc50 03c1 2741 4fbe
000002e0: 01b4 b03e 28b9 d3be b4b5 6f3f c949 5740
000002f0: 45fc 6a3e 5b73 87c0 b142 1840 e1d4 1e40
00000300: ddbc adc0 fbe6 25be c568 52be e4d4 d6bf
00000310: a287 03be 0dfa abbb e65f 43be 8531 f0c0
-0.48780298 1.0230386 -3.1977234 1.1249384 -1.201628 -2.0801878 -2.7131557 -3.300217
-2.4553792 -8.58667 -0.18757461 -6.797837 -1.0827538 -5.1948905 1.2771212 -6.507644
-0.17066611 1.8445991 -3.2452576 -4.4578037 1.3418196 -0.15283327 1.1949179 -0.21463627
-0.43166038 4.1487722 4.2212534 -11.384991 0.54490197 0.45191866 0.94107467 -11.855419
-1.672772 -0.112603314 -1.5584738 0.6427542 -0.23532906 -0.30282345 -8.545446 -5.8511004
-6.6340857 -1.6896971 1.8786969 -5.290305 -1.9839942 -0.32203302 -0.25067985 -5.0122495
-0.8510246 -0.6459149 -2.1995578 -4.83695 2.028709 2.022671 -0.26680467 0.38501272
0.83827424 2.9493346 -1.4001576 -0.19873312 3.2299852 -0.37436357 3.700908 1.1354644
-1.1791335 -5.259977 -12.872827 3.5856006 -0.23446745 1.8172202 -3.1071522 -1.9783968
-3.8506913 1.2554883 -6.610395 9.244798 -0.20659024 -0.4277406 -0.18511713 -0.22503912
0.9087685 -0.30633974 -4.5006533 -0.8319564 3.4665143 -0.28079155 -5.102886 -7.4692583
1.5977281 -4.9482827 5.6477036 -9.081124 -4.918066 -2.2389097 -3.9048264 1.467268
-0.23891783 -7.456108 6.6401606 -0.23469613 -1.2396326 0.9527395 0.74905944 2.5260248
4.159969 -0.34609962 5.250669 6.213139 -3.6115878 -2.5413268 5.247213 -3.1995132
-0.21403064 -16.49903 -5.6436486 -0.27031574 -4.4268527 -1.5615966 -0.67642295 -0.39005375
-3.7391758 -1.8712515 -6.29118 -4.340826 1.3121569 1.3478462 -2.940478 2.7321205
-2.1379964 -6.0384336 -5.6476307 -0.095058635 -2.8081887 0.25215355 -0.2110518 -11.673931
-3.49191 -0.051013667 -0.9043965 -2.8941128 -1.4796647 -0.11619906 -0.08437132 0.8725213
-4.0368986 1.8533716 3.7370546 -9.281647 -0.34251243 0.9475467 -5.569742 -5.5659795
-0.23717836 2.0806782 -3.9681532 -0.9809836 -0.69708407 3.7061038 -0.951164 -3.139575
3.983019 -1.4218087 -1.7822337 -0.24911447 4.4720063 -3.3727653 -4.569151 -5.777406
-3.143646 0.86093485 6.0527887 3.6868079 1.7646697 5.2455664 0.2437166 -2.536553
5.3936024 -1.4994031 1.5121495 -0.5373147 -5.0744424 -6.8827133 -8.207211 -0.20239697
0.34512332 -0.413522 0.9363663 3.3638785 0.22947796 -4.2328315 2.3790705 2.481743
-5.4293046 -0.16201393 -0.20547779 -1.6783719 -0.12844709 -0.0052483142 -0.19079551 -7.506045
