backup/linearq_newenv/rcsl_0.75expert/timestamp_23-0926-161555&112-[8]/model/policy.pth (torch, 1881 bytes, 3 tensors)

rcsl.backbone.model.0.weight f4 [8, 2]
0.26388454 0.290993 -0.58198076 -0.5203875 -0.08624641 0.28671488 -0.1453827 0.47584373
-0.12394728 0.14049044 -0.21369691 -0.13899271 -0.6755334 -0.46830416 -0.06885014 0.07973501
00000000: e01b 873e 09fd 943e b1fc 14bf 1d38 05bf
00000010: f5a1 b0bd 4bcc 923e 34df 14be caa1 f33e
00000020: 12d8 fdbd badc 0f3e 5dd3 5abe 1b54 0ebe
00000030: c2ef 2cbf 90c5 efbe 4d01 8dbd 1c4c a33d

rcsl.backbone.model.0.bias f4 [8]
0.27937534 0.42428017 -0.5415685 -0.28773198 0.5040712 0.5871729 -0.1455227 0.1401695
00000000: 490a 8f3e 403b d93e 3ca4 0abf 9b51 93be
00000010: cf0a 013f f750 163f e703 15be 9888 0f3e

rcsl.backbone.model.2.weight f4 [1, 8]
0.0118158795 0.037410934 0.41098917 -0.24713333 -0.18411629 -0.08950743 -0.13781509 0.27707025
00000000: 6497 413c 353c 193d 2c6d d23e 8510 7dbe
00000010: fb88 3cbe ac4f b7bd 661f 0dbe 27dc 8d3e
