backup/linearq_newenv/rcsl_0.75expert/timestamp_23-0926-112014&32-[16]/checkpoint/policy.pth (torch, 1945 bytes, 3 tensors)

rcsl.backbone.model.0.weight f4 [16, 2]
00000000: f0d0 8b3b 7107 c83e b1fc 14bf 1d38 05bf
00000010: e249 d9be d126 453e d98c 873d 72a1 0b3f
00000020: b0df 95bd d852 383e 5dd3 5abe 1b54 0ebe
00000030: c2ef 2cbf 90c5 efbe 682e 92be 7272 1a3e
00000040: 0f64 c53e 5882 ce3e de70 f5be 86a7 9dbe
00000050: aa7d 2e3e febf 193f d5b3 4dbe 52e9 003f
00000060: 5172 65be 736b dc3d c6ef 143f 4aae 1bbf
00000070: c5ea e3be ac4f 37be 7a4f 84be ef6f 1c3f
0.0042668507 0.39068177 -0.58198076 -0.5203875 -0.4243918 0.19253089 0.066186614 0.5454322
-0.07318056 0.18000352 -0.21369691 -0.13899271 -0.6755334 -0.46830416 -0.2855103 0.1508272
0.385529 0.4033382 -0.47937673 -0.30791873 0.17040125 0.6005858 -0.20088132 0.5035602
-0.2240689 0.10762682 0.58178365 -0.6081282 -0.44515052 -0.17901486 -0.25841886 0.611083

rcsl.backbone.model.0.bias f4 [16]
00000000: e10a 0ebf 86a8 a6be 5e1a e8be 7712 09bf
00000010: ea7f e0be 979a 1b3f 5e8c a13e 18f1 103f
00000020: b63d 3f3e 7b9c b9be 4c13 e9bb 05e7 31bf
00000030: b89f dcbe 638f bcbe 876c e43e e171 d43e
-0.5548535 -0.32550448 -0.45332617 -0.535438 -0.4384759 0.6078276 0.31552404 0.5661788
0.18675885 -0.36252198 -0.007112896 -0.6949313 -0.43090606 -0.36828145 0.4461405 0.41493133

rcsl.backbone.model.2.weight f4 [1, 16]
00000000: 2897 fcbd 20cb 13bc 2107 4c3e c9f1 6f3e
00000010: fc56 cb3d c855 0a3d fea4 2b3e 9c3c cfbe
00000020: 2845 873d 6c7a 46be 7594 2dbe 2034 00be
00000030: 8b71 353e e2bc c7bb 6aa4 17be 4532 973d
-0.12333518 -0.009020597 0.19924594 0.23432077 0.099287 0.033773214 0.16762158 -0.4047593
0.066049874 -0.19382638 -0.16951163 -0.12519884 0.17719094 -0.0060955146 -0.14808813 0.07382635
