backup/hopper-medium-expert-v2/rcsl/timestamp_23-0830-214008&1/model/policy.pth (torch, 498555 bytes, 10 tensors)

rcsl.backbone.model.0.weight f4 [200, 12]
0	0xc07e07b5	-3.9692204
1	0x4187550a	16.916523
2	0xc067b637	-3.6204965
3	0x4107ef29	8.495889
4	0xc0248eec	-2.5712233
5	0x40682537	3.6272714
6	0xc081188d	-4.034247
7	0xc0ab2f94	-5.349558
8	0x40925503	4.5728774
9	0x4049dbe6	3.1540465
10	0x3e79c199	0.24390258
11	0xbd05389a	-0.032524683
12	0x3fa69c26	1.3016403
13	0x3d391f8c	0.0451961
14	0xbf8f4594	-1.1193109
15	0xc000fa88	-2.0152912
16	0xbf861279	-1.0474387
17	0x3f71e69a	0.94492495
18	0x3fdc6f3f	1.722145
19	0xc0b5c8f3	-5.68078
20	0xbfec9988	-1.8484354
21	0xbf8668fc	-1.0500789
22	0x3e7ee94c	0.24893683
23	0xc00715fe	-2.1107173
24	0xbf23e2f9	-0.6401821
25	0x3f0214dd	0.50813085
26	0x3f189c10	0.5961313
27	0xbf4c5b81	-0.79827124
28	0x3d57e511	0.05270869
29	0xbdde5d8f	-0.10857689
30	0xbe095106	-0.13409814
31	0x3d4bf29e	0.049791925
32	0x3e0bd8ed	0.1365697
33	0x3e0e52ed	0.13898821
34	0xbe11144a	-0.14167896
35	0xbe866386	-0.26247805
36	0xbf998d54	-1.1996255
37	0x40afaa5a	5.489545
38	0x40c4d74e	6.1512823
39	0xbf52bc10	-0.8231821
40	0xc06ac507	-3.6682756
41	0xbf2f0138	-0.68361235
42	0xbf8fa5a4	-1.1222425
43	0x40241e05	2.5643322
44	0xbf9e27c9	-1.2355891
45	0x3eaac261	0.33351424
46	0xbd292824	-0.041298047
47	0xbd44f79d	-0.048087705
48	0xbd8e271c	-0.06941053
49	0x41037b78	8.217644
50	0xbfe235f4	-1.7672715
51	0x4039754b	2.897784
52	0xc0a39cfe	-5.112914
53	0xbec8c4dd	-0.39212695
54	0xbfaf9a9f	-1.3719062
55	0xc0b14d2e	-5.5406713
56	0xbfdde801	-1.7336427
57	0x3ddeafa2	0.10873343
58	0x3d9d8925	0.07692174
59	0xbf2247a7	-0.6339058
60	0xbe8e8cd9	-0.27841833
61	0x3d4eec7a	0.05051849
62	0x3e84fde6	0.2597496
63	0x3e8ea4a9	0.2786
64	0xbdb738c5	-0.08946375
65	0xbe31b794	-0.17355186
66	0x3dabfb7d	0.08397577
67	0xbe7c5930	-0.24643397
68	0xbe1a2f62	-0.15057138
69	0xbe508efe	-0.20367047
70	0x3e1df729	0.15426315
71	0xbe0b0a8b	-0.1357824
72	0xc122a9e6	-10.166479
73	0x418213f3	16.25974
74	0xc08a2bf5	-4.317866
75	0x403564f2	2.8342862
76	0x3e9e49a5	0.3091556
77	0x3fbe8867	1.4885377
78	0xc0655e0e	-3.5838656
79	0xbfa3bada	-1.2791398
80	0x3f1ded70	0.61690426
81	0xc03b6186	-2.9278274
82	0xbe864c9a	-0.26230317
83	0xbc1218e4	-0.008917067
84	0x3d6ffbb3	0.05858965
85	0xbc16b4dd	-0.009198395
86	0xbe2be703	-0.16787343
87	0x3e924912	0.28571373
88	0x3e4d1754	0.2002843
89	0x3c991375	0.018686036
90	0xbce688fb	-0.02814149
91	0xbe3ac418	-0.18238866
92	0x3d551e1c	0.052030668
93	0x3dc2a6c9	0.09504468
94	0xbdbaae6e	-0.09115301
95	0xbe8024d7	-0.25028107
96	0xc0610736	-3.5160651
97	0x4132e077	11.179801
98	0x3f702088	0.9379964
99	0xc04cabc4	-3.1979837
100	0xc005118e	-2.0791965
101	0xc03f20ce	-2.9863772
102	0xbf30d2aa	-0.6907145
103	0xbfd05c12	-1.6278098
104	0x3e7e24a9	0.24818672
105	0xc04555de	-3.083366
106	0x3fc0d6ad	1.5065514
107	0xbc8297b1	-0.015941473
108	0x3e1c3024	0.15252739
109	0x3da2118e	0.079135045
110	0x3e183001	0.14862062
111	0x3e8a1f7b	0.26977143
112	0x3ea1b5be	0.3158397
113	0xbe7c9a73	-0.24668293
114	0x3cb0b959	0.021572756
115	0x3e81602f	0.25268695
116	0x3e44959d	0.19197698
117	0x3e458eeb	0.192928
118	0xbe214ac9	-0.15751185
119	0xbe889cda	-0.26682168
120	0x3f528901	0.822403
121	0xc105f6c2	-8.372744
122	0x40d3cfcd	6.6191163
123	0x4088541e	4.260268
124	0x40c9a0a6	6.3008604
125	0xc05e6faa	-3.4755654
126	0xc0a74b53	-5.227945
127	0x3f9ed898	1.2409849
128	0xbf2be8de	-0.671522
129	0x3f37c72e	0.717883
130	0xbfb8b848	-1.4431238
131	0xbd46e57d	-0.0485587
132	0xbff33442	-1.9000323
133	0x3ffed351	1.9908239
134	0x3fba4b95	1.4554316
135	0x3f887684	1.0661168
136	0x404467bf	3.0688322
137	0xbfef9d5c	-1.8719897
138	0xc06b964b	-3.6810482
139	0x406a0204	3.656373
140	0x401c7b99	2.4450438
141	0xbf168e39	-0.58810765
142	0xbc92e010	-0.017929107
143	0xbe2e9916	-0.17050585
144	0xbceefb37	-0.029172523
145	0xbd6d3518	-0.057911962
146	0x3e72e683	0.23720746
147	0x3e61ad9e	0.22038886
148	0x3e863e9b	0.2621964
149	0x3d9fcaaa	0.07802327
150	0x3b7fc270	0.0039025806
151	0x3e65be0e	0.22435781
152	0xbb10bbbf	-0.0022084562
153	0x3d8185ef	0.06324374
154	0xbe0f2a0b	-0.13980882
155	0xbea4f295	-0.32216325
156	0xbf00b22e	-0.5027188
157	0x3f13dbd1	0.5775729
158	0x3edf987c	0.43671024
159	0x3df22f36	0.11825411
160	0xbeb5014e	-0.35352558
161	0x3c9ee00e	0.019393947
162	0xbca4c12b	-0.02011164
163	0xbd2014bc	-0.039082274
164	0xbde44260	-0.111454725
165	0x3cdc9332	0.026925657
166	0xbddf4376	-0.10901539
167	0xbe4c0267	-0.19922791
168	0xc06e7ddb	-3.7264316
169	0x41c6b818	24.83989
170	0xbfae24b1	-1.3604947
171	0x4095d030	4.6816635
172	0x41161405	9.379888
173	0x3f4c279d	0.79747945
174	0x3f54768e	0.829934
175	0xc0046c7d	-2.0691216
176	0x3fdbb9be	1.7166059
177	0xbfaefdba	-1.3671181
178	0x3f0fc9c5	0.5616725
179	0xbe13550a	-0.14387909
180	0xc0544d95	-3.3172352
181	0xc0446a7a	-3.0689988
182	0xc0f55ec0	-7.667816
183	0xc0a2f185	-5.0919824
184	0xc08ec862	-4.461961
185	0x3f2d6e22	0.67746174
186	0xbfd377be	-1.6520917
187	0x3fada397	1.3565549
188	0x3f638c28	0.88885736
189	0x3ee6029a	0.4492386
190	0xbe4b56c4	-0.19857317
191	0xbd84fd96	-0.0649368
192	0x40e99a61	7.300095
193	0x40e9aad6	7.302104
194	0x405d59f9	3.4586165
195	0xc1e5e187	-28.73512
196	0xc1ff8bad	-31.943201
197	0xbff59ce9	-1.918851
198	0x4114c786	9.298712
199	0x3f39155e	0.7229823
200	0xbedaf616	-0.42765874
201	0xc0f72eb7	-7.7244525
202	0x4069e386	3.654512
203	0x39892368	0.00026157056
204	0xbef3bcb1	-0.47604898
205	0xc177f5b4	-15.497486
206	0x3deec55a	0.116587356
207	0xc0b59ede	-5.675643
208	0x3e8d1792	0.27557045
209	0xbfd48342	-1.6602557
210	0x3f8dce13	1.1078514
211	0xbf6f2942	-0.9342233
212	0xbfbf9f9d	-1.4970585
213	0xbfc69185	-1.5513159
214	0x3f71690a	0.943009
215	0xbe199925	-0.14999826
216	0xbfb1d258	-1.3892317
217	0x4146d00f	12.425796
218	0x3f359a70	0.7093878
219	0x400029c0	2.0025482
220	0x40b3b5be	5.6159353
221	0xbdb17d56	-0.08666484
222	0xbf400151	-0.7500201
223	0x3eaf52f0	0.34242964
224	0x4008eab2	2.1393247
225	0xbffbb0f3	-1.9663376
226	0x3e715db3	0.235709
227	0xbf6de5b4	-0.92928624
228	0xbd1f4ae3	-0.038889777
229	0x3ef1c863	0.47223195
230	0x3dfd108b	0.12356671
231	0x3de76f97	0.11300581
232	0x3eb2a327	0.348901
233	0xbe7269d6	-0.23673186
234	0xbe0a2b5e	-0.13493106
235	0x3e1b72cf	0.15180515
236	0xbe3f9a4b	-0.18711202
237	0x3e51031e	0.20411345
238	0xbd102504	-0.03519155
239	0xbee0c08a	-0.43896896
240	0x3f9bf839	1.2185127
241	0xc1fbfee2	-31.499454
242	0x408db053	4.427774
243	0xc11f45eb	-9.95457
244	0x406e2ce9	3.721491
245	0xbe5a5b4c	-0.2132389
246	0xc17450c1	-15.269715
247	0xc187e369	-16.98604
248	0x41096aca	8.588572
249	0x415f725a	13.965418
250	0x4091b9d6	4.553935
251	0x39c97b2a	0.00038429472
252	0xc061c6d4	-3.5277605
253	0x40a9ee95	5.310374
254	0x3fa0334c	1.2515655
255	0xc012db8c	-2.29465

rcsl.backbone.model.0.bias f4 [200]
0	0xbfd9f716	-1.702853
1	0x3f9ca46e	1.223768
2	0xbe5c327f	-0.21503638
3	0xc01cafb9	-2.4482253
4	0x3e8b1cb3	0.27170333
5	0xbea08b15	-0.3135611
6	0xc0c32541	-6.0982976
7	0xbd92ad8b	-0.07162007
8	0xc0197a57	-2.398092
9	0xbe8c3bf9	-0.27389506
10	0x3f42a487	0.760323
11	0xbffd5e1c	-1.9794345
12	0xbe94f2e3	-0.29091558
13	0xbd731a86	-0.059351467
14	0xbe8f985e	-0.28045934
15	0xc038a4e1	-2.8850634
16	0x411d5bff	9.83496
17	0xbf683b55	-0.90715533
18	0xbfa11237	-1.2583684
19	0xbd1399a9	-0.036035214
20	0x40b60b8d	5.68891
21	0xc016c389	-2.3556845
22	0xbe6a59f2	-0.22885874
23	0xbf164e16	-0.587129
24	0xbeaac6d5	-0.33354822
25	0xc02e9462	-2.7278066
26	0x3d8aeb24	0.06783131
27	0xbf42c262	-0.76077855
28	0xbcbacf72	-0.022803996
29	0x3f19b030	0.60034466
30	0x3f06ff1b	0.5273301
31	0x3fbffc68	1.4998903
32	0x3f85e9bd	1.0461956
33	0x3f3edd04	0.74555993
34	0x3cf3a9b6	0.02974401
35	0xbe059506	-0.13045129
36	0xbf6732cf	-0.903119
37	0xbe953cc9	-0.29147938
38	0xbe4c74c1	-0.19966413
39	0xbe896aa2	-0.26839167
40	0xbfe18bd1	-1.7620794
41	0x3dcfcde7	0.10146695
42	0xbf6c2a88	-0.922524
43	0xbe936134	-0.28785098
44	0x3f8044b8	1.0020971
45	0x40004b47	2.0045946
46	0x3d201b5e	0.0390886
47	0xbe90e675	-0.28300825
48	0xc02fc37b	-2.7463062
49	0xbf48250d	-0.78181535
50	0xbcaef56a	-0.021357257
51	0xbf84a4c8	-1.0362787
52	0xbeb68cd9	-0.35654333
53	0xbf4f6428	-0.810122
54	0xc0a0fb26	-5.030658
55	0xc0184adb	-2.3795688
56	0xbdd95419	-0.106117435
57	0x3d988ebf	0.07449102
58	0xbf9796f4	-1.1842942
59	0xbe908945	-0.28229728
60	0xbf7a055a	-0.97664416
61	0xc01a2b22	-2.4088826
62	0xc04f7b16	-3.2418876
63	0xbfb7f2ed	-1.437101
64	0x4007a0d8	2.1191921
65	0xbdbd1a4d	-0.09233532
66	0xbee83602	-0.45353705
67	0xbff8ee9e	-1.944782
68	0x403a289c	2.9087286
69	0x3f4965c1	0.7867089
70	0xc0091219	-2.1417296
71	0xc06c819c	-3.6954107
72	0xbf86e10d	-1.053743
73	0xc0073fa2	-2.1132588
74	0xc056ab53	-3.3542068
75	0xbfd89256	-1.6919658
76	0xbfc139ff	-1.5095824
77	0xc0058e1c	-2.0867987
78	0x4110a7ec	9.040997
79	0xbf9b4501	-1.2130433
80	0xbfc9a64b	-1.5753874
81	0xbf511dde	-0.816862
82	0xbfd0aff6	-1.6303699
83	0xbeaf5c80	-0.3425026
84	0xbeb60018	-0.35546947
85	0x40871cf3	4.222284
86	0xbedd622f	-0.4323897
87	0xbec34f1e	-0.381463
88	0xbe965011	-0.2935796
89	0xc06da6ae	-3.7132983
90	0xc05aa517	-3.4163263
91	0xbf82b507	-1.0211495
92	0xbf98bbeb	-1.1932348
93	0xc03d634a	-2.9591851
94	0xbfb0d3b8	-1.3814611
95	0x41169fe6	9.414038
96	0xbfd21050	-1.6411228
97	0x3dd80edd	0.1054971
98	0xbebb7c07	-0.36618063
99	0xbed06372	-0.4070087
100	0xc01ca3df	-2.447502
101	0xbf42ced1	-0.76096827
102	0x4117749a	9.465967
103	0x400ed1ef	2.2315633
104	0xc018c960	-2.387291
105	0xc039172f	-2.89204
106	0x3ff7c484	1.9356847
107	0xbf3bc0c9	-0.7334104
108	0x4087df22	4.245988
109	0xbdbd99d0	-0.09257853
110	0x3ec190cd	0.37805787
111	0x3fb0ffa0	1.382801
112	0xc06cf0a7	-3.7021883
113	0xbeb5fa05	-0.35542312
114	0xc038b0b9	-2.8857863
115	0xbe41554c	-0.18880194
116	0xbc036e82	-0.008021953
117	0xbef81c5a	-0.4845913
118	0xbf9e85d7	-1.2384595
119	0x3f62acd6	0.88544977
120	0xbf9d370e	-1.2282426
121	0xbf19ab28	-0.6002679
122	0xbe2380db	-0.15967123
123	0xbe31382b	-0.17306583
124	0xbe8de670	-0.27714872
125	0x3f85cae2	1.045254
126	0xc1077b5a	-8.467615
127	0xbf8b3f27	-1.0878648
128	0xbe8b1520	-0.27164555
129	0xbe211639	-0.15731134
130	0xbdc0b68e	-0.094098195
131	0xbe717d50	-0.23582959
132	0xc0c2382f	-6.0693583
133	0x3e7ae2c4	0.24500567
134	0x3e538562	0.2065635
135	0xbe940d07	-0.2891619
136	0xbf7cb417	-0.98712295
137	0x3f2e55db	0.68099755
138	0xc0aa72e4	-5.3265247
139	0xbee11e88	-0.43968606
140	0xc02a8920	-2.6646194
141	0xbf886625	-1.0656172
142	0xbda8c8b3	-0.08241405
143	0xbe9af020	-0.30261326
144	0x3e3352c0	0.17512035
145	0xc0448fe9	-3.0712836
146	0xbf1a1f4c	-0.60204005
147	0x40b67f64	5.7030506
148	0x40f71932	7.7218256
149	0x3fc70cdd	1.55508
150	0x3e2c5d51	0.16832472
151	0xc0548064	-3.3203363
152	0xc0fb2003	-7.8476577
153	0x3d7389df	0.059457656
154	0x40df03be	6.969207
155	0x3db962b5	0.0905203
156	0xc00d511a	-2.208075
157	0xbf54902a	-0.83032477
158	0xbf793653	-0.9734852
159	0xbf012944	-0.5045359
160	0xc0d8acc3	-6.771089
161	0x3f90f2bc	1.1324077
162	0xc0973ffa	-4.7265596
163	0xbf1a5dbe	-0.6029929
164	0xbea5658c	-0.32304037
165	0xbf84263d	-1.0324169
166	0xc063b403	-3.557862
167	0xbf570eb6	-0.8400682
168	0xc027e7e8	-2.6235294
169	0xbfc02ab6	-1.5013034
170	0xc002e4db	-2.0452182
171	0xbe9fc8ee	-0.31207985
172	0x4024446e	2.5666766
173	0xc05abc4e	-3.4177432
174	0x4131a6ef	11.103255
175	0xbe6f31c9	-0.23358835
176	0x3edff16a	0.43738872
177	0xbf12040d	-0.5703743
178	0xc066d21c	-3.606574
179	0x3dbfcff2	0.09365834
180	0x3ed6cede	0.41954702
181	0xbf90fba5	-1.1326796
182	0x3ddaa772	0.10676469
183	0xbec592c7	-0.38588545
184	0xbef8e63b	-0.48613152
185	0xbf8b4711	-1.0881063
186	0x3d720284	0.05908443
187	0xc0a95259	-5.291302
188	0x413a8f4e	11.6599865
189	0xbdb92934	-0.09041062
190	0x3f8d8189	1.1055156
191	0x3fc8d0f9	1.5688773
192	0x3e052fde	0.13006541
193	0xbf82319a	-1.0171387
194	0xbfe20867	-1.7658814
195	0xbd26dede	-0.040739886
196	0xbff43f1f	-1.9081763
197	0xc0cdcc2c	-6.4311733
198	0x3f8c6b48	1.097024
199	0xc088059c	-4.2506847

rcsl.backbone.model.2.weight f4 [200, 200]
0	0x3f44ed00	0.76924133
1	0xc06cc0ef	-3.6992757
2	0x3e7afae5	0.24509771
3	0x3fab6856	1.3391216
4	0xbe062fb8	-0.13104141
5	0xbd1294df	-0.035786506
6	0xbedead18	-0.43491435
7	0x3b0fedba	0.0021961764
8	0x3fae3a6d	1.361158
9	0xbc4654fc	-0.012105223
10	0x3d89ccb2	0.06728496
11	0x3fed4840	1.8537674
12	0x3d819d1f	0.063287966
13	0x3dce0353	0.10059228
14	0xc015c44a	-2.3401055
15	0xbf2f9869	-0.68591934
16	0xbb76baeb	-0.0037648033
17	0xc0a353ec	-5.1039944
18	0x407c0b0a	3.9381738
19	0xbeb5f449	-0.35537937
20	0xbf228e5d	-0.6349848
21	0x3edf26f2	0.435844
22	0x3d47d3b2	0.048785873
23	0x3ecec091	0.40381292
24	0xbdb9c5a4	-0.090709
25	0xbffcbecb	-1.9745725
26	0x3c93488f	0.017978935
27	0xc0412152	-3.0176587
28	0x3d99b0d9	0.07504434
29	0x3dd1be70	0.10241401
30	0x3fb386db	1.402553
31	0xbebdd88e	-0.3707928
32	0xc00906d8	-2.1410427
33	0x400cffdb	2.2031162
34	0x3be0fb6b	0.006865909
35	0xbc5e0313	-0.013550538
36	0xbf17043a	-0.58990824
37	0x4011fe57	2.2811487
38	0x3d929a3f	0.07158326
39	0x3ac3493f	0.0014899148
40	0x408b2965	4.348803
41	0xbd320490	-0.043461382
42	0x40a55810	5.167
43	0xbe983963	-0.29731283
44	0xc02cd5e8	-2.7005558
45	0xc1022d44	-8.136051
46	0xbd501942	-0.050805338
47	0xbb6feb9c	-0.003660894
48	0xbf1c2e41	-0.6100808
49	0xbecddfe6	-0.40209883
50	0xbc6fc2c0	-0.014633834
51	0xbf6ccc83	-0.9249956
52	0xbdcf7d88	-0.10131365
53	0xbdf018ac	-0.11723456
54	0x402f2905	2.7368786
55	0x3fc16f51	1.5112096
56	0x3e887215	0.26649538
57	0xbf3f9728	-0.7484002
58	0x3e5719b6	0.21005902
59	0x3d731ed3	0.05935557
60	0xbf6d7840	-0.9276161
61	0x405699e0	3.3531418
62	0x3e29663f	0.1654291
63	0xbf631492	-0.8870326
64	0x3f8e3ba2	1.1111948
65	0x3f0c064a	0.54697096
66	0x3e127f41	0.14306356
67	0xc0799fe8	-3.900385
68	0xbdedcdf8	-0.11611551
69	0x3e9fd365	0.3121597
70	0x3ca765ce	0.020434286
71	0xc0364525	-2.8479702
72	0x3fcceb40	1.6009293
73	0xc0fbb642	-7.8659983
74	0xc087e05c	-4.2461376
75	0xbf05a663	-0.5220701
76	0xc0531cc8	-3.2986317
77	0x3fa1e303	1.2647403
78	0xbfa6de4d	-1.3036591
79	0x3f704757	0.93858856
80	0xbf6c865e	-0.9239253
81	0x4081e1f0	4.0588303
82	0x3d7fdf40	0.062468767
83	0x3f82dab3	1.0222992
84	0x3c82e8cf	0.015980152
85	0x3e8cf97e	0.27534097
86	0x4008edc8	2.139513
87	0xbdb07161	-0.08615375
88	0xbee7dc0d	-0.45285073
89	0xbfa5d910	-1.2956867
90	0xbd78dc05	-0.060756702
91	0x3fdd258c	1.7277083
92	0x408032d5	4.006205
93	0x3ea2d379	0.31801966
94	0xbf22da37	-0.6361422
95	0xc07b2269	-3.9239752
96	0xbfe933f9	-1.8218986
97	0x3cd05869	0.025432782
98	0xbbf3dc4f	-0.0074420343
99	0x3dea85fd	0.114513375
100	0xbfb418b7	-1.4070042
101	0xbe0da945	-0.13834102
102	0xbf886389	-1.0655376
103	0xbf63e0dc	-0.89014983
104	0x407f8c43	3.992936
105	0xbf392da0	-0.72335243
106	0xbea06152	-0.3132425
107	0x3c20a893	0.009805816
108	0xbfc3fc81	-1.5311433
109	0x3d9cb0d6	0.07650916
110	0x401638c2	2.3472142
111	0x40da421b	6.8205695
112	0xbf061dc5	-0.52389175
113	0xc0f603e2	-7.687974
114	0xbfa7ab13	-1.3099083
115	0xbe18a9f4	-0.14908582
116	0xbea1ccd9	-0.316016
117	0x3e9d181e	0.30682462
118	0xbd4f34e8	-0.050587565
119	0xc0734d45	-3.8015912
120	0x3e325520	0.17415285
121	0xbed69e35	-0.41917577
122	0xbbd8ab3d	-0.00661221
123	0x3d541adc	0.051783428
124	0xbedda03b	-0.4328631
125	0xc00e43da	-2.2228913
126	0x3f43d4f6	0.7649683
127	0x3fd35a33	1.6511902
128	0x3b71d6b9	0.0036901666
129	0x3edad0c0	0.4273739
130	0xbb8d08e0	-0.0043040365
131	0x3d0c18cf	0.034203347
132	0xbf89f3ea	-1.0777562
133	0x3c3d9e66	0.01157341
134	0xbd16b2e6	-0.036791705
135	0xbd5bed40	-0.053693056
136	0x3fe746d7	1.8068494
137	0xbebd28ab	-0.3694509
138	0x3f2a16cf	0.66441053
139	0x3e3a1301	0.18171312
140	0xbe8c5cf6	-0.27414674
141	0xc01e6ba9	-2.475321
142	0x3d3749e2	0.044748195
143	0x3bfc526f	0.0077002565
144	0xbe40ceae	-0.18828842
145	0x40539126	3.3057342
146	0xbeb82432	-0.35965115
147	0x3c71b892	0.014753478
148	0xbf0f46c2	-0.5596734
149	0xbfa5ad95	-1.2943598
150	0x3f456818	0.7711196
151	0x3f805cb1	1.0028287
152	0xbf3ecac1	-0.7452813
153	0xbd194e67	-0.037428286
154	0xbd37acd9	-0.044842575
155	0xbb684700	-0.003544271
156	0xc0b7ba89	-5.7415204
157	0x3fb3d4c5	1.4049307
158	0x3f83fc06	1.0311286
159	0x3d6489b8	0.0557954
160	0x3edd10d5	0.43176904
161	0xc01067bb	-2.2563312
162	0x3eab8c3b	0.33505425
163	0xbd5be246	-0.053682588
164	0x3d893349	0.06699235
165	0x3dc96534	0.09833756
166	0x4013dd40	2.310379
167	0xbf2c0fb6	-0.67211473
168	0xbde20259	-0.11035604
169	0x3e3c9261	0.18415214
170	0xbdae3657	-0.08506458
171	0xbe38097f	-0.17972372
172	0xc184b11f	-16.586485
173	0xbf965bd0	-1.1746769
174	0xbe6bd483	-0.23030286
175	0x3d826bfe	0.06368254
176	0x3e7eab27	0.24869977
177	0x3ffd99f0	1.9812603
178	0xbf894511	-1.0724202
179	0xbf584a59	-0.84488446
180	0xc0030016	-2.0468802
181	0xbfd0047d	-1.625137
182	0x3dc99c8b	0.09844311
183	0xbc8252cb	-0.01590862
184	0xbd9046cd	-0.07044754
185	0x3f96ac9e	1.1771429
186	0xbc2068d7	-0.009790621
187	0x401411fa	2.3135972
188	0xbf8338cf	-1.0251712
189	0x3c86da6c	0.016461574
190	0x3fc21f3d	1.5165783
191	0x3df4e886	0.11958413
192	0xbff7679e	-1.9328496
193	0xbd961b17	-0.07329386
194	0xbf018f4e	-0.5060929
195	0xbd104301	-0.03522015
196	0xbfad2720	-1.3527565
197	0xbecbd6c3	-0.39812288
198	0x3faace52	1.3344214
199	0xbf8fb4dc	-1.1227069
200	0xba495921	-0.0007680823
201	0xbad0e318	-0.001593682
202	0xbc30ce3a	-0.010791356
203	0xbdb33c54	-0.08751741
204	0x3d0d2f28	0.0344688
205	0x3c288c79	0.010287398
206	0xbcaca790	-0.021075994
207	0x3d2e117c	0.042497143
208	0x3d0269e6	0.031839274
209	0xbc92a5d2	-0.017901335
210	0xbce84897	-0.028354926
211	0xbd36c70b	-0.044623416
212	0xbd5aa32a	-0.05337826
213	0xbd12008b	-0.03564505
214	0x3c2d3867	0.010572529
215	0xbd72bbf7	-0.05926129
216	0xbbadeb2c	-0.0053075757
217	0x3b6e3c16	0.0036351732
218	0xbd342375	-0.043979127
219	0x3d0ee9c7	0.034890916
220	0x3d0ae384	0.033908382
221	0xbd7ae1e1	-0.06125057
222	0x3d212967	0.039346125
223	0x3d349b76	0.04409357
224	0x3d87ccd0	0.06630862
225	0xbdaee262	-0.08539273
226	0x3d679674	0.056539968
227	0xbc204fd0	-0.009784654
228	0x3b9aaa4e	0.004720009
229	0xbd304d31	-0.043042365
230	0xbd3b0c54	-0.045666054
231	0xbd70797d	-0.05870961
232	0xbd9adfb2	-0.07562198
233	0xbc16aaa0	-0.009195954
234	0x3c903505	0.017603407
235	0xbd4dcf38	-0.050246447
236	0x3afe7670	0.0019413959
237	0xbdaaea49	-0.083454676
238	0x3d0bd20c	0.034135863
239	0xbd41dd29	-0.047330055
240	0xbc9dbe43	-0.019255763
241	0x3d55569d	0.052084554
242	0xbd83621b	-0.064151965
243	0xbd696ebb	-0.056990366
244	0xbd86dfdb	-0.06585666
245	0xbd50edf1	-0.05100817
246	0xbd0177cf	-0.0316084
247	0x3d7dc694	0.061956957
248	0xbd9cfa0b	-0.076648794
249	0x3c29472e	0.010331912
250	0xbd4fc59c	-0.050725564
251	0xbccecbdd	-0.025243694
252	0xbd6807e8	-0.056648165
253	0xbdd780bd	-0.10522602
254	0xbd1cf4c5	-0.038319368
255	0xbba19ed0	-0.004932262

rcsl.backbone.model.2.bias f4 [200]
0	0xbff1f9c4	-1.8904347
1	0xbdaa1e23	-0.083065294
2	0xc01c627d	-2.4435112
3	0xbd612941	-0.054970983
4	0xc0b1d51b	-5.557264
5	0xbda24e99	-0.079251476
6	0xbdad3131	-0.08456648
7	0x3f7e538c	0.9934623
8	0x3c837ae2	0.016049806
9	0xbdf93b07	-0.12169462
10	0xc0afcac6	-5.4935026
11	0xbc055df4	-0.008140076
12	0xbfb9f55b	-1.4528002
13	0xc0830b25	-4.0951104
14	0x3e9b9e8e	0.30394405
15	0x3d3b5c2d	0.045742203
16	0xbe14593f	-0.1448717
17	0xbf2a4bf7	-0.66522163
18	0xc16db16c	-14.855816
19	0x3ef36eea	0.47545558
20	0xbdad428d	-0.08459959
21	0xbe13bcb9	-0.1442746
22	0xc0063690	-2.0970802
23	0xbd6892ca	-0.056780614
24	0xc09a744f	-4.826698
25	0xbd63b269	-0.055590067
26	0xc05bd783	-3.4350288
27	0xbbd7576d	-0.0065717013
28	0x3db37b28	0.087637246
29	0xbd786426	-0.060642384
30	0xc09a5cd3	-4.823831
31	0xbd05dd64	-0.032681838
32	0xc015792b	-2.3355205
33	0xc0fa5b2c	-7.8236294
34	0xc135b201	-11.355958
35	0xbd906b6c	-0.07051739
36	0xbff84ccd	-1.9398438
37	0x3ccd2478	0.025041804
38	0xbd995341	-0.074865825
39	0x4052b899	3.292517
40	0xc09d7722	-4.9207926
41	0xbe077af4	-0.13230497
42	0xbdaba06a	-0.08380206
43	0xbd295d70	-0.041348875
44	0x3cf00d18	0.029303119
45	0xbf0ad645	-0.542332
46	0xbef0b940	-0.47016335
47	0xbd353be5	-0.044246573
48	0xbe0c97f6	-0.13729843
49	0xc08af46e	-4.3423376
50	0xbd7b0eb8	-0.061293334
51	0xbe2bdafc	-0.16782755
52	0xbde2a6bd	-0.11066959
53	0x3cb20aea	0.02173372
54	0xc054ce05	-3.3250744
55	0xbcbe920a	-0.023262996
56	0x3f4fd63d	0.81186277
57	0x4000dc09	2.0134299
58	0xc1817926	-16.184155
59	0x3c19c2f2	0.0093848575
60	0xbf780ad4	-0.9689152
61	0xc0b6c6db	-5.7117743
62	0x3cbde0de	0.023178514
63	0xbed21dd2	-0.41038376
64	0xbde2b70d	-0.110700704
65	0xc075f0ec	-3.8428297
66	0xc0cfcc85	-6.493716
67	0xc1308718	-11.032982
68	0xbf849d44	-1.0360494
69	0x40c716fe	6.2215567
70	0xbb171d22	-0.0023058136
71	0xbddb54be	-0.10709523
72	0xbfba5650	-1.455759
73	0xbcbe69fb	-0.023243895
74	0x3fbc5017	1.4711941
75	0xbdaa9416	-0.083290264
76	0xbdc7c76e	-0.09754835
77	0xc0a2adf5	-5.083735
78	0x40c2996e	6.081229
79	0xc01c0bd7	-2.4382226
80	0xc09dda74	-4.9329166
81	0xc02a709c	-2.6631231
82	0xbd8daaec	-0.069173664
83	0xbf0bd31b	-0.54618996
84	0xbe379629	-0.17928375
85	0xbd58b466	-0.052906416
86	0xbd942e4c	-0.07235393
87	0xbd8527de	-0.06501745
88	0x3d62ec60	0.055401206
89	0xbd35a8f4	-0.04435058
90	0xbdb94edd	-0.09048245
91	0xbd9ecaaa	-0.07753499
92	0xbd06d038	-0.032913417
93	0x3f1accae	0.60468566
94	0x3fa24036	1.2675846
95	0xc0c606b2	-6.1883173
96	0xc06e2a2a	-3.7213235
97	0xbd5703e9	-0.052493963
98	0xc0fadaf5	-7.839228
99	0x40e7b76b	7.24114
100	0x3fd702e9	1.6797763
101	0xc0b96a7f	-5.79425
102	0x3ccec0db	0.025238445
103	0xc0b86bec	-5.763174
104	0xbda69b4e	-0.08135091
105	0x4081dd38	4.0582542
106	0x3cf9c222	0.030488078
107	0x3bf597a0	0.0074948817
108	0x3cc116e8	0.023570493
109	0xc07297b3	-3.790509
110	0x3d87f529	0.066385575
111	0xc0549c72	-3.3220487
112	0xbe0b8147	-0.13623534
113	0xc1232a38	-10.197807
114	0xc115d191	-9.363664
115	0x3d8ab3ab	0.0677255
116	0xbea84515	-0.32865205
117	0xbcfcaa06	-0.030842792
118	0xbce341e6	-0.027741384
119	0x4036644a	2.8498712
120	0xbce94ed9	-0.02847998
121	0xbd60ed1f	-0.054913636
122	0xbdac6a2d	-0.08418689
123	0xbd32a28e	-0.043612055
124	0xc032e66c	-2.7953138
125	0xbaf0f81d	-0.001838449
126	0x3fd3c218	1.6543608
127	0xbdf47a93	-0.11937442
128	0xbdd33fd6	-0.1031491
129	0xbb656d4b	-0.003500777
130	0xbe8ae46a	-0.2712739
131	0x408b0b19	4.3451047
132	0xbffe8281	-1.9883577
133	0x3ba33787	0.0049809846
134	0xbd6346a7	-0.0554873
135	0x3ca64ccb	0.02030029
136	0xc050969d	-3.2591927
137	0xbd5979e6	-0.053094767
138	0x3f9462d0	1.1592655
139	0xc0c9fd37	-6.31216
140	0xc09e9e56	-4.956828
141	0xc16b6162	-14.711275
142	0xbebd7eef	-0.37010905
143	0xc057bbbe	-3.3708339
144	0x3b5a1976	0.0033279336
145	0xbdb1f79b	-0.08689805
146	0x3dbe5754	0.09294
147	0x3d87053c	0.06592795
148	0xbd13bc75	-0.0360684
149	0x400299cf	2.0406377
150	0xbda1dd5c	-0.07903549
151	0xc0b0eafb	-5.528684
152	0xbf11952c	-0.56868243
153	0xc0802e4f	-4.005653
154	0x3c68d46a	0.0142108
155	0xc0ada187	-5.4259677
156	0xbdb9a1d6	-0.09064071
157	0xbd4e23a0	-0.050326943
158	0x4006dc5d	2.1072
159	0xbddcd405	-0.10782627
160	0x40207e8f	2.5077245
161	0xc0d2e35f	-6.5902553
162	0x3faf1a72	1.3679945
163	0xbc9a3668	-0.018824771
164	0xbd6408e5	-0.055672545
165	0xbd2bb5db	-0.041921478
166	0x3d3a81f1	0.045534078
167	0x3ca06b30	0.019582361
168	0xbdc2823f	-0.09497499
169	0xbd84019f	-0.06445622
170	0xbd2278a4	-0.039665833
171	0x3c5af130	0.013363168
172	0xbf282d14	-0.65693784
173	0x3db1dec6	0.08685069
174	0xbd536503	-0.051610004
175	0x3eaa0822	0.3320933
176	0xbd28daef	-0.041224416
177	0xbdb916f3	-0.0903758
178	0xbc03d90a	-0.008047352
179	0xbdad3f32	-0.08459319
180	0xc0839471	-4.1118703
181	0x40132343	2.2990272
182	0xbd406ce8	-0.04697886
183	0x3faa0ccc	1.3285155
184	0x4100a45a	8.040125
185	0xbd91fa70	-0.07127845
186	0xc0ca01d2	-6.312722
187	0xbf6a9217	-0.91629165
188	0xc09d5ce7	-4.9175906
189	0xc0c34818	-6.1025505
190	0xbc8e708a	-0.017387647
191	0xbfe74e57	-1.8070782
192	0x3f84ba1f	1.03693
193	0xbda2b397	-0.0794441
194	0xbd9b6e7f	-0.07589435
195	0xc0801179	-4.002133
196	0xc09fc251	-4.9924703
197	0xbd296a66	-0.041361235
198	0xbe06eb4b	-0.13175695
199	0xbeaa330b	-0.33242068

rcsl.backbone.model.4.weight f4 [200, 200]
0	0xbf57d666	-0.8431152
1	0xbd1fbfb3	-0.039001178
2	0xbe827980	-0.25483322
3	0x3d02dd4c	0.031949326
4	0xc034e731	-2.8266108
5	0x3ccc854d	0.024965907
6	0x3d8e5c12	0.06951155
7	0x3e206a82	0.1566563
8	0xbd032c30	-0.032024562
9	0x3bcde310	0.0062831715
10	0x3f4d53df	0.802061
11	0xbc5e4793	-0.013566869
12	0x3f21cb9c	0.6320131
13	0xbe99f0a8	-0.3006642
14	0xbe6a99fa	-0.229103
15	0x3d30f3e7	0.043201353
16	0xbc81b110	-0.0158315
17	0x3ec0d736	0.37664193
18	0xbf563ef6	-0.8368982
19	0xbe1cc9e0	-0.15311384
20	0x3d2dfd64	0.04247798
21	0x3d6284d0	0.05530244
22	0x3e9fef79	0.3123739
23	0x3d040824	0.032234326
24	0xbecb8c8b	-0.39755663
25	0x3ccb53bb	0.0248202
26	0xbfbba4b2	-1.4659636
27	0xbd4d0d60	-0.050061584
28	0xbeaa08a1	-0.33209708
29	0xbc7b2fcc	-0.01533122
30	0xbe7058ce	-0.23471376
31	0xbbe7b497	-0.0070710885
32	0xbc1c533c	-0.009541329
33	0xbf8e2c5a	-1.1107285
34	0xbfd16e49	-1.6361781
35	0xbd1c6324	-0.038180485
36	0xbe16a8b9	-0.147128
37	0xbd6f3efe	-0.058409683
38	0xbbb5b4cf	-0.0055452357
39	0x3f29c393	0.6631405
40	0x3eda7c09	0.42672756
41	0xbb939f89	-0.004505102
42	0xbd4df259	-0.05027995
43	0x3c9175fc	0.017756455
44	0xbd099be0	-0.03359592
45	0xbe987931	-0.29779962
46	0xbc3f2060	-0.011665434
47	0x3c9acf6b	0.018897733
48	0xbba202a2	-0.0049441615
49	0x3ef157e0	0.47137356
50	0x3c61ec26	0.013789212
51	0xbe187f18	-0.14892232
52	0xbd71b761	-0.059012774
53	0x3d8a326c	0.067478985
54	0x3e60255c	0.21889251
55	0xbc589599	-0.013219261
56	0x3d6430ec	0.055710718
57	0xbecceb0c	-0.40023077
58	0xc01b374c	-2.42525
59	0x3d432310	0.04764086
60	0xbfb6256c	-1.423017
61	0xbec1c244	-0.37843525
62	0x3cc91aac	0.024548851
63	0xbcbba5a1	-0.022906126
64	0xbc22a696	-0.0099274125
65	0xbee28fd0	-0.44250345
66	0x3d254360	0.040347457
67	0x3e7a2af6	0.24430451
68	0x3e1138a2	0.1418176
69	0xbe3baf6b	-0.18328635
70	0xbe4cbb89	-0.19993414
71	0x3d82df46	0.06390242
72	0x3df92c48	0.12166649
73	0xbbd46fd6	-0.0064830584
74	0xbe75db47	-0.24009429
75	0xbd53f5a1	-0.05174792
76	0x3d661d21	0.056180123
77	0xbec1524e	-0.37758106
78	0xbe2e68b5	-0.1703213
79	0xbe3c21e3	-0.18372302
80	0xbec5dcc8	-0.38645005
81	0xbd9ffaa6	-0.07811479
82	0x3b6b8f05	0.00359434
83	0x3e6fab24	0.23405129
84	0xbe18fa46	-0.14939222
85	0xbd8f57d7	-0.06999176
86	0x3d5e2d15	0.054242212
87	0xbd47cdd0	-0.048780262
88	0x3bf28e85	0.0074022436
89	0x3c9354d0	0.017984778
90	0xbc9d6e11	-0.019217523
91	0xbd1ff17f	-0.039048668
92	0xbcf2575a	-0.029582668
93	0xbe01a515	-0.1266063
94	0x3e9bff40	0.30468178
95	0xbd46bc69	-0.048519526
96	0x3ed55914	0.41669524
97	0x3bcec547	0.0063101384
98	0x3ed3d3a5	0.4137241
99	0x3eed1bdd	0.4631032
100	0xbf80f6f1	-1.007536
101	0xbe5290f4	-0.20563108
102	0x3d13fa11	0.036127154
103	0xbf83e1d7	-1.0303296
104	0xbcc9da43	-0.024640208
105	0xbf33bd39	-0.70210606
106	0x3c391d67	0.011298514
107	0xbd44b11e	-0.048020475
108	0x3d186479	0.037205193
109	0xbdd2aba5	-0.10286645
110	0x3f6ea671	0.9322272
111	0xbe204740	-0.1565218
112	0x3da45f05	0.08025936
113	0x3eb56530	0.35428762
114	0xbfecfea2	-1.8515208
115	0x3bf33a2b	0.0074227056
116	0xbeb6caf0	-0.35701704
117	0xbcf8b606	-0.030360233
118	0x3c9bed8f	0.019034175
119	0x3e835c7b	0.25656494
120	0xbd5fbed7	-0.05462536
121	0xbc15a23b	-0.009132917
122	0xbb771892	-0.0037703854
123	0xbd87c673	-0.06629648
124	0xbe592b84	-0.21208006
125	0xbd36d726	-0.044638775
126	0x3e99a374	0.30007517
127	0xbd7d1ae7	-0.061793234
128	0xbc64c2f9	-0.013962501
129	0x3c5362c7	0.012901968
130	0xbea14d69	-0.31504372
131	0x3e5fec2b	0.21867435
132	0xbf2e25b0	-0.68026257
133	0xbd5a8c54	-0.053356484
134	0xbcc0994e	-0.023510601
135	0xbce3c50e	-0.027803924
136	0x3c080944	0.00830299
137	0x3d234b5e	0.039866798
138	0xbfdcba46	-1.7244346
139	0x3e74ccbc	0.23906225
140	0xbfbbbb61	-1.4666559
141	0xbf178257	-0.5918326
142	0xbe25afc3	-0.16180329
143	0x3e8d9b97	0.27657768
144	0xbd629467	-0.05531731
145	0xbdd4e9c7	-0.10396152
146	0x3de7ae49	0.11312539
147	0xbe858057	-0.26074478
148	0x3dae58a5	0.08513001
149	0xbe58fe71	-0.21190812
150	0xbd664652	-0.056219406
151	0x3f35719a	0.7087647
152	0x3f082fba	0.53197825
153	0xbd5c3171	-0.05375809
154	0x3cda28d6	0.0266308
155	0xbd349a89	-0.04409269
156	0x3cde6162	0.027146045
157	0xbd1f63e0	-0.038913608
158	0x3c8fcd41	0.017553927
159	0x3dca1f8d	0.09869299
160	0x3dc0529d	0.09390757
161	0x3cc3cf2e	0.023902502
162	0xbf0b6df0	-0.54464626
163	0x3d5467bf	0.051856752
164	0xbcd91b08	-0.026502147
165	0xbd5647df	-0.052314635
166	0x3cf5bbdd	0.029996807
167	0xbd47e1b6	-0.04879924
168	0xbc819fea	-0.015823323
169	0xbd1b348b	-0.037891906
170	0xbd087e4d	-0.033323575
171	0x3bb30c31	0.0054641
172	0x3e63d0f9	0.22247685
173	0xbec5bca7	-0.38620493
174	0x3d3f2086	0.046661876
175	0xbe5c21cf	-0.21497272
176	0xbd8a9e8c	-0.06768522
177	0x3c2c2cce	0.010508729
178	0x3ceb6754	0.028735794
179	0x3d88608f	0.06659042
180	0xbe1ccfe3	-0.15313677
181	0x3cc4099e	0.023930367
182	0x3cb93825	0.02260978
183	0xbe0931bd	-0.1339788
184	0xbe13c095	-0.14428933
185	0xbdf589d0	-0.11989176
186	0xbf896e90	-1.0736866
187	0x3ecd3b33	0.40084228
188	0x3e08c98a	0.13358131
189	0xbe80032c	-0.2500242
190	0x3d82424e	0.06360303
191	0xc0284f44	-2.629838
192	0xbf29e4c3	-0.6636469
193	0xbb34325c	-0.0027495837
194	0x3d7dee05	0.06199457
195	0x3e2a4d3e	0.16631028
196	0xbf4826db	-0.7818429
197	0xbca88e54	-0.02057568
198	0xbd8a1d56	-0.06743877
199	0x3dc2b762	0.09507634
200	0xbdc1ff17	-0.09472483
201	0x3cc57560	0.02410382
202	0x3e814494	0.25247633
203	0x3d2c87b6	0.04212161
204	0xbf39b63e	-0.72543705
205	0x3df215cb	0.11820563
206	0xbd0b560e	-0.034017615
207	0xbd2a14db	-0.041523796
208	0xbaad259e	-0.0013210063
209	0xbc8753ee	-0.016519513
210	0xbcdaece4	-0.026724286
211	0x3c388b71	0.011263714
212	0x3f3fe313	0.7495586
213	0xbfb021c2	-1.3760302
214	0xbe63997c	-0.22226518
215	0x3d239980	0.03994131
216	0x3d9a454a	0.07532747
217	0xbe823cec	-0.25437105
218	0x3f015b31	0.5052977
219	0xbf1317bb	-0.57458085
220	0x3bd31784	0.0064420123
221	0xbd54f600	-0.051992416
222	0xbeb7b50b	-0.35880312
223	0xbc1b66a1	-0.009484918
224	0xbe9acda3	-0.30235013
225	0x3cad9ee2	0.021193925
226	0x3ea127e4	0.31475747
227	0xbdcd0666	-0.10010986
228	0xbeac2e2b	-0.33628973
229	0x3ca419af	0.020031778
230	0xbd5f6e39	-0.054548476
231	0xbd12a939	-0.035805915
232	0xbe3be7d2	-0.18350151
233	0xbed7f607	-0.4217989
234	0x3e496228	0.1966635
235	0xbcf36428	-0.029710844
236	0xbf0d78d1	-0.55262476
237	0xbdc6b053	-0.097016
238	0x3cf159f4	0.029461838
239	0x3f25938c	0.64678264
240	0xbc4afe58	-0.012389742
241	0xbdcfe40d	-0.10150919
242	0xbd44ee8c	-0.04807906
243	0x3c644627	0.013932741
244	0x3d9e6ec1	0.077359684
245	0x3e95550d	0.2916645
246	0xbe397619	-0.18111457
247	0xbd65e74d	-0.05612879
248	0x3daf1727	0.08549338
249	0x3d7c0270	0.061525762
250	0xbd0dec6a	-0.03464929
251	0x3db571fe	0.08859633
252	0xbd485703	-0.048911106
253	0x3d17312f	0.03691214
254	0x3ee011f2	0.4376369
255	0x3c3e87f5	0.011629094

rcsl.backbone.model.4.bias f4 [200]
0	0xc00810be	-2.1260219
1	0x40c0cd60	6.02507
2	0x3fdb4bcd	1.7132508
3	0xc0902f68	-4.505787
4	0xc088dc94	-4.276926
5	0xbd9fc670	-0.07801521
6	0xbde41614	-0.111370236
7	0x40a76b46	5.231845
8	0xbe5a2ed6	-0.21306929
9	0xc036a1db	-2.8536289
10	0xbd914b90	-0.070944905
11	0xbdd2e4a0	-0.10297513
12	0xbfebd10f	-1.8423175
13	0x40370221	2.859505
14	0xbdbbb1f4	-0.09164801
15	0xc073bfe3	-3.8085868
16	0xc0659e8c	-3.587802
17	0xbf8046ae	-1.002157
18	0xc0309c0d	-2.7595246
19	0xc11b6908	-9.713142
20	0xc095d8d2	-4.6827173
21	0xbdc0198e	-0.09379874
22	0xbe00b6a4	-0.12569672
23	0xbd917985	-0.07103256
24	0xbe0939d4	-0.13400966
25	0xc0556065	-3.3340085
26	0xbe5926bd	-0.21206184
27	0x4080cfae	4.0253515
28	0xc08895b1	-4.268273
29	0xbddd35d4	-0.108012825
30	0x3bf30829	0.0074167443
31	0xc09b746a	-4.8579607
32	0xbdb73df8	-0.089473665
33	0xc083bef9	-4.117062
34	0xc0865bb8	-4.198696
35	0xc0dddd5d	-6.933272
36	0xbdf66b1c	-0.12032148
37	0x408a58e6	4.323352
38	0xbe2a6ca9	-0.16643013
39	0xbd58938a	-0.05287508
40	0xbf87c8af	-1.0608119
41	0xbe1959b6	-0.14975628
42	0xbd31cd4a	-0.04340867
43	0xc0d587da	-6.6728334
44	0xbdb29cb3	-0.08721294
45	0xbdd7de5e	-0.1054046
46	0x40081744	2.12642
47	0xc1070585	-8.438848
48	0xc10cebb9	-8.807549
49	0x40cacfd5	6.33787
50	0xbfca4609	-1.5802623
51	0xbf167e7f	-0.5878677
52	0xbcc20333	-0.023683166
53	0x40172a6f	2.361965
54	0xc0606e30	-3.5067253
55	0xbdeadd38	-0.114679754
56	0xbe1cad84	-0.15300566
57	0xc038c19a	-2.8868165
58	0xbf88d748	-1.0690699
59	0xbcb96934	-0.022633173
60	0xbee9411c	-0.45557487
61	0xbd0bbd19	-0.034115884
62	0xbe09a452	-0.1344159
63	0xc02fad9c	-2.7449713
64	0xc0a5ca04	-5.18091
65	0xbc9b1bbc	-0.018934123
66	0xbf970d70	-1.1800976
67	0x3fc7de9e	1.5614812
68	0x401a6996	2.4126945
69	0x3e35ceb7	0.17754637
70	0xbfe25495	-1.7682062
71	0x3e9e84d8	0.30960727
72	0xc13e2a8b	-11.885386
73	0xbf035471	-0.5130072
74	0x3d032198	0.03201446
75	0xc0b7ef03	-5.747926
76	0xbdaf337b	-0.08554741
77	0xbcaf85bf	-0.02142608
78	0xbdfddd31	-0.123957045
79	0xc0984819	-4.758801
80	0xbf6a1a90	-0.9144678
81	0xbdcd79f1	-0.10033024
82	0x40aeba23	5.460222
83	0xbd509357	-0.050921764
84	0xc01b7271	-2.42886
85	0x408af37c	4.342222
86	0xc097fa6a	-4.749318
87	0xbfe5131a	-1.7896454
88	0x3ea27808	0.31732202
89	0x4120820e	10.031752
90	0xc0558a6a	-3.3365731
91	0xc024d49c	-2.5754766
92	0xbdf982c9	-0.121831484
93	0x4106430a	8.391367
94	0x40bb0235	5.8440194
95	0xbd969dc9	-0.07354314
96	0xc056069b	-3.3441532
97	0xbddf7309	-0.10910613
98	0xbdfd0562	-0.12354542
99	0x3dd5a1bd	0.1043124
100	0xc0771173	-3.86044
101	0xbec8c630	-0.39213705
102	0xbfc3ba40	-1.5291214
103	0xbe2d47fd	-0.16921993
104	0xc0bbeb2e	-5.8724585
105	0x3ee61f01	0.4494553
106	0xbd8954b1	-0.06705607
107	0xc0ba735f	-5.8265834
108	0x3f371fe4	0.71533036
109	0xbd173040	-0.03691125
110	0xbddef02d	-0.10885654
111	0xbe3fca8f	-0.18729614
112	0xc009560f	-2.1458776
113	0xc149b35d	-12.60629
114	0xc07c6925	-3.9439175
115	0xbebc0dde	-0.3672933
116	0xc0c38a96	-6.110667
117	0xbe4af0f0	-0.19818473
118	0xbca92259	-0.020646261
119	0xbdbd3e19	-0.0924036
120	0xc0041ccd	-2.0642579
121	0xc171a5c6	-15.102972
122	0x3ea90a16	0.33015507
123	0xbd9ddbd4	-0.077079445
124	0xbd6f65c3	-0.058446657
125	0x402615a1	2.5950701
126	0xc0c26368	-6.0746346
127	0xc180cc39	-16.099718
128	0x4051d337	3.2785165
129	0xc0dd8593	-6.9225554
130	0x3f92c359	1.1465865
131	0xbde779af	-0.11302506
132	0x3c97e412	0.01854137
133	0x3fd5a6b0	1.6691494
134	0xc09ab7ca	-4.834935
135	0xbcc01bd8	-0.023450777
136	0xbdbf2f9d	-0.093352534
137	0xc11a7d14	-9.655537
138	0xbe241c14	-0.16026336
139	0xbe359ff2	-0.17736796
140	0xc026fc8b	-2.609164
141	0xc0b278de	-5.5772543
142	0xc0da7c3c	-6.8276653
143	0xbfc9214c	-1.5713286
144	0xc022f2c5	-2.5460675
145	0x40cedaa5	6.46419
146	0xc074b02e	-3.8232532
147	0xc07e6f44	-3.975541
148	0xbfec7dd1	-1.8475896
149	0x40928e0d	4.57984
150	0xbef16bc9	-0.47152546
151	0xbdc2db62	-0.095145
152	0xc0c367cf	-6.106422
153	0xbd5f101b	-0.05445872
154	0x3f742c0b	0.95379704
155	0xbf30c278	-0.69046736
156	0xbddc3010	-0.10751355
157	0x41039b3b	8.225398
158	0xc0dd1bed	-6.909659
159	0xc019de42	-2.4041905
160	0x3e34fbfb	0.17674248
161	0xbcf32028	-0.02967842
162	0x406cc20d	3.699344
163	0xc0e004fa	-7.0006075
164	0xbcbc32df	-0.022973476
165	0x3fe512c2	1.789635
166	0xc04f4866	-3.2387938
167	0x401cf199	2.452246
168	0xc1890e45	-17.131968
169	0x41007a08	8.029793
170	0xc090a0a5	-4.51961
171	0xc038f324	-2.8898401
172	0xc11ea050	-9.914139
173	0x40d22849	6.5674176
174	0xbdf77dee	-0.12084566
175	0xbfa034e8	-1.2516146
176	0x410e031f	8.875762
177	0xbe1b12d2	-0.15143898
178	0xc073ee19	-3.8114073
179	0x403fbd07	2.9959123
180	0xbe21ff0d	-0.1581995
181	0xbff0699e	-1.8782232
182	0xbe44430b	-0.191662
183	0xc0ffa75e	-7.9891806
184	0x40a1ece1	5.060166
185	0x3f2bc120	0.6709156
186	0xbd4ab0e0	-0.049485087
187	0xbdf97cbe	-0.12181996
188	0xc0590750	-3.3910713
189	0xbe206931	-0.15665127
190	0xbf7946c7	-0.9737362
191	0x3fd34f50	1.6508579
192	0xc0a27b43	-5.0775466
193	0x40030c4f	2.0476263
194	0xbf8e7cf1	-1.1131879
195	0xbdd75ddd	-0.1051595
196	0xbff35f70	-1.90135
197	0xbd846029	-0.064636536
198	0xc09be95b	-4.872236
199	0xbe015c73	-0.12632923

rcsl.backbone.model.6.weight f4 [200, 200]
0	0x3e7649d9	0.24051608
1	0xbe29dc16	-0.16587862
2	0x3e08fb56	0.13377127
3	0xc045f453	-3.0930374
4	0x3ef941ec	0.48683107
5	0x3b465586	0.0030263378
6	0xbd002146	-0.031281732
7	0xbf18069b	-0.5938508
8	0xc01625d9	-2.34606
9	0x3ea7621c	0.3269204
10	0x3d39a579	0.045323823
11	0xbd1370f5	-0.035996396
12	0xbf8e14ee	-1.1100137
13	0xbd50ceef	-0.050978597
14	0x3c933746	0.017970692
15	0xc0861698	-4.190258
16	0xbe441474	-0.19148427
17	0x3d4ec0ca	0.050476827
18	0x3c85c637	0.016329868
19	0xc06201fa	-3.5313706
20	0x3e9d945c	0.30777252
21	0xbbe4ad93	-0.0069786995
22	0x3cc2d0b5	0.02378116
23	0x3bc593f0	0.0060295984
24	0x3c22950a	0.009923229
25	0xc033bfc4	-2.8085794
26	0x3d67dae4	0.056605235
27	0xbe562de8	-0.2091595
28	0xbe48dcfe	-0.19615552
29	0xbcdfe0e3	-0.027328914
30	0xbbfa2e32	-0.0076349014
31	0xbf2b345a	-0.6687676
32	0xbcc5b6fa	-0.024135102
33	0xbe97efee	-0.2967524
34	0x3f28f61b	0.6600053
35	0xbe9de197	-0.30836174
36	0xbb838756	-0.004013936
37	0xc0b5b5c6	-5.678439
38	0x3ce935e9	0.02846809
39	0xbce816e4	-0.028331228
40	0xc091f033	-4.560571
41	0xbc265ab8	-0.010153465
42	0x3d0b1d47	0.033963468
43	0x3ecded2b	0.40220007
44	0x3e827d63	0.25486287
45	0xbe51f643	-0.20504098
46	0x3e8e1976	0.277538
47	0xc0fa3536	-7.8189955
48	0xc11a1ce3	-9.632052
49	0xbf451786	-0.7698902
50	0xbe3d775f	-0.18502568
51	0xbb11cdbb	-0.002224787
52	0xbd49c33c	-0.049258456
53	0xbe913b9d	-0.28365794
54	0xbfe6f753	-1.8044227
55	0xbd0691e8	-0.03285399
56	0xbd084491	-0.033268515
57	0xbdbf89d7	-0.09352463
58	0xbdd03185	-0.10165695
59	0xbc3723e1	-0.011177988
60	0xbf373d71	-0.7157813
61	0x3d55af72	0.05216927
62	0x3d6eb16a	0.058274664
63	0xbf876a05	-1.057923
64	0xc02e4abd	-2.7233117
65	0xbc6f1da8	-0.014594473
66	0xbe6571b9	-0.22406663
67	0x3dc01a79	0.09380049
68	0xbe3b201f	-0.18273972
69	0x3ec93a2c	0.39302194
70	0xbcfc7d31	-0.030821415
71	0x3de8d529	0.11368782
72	0x3e48b876	0.19601616
73	0x3f8e4da0	1.1117439
74	0xbd54baa3	-0.051935803
75	0x3e7f40c6	0.24927053
76	0xbd284a28	-0.041086346
77	0x3d5462b5	0.051851947
78	0xbd3e9047	-0.046524312
79	0xbf82b34c	-1.0210967
80	0xbeb14488	-0.34622598
81	0xbd833873	-0.06407251
82	0x3e91380f	0.28363082
83	0xbc253f21	-0.010085852
84	0xbf99662b	-1.1984304
85	0xbf159286	-0.584267
86	0xbec9797e	-0.39350504
87	0xbea0da69	-0.31416634
88	0xbdb71252	-0.08939041
89	0x3d9c3070	0.07626426
90	0xc053037a	-3.2970872
91	0xbf0be1f6	-0.54641664
92	0x3c0d401b	0.008621241
93	0x3c8bb90f	0.017056016
94	0xbe186556	-0.14882407
95	0x3db07845	0.086166896
96	0xbfb31a36	-1.3992374
97	0x3dfb5af2	0.12273206
98	0xbc101d2b	-0.008796017
99	0x3d8cf7f2	0.06883229
100	0xbe6d6f32	-0.23186949
101	0xbf9a3f0c	-1.205049
102	0xbe2cadeb	-0.1686322
103	0xbeb637e2	-0.3558951
104	0xbe1ab5ff	-0.15108489
105	0xbcea49e5	-0.028599689
106	0xbbc674a8	-0.006056387
107	0x3e5b3171	0.21405579
108	0x3c0c970e	0.008580936
109	0xbba5ecfb	-0.0050636507
110	0xbd3335fb	-0.04375265
111	0x3d62559c	0.055257425
112	0x3e689705	0.2271386
113	0x3d61506d	0.05500834
114	0xbec506ce	-0.38481754
115	0x3c5692f3	0.013096559
116	0x3d302073	0.042999696
117	0xbd261d19	-0.040555093
118	0xbd882575	-0.06647769
119	0xbafa6ad4	-0.0019105324
120	0xc093b2a4	-4.6155567
121	0xbec8d991	-0.3922849
122	0xbe62a258	-0.22132242
123	0xbcb9be76	-0.022673827
124	0x3d7fe3a4	0.062472954
125	0xbe8e89d9	-0.27839544
126	0x3e1e7502	0.15474322
127	0xc0cd405d	-6.414107
128	0xbe814ae8	-0.2525246
129	0xbf391016	-0.7229017
130	0xbffc00d7	-1.9687756
131	0xbd134486	-0.03595402
132	0xbd4f379c	-0.050590143
133	0xbe33d93b	-0.17563336
134	0x3d13a6b6	0.03604766
135	0x3d44cd59	0.048047397
136	0xbcbb4bfe	-0.022863384
137	0xbf73d19f	-0.9524173
138	0xbd6e9689	-0.05824903
139	0x3cc22408	0.023698822
140	0xbe14bfc2	-0.14526275
141	0xc0ba3e5c	-5.820112
142	0xbfb27354	-1.3941445
143	0xbe3b42da	-0.1828722
144	0x3cdcc875	0.026951054
145	0xbe7dc012	-0.247803
146	0xbf838921	-1.0276223
147	0xbd88e487	-0.06684213
148	0x3ebe5982	0.37177664
149	0xbb784fa2	-0.0037889262
150	0x3db813a1	0.08988119
151	0xbc80eccb	-0.015737912
152	0xbfa7949d	-1.3092228
153	0xbbc42594	-0.005985925
154	0xbf8d830f	-1.1055621
155	0x3ed2c988	0.4116938
156	0x3da64383	0.081183456
157	0xbee5c74a	-0.44878608
158	0xbe422035	-0.18957599
159	0xc11c172c	-9.755657
160	0xbed4bc2a	-0.41549808
161	0xbbc95978	-0.0061446987
162	0x3ee86d53	0.45395908
163	0x3e53e7b1	0.20693852
164	0xbd15be0f	-0.036558207
165	0x3e4058d2	0.18783882
166	0xbfd54700	-1.6662292
167	0xc0801cde	-4.003524
168	0xbd26a8d3	-0.040688347
169	0xbee702c4	-0.45119298
170	0xc0c122a6	-6.0354795
171	0xc01f0e7b	-2.4852588
172	0x3db3f3cd	0.08786736
173	0xbdf3bfa9	-0.11901791
174	0x3d810978	0.06300634
175	0xbe93c724	-0.2886287
176	0x3eab32f4	0.33437312
177	0x3cc2efd4	0.023796
178	0xc13795be	-11.474058
179	0x3deb9bfb	0.1150436
180	0xbe128da0	-0.14311838
181	0xbfa0e8a9	-1.2571002
182	0xbca0811f	-0.01959282
183	0xbf8623ba	-1.0479653
184	0xbe30a622	-0.17250875
185	0xbcfa3a24	-0.030545302
186	0xbc85bfe9	-0.016326861
187	0x3c25a245	0.010109489
188	0xbe3fe956	-0.18741354
189	0x3c861fe9	0.016372638
190	0x3ef729f7	0.48274204
191	0xc09872c4	-4.7640095
192	0x3e04062c	0.1289298
193	0xc040fc1a	-3.015387
194	0x3e52e157	0.20593773
195	0x3d092787	0.03348496
196	0xbe8b927b	-0.27260193
197	0x3cc038ac	0.023464523
198	0xc09d2a8b	-4.911443
199	0x3c30d094	0.010791916
200	0x3ef12835	0.47100988
201	0x3db09d61	0.08623768
202	0x3e785f65	0.2425514
203	0x3e267a39	0.16257562
204	0xbe8b9857	-0.27264664
205	0x3c93ab8b	0.018026134
206	0x3ce4fe42	0.02795327
207	0x3e38880c	0.18020648
208	0xbe23a65d	-0.15981431
209	0x3e4f830d	0.20264836
210	0x3d304834	0.04303761
211	0xbc7fb8eb	-0.015608053
212	0xc04b39a4	-3.175393
213	0xbd5d9efb	-0.054106694
214	0xbcc5e85e	-0.024158653
215	0xbea7482a	-0.32672244
216	0xc007582b	-2.1147563
217	0x3f30e12e	0.69093597
218	0xc01fde99	-2.4979613
219	0xbf80e668	-1.0070314
220	0xbd5039d7	-0.05083641
221	0xbd456458	-0.0481914
222	0x3d45a500	0.04825306
223	0xbcceaaee	-0.02522799
224	0x3d2932b6	0.041308127
225	0xbe2a5628	-0.16634429
226	0x3ce77af1	0.028256865
227	0xc083d269	-4.119435
228	0xbffe6d15	-1.9877039
229	0x3d689ee0	0.05679214
230	0x3d85e78b	0.06538304
231	0xbe2e8589	-0.17043127
232	0xbcedef7a	-0.029044855
233	0x3de44b62	0.11147191
234	0xbc718a76	-0.014742484
235	0xbf0876a7	-0.5330605
236	0xbcd38f6a	-0.025825221
237	0x3eb2b031	0.34900048
238	0x3cc1601b	0.023605397
239	0xbc9adee6	-0.018905114
240	0xbdb8268e	-0.08991729
241	0x3d9476a7	0.07249194
242	0xc0f2ce67	-7.5876956
243	0xc07e5504	-3.973939
244	0xbe113088	-0.1417867
245	0xbeed6081	-0.4636269
246	0xc0c1389c	-6.0381603
247	0xbeb686a6	-0.35649604
248	0x3d63a7b7	0.055579867
249	0xbd5d60a3	-0.054047238
250	0x3f1afa33	0.60538024
251	0xbd5ddce6	-0.054165743
252	0xbd88a33d	-0.0667176
253	0x3d8fe045	0.07025198
254	0xbe9c5758	-0.30535388
255	0xbd80e2d1	-0.06293262

rcsl.backbone.model.6.bias f4 [200]
0	0xc06ac36b	-3.6681774
1	0xbff5ff1a	-1.9218476
2	0xbf915427	-1.1353806
3	0xbe9081f6	-0.28224152
4	0x3f3d18e9	0.73866135
5	0xc01f05bd	-2.4847252
6	0xc1096136	-8.586233
7	0x3fef491a	1.8694184
8	0xc1192a7a	-9.57287
9	0xc0316fdd	-2.7724526
10	0xbeb58adf	-0.35457513
11	0xbfdd7136	-1.7300174
12	0xbf7de7f8	-0.9918208
13	0xbf8e4b68	-1.1116762
14	0xc0990bf0	-4.782707
15	0xbf0ffa7f	-0.562416
16	0xbc58eedc	-0.013240542
17	0xc0356d5c	-2.8347998
18	0xbffb2238	-1.9619818
19	0xc0d2717e	-6.576354
20	0xc079f042	-3.9052892
21	0xc0c477f5	-6.139643
22	0x3fee7a8a	1.8631146
23	0x407fd17e	3.9971614
24	0xbfc3ff38	-1.5312262
25	0xc0b7feea	-5.7498674
26	0xc05715fb	-3.3607166
27	0xc0ffef07	-7.997928
28	0xbf08c8df	-0.53431505
29	0xc125e6e6	-10.368872
30	0x3f2456b6	0.6419481
31	0xc0ebecd8	-7.3726616
32	0xbea42ffb	-0.32067856
33	0xbfc4e102	-1.5381167
34	0x40b2895a	5.5792665
35	0x3ea9eb0a	0.33187133
36	0xbfd9ad32	-1.700598
37	0xbfeeb905	-1.8650213
38	0xc0155099	-2.3330443
39	0xc08f4512	-4.4771814
40	0xc0268fab	-2.6025188
41	0xc1149e69	-9.288674
42	0xbe60bf52	-0.21947983
43	0xc028a60d	-2.635135
44	0x40638d7a	3.55551
45	0xbfd98f89	-1.6996928
46	0xbf0586e7	-0.5215897
47	0xbeb36b5b	-0.35042843
48	0xc0a91a78	-5.284481
49	0xc0847c7c	-4.140196
50	0xc103862c	-8.220257
51	0xc0f5eaf8	-7.6849327
52	0xbe9820fc	-0.29712665
53	0xc02b0971	-2.6724513
54	0x403018c6	2.751512
55	0x4069462f	3.6449087
56	0xbe7a419c	-0.2443909
57	0x3ff009fa	1.8753045
58	0xbeb8f890	-0.36127138
59	0x406f111b	3.735419
60	0x40065a5e	2.0992656
61	0x3f234e14	0.6379101
62	0xc02817e9	-2.6264594
63	0xc0ca11b1	-6.3146596
64	0xc0185633	-2.3802612
65	0xc04b779b	-3.1791751
66	0xc0f79688	-7.7371254
67	0x4015e85c	2.342307
68	0xbfb8c55b	-1.4435228
69	0xbdcdcbb4	-0.10048619
70	0x40e007e5	7.0009637
71	0xc122cb1d	-10.174588
72	0xc08d6fed	-4.419913
73	0xbe06bd5d	-0.13158174
74	0xbecc2049	-0.39868382
75	0xc0e21e51	-7.0662007
76	0xc08bcdbc	-4.368864
77	0x40ba1c6c	5.8159695
78	0xc111d8ac	-9.115398
79	0xbeb0b0c8	-0.34509873
80	0x409d382c	4.913107
81	0xc0425c63	-3.0368888
82	0xc082003e	-4.0625296
83	0xbe11ddbc	-0.14244741
84	0xc0139019	-2.30567
85	0xc06ec9ee	-3.7310748
86	0xbe706eb5	-0.23479731
87	0x4016d24d	2.3565857
88	0x408f0bf0	4.470207
89	0xc041f850	-3.0307808
90	0xbe87bfed	-0.26513615
91	0xc093db32	-4.6205072
92	0xbfb9b702	-1.4508975
93	0xc0a13c79	-5.038632
94	0xbe85e6d2	-0.26152664
95	0xbfdca4b3	-1.7237762
96	0xc11ebf04	-9.921635
97	0xbfade216	-1.3584621
98	0xbebea226	-0.37233084
99	0xc0314b32	-2.7702146
100	0x3e35ab8f	0.17741226
101	0xbe8573b0	-0.26064825
102	0xc056a838	-3.3540173
103	0xc076302c	-3.8466902
104	0xc03c7003	-2.9443367
105	0xc0310130	-2.7656975
106	0x3e03064a	0.12795368
107	0xc04e08c5	-3.2192852
108	0x40355c49	2.8337576
109	0x404a6ee8	3.1630192
110	0x40c42d86	6.130557
111	0xc0e471a0	-7.1388702
112	0xc0ca8437	-6.3286395
113	0xbe78e163	-0.24304728
114	0x3fa50369	1.2891666
115	0xbead8a40	-0.3389454
116	0x400ea0f6	2.2285743
117	0x3fdbed08	1.7181711
118	0xbf846663	-1.0343746
119	0x412009e5	10.002416
120	0x3fae2d49	1.360757
121	0x403de188	2.9668903
122	0xc0408ebb	-3.0087116
123	0xbf46c874	-0.7764962
124	0x3f010347	0.50395626
125	0xc080d673	-4.026178
126	0xbffad238	-1.9595404
127	0x3ede9830	0.43475485
128	0x4036b31c	2.854682
129	0xbe9474af	-0.28995273
130	0x3eee1ba8	0.46505475
131	0xbea7f3e6	-0.32803267
132	0xbffb3a23	-1.9627117
133	0x40a8f433	5.2798095
134	0xc0fed66f	-7.963676
135	0xc1091c4d	-8.569409
136	0x40884e52	4.2595606
137	0xbfaac745	-1.3342062
138	0xc015806a	-2.3359628
139	0xc08d2927	-4.4112735
140	0xbf5fc0b8	-0.8740344
141	0xbe50011a	-0.2031292
142	0x40b97666	5.795703
143	0xc11b4921	-9.705354
144	0xbfe07092	-1.7534354
145	0x40aae969	5.3409925
146	0xbec9967d	-0.39372626
147	0xc0de6e1b	-6.9509406
148	0x3e5f02a8	0.21778357
149	0xc013448f	-2.3010595
150	0xc0154a1e	-2.3326488
151	0xc0a603c5	-5.18796
152	0xbeb0a69c	-0.34502113
153	0x3f9d9ff2	1.2314436
154	0xbeb7ff5f	-0.3593702
155	0x3f7dc4f0	0.9912863
156	0xc051625a	-3.271628
157	0xbfe94111	-1.8222982
158	0xbfe17d21	-1.7616311
159	0x402f2600	2.7366943
160	0xbd58e5a8	-0.052953392
161	0x3f467cca	0.77534163
162	0x40409cd7	3.0095727
163	0x40875cc1	4.2300725
164	0xbe815cc8	-0.252661
165	0x40680cde	3.6257854
166	0xc09c9c81	-4.8941045
167	0xc14b0d19	-12.690698
168	0xbf9df5d5	-1.2340647
169	0xbe6ec448	-0.23317063
170	0x3ff4bd1e	1.9120214
171	0x3efd984f	0.49530265
172	0x3f598c44	0.84979653
173	0x3eaec636	0.34135598
174	0xc033df2a	-2.8104959
175	0xc02acebe	-2.6688685
176	0xbe70f1d8	-0.23529756
177	0xc09edda2	-4.964555
178	0xbe986f72	-0.29772526
179	0x3ec994c4	0.39371312
180	0xc13dc23b	-11.85992
181	0xc03d3988	-2.9566364
182	0xc011da99	-2.2789671
183	0xbe2d551c	-0.16926998
184	0xbea15342	-0.31508833
185	0x4001176e	2.017055
186	0x40818f14	4.0487156
187	0x409e583b	4.9482703
188	0xbf218728	-0.6309686
189	0xc0a77d17	-5.2340198
190	0x4021972b	2.5248516
191	0x405d467b	3.4574268
192	0xbfd28621	-1.6447183
193	0x3fb6b86c	1.4275031
194	0xbe17b79b	-0.14816134
195	0xc086f2b7	-4.2171283
196	0xbfb79628	-1.4342699
197	0xbe6a8ab3	-0.22904472
198	0xbf8c5e68	-1.096631
199	0x40278de3	2.618035
