backup/hopper-medium-expert-v2/rcsl/timestamp_23-0830-214026&3/model/policy.pth (torch, 498555 bytes, 10 tensors)

rcsl.backbone.model.0.weight f4 [200, 12]
0	0xbf54d13a	-0.83131754
1	0x402baaa3	2.6822898
2	0xbf6e6d21	-0.9313527
3	0x4018e84c	2.3891783
4	0x405aa63d	3.4163964
5	0xbf814ae6	-1.0100982
6	0x3d75b4e1	0.059986953
7	0xbdc9f636	-0.09861414
8	0x3e741231	0.23835064
9	0xbdf5af40	-0.11996317
10	0x3e358bcc	0.1772911
11	0xbe77cda3	-0.24199538
12	0x3f6f33ff	0.93438715
13	0x3f5ff20e	0.8747872
14	0x3ea8d20c	0.32972753
15	0xbfaf41a2	-1.3691905
16	0xc034394f	-2.8159978
17	0x3e901c8e	0.28146785
18	0xbe45d621	-0.19319965
19	0xc03d2771	-2.9555323
20	0x3f780a9e	0.968912
21	0xbfa312b3	-1.2740082
22	0x3e7d6782	0.24746516
23	0xc019fd56	-2.4060874
24	0xc028370d	-2.62836
25	0xc0cf3040	-6.47464
26	0xc095d85d	-4.6826615
27	0xc1143f17	-9.265403
28	0xc074da90	-3.82584
29	0xbde419ba	-0.111377195
30	0xc0087a4a	-2.132464
31	0xc0056ea4	-2.084878
32	0x3f699c1c	0.9125383
33	0x3efdb609	0.49552944
34	0xbe69e88f	-0.2284262
35	0xbd5a87ea	-0.053352274
36	0xc011468b	-2.2699306
37	0xc2388397	-46.128506
38	0x4121cadd	10.112027
39	0xc2221c0a	-40.52738
40	0xc1fc617a	-31.547596
41	0x41351f00	11.320068
42	0xc126051d	-10.376248
43	0xc0c17d3b	-6.046537
44	0x404daabd	3.213546
45	0xbf11a11a	-0.56886446
46	0x3dcd128c	0.10013303
47	0xb8c07dc5	-9.1787e-05
48	0xbeb3a635	-0.35087743
49	0x3edcdd4d	0.4313759
50	0x3f01fd51	0.50777155
51	0xbc43aa90	-0.011942521
52	0x3eb18b0d	0.346764
53	0x3cdab616	0.026698153
54	0x3e370cdf	0.17876004
55	0xbd5b1cb6	-0.053494178
56	0x3d5e0d74	0.05421205
57	0x3e1f0947	0.15530883
58	0x3da305f6	0.07960121
59	0xbe2d9f6d	-0.16955347
60	0x3eed7e6f	0.46385524
61	0xbf8f3709	-1.118867
62	0x3f9f2b4b	1.2435087
63	0x4026bb32	2.6051755
64	0x3f501fae	0.8129834
65	0xbfafa7cf	-1.3723086
66	0xbf8836f5	-1.0641772
67	0x408b1901	4.346802
68	0x40a04941	5.008942
69	0x400de8a6	2.2173247
70	0xbe9a8e5f	-0.30186746
71	0xbf0b265e	-0.5435542
72	0xc02f288e	-2.7368503
73	0x40ec5b46	7.386142
74	0x4002f61c	2.0462713
75	0x411625d1	9.3842325
76	0xbfb9eb8a	-1.4525006
77	0x3f847b7a	1.0350182
78	0x3f78641c	0.97027755
79	0x3f85ae3b	1.0443796
80	0xc04feffb	-3.2490222
81	0xbfed291d	-1.8528172
82	0xbe8107e9	-0.25201347
83	0xbd2e4cc4	-0.04255368
84	0xc01e7401	-2.4758303
85	0x4171d501	15.114503
86	0xbfdd7080	-1.7299957
87	0x40091bb7	2.1423166
88	0xc00ed0ef	-2.2315023
89	0x3f31bc45	0.694279
90	0x3ead6ef3	0.3387371
91	0x4076023e	3.8438869
92	0xbf0d5d65	-0.55220634
93	0x3fabc327	1.3418931
94	0xbf98be45	-1.1933066
95	0xbea80450	-0.3281579
96	0xbe947822	-0.28997904
97	0x3e43332c	0.1906249
98	0x3d063c50	0.032772362
99	0xbda21a39	-0.07915158
100	0x3dbb7963	0.09154012
101	0x3bc6716e	0.0060560023
102	0x3d61b800	0.055107117
103	0xbdc50e2d	-0.096218444
104	0x3c3da3d9	0.011574709
105	0xbd08628d	-0.03329711
106	0xbd0ae905	-0.03391363
107	0xbe2b7b83	-0.16746335
108	0xbf4bf48d	-0.7967003
109	0x4150bec4	13.046574
110	0x3fa4e0fe	1.2881162
111	0x41168cfa	9.409418
112	0xc0b3ce0e	-5.618903
113	0xbff8d40c	-1.9439712
114	0xbfa0c554	-1.256022
115	0x4018c494	2.3869982
116	0xbfdaddc9	-1.7098933
117	0x3ff0eeac	1.8822837
118	0x3c9843b1	0.018586965
119	0xbd34def9	-0.044157956
120	0xc04434ea	-3.0657296
121	0xc0fe6f71	-7.9511037
122	0xc078c7e5	-3.8872006
123	0xc016cc15	-2.3562062
124	0xc04b1a63	-3.1734855
125	0xbf874474	-1.0567765
126	0x401bd75f	2.4350202
127	0xbfff56d6	-1.9948375
128	0xbea3436b	-0.31887373
129	0x3f0b2aff	0.5436248
130	0x3f13cae4	0.5773146
131	0xbc25303f	-0.010082304
132	0x3e00b320	0.12568331
133	0x3e733d3d	0.2375383
134	0x3c8d1bb9	0.017225133
135	0x3fabe977	1.3430623
136	0x3dfa62ac	0.122258514
137	0xbf013261	-0.504675
138	0xbee00a59	-0.43757895
139	0xbfc273fc	-1.5191646
140	0x3e8d0a8b	0.27547106
141	0x3eca885b	0.39557156
142	0x3d868e0f	0.06570064
143	0xbe26e56d	-0.16298456
144	0xbfae9465	-1.3639036
145	0x40700a86	3.7506423
146	0x3fde5130	1.7368526
147	0x3fac33e4	1.3453336
148	0xbeae91b0	-0.34095526
149	0x3f215963	0.6302702
150	0xbe1e76d5	-0.15475018
151	0x3f0ba2ca	0.5454527
152	0x3ecd72be	0.40126604
153	0x3d1b4c4b	0.037914556
154	0xbdabd5ed	-0.083904125
155	0xbe565a24	-0.20932823
156	0x3ea2496c	0.3169664
157	0x4016e286	2.357576
158	0x3fb73346	1.4312522
159	0x40509927	3.2593477
160	0xbf24cd80	-0.6437607
161	0xbf15178d	-0.5823906
162	0xbcc23b50	-0.023709923
163	0x400209cc	2.031848
164	0xbfda1b8b	-1.7039655
165	0xbe5cce1c	-0.21563
166	0x400cda95	2.2008412
167	0xbfbb5a32	-1.46369
168	0xbde0a0fd	-0.10968206
169	0x3c26dbfa	0.010184282
170	0x3e0bad75	0.13640387
171	0x3e67df3c	0.22643751
172	0xbe12dac8	-0.14341271
173	0xbd3b3b33	-0.045710754
174	0x3e163668	0.14669192
175	0x3d1bf8d9	0.038079116
176	0xbbde3093	-0.006780693
177	0x3e2bfb39	0.16795053
178	0x3d2663f6	0.040622674
179	0xbe78d60e	-0.24300405
180	0x3f9f9f62	1.2470515
181	0x4101ecc9	8.120309
182	0xc010e9f1	-2.2642787
183	0x3fa3c2f4	1.279387
184	0x3fcd9cc7	1.606347
185	0xbe8141a5	-0.25245395
186	0xbfb06acf	-1.3782595
187	0xbfca0ee3	-1.5785793
188	0xc00ce8dd	-2.2017128
189	0xbf6576d1	-0.89634424
190	0x3fc6656d	1.5499703
191	0xc024e814	-2.576665
192	0xbffcc7ce	-1.9748476
193	0x404dc3f3	3.2150848
194	0xbe0e8851	-0.13919188
195	0x3fdddac8	1.7332392
196	0xc023ddf6	-2.5604224
197	0xbe05e546	-0.13075742
198	0xbebe0872	-0.37115818
199	0x4099612c	4.793112
200	0x405260fc	3.2871695
201	0x3f418a5d	0.7560175
202	0x3f5770a8	0.84156275
203	0xbef31d0c	-0.47483099
204	0x3ea371b6	0.31922692
205	0x3ecdf487	0.40225622
206	0x3e8a202f	0.2697768
207	0xbe4b7356	-0.19868216
208	0x3f1e22cc	0.61771846
209	0xbec277cd	-0.37982026
210	0xbeb01f26	-0.34398764
211	0xbe303382	-0.17207149
212	0x3d688f2d	0.056777168
213	0x3e47bcde	0.19505641
214	0xbe3da8a1	-0.18521358
215	0xbf0fa90e	-0.5611733
216	0x3e31a422	0.17347768
217	0x3ad401ce	0.0016174854
218	0x3f5b4f81	0.8566819
219	0x3f1fe528	0.6245904
220	0xbf9ae8fe	-1.2102354
221	0xbf6f7162	-0.93532383
222	0x3c05dcb7	0.008170298
223	0xbf073a1f	-0.5282306
224	0x3eba8ee2	0.36437136
225	0x3f282983	0.6568834
226	0x39c19fe2	0.0003693095
227	0xbe2af326	-0.16694316
228	0xbfe9465e	-1.8224599
229	0x40937df3	4.6091247
230	0x3e718701	0.23586656
231	0x413ad13d	11.676084
232	0x4031f0ff	2.7803342
233	0x3f530888	0.8243489
234	0xbf449a75	-0.7679818
235	0x404398b7	3.056196
236	0xbf88b380	-1.0679779
237	0xbf7136c5	-0.94224197
238	0xbd521c0e	-0.051296286
239	0xbe30d812	-0.17269924
240	0xc038a7d7	-2.8852441
241	0x4100d909	8.052987
242	0x40421bbf	3.0329435
243	0x3ff0267b	1.8761743
244	0x405b1020	3.4228592
245	0xbeece10b	-0.46265444
246	0xbfca3e8a	-1.5800335
247	0x407a757a	3.9134202
248	0xbf12d0bc	-0.57349753
249	0xbfc8b6da	-1.5680802
250	0xbf0cc84e	-0.5499314
251	0xbefdecba	-0.4959467
252	0xc06ac3b4	-3.6681948
253	0x3f004a94	0.501138
254	0x40634d46	3.5515914
255	0xbfac21d8	-1.3447828

rcsl.backbone.model.0.bias f4 [200]
0	0xbd862ee7	-0.06551915
1	0x3f24c648	0.64365053
2	0xc041c581	-3.0276797
3	0xc016e6c7	-2.3578355
4	0xbe89cf06	-0.2691576
5	0xbe74792d	-0.2387435
6	0xc018de25	-2.3885586
7	0xbf32ac39	-0.6979404
8	0xbdeab3dd	-0.114600874
9	0xc011c74c	-2.277789
10	0xc01317b6	-2.2983222
11	0xbec0674f	-0.37578818
12	0xbfa743fa	-1.306762
13	0xbf64a9d4	-0.8932164
14	0xbeaca29f	-0.3371782
15	0x3f3b54db	0.73176354
16	0xbfc73c70	-1.5565319
17	0x3e6f83e3	0.23390155
18	0x3e96487d	0.2935218
19	0xc00613ac	-2.0949507
20	0xc0166b68	-2.3503056
21	0xc039b261	-2.9015124
22	0xbf38f4ca	-0.7224852
23	0xbf9be1d3	-1.2178291
24	0xbfa31fbe	-1.2744062
25	0xbf21bed5	-0.6318181
26	0xbec3c3cc	-0.3823532
27	0xbfda1804	-1.7038579
28	0xbe9dc99b	-0.30817875
29	0x3dce08ed	0.10060296
30	0xbf4dd7f2	-0.8040763
31	0xbec97535	-0.39347234
32	0xbe91d35b	-0.28481564
33	0xbe92674b	-0.2859443
34	0x3f28da24	0.65957856
35	0xbfa85176	-1.314986
36	0xbe5e8dae	-0.21733734
37	0xbdc8322a	-0.09775193
38	0x3f449711	0.7679301
39	0xc080ddf2	-4.027093
40	0xc11d44fa	-9.82934
41	0xbf6eb2a3	-0.9324133
42	0xbf3b76da	-0.7322823
43	0xbfe1c936	-1.763953
44	0xc03a4c64	-2.9109125
45	0x409ac304	4.8363056
46	0xbf3b72e7	-0.732222
47	0xbe5c1349	-0.21491732
48	0x3fb5e14b	1.4209379
49	0xc0708552	-3.7581372
50	0xbfd62684	-1.6730504
51	0x40fa6ca2	7.825761
52	0xbe5016fb	-0.20321266
53	0x3d154484	0.036442295
54	0x4052a510	3.2913246
55	0xbe28f4fd	-0.16499706
56	0xbf542194	-0.82863736
57	0xc01b6582	-2.4280705
58	0xc0175c02	-2.3649907
59	0x3f135d0f	0.5756387
60	0x3fef69ad	1.8704125
61	0x40954f79	4.6659513
62	0xc0b7aaf6	-5.7396193
63	0xc06bc9f9	-3.6842024
64	0x3e15c460	0.14625692
65	0x4095d75e	4.68254
66	0x3ea07914	0.31342375
67	0x3fb51656	1.4147441
68	0xbfa404c5	-1.2813956
69	0xbe2f8d06	-0.1714364
70	0xbf1ce4f1	-0.61286837
71	0x40000cab	2.0007732
72	0x3de1fd26	0.11034612
73	0xbea07af2	-0.313438
74	0xc0661887	-3.595247
75	0xbef3c9c8	-0.47614884
76	0xc1009283	-8.035769
77	0x3dbe2e60	0.09286189
78	0xbf04fe26	-0.519503
79	0xbf49ec92	-0.788766
80	0xbf47222b	-0.7778651
81	0x3df91dc8	0.121638834
82	0xc00841a9	-2.1290076
83	0xc09a4a16	-4.8215437
84	0x40f5bf36	7.679591
85	0xbf09c9e5	-0.5382369
86	0x408ab2a5	4.334307
87	0xc0da8461	-6.8286595
88	0xc0102233	-2.2520874
89	0xbf940cca	-1.1566403
90	0xc039fa0f	-2.9058874
91	0x3f4eb317	0.8074202
92	0xbe52e237	-0.20594107
93	0xbfd75cc7	-1.6825188
94	0xc0094839	-2.1450331
95	0x40d0d5e3	6.526109
96	0xc05cc0bc	-3.4492636
97	0x3eec39ec	0.4613794
98	0xbf50f207	-0.81619304
99	0xc0475040	-3.114273
100	0xc05b7c2f	-3.4294546
101	0xc0b18efe	-5.548705
102	0xc0564e5f	-3.3485334
103	0xc03b5c6e	-2.9275165
104	0xbf0210fb	-0.5080716
105	0x3e71cb09	0.23612608
106	0xbfaafe89	-1.3358928
107	0x40d6c78c	6.7118587
108	0xbf31c8fd	-0.6944731
109	0xbfeb011c	-1.8359714
110	0xbfba135d	-1.4537159
111	0xc083f117	-4.12318
112	0xbf8b5c06	-1.0887458
113	0xc0b5ec25	-5.685076
114	0x3e4308c2	0.1904631
115	0xbe8938f2	-0.26801258
116	0xbf409101	-0.7522126
117	0xbeb60815	-0.3555304
118	0xbeac440a	-0.3364566
119	0x4134feb7	11.312186
120	0xbe38440e	-0.17994711
121	0xbf2aa972	-0.66664803
122	0x3d6b8204	0.05749704
123	0xc0809836	-4.0185804
124	0x40207bae	2.5075488
125	0xbc18b45d	-0.009320346
126	0x415f893a	13.971003
127	0xbe86fad7	-0.2636325
128	0xbdf22257	-0.11822956
129	0xbfea47bf	-1.8303145
130	0xbd889dea	-0.06670745
131	0xbcc82477	-0.02443145
132	0xbc8561fd	-0.016282076
133	0x3f2a8247	0.6660504
134	0xbcb012be	-0.021493312
135	0x40470400	3.1096191
136	0x3d55df70	0.05221504
137	0x3ec6c925	0.38825336
138	0x3e1b68e2	0.15176728
139	0xbfdb1a15	-1.7117335
140	0xc031e23e	-2.7794337
141	0xbfabbc3e	-1.3416822
142	0xbee13e9a	-0.43993074
143	0xbe15c4a3	-0.14625792
144	0xbd9c9751	-0.07646049
145	0xbf010aba	-0.5040699
146	0xbdecc532	-0.115610495
147	0xbf2e8316	-0.6816877
148	0xc01f7c87	-2.4919755
149	0x3c8eda34	0.017438032
150	0xbeda9fc0	-0.42700005
151	0xbef70e57	-0.48253128
152	0xc061a155	-3.525472
153	0xbdc0b699	-0.09409828
154	0xbfa66b75	-1.3001543
155	0xbdd05cc8	-0.101739466
156	0xbf8ce927	-1.1008652
157	0xbfb164a7	-1.3858842
158	0xbfb6e4bb	-1.4288553
159	0x3e3e7a04	0.18601233
160	0xbfb50354	-1.4141641
161	0xbe5cb690	-0.21554017
162	0x3e7783f8	0.24171436
163	0xc02088e1	-2.5083544
164	0xbf8ba450	-1.0909519
165	0xc0d85dd7	-6.761455
166	0x3ffa15ba	1.953788
167	0xbda8e3f4	-0.082466036
168	0x3e006631	0.12538983
169	0x3fafad4d	1.3724762
170	0x3f2ed803	0.6829836
171	0x3fac3113	1.3452476
172	0xbe023f04	-0.12719351
173	0xc005de81	-2.0917056
174	0xbfbc316e	-1.4702585
175	0x4086fadd	4.218123
176	0x4142d24e	12.176344
177	0xbf9b60d8	-1.2138929
178	0xbe8e86d3	-0.27837238
179	0xc0185437	-2.38014
180	0xbe8559c5	-0.2604505
181	0xbf0ebec6	-0.5575985
182	0xc01ebec3	-2.4803932
183	0xc080f66f	-4.030082
184	0x3e5559a8	0.20834982
185	0xc099c5ae	-4.805381
186	0xbfbb4734	-1.4631104
187	0x400ad939	2.1695082
188	0xc0a624f5	-5.1920114
189	0x3f333900	0.7000885
190	0xbe23a323	-0.159802
191	0xbe9b35be	-0.3031444
192	0xbe8f292a	-0.27961093
193	0x3e2acdb2	0.16680029
194	0x3e0b9876	0.13632378
195	0xbec6d616	-0.3883521
196	0xc03dc710	-2.9652748
197	0xbf4061cf	-0.75149244
198	0xbfe23093	-1.7671074
199	0xbea22a9a	-0.31673127

rcsl.backbone.model.2.weight f4 [200, 200]
0	0xbe0cdbd8	-0.13755739
1	0xbfbdc001	-1.482422
2	0xbeb3af59	-0.35094717
3	0xbe0dc693	-0.13845281
4	0xbc2f336d	-0.010693413
5	0xbf7f39e1	-0.9969769
6	0x40a3786c	5.10845
7	0xc06b6384	-3.677949
8	0x3d9df236	0.07712214
9	0xc0c38563	-6.1100326
10	0xc0ae64cc	-5.4498043
11	0x3d62e9a2	0.05539859
12	0xbf0a8776	-0.54112947
13	0x3fa1417e	1.2598112
14	0x3c01c0ca	0.0079195
15	0xbfbc7827	-1.4724168
16	0x408c5590	4.3854446
17	0xbefe64ba	-0.49686223
18	0x3d2610ce	0.04054337
19	0x40b70251	5.719033
20	0x406e68c0	3.7251434
21	0x3ec84a9a	0.39119416
22	0xc14fe27f	-12.992797
23	0x3f37cb22	0.7179433
24	0xbf985144	-1.18998
25	0x3c41fd5c	0.011840191
26	0x3c464f17	0.012103817
27	0xc01e8940	-2.477127
28	0x3c4102a2	0.011780413
29	0xbd547a77	-0.051874604
30	0xbeb497df	-0.35272118
31	0xbe5b23a5	-0.21400316
32	0x3d1e08c3	0.038582575
33	0x3c610850	0.013734892
34	0xc05062f7	-3.2560403
35	0xbf0213f7	-0.50811714
36	0xbcca733b	-0.02471315
37	0x3bc98b41	0.0061506336
38	0x3f8c880a	1.0979016
39	0x3f2b1ff2	0.6684562
40	0xbf827635	-1.0192324
41	0x3f890c7d	1.0706936
42	0x3dc4b058	0.096039474
43	0x3f474208	0.7783513
44	0xbd97a784	-0.07404998
45	0xbed3aa4e	-0.4134087
46	0xc0795b28	-3.8961887
47	0xbcd76e52	-0.026297722
48	0x3ee44912	0.44586998
49	0xbc133f18	-0.008987211
50	0x4047cee8	3.1220036
51	0xbd71b784	-0.059012905
52	0xba8e4847	-0.001085528
53	0xbb165e52	-0.0022944403
54	0xbf3778f6	-0.71668947
55	0x3ce46c8d	0.027883792
56	0xbf3d4d47	-0.7394604
57	0x40527589	3.2884238
58	0x3f81374f	1.0095004
59	0x3e480db7	0.19536482
60	0x40526ff3	3.2880828
61	0x3e6539d3	0.2238534
62	0x3d993f60	0.07482791
63	0x3f02e9ce	0.5113801
64	0xbb7b1bf9	-0.0038316234
65	0xbec94249	-0.39308384
66	0x40237a2b	2.5543315
67	0x3f9b548a	1.2135174
68	0x3ef420fd	0.47681418
69	0x3d2c27a9	0.04203001
70	0xbe3344e0	-0.17506742
71	0x3dafc138	0.085817754
72	0x3d81acf1	0.06331814
73	0x3c208f02	0.009799721
74	0xbfd4cd14	-1.6625085
75	0xbe2b7c76	-0.16746697
76	0xbf061f12	-0.5239116
77	0xbe14226c	-0.14466256
78	0xbe8622ef	-0.26198527
79	0xbf5c4bc7	-0.8605313
80	0x3f8446d6	1.0334117
81	0xbec252db	-0.3795384
82	0xbf22bc2f	-0.63568395
83	0xbf12e8cf	-0.5738649
84	0xc002a874	-2.0415316
85	0x3e10db69	0.14146198
86	0x3f29800d	0.66211015
87	0xbf89be71	-1.0761243
88	0xbf2ae3b1	-0.6675368
89	0xc083388a	-4.1006517
90	0x3f5eaaf5	0.8697961
91	0x3f33c9a0	0.7022953
92	0xbd3c1d4b	-0.045926373
93	0xc0952915	-4.661265
94	0x3f1dcca8	0.61640406
95	0x3e8e9e8b	0.27855334
96	0x3d231eff	0.039824482
97	0xc0447241	-3.0694735
98	0xbd8e207e	-0.06939791
99	0x3f669cdf	0.90083116
100	0x3eec1362	0.46108538
101	0x3f8ad154	1.0845132
102	0x40003e32	2.003796
103	0x3fc02297	1.5010556
104	0x3ef0a1bb	0.4699839
105	0x3d970a89	0.07375056
106	0xbe8399e8	-0.2570336
107	0xbd4c8995	-0.049935896
108	0xc0bd8732	-5.9227533
109	0xbfff8a10	-1.9964008
110	0x3fef131f	1.867771
111	0x3f8ef7a3	1.1169323
112	0xbdb5f02d	-0.088837005
113	0xbfeff521	-1.8746682
114	0x3d896bba	0.0671
115	0x3d291b30	0.041285694
116	0x3d59edf2	0.053205438
117	0x3ea0b572	0.31388432
118	0x405f08e5	3.4849179
119	0x3e9ffbc8	0.3124678
120	0xbd5b4054	-0.053528145
121	0x4069e720	3.6547318
122	0xbf0a7263	-0.5408079
123	0xbffb614d	-1.9639069
124	0x3dd6f855	0.10496584
125	0x3d54a489	0.051914725
126	0xbe2562a5	-0.16150911
127	0x3b3f3d20	0.002918072
128	0xbfdc2067	-1.7197388
129	0xbf02a1cb	-0.51028126
130	0xbf423b0f	-0.75871366
131	0x3d24d742	0.04024435
132	0x3f94156e	1.156904
133	0x3e05a373	0.13050632
134	0x3d57b45a	0.05266223
135	0xbe996043	-0.29956254
136	0x3f078b0e	0.52946556
137	0xbf746928	-0.95472956
138	0x3bf6769a	0.0075214626
139	0xbf4b51ec	-0.7942188
140	0x3f1dc09e	0.61622036
141	0xbe1013b2	-0.14070013
142	0xc0888988	-4.2667885
143	0x3f9ea73e	1.2394788
144	0x3c3c1963	0.011480662
145	0x3ef0d2ce	0.4703583
146	0x3d778ace	0.06043511
147	0x3ea2c69c	0.31792152
148	0xbfcd3f11	-1.6034871
149	0x3b003c24	0.0019567097
150	0x3e97ab63	0.29622945
151	0xbf0185a1	-0.50594527
152	0x3f98834d	1.191507
153	0x3cc4eb33	0.024037933
154	0xbe84d056	-0.25940198
155	0x3d68ea61	0.056864146
156	0xbf96a088	-1.176774
157	0x3ef176f8	0.47161078
158	0x3ed9cdb0	0.4253974
159	0x3c5a4433	0.013321924
160	0xc08c2986	-4.380069
161	0xbd84b6a0	-0.064801455
162	0xbe18edff	-0.14934538
163	0x40843c2c	4.132345
164	0x3fbbcb38	1.4671392
165	0xbe9d600f	-0.3073735
166	0x406858de	3.630424
167	0x40553f50	3.3319893
168	0xbd8e6954	-0.069536835
169	0xc0036b97	-2.0534418
170	0x3f9e9d44	1.2391744
171	0xbefbd683	-0.49187097
172	0xbb8bf0e4	-0.0042706598
173	0xbf76e4fa	-0.9644314
174	0x40314ece	2.7704349
175	0xbeae0a9a	-0.33992463
176	0xbe14a2cd	-0.14515229
177	0xbf8c9974	-1.098433
178	0xbdb1489b	-0.086564265
179	0xbd10d6e9	-0.035361204
180	0xbc35e1e5	-0.011101221
181	0xbe07c26d	-0.13257761
182	0xc128d4d1	-10.551957
183	0xbfc3a0e6	-1.5283477
184	0xbe505f04	-0.20348746
185	0xbe95ddfb	-0.2927092
186	0x3f424541	0.75886923
187	0xbe7bd9fd	-0.24594875
188	0x3dae252d	0.085031845
189	0xbed37a62	-0.41304308
190	0x3d492193	0.049104284
191	0x3d80a77d	0.06281946
192	0x3dc5eb4d	0.09664021
193	0x3f96bb48	1.1775904
194	0xbf310fb9	-0.69164616
195	0x3d9e99ea	0.077442005
196	0x3ee6c387	0.4507105
197	0x3e26ab24	0.16276222
198	0xbfce3859	-1.6110946
199	0xb845a98a	-4.7126356e-05
200	0xbd370f36	-0.04469224
201	0x3c286b61	0.010279507
202	0xbcf4e55d	-0.029894525
203	0x3c93ba5a	0.018033195
204	0x3c7591f6	0.014988413
205	0x3ba54b59	0.0050443825
206	0xbcfc5a60	-0.030804813
207	0xbccf0529	-0.025271015
208	0x3d41edf1	0.04734606
209	0xbc0bb5f3	-0.008527267
210	0xbd08b525	-0.033375878
211	0x3d06ad53	0.03288014
212	0x3d7cc81d	0.06171428
213	0xbd730ecf	-0.059340294
214	0x3c65b4e1	0.014020176
215	0x3d206be6	0.0391654
216	0xbcbbe43d	-0.02293598
217	0x3cbce9cb	0.0230607
218	0xbc93b724	-0.018031664
219	0x3d012cb0	0.031536758
220	0xbddafb15	-0.10692421
221	0xbde9cfc5	-0.11416582
222	0x3d777f12	0.060423918
223	0xbd33d0ce	-0.043900304
224	0x3c9c709b	0.019096663
225	0xbd1b9b14	-0.03798969
226	0xbd5dae8e	-0.054121546
227	0xbcc97547	-0.024592055
228	0xbd926e3b	-0.07149931
229	0x3c4ae726	0.012384212
230	0x3d621e8e	0.05520492
231	0x3aa7e0d2	0.001280809
232	0x3d873ddd	0.06603596
233	0xbce3fbbf	-0.027830003
234	0xbc79ea87	-0.01525367
235	0xbd97da70	-0.074147105
236	0xbbcf1c36	-0.0063205017
237	0x3cfbf1b7	0.030754907
238	0xba585c0e	-0.00082534633
239	0xbd823f99	-0.063597865
240	0x3b0adb2c	0.0021187766
241	0x3d225412	0.039630957
242	0xbc609d27	-0.013709343
243	0xbdb9e0e7	-0.090761
244	0xbb934305	-0.0044940733
245	0x3cec4457	0.02884118
246	0xbb6aaca5	-0.003580847
247	0x3d6876a8	0.056753784
248	0xbd582567	-0.052770045
249	0xbde0de6e	-0.10979925
250	0x3d6dabde	0.058025233
251	0xbd3447c7	-0.044013765
252	0xbd03b74f	-0.03215724
253	0xbd33d06f	-0.04389995
254	0xbd68dd46	-0.056851648
255	0x3d127e05	0.035764713

rcsl.backbone.model.2.bias f4 [200]
0	0xc085d7e5	-4.1826043
1	0xbc927381	-0.017877342
2	0xbf8f3257	-1.1187238
3	0xbd34e48e	-0.04416328
4	0xbdd337f5	-0.10313407
5	0xbe1f6eae	-0.15569565
6	0xbd2e03d6	-0.042484127
7	0xbd24ca61	-0.040232066
8	0x3f919ed8	1.13766
9	0xbbc71fd1	-0.006076791
10	0xbf18735c	-0.59551024
11	0xc06afa16	-3.671514
12	0xbd09b04b	-0.03361539
13	0xbdb7c8ac	-0.08973822
14	0x40753c13	3.8317916
15	0xc028c93f	-2.637283
16	0x3cc610fa	0.024178017
17	0xc074fd3c	-3.8279562
18	0xbd30f2af	-0.04320019
19	0xbd8cea47	-0.06880622
20	0xbd6ce627	-0.057836678
21	0xbd27a82d	-0.04093187
22	0xbd8f592f	-0.06999432
23	0xbf34fcb7	-0.7069811
24	0xbdb9db83	-0.09075072
25	0xbd8e0c6e	-0.069359645
26	0xbd96255d	-0.07331345
27	0xbddb2a0e	-0.10701381
28	0xbe240107	-0.16016017
29	0xbce0fa95	-0.027463237
30	0xbd750565	-0.059819598
31	0x407322e7	3.7990053
32	0xbdbe966c	-0.093060344
33	0xbfbae994	-1.4602532
34	0xc01ea8ba	-2.4790483
35	0xbc6e4b4a	-0.0145443175
36	0xc0a7634c	-5.230871
37	0xc0283d75	-2.628751
38	0xbcc1e90d	-0.023670698
39	0xc04ce1e1	-3.2012866
40	0xbd02fb69	-0.031978045
41	0xbdf9ed12	-0.12203421
42	0xc127e3d8	-10.493126
43	0x3f1d05e8	0.6133714
44	0xbea344c5	-0.31888404
45	0x3f163df3	0.58688277
46	0xbbb88008	-0.005630497
47	0x3c133eee	0.008987172
48	0xbfa35734	-1.2760987
49	0xbdd33ddc	-0.10314533
50	0x4089ec7d	4.310118
51	0x3ca501f7	0.020142538
52	0xc08f03a8	-4.4691963
53	0xbd9544cc	-0.072885126
54	0xc03071fd	-2.7569573
55	0x4082a415	4.0825295
56	0xc02fd9d5	-2.7476704
57	0x407e1915	3.970281
58	0x40f67ecc	7.702978
59	0xbdcb264a	-0.099194124
60	0xc10e4651	-8.892167
61	0xbf28e4df	-0.6597423
62	0xbdd30dbe	-0.103053555
63	0xbdb55080	-0.08853245
64	0xbcf901d3	-0.030396378
65	0x3fab4648	1.3380823
66	0x3cc017b2	0.023448799
67	0x3c692468	0.014229871
68	0x3d508c97	0.050915327
69	0xbc64b191	-0.013958351
70	0xbf725bef	-0.9467153
71	0x40f70da0	7.720413
72	0xc03b553a	-2.9270768
73	0xbcefdd74	-0.029280402
74	0xbd123d46	-0.035702966
75	0xc0303dff	-2.753784
76	0xc00041c8	-2.004015
77	0xbd6460f7	-0.055756535
78	0x3b171b48	0.0023057032
79	0xbe4da14e	-0.20081064
80	0xbd2df6bb	-0.04247163
81	0x3f3b64e3	0.73200816
82	0xbd3aad6d	-0.045575548
83	0xbdbc6236	-0.0919842
84	0xc032cb16	-2.7936454
85	0xbd8802a5	-0.066411294
86	0x3e93e41f	0.2888498
87	0xbfd7b408	-1.6851816
88	0xbd861984	-0.065478355
89	0x40bbfabe	5.874358
90	0x3cd0bc3c	0.025480382
91	0xbd968f31	-0.0735153
92	0x3f51bec7	0.8193173
93	0xc00224ae	-2.0334888
94	0x40ed89b5	7.42306
95	0xc11f839d	-9.969632
96	0xc128e947	-10.556952
97	0xc11c4771	-9.767442
98	0x3cb6ef07	0.022330774
99	0x40629836	3.5405402
100	0x3c3ca9d4	0.0115151
101	0xc0c72222	-6.2229166
102	0xc0836f33	-4.107324
103	0xbcbadf7a	-0.02281164
104	0x3f8bf358	1.0933638
105	0xbdf94a51	-0.12172378
106	0xc18d4698	-17.65947
107	0xc0c24500	-6.070923
108	0xbcd6f66d	-0.026240552
109	0xbe0011d5	-0.12506802
110	0xbd42d1b5	-0.047563273
111	0x3f8387d3	1.0275825
112	0xc03500c2	-2.8281713
113	0xbcdc6c76	-0.026907187
114	0xc03e1f1a	-2.9706483
115	0xbe22dbd1	-0.15904166
116	0x3c362c3e	0.011118947
117	0xbe10573d	-0.14095779
118	0xbc235f02	-0.009971382
119	0xbd966989	-0.07344348
120	0xbd9470d7	-0.07248085
121	0xc02b9a0d	-2.6812775
122	0xbdae7c0c	-0.08519754
123	0xbfd6bd45	-1.677651
124	0xbe205280	-0.15656471
125	0xbd300ec9	-0.04298285
126	0x3f4a9758	0.7913718
127	0xbd1a63ba	-0.037692763
128	0xbdccf362	-0.10007359
129	0xbd609a06	-0.05483439
130	0xc03cd3c0	-2.9504242
131	0xc09931b6	-4.787318
132	0x403bc32a	2.9337869
133	0xbbc984e3	-0.0061498745
134	0x3be23b3e	0.006904035
135	0xc09203e9	-4.5629773
136	0xbddcab47	-0.10774856
137	0xbdcc9ee1	-0.09991241
138	0xbf8b1cb6	-1.0868137
139	0xbbcb266b	-0.006199648
140	0xba098bbe	-0.00052469585
141	0xbc8689a1	-0.016423048
142	0xbd0128d6	-0.031533085
143	0xbdbb4563	-0.09144094
144	0xc01131c1	-2.2686617
145	0xc0adacd9	-5.4273496
146	0xbbb605eb	-0.0055549047
147	0xc05caabd	-3.447921
148	0xbf73abc1	-0.9518395
149	0xbc58a78a	-0.013223538
150	0xbdc1fe0d	-0.094722845
151	0xbd816764	-0.06318548
152	0xc0ccdffd	-6.4023423
153	0xbd9cd140	-0.07657099
154	0xbd7c14d8	-0.061543316
155	0xc1801600	-16.010742
156	0xc1183997	-9.51406
157	0xbd8fcecd	-0.07021866
158	0xc10b6316	-8.711691
159	0xbcc29ee7	-0.023757411
160	0x3b534ea3	0.0032242916
161	0xc0fb3181	-7.849793
162	0xbd1e960c	-0.038717315
163	0xbdeed390	-0.11661446
164	0xbd61b753	-0.055106472
165	0xc0616082	-3.5215154
166	0xbd9e4bf8	-0.07729334
167	0x3d893538	0.06699604
168	0xc00fbf69	-2.2460577
169	0xbf9ad32f	-1.2095698
170	0xbd80b194	-0.0628387
171	0x40cf870f	6.4852366
172	0xbf0a0893	-0.53919333
173	0xbd594da4	-0.05305256
174	0x3cdda7a6	0.02705748
175	0xbda24057	-0.07922428
176	0xbdbd9f03	-0.09258845
177	0x3f0cb553	0.5496418
178	0xbd7fe1e3	-0.06247128
179	0xc0ec14aa	-7.3775225
180	0x3ea241cb	0.3169082
181	0xbd08d3a3	-0.033404958
182	0xbd84f865	-0.0649269
183	0x3f7ceafa	0.98796046
184	0xbdb98def	-0.09060275
185	0xbdda9177	-0.106722765
186	0x3fb18ed0	1.3871708
187	0x3bcc3947	0.006232414
188	0x40d54a8b	6.6653495
189	0xbde0a712	-0.10969366
190	0xc127df91	-10.492082
191	0x3ef907df	0.48638818
192	0xbd6b57c3	-0.057456743
193	0xbda047f8	-0.07826227
194	0x3c3c12ec	0.011479121
195	0xbdbc73bf	-0.09201764
196	0x3f7b4c36	0.98163164
197	0xc033c007	-2.8085954
198	0xc13aca23	-11.67435
199	0xbd74f56f	-0.059804376

rcsl.backbone.model.4.weight f4 [200, 200]
0	0xbd777e13	-0.060422968
1	0x3d7cc687	0.061712768
2	0xbca64ad1	-0.020299347
3	0xbc206341	-0.009789289
4	0xbc1d3185	-0.009594326
5	0x3cf232b2	0.029565189
6	0xbd008801	-0.031379703
7	0x3d54716e	0.051865987
8	0xbd33b201	-0.04387093
9	0x3d87e232	0.0663494
10	0xbc03f647	-0.008054323
11	0xbd8c7707	-0.0685864
12	0xbc8796fb	-0.016551485
13	0xbcb17ed3	-0.02166692
14	0xbd4b1a8e	-0.04958587
15	0x3d77622f	0.06039637
16	0xbcc710a4	-0.024299927
17	0xbdedb5e8	-0.116069615
18	0xbd5b55a8	-0.053548485
19	0x3d36f1c5	0.044664163
20	0xbd87ab07	-0.06624418
21	0x3d00113d	0.03126644
22	0xbd8c696a	-0.06856044
23	0xbdad7d35	-0.08471147
24	0xbcf6e667	-0.030139161
25	0xbd14009b	-0.03613339
26	0x3d7ac782	0.06122542
27	0xbd41a29a	-0.04727421
28	0xbd3b50ed	-0.045731474
29	0x3d5a02f3	0.05322547
30	0xbd118a5a	-0.035532333
31	0xbd82d126	-0.06387548
32	0x3cd9ffd2	0.026611242
33	0xbdb7763a	-0.08958097
34	0xbd1c94f9	-0.03822801
35	0xbcece9af	-0.028920023
36	0xbd134ff0	-0.035964906
37	0xbd6c2a75	-0.057657678
38	0xbcb211a8	-0.021736935
39	0xbd23a24a	-0.039949693
40	0xbc584a6c	-0.013201337
41	0xbd6da6d5	-0.05802043
42	0xbc3a83a6	-0.0113839265
43	0x3c0c6e56	0.008571228
44	0xbb5851e1	-0.0033007788
45	0xbc8d9d59	-0.017286943
46	0xbb8527da	-0.0040635886
47	0x3cdfd5e3	0.027323669
48	0xbda8342a	-0.082130745
49	0xbd54c316	-0.05194386
50	0xbc84b9a8	-0.016201809
51	0xbabc9c15	-0.0014389778
52	0xbbdd7919	-0.0067588207
53	0x3c6bc19e	0.014389424
54	0xbcaed65c	-0.021342449
55	0xbc90f6e4	-0.017695852
56	0xbd125972	-0.035729833
57	0xbd927888	-0.07151896
58	0xbcd1d739	-0.025615321
59	0xbd132886	-0.035927318
60	0xbca24fff	-0.019813536
61	0x3c070722	0.008241447
62	0x3d6637ed	0.05620568
63	0xbd0482e2	-0.032351382
64	0xbc19514f	-0.009357764
65	0xbd21f89b	-0.03954373
66	0x3c7e1b7e	0.015509484
67	0x3c7daf85	0.015483742
68	0xbd491d3e	-0.049100153
69	0x3d8b0b5c	0.06789276
70	0xbd61d4a8	-0.055134445
71	0xbd68b617	-0.05681428
72	0xbde50038	-0.11181682
73	0x3d7339a9	0.05938116
74	0x3d3de0d7	0.046357002
75	0xbd07bf8a	-0.03314165
76	0x3d4de2f6	0.050265275
77	0x3d597faf	0.053100284
78	0x3d8c8218	0.06860751
79	0x3cea0a19	0.028569268
80	0xbd64e198	-0.055879205
81	0x3d556824	0.05210127
82	0xbcfb9fce	-0.03071585
83	0x3d64849e	0.055790536
84	0xbc3a026d	-0.011353117
85	0xbc6a7891	-0.014310972
86	0x3d03a71d	0.032141794
87	0x3d894f4c	0.06704578
88	0x3b83bc42	0.004020245
89	0xbc8d3a7e	-0.017239805
90	0xbd99b815	-0.07505814
91	0xbcc3200d	-0.023818994
92	0x3cf458d9	0.029827522
93	0xbd5e1b98	-0.054225534
94	0xbd28e5b3	-0.041234683
95	0xbc942a4f	-0.01808658
96	0x3bef96aa	0.0073116617
97	0xbd95d2dc	-0.07315609
98	0x3d7da01d	0.061920274
99	0xbdb18fd2	-0.0867001
100	0x3cdd9f55	0.027053514
101	0xbcb907ef	-0.02258679
102	0x3c87c555	0.016573587
103	0xbaafff6f	-0.0013427566
104	0xbd3b579a	-0.04573784
105	0x3c1194d3	0.00888558
106	0x3c4145a2	0.011796387
107	0xbc655092	-0.01399626
108	0xbbd208af	-0.0064097266
109	0x3cd37e60	0.025817096
110	0xbd89b30d	-0.06723604
111	0xbcdc55b3	-0.026896333
112	0x3cf8a690	0.03035286
113	0xbd4b12f4	-0.049578622
114	0xbd962287	-0.07330804
115	0xbdb559cc	-0.08855018
116	0xbd0fdd0a	-0.03512291
117	0xbd4b4a2b	-0.04963128
118	0xbd540431	-0.05176181
119	0x3d23c58c	0.039983317
120	0x3cd574f3	0.026056742
121	0xbd71ee5f	-0.05906522
122	0xbd2a6460	-0.04159963
123	0xbc786fa9	-0.015163341
124	0xbd174499	-0.036930654
125	0x3ca01d20	0.019545138
126	0xbc377f32	-0.011199759
127	0x3c3e0d04	0.011599783
128	0xbd83ac9b	-0.06429406
129	0xbd760441	-0.06006265
130	0xbd959e8e	-0.073056325
131	0xbd73b664	-0.059500113
132	0xbd5c75b9	-0.053823207
133	0x3b644623	0.0034831844
134	0x3d8efd47	0.069819026
135	0xbaa278c9	-0.0012395616
136	0xbc8bf87f	-0.017086266
137	0x3d5c33fa	0.053760506
138	0xbc447756	-0.0119913425
139	0x3d8a6a9a	0.06758614
140	0x3ccfc516	0.025362533
141	0x3d52bdb7	0.051450457
142	0x3c3e2231	0.011604832
143	0x3d7e5215	0.06209
144	0xbda9142b	-0.082558
145	0xbd9ad27d	-0.07559679
146	0xbc8117e9	-0.015758472
147	0xbd426e57	-0.04746851
148	0xbd93b5bf	-0.072124
149	0xbbcfaea7	-0.006337959
150	0x3d766f7f	0.060164925
151	0x3d67d503	0.05659963
152	0xbc97195e	-0.018444713
153	0x3b8bdc12	0.004268178
154	0xbd3ecc3e	-0.0465815
155	0xbd8ce881	-0.06880284
156	0xbd87b64d	-0.06626568
157	0x3d84a997	0.06477659
158	0xbd8a6a18	-0.06758517
159	0xbd42050c	-0.047368094
160	0xbd8be758	-0.06831235
161	0xbd4a68e2	-0.04941643
162	0xbd1a56aa	-0.037680306
163	0x3a84b4ce	0.0010124685
164	0xbc7216b3	-0.01477592
165	0xbda2904f	-0.07937681
166	0xbd064848	-0.032783777
167	0xbdb82497	-0.08991354
168	0xbd8f5f1f	-0.07000565
169	0xbd1b2320	-0.037875295
170	0xbbea9257	-0.0071585584
171	0xbd967423	-0.0734637
172	0xbc85bf17	-0.01632647
173	0x3cb4f5e5	0.022089908
174	0xbca6fb74	-0.020383574
175	0x3d115576	0.035481893
176	0xbc806112	-0.015671287
177	0xbd3a1cd2	-0.04543764
178	0x3cf91b8f	0.030408649
179	0xbd772e3f	-0.060346838
180	0xbc85e932	-0.016346548
181	0x3bca28cb	0.0061694137
182	0xbd4ba752	-0.049720116
183	0xbd596194	-0.053071573
184	0xbd49106d	-0.04908793
185	0x3c43bf99	0.011947536
186	0xbd054d08	-0.032544166
187	0x3d61dbda	0.055141307
188	0xbd1bcfe8	-0.03804007
189	0xbd82b372	-0.06381883
190	0xbd4afca1	-0.049557332
191	0xbd2baa40	-0.04191041
192	0x3d5a655d	0.053319324
193	0x3bac1576	0.005251582
194	0xbd8078f4	-0.0627307
195	0xbd51b1ea	-0.051195063
196	0x3d2ab46e	0.041675977
197	0xbba924da	-0.0051618638
198	0xbd631d78	-0.055448025
199	0xbd0b8468	-0.03406182
200	0x3d6ff0ea	0.058579363
201	0x3dbe53a3	0.09293296
202	0xbe6e0d3d	-0.23247238
203	0x3d64c186	0.05584862
204	0xbdaaa7f0	-0.08332813
205	0x3cda16d0	0.026622206
206	0x3d628382	0.055301197
207	0x3d8c23d7	0.068427734
208	0x3f121a19	0.5707107
209	0xbd650926	-0.055916928
210	0x3ed49ee7	0.41527483
211	0x3ddf86ee	0.10914408
212	0xbd4088c6	-0.047005437
213	0x3de48dae	0.11159836
214	0x3e831109	0.25598934
215	0x3d875487	0.06607919
216	0x3d555809	0.05208591
217	0xbdd99980	-0.10624981
218	0x3da9f11d	0.08297942
219	0x3cd35088	0.025795236
220	0x3d2f1954	0.042748764
221	0xbc013f89	-0.007888683
222	0x3bd29ac1	0.0064271395
223	0xbd11dc4d	-0.035610486
224	0xbd85707e	-0.06515597
225	0xbca42483	-0.020036941
226	0xbd4cbdcf	-0.049985703
227	0xbd272186	-0.040803455
228	0xbd1dcb77	-0.038524117
229	0x3c4640dc	0.012100425
230	0xbd1370e0	-0.035996318
231	0xbe53769b	-0.20650713
232	0x3bb745ab	0.005593022
233	0x3d172a61	0.03690565
234	0xbf07f33e	-0.53105533
235	0xbd991d4a	-0.074762896
236	0x3b2d7853	0.0026469424
237	0xbfa67e90	-1.3007374
238	0x3c812b23	0.01576764
239	0xbe94356f	-0.28947017
240	0x39c8984e	0.00038260448
241	0x3d2dcbb7	0.042430606
242	0xbf26e20a	-0.6518866
243	0xbf002486	-0.5005573
244	0x3e127d73	0.14305668
245	0xbe079ea7	-0.13244115
246	0x3d303a34	0.043024257
247	0xbdb961cf	-0.09051859
248	0xbf09629d	-0.53666097
249	0x3c0070b0	0.007839367
250	0xbeeaf3d4	-0.4588915
251	0x3d7579f9	0.059930775
252	0xbe36d865	-0.17855985
253	0xbcd799b1	-0.026318403
254	0x3da8c0aa	0.08239873
255	0x3dcc149d	0.09964869

rcsl.backbone.model.4.bias f4 [200]
0	0xbe118f0a	-0.14214721
1	0xbe848d05	-0.2588884
2	0x3f4352a5	0.7629798
3	0x3fc85fb2	1.5654204
4	0x40be7c6f	5.9526896
5	0xbda67fef	-0.0812987
6	0xbd6bd67c	-0.057577595
7	0xc0946c94	-4.638254
8	0xbe2cb5c8	-0.16866219
9	0x40a52843	5.1611648
10	0xbdd3fdc5	-0.10351137
11	0xbd677f18	-0.05651769
12	0xbd299253	-0.04139931
13	0xbdcdab24	-0.10042408
14	0x4148508b	12.519664
15	0xc0a6622e	-5.199485
16	0xbefacc21	-0.48983863
17	0xc091bd1f	-4.554336
18	0xbe2e8861	-0.17044212
19	0xbdbba2f2	-0.09161939
20	0xc1148669	-9.282815
21	0xbf94da74	-1.1629167
22	0xc08b0e7c	-4.345518
23	0xc071760e	-3.7728305
24	0xc0a4ff90	-5.1561966
25	0xbe07284f	-0.1319897
26	0xc0bf8639	-5.9851346
27	0x404fed35	3.248853
28	0xbfee555f	-1.8619803
29	0xbdbfd124	-0.09366062
30	0x3fa38463	1.2774776
31	0xc0a5e676	-5.1843824
32	0xc0ae397d	-5.4445176
33	0xbe34c1d3	-0.17652063
34	0x3f349710	0.70543003
35	0xc102217e	-8.133177
36	0xc0b29a33	-5.581323
37	0x3c074534	0.008256245
38	0xc11bab5f	-9.729339
39	0x401e6905	2.47516
40	0xc0eeb6de	-7.4598227
41	0xbd3f8123	-0.046754014
42	0xbdc0dd7f	-0.09417247
43	0xbe0074ac	-0.12544507
44	0xc03073b0	-2.757061
45	0xc11b3598	-9.700584
46	0x4085daf2	4.1829767
47	0xbdf2836a	-0.118414715
48	0xbe5c653a	-0.2152299
49	0xc08b161c	-4.346449
50	0x409ede38	4.9646263
51	0x40570b81	3.3600771
52	0xbddf31a3	-0.10898139
53	0xc0bc3dc1	-5.8825383
54	0xbe062d6d	-0.13103266
55	0xc0be5181	-5.947449
56	0xbdfdf320	-0.12399888
57	0xbe269b5f	-0.16270207
58	0xc0c65ef9	-6.1990933
59	0x3fa312b2	1.274008
60	0xbdb7e2c1	-0.08978797
61	0xbff14347	-1.8848656
62	0xbcfb74ac	-0.030695282
63	0x3c8b067e	0.01697087
64	0xbf375411	-0.7161265
65	0xc10bca38	-8.73687
66	0xbf4ef217	-0.8083815
67	0x3fa73e30	1.3065853
68	0xbfe5bef0	-1.7948895
69	0x3f56920c	0.838166
70	0xc13c3e34	-11.765186
71	0x4009e05a	2.1543183
72	0xc0a2b09b	-5.0840583
73	0xbd5bd3ef	-0.053668913
74	0xbe43f64e	-0.19136927
75	0xbdf6661d	-0.12031195
76	0xbe02d056	-0.12774786
77	0xbdd164f4	-0.102243334
78	0xbda19cde	-0.07891248
79	0xbfa65f5b	-1.299785
80	0xbd253d60	-0.040341735
81	0xbd9bd107	-0.07608228
82	0xc0cc7e08	-6.3903847
83	0xc0bc26c6	-5.879733
84	0xbda681e5	-0.08130244
85	0x40491e78	3.1424847
86	0xbde74af1	-0.11293591
87	0xbf27a6c2	-0.6548883
88	0xc0b6e686	-5.71564
89	0xc08c66e6	-4.387561
90	0xc1360f53	-11.378741
91	0x40b95fe9	5.792958
92	0xc12d1a8a	-10.818979
93	0x40d1b0a3	6.552812
94	0x404319c3	3.0484474
95	0xc01f84fb	-2.4924915
96	0x40428788	3.0395222
97	0xc0801635	-4.002711
98	0x40588dd5	3.3836567
99	0xc0100e55	-2.2508748
100	0x3ccbf032	0.024894807
101	0x3e44af8c	0.19207591
102	0x3f8424b3	1.03237
103	0xbffee9fa	-1.9915154
104	0xc10419ce	-8.2563
105	0xbda61f98	-0.08111495
106	0x3d1972af	0.037462886
107	0x40cc1f5f	6.3788295
108	0xbd6d4f90	-0.057937205
109	0xbdf4a7f0	-0.11946094
110	0xc0ba564f	-5.8230357
111	0xc0386138	-2.8809338
112	0x4039c029	2.9023535
113	0xbe1993b9	-0.14997758
114	0xc128c62e	-10.548384
115	0xbf84b9e2	-1.0369227
116	0xbfa5b5b6	-1.2946079
117	0xc08eda12	-4.46412
118	0xc0a12e97	-5.036937
119	0xc04b3fc8	-3.175768
120	0xbb970df8	-0.0046098195
121	0x40abcce9	5.3687634
122	0x4038a2d6	2.8849387
123	0xc0ac4e0c	-5.384527
124	0xc083dc2b	-4.120626
125	0xbf4b61a0	-0.7944584
126	0xbdba6133	-0.091005705
127	0x3fcbf970	1.5935497
128	0xbe0ce0ca	-0.13757625
129	0xc1098e01	-8.597169
130	0xc0a002bf	-5.000335
131	0x3f0883a1	0.5332585
132	0xbc4997a2	-0.0123042185
133	0xbe9e8acd	-0.30965272
134	0xbf37f455	-0.71857196
135	0xc106a2e8	-8.414772
136	0xbdb9c758	-0.09071225
137	0xc0e566b0	-7.168785
138	0xbe0e14de	-0.13875148
139	0x401a0456	2.4065146
140	0xc0f19691	-7.5496297
141	0x40ad9981	5.4249883
142	0xbdcfb141	-0.101412304
143	0x3ce1da24	0.027569838
144	0xbc5614f5	-0.01306652
145	0xbff24ad2	-1.8929083
146	0xc12fd820	-10.990265
147	0xbcad16e5	-0.021129081
148	0xc088b95f	-4.2726283
149	0xc082101a	-4.0644655
150	0xbd5100d6	-0.051026188
151	0xbd7b2719	-0.061316583
152	0xbd1fe4f9	-0.039036725
153	0x3efd0db3	0.49424514
154	0x40ce65df	6.4499354
155	0x4023ace7	2.5574281
156	0xbfc1dee5	-1.5146147
157	0x3f95041e	1.1641881
158	0xbd79394e	-0.060845666
159	0x3f6a0de4	0.91427445
160	0x3fe8c54f	1.8185214
161	0xc1216184	-10.086308
162	0xc112a9fa	-9.166498
163	0xbd96924c	-0.07352123
164	0xbda72923	-0.08162143
165	0xc111f700	-9.122803
166	0x40981d1b	4.753553
167	0xbde0820f	-0.10962307
168	0xc08806e0	-4.250839
169	0xbd08ec5f	-0.033428546
170	0xbf5d049c	-0.8633516
171	0xbdb405c5	-0.08790163
172	0xbf4d6d72	-0.80245125
173	0x3e556fbc	0.20843405
174	0x407ed27c	3.981597
175	0xc03927f5	-2.8930638
176	0x3fc8057e	1.5626676
177	0xc01e0963	-2.469323
178	0xbf431fad	-0.7622021
179	0x40ae0259	5.4377866
180	0xbfe8153c	-1.813148
181	0xc1507689	-13.028939
182	0xbffdf0aa	-1.983907
183	0xc0bca267	-5.8948245
184	0xc08824d8	-4.2544975
185	0xbfd9715f	-1.6987723
186	0xbd3273eb	-0.04356758
187	0xc0b714cd	-5.721289
188	0x409b1639	4.8464627
189	0xbc841544	-0.016123421
190	0x3fb18488	1.386857
191	0x3fd2ffd3	1.6484321
192	0xc0aa71f5	-5.326411
193	0xbd53f427	-0.051746514
194	0xc0ab7767	-5.3583255
195	0xbfbf9b52	-1.4969275
196	0x3f52bada	0.8231636
197	0xbefc189d	-0.49237528
198	0xbe23be48	-0.15990555
199	0xbef9b397	-0.4876983

rcsl.backbone.model.6.weight f4 [200, 200]
0	0xbca3bd40	-0.019987702
1	0x3d2a0cb7	0.041516032
2	0xbf085bfb	-0.5326535
3	0xbf74819d	-0.95510274
4	0x39a3fa52	0.00031276286
5	0x3c7ac683	0.015306118
6	0xbcc375b9	-0.023859845
7	0x3d8dd33a	0.06925054
8	0x3d60a88c	0.05484824
9	0xbe14833f	-0.14503191
10	0x3ccd3e86	0.025054228
11	0x3c694d8c	0.01423968
12	0x3d4cb270	0.04997486
13	0x3d629955	0.05532201
14	0xbe944bf2	-0.28964192
15	0xc04aeff1	-3.1708949
16	0x3c9eb227	0.019372059
17	0xbeb90d16	-0.36142796
18	0xbdf823b3	-0.12116184
19	0x3da99653	0.08280625
20	0xbea55dc2	-0.32298094
21	0x3cb77e2c	0.02239903
22	0x3d6e5bd3	0.05819304
23	0xbd2804b3	-0.041020107
24	0x3e1ed9ff	0.15512846
25	0xbd670552	-0.05640156
26	0xbe30cc47	-0.17265426
27	0xbec2936d	-0.38003102
28	0x3c78f4fa	0.015195126
29	0xbca0d498	-0.019632623
30	0xbc5bb30a	-0.013409385
31	0x3df0203c	0.11724898
32	0xc0a9abcd	-5.302222
33	0x3c81cd2e	0.015844908
34	0xbc7ea9ea	-0.01554344
35	0xbe1650ea	-0.14679304
36	0xbf0ebda8	-0.5575814
37	0xbd3d6f61	-0.046248797
38	0xbf28c0d6	-0.65919244
39	0xbea507b8	-0.3223245
40	0x3f87f0f3	1.0620407
41	0x3cb8960a	0.022532482
42	0xbed11346	-0.40835017
43	0xbd031134	-0.031998828
44	0x3cc76036	0.02433787
45	0x3e03eaf6	0.12882599
46	0xbf2497a0	-0.6429386
47	0x3d356d27	0.04429355
48	0xbe163a2a	-0.14670625
49	0x3f4abef1	0.79197603
50	0x3e7ea43e	0.24867341
51	0xbe8e2f6b	-0.27770552
52	0x3ce77e7e	0.028258558
53	0xbec316be	-0.38103288
54	0x3d2b2d29	0.041791115
55	0xbfaab48e	-1.3336351
56	0x3c0f2ee9	0.008739212
57	0x3d5f9f63	0.054595362
58	0xc06c3240	-3.690567
59	0x3ed514fc	0.41617572
60	0x3c9540a1	0.018219294
61	0xbe2d5fa5	-0.16931017
62	0xbc8ff21b	-0.0175715
63	0xbd98f267	-0.074681096
64	0xbe2682de	-0.1626086
65	0xc09ff557	-4.9986987
66	0xc0186e90	-2.3817482
67	0xbe26a5c6	-0.16274175
68	0xbe5a1331	-0.21296383
69	0x3f13e13a	0.57765543
70	0x3ddf0951	0.10890449
71	0x3ecfeeed	0.40611973
72	0x3d53a2cd	0.05166893
73	0xbd485cef	-0.048916753
74	0xbd49e1af	-0.049287494
75	0x3d8cbe6e	0.06872259
76	0xbd9c9a51	-0.07646621
77	0x3d656c51	0.0560115
78	0xbd734c6e	-0.05939906
79	0xc00a4416	-2.1604056
80	0x3d84fc84	0.06493476
81	0x3d9095e5	0.0705984
82	0xc042b99c	-3.0425787
83	0x3cca364b	0.024684092
84	0x3c98711b	0.01860862
85	0xbf29dd86	-0.6635364
86	0x3d50ee17	0.05100831
87	0xbf03f6ad	-0.5154827
88	0xbe662df5	-0.22478469
89	0x3e75ee63	0.24016719
90	0x3e089558	0.1333822
91	0xbf2aa41a	-0.6665665
92	0xbe841080	-0.25793839
93	0xbd9e2cb6	-0.07723372
94	0xc0bc7365	-5.8890862
95	0xbd370659	-0.044683788
96	0x3bc4846d	0.0059972317
97	0xbd2d2bec	-0.042278215
98	0xbe994068	-0.2993195
99	0x3e921166	0.285289
100	0x3e3d9a17	0.18515812
101	0xbf19ca57	-0.6007437
102	0xbed3bcd3	-0.41355
103	0xbe99f51a	-0.3006981
104	0xc09467b9	-4.6376615
105	0x3ccab36e	0.024743762
106	0xbd17914d	-0.037003804
107	0xbee5eb18	-0.44905925
108	0xbc6a3395	-0.014294525
109	0x3db85b1c	0.09001753
110	0xbeaff53c	-0.34366786
111	0x3ecf6d4b	0.4051307
112	0xbd12ccd8	-0.035839885
113	0xbd56d977	-0.052453484
114	0xbd683048	-0.05668667
115	0xbc386e61	-0.011256785
116	0xc03595d7	-2.8372705
117	0x3c157ed0	0.009124473
118	0xbfe6b300	-1.8023376
119	0xbebe07c9	-0.37115315
120	0x3c567df2	0.013091551
121	0x3e395425	0.18098505
122	0xbf8a3a54	-1.079905
123	0x3e60f4ed	0.21968432
124	0xbd5f63ba	-0.054538466
125	0x3f15e104	0.5854647
126	0xbcb9d119	-0.022682713
127	0x3f089dc2	0.5336572
128	0x3d9b42bd	0.07581089
129	0xbd3853ff	-0.04500198
130	0xc05da322	-3.4630818
131	0x3f2865bf	0.6578025
132	0x3d127d64	0.035764113
133	0xc0a365db	-5.1061835
134	0x3d9ed401	0.0775528
135	0xc08362ed	-4.105826
136	0xbc25ecf6	-0.010127297
137	0x3ea92200	0.33033752
138	0xbd134b8f	-0.03596073
139	0xbf707c58	-0.93939734
140	0x3e866ba2	0.26253992
141	0x3ce05a97	0.027386947
142	0x3cf2538b	0.029580852
143	0x3ca6a557	0.020342512
144	0xbce16378	-0.02751325
145	0x3fa9435a	1.3223679
146	0xbfd7f172	-1.6870558
147	0xbd0ddd5b	-0.03463493
148	0xbf260952	-0.6485797
149	0xbe7ec56a	-0.24879995
150	0xbcffb33f	-0.0312134
151	0xbcef8039	-0.029235946
152	0x3d1fa9cd	0.038980294
153	0xbbd2803f	-0.0064239795
154	0xbd2d210c	-0.042267844
155	0xbf0035c4	-0.5008204
156	0xbbf71308	-0.0075401105
157	0xbdedc7dc	-0.11610386
158	0xbd3d2922	-0.046181805
159	0xbe38c110	-0.18042397
160	0xc09e9767	-4.9559817
161	0xbde4ccf9	-0.11171908
162	0xbf30310d	-0.68824846
163	0x3ce326ce	0.027728464
164	0xbd2c15fa	-0.042013146
165	0xbe6ab04f	-0.22918819
166	0x3ec8e091	0.3923383
167	0x3d3eeeed	0.046614576
168	0xbe2bb537	-0.16768347
169	0x3c2974b1	0.010342763
170	0xbe9f2d50	-0.31089258
171	0xbd8ca6dc	-0.068677634
172	0xbf73dad9	-0.9525581
173	0xbd8017cc	-0.06254539
174	0x3e487093	0.19574194
175	0xbf00c75c	-0.503042
176	0xbee241a9	-0.4419072
177	0x3f1273b6	0.5720781
178	0xc0653895	-3.5815785
179	0xbefe27ae	-0.49639648
180	0xbeae4dd7	-0.34043762
181	0x3eb6bf58	0.3569286
182	0x3e10d911	0.14145304
183	0xc00b1568	-2.1731815
184	0xbdd99334	-0.1062378
185	0xbe9bfaf8	-0.3046491
186	0x3ce2d211	0.027688058
187	0x3e6348bb	0.22195713
188	0xc075e112	-3.8418622
189	0x3de42474	0.111397654
190	0x3d6121a8	0.054963738
191	0xbe747a8b	-0.23874871
192	0xbf84be3c	-1.0370555
193	0xbce8db59	-0.028424906
194	0xbea8d363	-0.32973775
195	0xc11783e1	-9.469697
196	0xbdf6c74b	-0.12049731
197	0xbe55ceb3	-0.2087963
198	0xbcabcb0b	-0.020970842
199	0xbe85e8e5	-0.26154247
200	0xbd87c79e	-0.06629871
201	0x3ccd730d	0.025079275
202	0x3d55a9d9	0.052163932
203	0xbf17d060	-0.5930233
204	0x3dfcda10	0.123462796
205	0x3cb721a5	0.02235491
206	0x3cb60b92	0.022222314
207	0x3e03a83c	0.12857145
208	0x3d17525e	0.036943786
209	0x3daef404	0.08542636
210	0x3d311be7	0.0432395
211	0x3c46c4d2	0.012131887
212	0xbd793bd9	-0.06084809
213	0xbe0e6a32	-0.13907698
214	0x3dc7bcf9	0.097528405
215	0xbd987649	-0.07444436
216	0xbe3c6658	-0.18398416
217	0xbd443b83	-0.047908317
218	0x38b4cdbb	8.621389e-05
219	0xbcf4ab1d	-0.02986675
220	0xbdbe178d	-0.09281836
221	0xbeeb61ce	-0.45973057
222	0xc0461df6	-3.0955787
223	0x3e0d0231	0.13770367
224	0xbeaf02c7	-0.34181806
225	0x3c79f27c	0.015255567
226	0xbfb97415	-1.448855
227	0x3e384578	0.1799525
228	0xbe0b88e4	-0.13626438
229	0x3c33011a	0.010925556
230	0xbebd9c8e	-0.37033504
231	0xbf3ec7ee	-0.7452382
232	0x3e1cb169	0.15302052
233	0xbd7c4853	-0.06159241
234	0x3dcc90a1	0.09988523
235	0xbea94fd8	-0.33068728
236	0x3e4f9a41	0.20273687
237	0x3c5e93de	0.013585059
238	0xc08932b8	-4.2874413
239	0xbc2e68af	-0.010645076
240	0xbeb33715	-0.35002962
241	0x3ce951b5	0.028481344
242	0x3ef35f4a	0.47533637
243	0x3c0909d5	0.008364161
244	0xbea0e098	-0.3142135
245	0xbfd2a962	-1.6457942
246	0x3dee1e35	0.11626855
247	0xbd6765a9	-0.056493435
248	0xbaa0bd17	-0.0012263384
249	0xbe7155ad	-0.23567839
250	0xbd9f9271	-0.07791603
251	0xbf6366ea	-0.8882891
252	0xbce08f89	-0.027412193
253	0xbdb132ef	-0.08652293
254	0xbd71bceb	-0.059018057
255	0xbf9d2e2b	-1.2279714

rcsl.backbone.model.6.bias f4 [200]
0	0xbf9a23ff	-1.2042235
1	0xc08cb8f4	-4.3975773
2	0xbe95cbb5	-0.2925698
3	0xbe9edf8b	-0.31029925
4	0x410f5117	8.957297
5	0xbe9f4272	-0.3110538
6	0xc0cf816e	-6.4845495
7	0xbe6a7c5e	-0.22899005
8	0x4023fd4a	2.5623345
9	0xc0723805	-3.7846692
10	0xbe5e52bf	-0.21711253
11	0x3fd5f02f	1.6713923
12	0xc0c29ff0	-6.0820236
13	0xc084ca4c	-4.1496944
14	0x3f5ddd84	0.8666613
15	0xc0bc271b	-5.8797736
16	0x40ba606c	5.8242702
17	0xbe4c032a	-0.19923082
18	0xbf147a6a	-0.5799929
19	0x40b07f72	5.5155573
20	0x3f591b10	0.8480692
21	0xc015c16c	-2.3399305
22	0xbe6780bb	-0.226077
23	0xc0de5e1b	-6.9489875
24	0x3f07d66e	0.5306157
25	0xbebd64b0	-0.3699088
26	0xc12a4d00	-10.643799
27	0xc0a07a4e	-5.01493
28	0xbf2bb835	-0.6707795
29	0x40987c4b	4.7651725
30	0xbe685366	-0.22688064
31	0x403dac24	2.9636316
32	0xc0a665bd	-5.199919
33	0xbf64acf1	-0.8932639
34	0x405567f7	3.3344705
35	0xc0a85f10	-5.2616043
36	0xc017ee94	-2.3739367
37	0xc0c13e83	-6.038881
38	0xc0a81fc7	-5.253879
39	0xc0847091	-4.138741
40	0xbfa1f086	-1.2651527
41	0xc03d3b3d	-2.9567406
42	0xc032533a	-2.7863297
43	0xbf6d1911	-0.92616373
44	0x4090b14a	4.5216417
45	0xbe87e5ac	-0.26542413
46	0xbe9792cc	-0.29604185
47	0xc10186e8	-8.095436
48	0xc090ae25	-4.521258
49	0xbff556b9	-1.9167091
50	0x3fe01740	1.7507095
51	0xbeca4779	-0.39507654
52	0x40225ea7	2.5370271
53	0x40283713	2.6283615
54	0x402146b5	2.5199406
55	0xc08e3063	-4.4434066
56	0x4040d1c5	3.0128033
57	0xc0495023	-3.1455162
58	0xc0e2679b	-7.075147
59	0x3e72c0af	0.23706315
60	0x4075ceab	3.840739
61	0xc04dcb24	-3.2155237
62	0xbd10993b	-0.035302382
63	0x40841343	4.1273513
64	0x3f2b765e	0.6697749
65	0xc0aa4f9b	-5.3222175
66	0xbfbb8cdb	-1.4652361
67	0x3ef033f0	0.46914625
68	0xbe73c472	-0.23805407
69	0x4019f39c	2.4054937
70	0x3ff1e01f	1.8896521
71	0x40129cd0	2.290821
72	0x4032dfef	2.7949178
73	0x3fbf1e10	1.4931049
74	0xbf52264a	-0.82089674
75	0xc05b9c5d	-3.4314187
76	0xbf8e8301	-1.1133729
77	0xbe758840	-0.23977757
78	0x40957df2	4.671624
79	0xc09be022	-4.87111
80	0xc0c12901	-6.0362554
81	0xbf113295	-0.5671781
82	0xc120017a	-10.0003605
83	0x407f5ab1	3.9899104
84	0x4068a6b3	3.6351745
85	0xbf84abf3	-1.0364975
86	0xbfd8c302	-1.6934512
87	0x3f36fcd1	0.7147952
88	0x40694aab	3.6451824
89	0x40856b87	4.169376
90	0xc094f287	-4.6546054
91	0xc0bb94a8	-5.8618965
92	0x405740f4	3.3633394
93	0xc0d2bb2e	-6.585349
94	0xc0e4a292	-7.144845
95	0xbe921dc0	-0.28538322
96	0xc09b8fd8	-4.861309
97	0xbed7eb1c	-0.42171562
98	0xc05f96fd	-3.4935906
99	0xc08aabd6	-4.333476
100	0xbea68eef	-0.32530925
101	0xc137e761	-11.493989
102	0x40a5a08f	5.1758494
103	0x3f4cf702	0.80064404
104	0xc090cc71	-4.524956
105	0xbeb0067d	-0.3437995
106	0xc031006c	-2.7656507
107	0xbf896d7b	-1.0736536
108	0xc0ca726d	-6.326468
109	0x40c91f3e	6.2850637
110	0xc0efc73a	-7.4930696
111	0xbe904b48	-0.28182435
112	0xbf3091a4	-0.6897223
113	0xbf9a8592	-1.2072012
114	0xc09d67bd	-4.9189134
115	0x3eb72192	0.357678
116	0x3f4a25ad	0.7896374
117	0xbe72205e	-0.2364516
118	0xbfce3ddc	-1.6112628
119	0xc09e5608	-4.948002
120	0xbe93ada4	-0.28843415
121	0xbe906c57	-0.28207657
122	0x40f5639d	7.66841
123	0xbe69f113	-0.22845869
124	0xbebf34de	-0.37345022
125	0xc0bda5d6	-5.9264936
126	0x3f803f0f	1.0019244
127	0xc0682a23	-3.6275718
128	0xc0bc8790	-5.891548
129	0xc081b732	-4.0536127
130	0xc0e11037	-7.0332294
131	0x3d82f7f6	0.06394951
132	0xbf300de6	-0.6877121
133	0xc0c04f23	-6.0096602
134	0x3fd97673	1.6989273
135	0xbf38428b	-0.71976537
136	0xc0a1841a	-5.0473757
137	0xbf653358	-0.8953147
138	0xbfc526ce	-1.5402467
139	0xc0d98ede	-6.79869
140	0x406633a7	3.5969026
141	0xc003326e	-2.049953
142	0x40730f78	3.7978191
143	0x3f2ed846	0.6829876
144	0x3fa22f80	1.2670746
145	0xbe7b85fa	-0.24562827
146	0xc089e009	-4.308598
147	0x400e5537	2.223951
148	0xbeafb7b0	-0.3431983
149	0x3ff9813b	1.9492563
150	0xc085044b	-4.156774
151	0xc1342016	-11.2578335
152	0x40e68588	7.2038
153	0x3fef6e23	1.8705486
154	0xc095ea7b	-4.684873
155	0xc0752f9c	-3.8310308
156	0xbfa4d27f	-1.2876738
157	0xc0299fd1	-2.6503794
158	0x3fe9b058	1.8256941
159	0xbf22dbe1	-0.6361676
160	0xc1041878	-8.255974
161	0xc0cfb8fa	-6.49133
162	0xc1068e1b	-8.409694
163	0xbe441c78	-0.19151485
164	0xc01561fa	-2.334105
165	0xbee3a86e	-0.4446444
166	0x407ab3fe	3.9172359
167	0xbe42fb6d	-0.19041224
168	0x4020ab36	2.51045
169	0xc04a7a8e	-3.1637301
170	0x3f56d280	0.8391495
171	0xc09baba9	-4.8647046
172	0xbe58a65c	-0.21157211
173	0xc0cc936b	-6.3929954
174	0x40af918e	5.486518
175	0xc0d5ea76	-6.6848707
176	0xbfc07fc1	-1.5038987
177	0xbe350a6b	-0.17679755
178	0xc0a1df58	-5.0585136
179	0xbeccb3b7	-0.39980862
180	0xc0aacf06	-5.3377714
181	0xbe3404be	-0.17579934
182	0xc04344ff	-3.0510862
183	0xc0a108da	-5.0323305
184	0x405f67c5	3.4907086
185	0x3fc9ad36	1.5755985
186	0x3f8f300d	1.1186539
187	0x408fec97	4.4976306
188	0xc0147a5e	-2.3199687
189	0x400570d3	2.0850112
190	0xbffbfceb	-1.968656
191	0xc09cb439	-4.897
192	0x40e91d56	7.284831
193	0x408a8918	4.329235
194	0xbeabe9d1	-0.33576825
195	0xbda4cd36	-0.080469534
196	0xbf00d9ef	-0.5033254
197	0x408c22c0	4.379242
198	0xc01b4c92	-2.4265485
199	0xbeb56393	-0.35427532
