backup/linearq_newenv/rcsl_0.75expert/timestamp_23-0926-155202&32-[8]/model/policy.pth (torch, 1881 bytes, 3 tensors)

rcsl.backbone.model.0.weight f4 [8, 2]
0	0x3e8b24c2	0.2717648
1	0x3e99ed2a	0.30063754
2	0xbf14fcb1	-0.58198076
3	0xbf05381d	-0.5203875
4	0xbd954ec2	-0.072904125
5	0x3e89a293	0.26881847
6	0xbe100fad	-0.1406848
7	0x3ef95da4	0.48704255
8	0xbdc69858	-0.09697026
9	0x3dc5794b	0.096422754
10	0xbe5ad35d	-0.21369691
11	0xbe0e541b	-0.13899271
12	0xbf2cefc2	-0.6755334
13	0xbeefc590	-0.46830416
14	0xbce2f4ac	-0.02770456
15	0x3daadc25	0.083427705

rcsl.backbone.model.0.bias f4 [8]
0	0x3e5fff37	0.218747
1	0x3ed93b40	0.42428017
2	0xbf157e3c	-0.58395743
3	0xbe72d604	-0.23714453
4	0x3efe5dd4	0.4968096
5	0x3f1650f7	0.5871729
6	0xbe1503e7	-0.1455227
7	0x3ea9492f	0.33063647

rcsl.backbone.model.2.weight f4 [1, 8]
0	0x3d28343f	0.04106545
1	0x3d193c35	0.037410934
2	0x3ec528e3	0.38507757
3	0xbe844f2a	-0.25841647
4	0xbe09172e	-0.13387749
5	0xbdb74fac	-0.08950743
6	0xbe0d1f66	-0.13781509
7	0x3e89c057	0.26904556
