backup/linearq_newenv/rcsl_0.75expert/timestamp_23-0926-112914&96-[16]/checkpoint/policy.pth (torch, 1945 bytes, 3 tensors)

rcsl.backbone.model.0.weight f4 [16, 2]
000000 6d 9f c6 3a 4d 42 c3 3e b1 fc 14 bf 1d 38 05 bf
       0.0015153714 0.3813652 -0.58198076 -0.5203875
000010 d5 43 9a be a3 53 0a 3e a3 c5 0c 3d ef 98 0e 3f
       -0.30129877 0.13508467 0.03436817 0.5570211
000020 c0 97 94 bd a1 01 3a 3e 5d d3 5a be 1b 54 0e be
       -0.072555065 0.18164684 -0.21369691 -0.13899271
000030 c2 ef 2c bf 90 c5 ef be b5 fc 4b be 55 4f e5 3d
       -0.6755334 -0.46830416 -0.19920619 0.11196772
000040 0a a2 9d 3e 8c 5c d6 3e de 70 f5 be 86 a7 9d be
       0.30787688 0.41867483 -0.47937673 -0.30791873
000050 cd 81 6d 3e 20 11 17 3f dc 27 51 be e1 48 02 3f
       0.23194046 0.59010506 -0.20425361 0.50892454
000060 e5 0c bb bd 23 f1 2e 3d 85 0d 2e 3f b3 c0 ce be
       -0.09133319 0.042710435 0.6798938 -0.40381393
000070 c5 ea e3 be ac 4f 37 be 07 7f 80 be 1f 35 1d 3f
       -0.44515052 -0.17901486 -0.25096914 0.6140918

rcsl.backbone.model.0.bias f4 [16]
000000 df ea 08 bf 86 a8 a6 be 5c ec 0a bf 41 61 0e bf
       -0.53483385 -0.32550448 -0.54266906 -0.5561715
000010 31 e4 da be 97 9a 1b 3f 5e 8c a1 3e 41 e2 0f 3f
       -0.4275222 0.6078276 0.31552404 0.5620461
000020 2f a1 18 3e 7b 9c b9 be 8e c2 bc 3c b1 53 33 bf
       0.14905237 -0.36252198 0.02304199 -0.7004958
000030 17 52 07 bf ef a7 77 3c 87 6c e4 3e 30 75 d9 3e
       -0.52859634 0.015115722 0.4461405 0.4247222

rcsl.backbone.model.2.weight f4 [1, 16]
000000 25 fc e6 bd 20 cb 13 bc 43 94 e3 3d 3a b1 7a 3e
       -0.112785615 -0.009020597 0.11112263 0.24481669
000010 0a 3f cc 3d c8 55 0a 3d fe a4 2b 3e 87 80 8f be
       0.09972961 0.033773214 0.16762158 -0.28027746
000020 c0 a9 52 3d 6c 7a 46 be e9 1c 2f be 8b 33 01 be
       0.051431417 -0.19382638 -0.17100872 -0.12617318
000030 f5 53 94 3d 32 dd de 3c 6a a4 17 be c4 85 97 3d
       0.07242576 0.027205084 -0.14808813 0.07398561
