backup/walker2d-medium-expert-v2/rcsl/timestamp_23-0830-214304&3/model/policy.pth (torch, 505723 bytes, 10 tensors)

rcsl.backbone.model.0.weight f4 [200, 18]
00000000: b5d9 0fc1 2557 cc40 b0b5 9ebf 04e2 0cc0
00000010: 6c9e b2bf 4b6d 0640 90af da3f 5f79 b5bf
00000020: a337 48bf 1db9 2bbe 80c0 c7bf 51ae 6abf
00000030: baad a13e ff5b f3be 6544 ff3f 206e 78bf
00000040: f801 a4bf cb44 6bbc a61b 63c0 7b9b b040
00000050: 7df5 3641 20be dd40 5f0a db3f 557c ba40
00000060: aefa b8bf 06aa c1c0 7489 9cbf 6ef6 46bf
00000070: b933 2c3d 6169 55be 0350 8abf 2f2b b23e
00000080: c03a babd 0467 a0be 3c5c c53d 228c 1dbd
00000090: 611e 7cc0 a3a4 84bf 3c65 473f 92be 4340
000000a0: 3978 08c0 cdd8 fa3f 7fb1 bbbf d4d6 85bf
000000b0: 3438 0ec0 9d0e 35c0 cda0 e6be 1b9e 44bf
000000c0: 2e73 6dbc 28ba 063e 6e01 0e3f 2789 f9be
000000d0: 4a09 1c3f 832d bdbc 429b c6bd 8434 f140
000000e0: 13ac 6441 4bd4 e140 c8c5 3dc0 7845 8f40
000000f0: 6147 aebe 68af 533d d80e 2ac0 1f77 5740
00000100: e55e 5e40 1bce cabf 233d 5dbf 536d 103f
00000110: b871 d8bf b866 0fbf 8efc a9bc 3147 a5bc
00000120: eb1f c8c0 e141 1740 9b34 d1c0 1d4f 15c0
00000130: 4f0d 60c0 261d 1fbf c940 40c0 f64e 3c40
00000140: 9c8c c0bf 3a58 5ebf 8f47 ebbf 8f0c 4b3f
00000150: 710e 0f40 3d36 dbbe f098 203e 6899 26bf
00000160: 5e92 f5be bae8 e5bc 4ea1 c0bb 6957 4fc0
00000170: c564 9e41 5477 2441 9f84 cd40 19a4 9440
00000180: 9fe6 10c0 f2fc 5540 13d9 16c0 c1f7 ba3f
00000190: b16a e93f ed48 f73e 4f46 40be 6024 2e3f
000001a0: ae26 0ebf 9b52 543e 700a 4c3e e37d c5bc
000001b0: 5534 663f dfd2 fe41 4182 bfc0 f943 a3c0
000001c0: 1359 aebe 47b7 d241 6328 9941 cf90 a2c0
000001d0: b57e 0841 3c9d e140 1eee 8740 52af a540
000001e0: 2b97 a43f 0a1d 19be 4623 e0c0 e4fa 3fc0
000001f0: f87b c0bf 2378 0c39 0e21 91c0 0f37 6240
00000200: be8e 2341 5549 64c0 ec29 ae40 ce8d bbbf
00000210: c4ce 9540 c73b d6c0 3c67 16c0 6ebc 863f
00000220: ff0b a13f 1171 24bf b295 bebf 7d39 23bf
00000230: c4da e1bd be52 803f 6ebb d73e 3458 b9bc
00000240: 035d 4cc0 0604 dabf 64ab 843f 26d2 0440
00000250: 018f fabe 90f9 b9be 985f cb3d 88b9 28bf
00000260: 6b21 b2bf 4e12 0641 a7bb 96bf b6ae e43e
00000270: 5313 2e3f 70b4 233d 1e71 1f3f e3aa ab3b
00000280: ef9f 66be 8114 e1be 50a7 0541 98fe 17c2
00000290: 1a64 4141 1c7c 7341 a5a9 15c1 8006 7840
000002a0: be39 0642 803e 0e41 cc1e 1a41 c08e 73c0
000002b0: 4b1e 69c0 b001 6f3f 6970 3cbf 35bb aa3e
000002c0: 379c f2be 4057 2ebf 831f 36be ab3a 0739
000002d0: e63e 8cc0 7d92 9fc0 15dc 2640 1ca4 bd3f
000002e0: 4daf 75c0 acbf 0f41 d2c2 623f 470a 07c0
000002f0: 79a8 67c0 70fc 4abf aee6 1abf 1e62 dfbe
00000300: 6c0d bdbe 7693 7e3f 2e8b f93f 30c6 d73f
00000310: 6140 00bf 485b 4abd 1c45 f9c0 cf04 cd3e
00000320: b31b 48bf 9cca 8ebf 825a 6dc0 d3c9 e040
00000330: 53e3 493f 6157 8dc0 0d9b 6e3f 240f 1cc0
00000340: 3a16 243f e22b 26bf 6449 51bf e280 82bf
00000350: b5f4 ea3d c4fa aa3d 636f 7cbf ae54 bfbe
00000360: 505e b1c0 483a 593f 89a7 2341 1d1a d4c0
00000370: 2f6e 8dbd 8be5 f13f ba83 91c0 847c cfbf
00000380: fbd1 36bf 53f0 8abe 61e1 3dc0 b0e6 a83f
00000390: 8175 023e b5b0 b6be 6009 0840 4379 8c3f
000003a0: 9ae9 043f dc34 a6bd 199b 1dc0 79ce 8b3f
000003b0: 6785 db40 29b6 b5c0 ca64 2940 08f7 a63e
000003c0: 55fe 1341 dcf7 69c0 a3de a3c0 5212 5640
000003d0: 72ad a8bf ba4c 9d3f 7ce0 34be 5019 25bf
000003e0: ebb5 28be ba16 5ebf fb69 283f a6c4 00bd
000003f0: 98c8 eb3f 2341 1141 4be1 893e 0ad6 1c41
-8.990651 6.3856378 -1.2399197 -2.201295 -1.3954597 2.1004207 1.7084827 -1.4177665
-0.78209895 -0.16769834 -1.5605621 -0.91672236 0.31577855 -0.47531125 1.9942747 -0.9704304
-1.2813101 -0.014359663 -3.5485625 5.5189795 11.434934 6.9294586 1.711254 5.8276772
-1.4451501 -6.052005 -1.2229447 -0.7771977 0.042041514 -0.2084098 -1.0805668 0.3479857
-0.09093237 -0.31328595 0.09636733 -0.03846372 -3.9393542 -1.0362743 0.77888846 3.0585065
-2.1323378 1.9597412 -1.4663543 -1.0456185 -2.2221804 -2.829017 -0.45044556 -0.7680375
-0.014492793 0.1315695 0.5547093 -0.4873745 0.60951674 -0.02309299 -0.09697582 7.5376606
14.29201 7.0571647 -2.9651966 4.47723 -0.34038833 0.051680952 -2.657156 3.3666456
3.474542 -1.5844148 -0.8642141 0.56416816 -1.6909704 -0.5601611 -0.02075031 -0.020175548
-6.253896 2.363396 -6.5376716 -2.3329537 -3.5008123 -0.6215385 -3.0039542 2.9423194
-1.504291 -0.86853373 -1.8381213 0.7931604 2.2352564 -0.42814818 0.15683341 -0.6507783
-0.47963232 -0.028065074 -0.005878604 -3.23971 19.799204 10.279133 6.422439 4.6450315
-2.264076 3.3435636 -2.3569992 1.4606858 1.8235685 0.48297825 -0.1877682 0.68024254
-0.5552777 0.20734636 0.19925857 -0.024107879 0.899236 31.852964 -5.98465 -5.1020474
-0.34052333 26.33949 19.14472 -5.080177 8.530934 7.0504436 4.247817 5.1776514
1.2858633 -0.14952484 -7.004306 -2.9996881 -1.5037832 0.00013396195 -4.535285 3.5346105
10.222349 -3.5669758 5.4426174 -1.465265 4.68149 -6.694797 -2.350051 1.0526254
1.2581786 -0.64235026 -1.4889433 -0.63759595 -0.11028054 1.0025251 0.42135185 -0.022625066
-3.193177 -1.7032478 1.0364804 2.0753264 -0.48937228 -0.36323214 0.099303424 -0.659081
-1.3916448 8.379469 -1.1776017 0.44664544 0.67998236 0.039967 0.6228198 0.005238877
-0.22521947 -0.43960956 8.353348 -37.998627 12.086939 15.2178 -9.353917 3.8753967
33.55639 8.890259 9.632519 -3.8055878 -3.642474 0.9336195 -0.73609024 0.33345953
-0.47384807 -0.6810188 -0.17785458 0.00012896459 -4.382678 -4.986632 2.6071827 1.4815707
-3.8388245 8.984295 0.8857852 -2.1100023 -3.6196578 -0.7929144 -0.6050824 -0.43629545
-0.36924303 0.9944376 1.9495599 1.6857357 -0.50098234 -0.04940346 -7.789686 0.4004273
-0.78167266 -1.1155581 -3.7086492 7.0246367 0.78862494 -4.4169164 0.9320534 -2.438424
0.64096415 -0.6491071 -0.8175261 -1.0195582 0.114724554 0.08348611 -0.9860746 -0.37369293
-5.5427628 0.84854555 10.228402 -6.6281877 -0.069057815 1.8898176 -4.54733 -1.6209874
-0.71414155 -0.27136478 -2.966881 1.31954 0.12740137 -0.35681692 2.1255722 1.0974506
0.5191895 -0.08115551 -2.4625914 1.0922385 6.8600345 -5.6784863 2.6467767 0.32610345
9.249593 -3.6557531 -5.1209273 3.3448682 -1.3177931 1.228904 -0.17663759 -0.6449175
-0.16475646 -0.8675343 0.65786713 -0.03143754 1.8420591 9.0784025 0.26929697 9.802256

rcsl.backbone.model.0.bias f4 [200]
00000000: 19df c5c0 6f54 1dc0 726a 69c0 3472 7abe
00000010: 2d48 96c0 e88f ebbf 4db0 233f c794 77c0
00000020: 222c 3ec0 bd18 a740 8a64 3cc0 554d a9c0
00000030: 2313 45c0 affa 34c0 6a37 c43f febc 2fc0
00000040: f7c6 a3c0 144a 8dc0 37e3 5fc0 337f 15c0
00000050: f22a f63f 9937 bcc0 e485 02c0 2c93 88bf
00000060: 5dc1 3bc0 3ead a3c0 4331 6fbf c848 33c0
00000070: 22f7 3dc0 3807 27bf 2ac0 0941 9862 99c0
00000080: 87ba eec0 e0e2 b3c0 03cd 7dc0 a2ea e7c0
00000090: 2f89 3341 b492 cfc0 c14f 64c0 23a1 c3c0
000000a0: f3e1 87c0 fe69 19c0 492e 72c0 5984 e740
000000b0: 2934 91c0 abdf 83c0 e10b d2c0 cd6b a0c0
000000c0: 3834 4ec0 65b4 91c0 4af9 92c0 f39d 02c0
000000d0: 4c84 93c0 b24f cfbe 67fe 2bc0 6e82 18c0
000000e0: b015 38c0 7df0 42c0 445c 9bc0 3a88 a2c0
000000f0: bf90 a1c0 5446 55c0 6082 0640 b112 8fc0
00000100: b195 acbf 1b78 c6c0 370f 64c0 61c4 24bf
00000110: ed7f cbbf 6f5c bd40 d2f8 e0bf cbb1 adc0
00000120: 6c1a 98c0 1213 8ec0 35a2 87c0 adc2 67c0
00000130: bfd6 9fc0 d6fc 9dc0 a70b 8fc0 4b4d c740
00000140: 29a5 d7bf 41ea 8dc0 f743 84c0 257b 3ec0
00000150: 0b2a d6c0 9876 f4c0 7a8d 96c0 0950 a7c0
00000160: 0bad d2c0 8e5e 893e 0065 15bf 0cd2 68c0
00000170: 5a6c 5b40 4885 81bf 867a 43c0 9f1b 53c0
00000180: 8071 96c0 2e81 95c0 eac1 7ec0 f943 85c0
00000190: 3b40 a2c0 8ef3 aac0 7573 a4c0 7fb7 4bc0
000001a0: 750b a4c0 5240 c7c0 f2ba aec0 39f3 0fc0
000001b0: 118e aec0 2ffb 67c0 2493 5ac0 5025 75c0
000001c0: 4e8c abc0 6cce a7bf 63c5 8bc0 8ac6 d940
000001d0: ac96 66c0 83a6 4941 05ce f3bf 4698 87c0
000001e0: 7fe9 4ec0 17fd 9cc0 acd1 2ec0 50cb 9dc0
000001f0: 801c dbc0 681b 7b3f 59da 0dc0 9c22 4e40
00000200: ccd4 46c0 d9a5 afc0 ea04 68c0 9a34 71c0
00000210: 73fc 8341 2a6c 84c0 ebc8 66c0 5919 9dbf
00000220: a4cc 4cc0 1590 923d 1f57 9bc0 250e 30c0
00000230: dcef 84c0 f616 0cc0 9bb3 19c0 98e0 b4c0
00000240: 5f3f 35c2 caa7 89c0 843a 18c0 9a4d 8fc0
00000250: d371 31c0 c16e 8bc0 6807 d4c0 326a d7bf
00000260: 068a b1c0 29cc a2c0 01ee 9ac0 4de3 fdbf
00000270: ea75 c1bf 3360 9fc0 6c65 89c0 c6a1 34c0
00000280: d26d 3e3e 038a 90c0 98be f940 7a81 fcbf
00000290: f309 72c0 a316 bcc0 6b51 30bf 4a88 4dc0
000002a0: 23f8 0cc0 9168 fcbf 9b34 69c0 95f7 8fc0
000002b0: 647d 21c0 b80d 92c0 6ee6 5ac0 601d 0cc0
000002c0: 8bc1 93c0 d2c5 9bc0 6b55 55c0 471d 5dc0
000002d0: c83f 5dc0 9838 7540 4491 35c0 c055 7ec0
000002e0: 187b 71c0 087f 80c0 ff24 cec0 d2e8 76c0
000002f0: a5a7 5f3f a023 4dc0 b444 a2c0 f57e d4c0
00000300: dbb9 71c0 bc0d 9fc0 c818 9bc0 fa98 eec0
00000310: 87da bbc0 92f3 85c0 be2d 9e40 f99f 7ac0
-6.1834836 -2.4582784 -3.647122 -0.24457628 -4.6963105 -1.8403292 0.6394089 -3.8684556
-2.9714437 5.22177 -2.9436364 -5.29069 -3.079293 -2.8278005 1.5329411 -2.7459102
-5.1180377 -4.4152927 -3.498243 -2.3358886 1.9231856 -5.881787 -2.039422 -1.0669913
-2.933677 -5.1148977 -0.9343454 -2.8013172 -2.9682088 -0.6524539 8.609415 -4.7932854
-7.4602695 -5.6214447 -3.965638 -7.2473917 11.220992 -6.486658 -3.5673678 -6.11342
-4.2463317 -2.3970942 -3.784075 7.2349057 -4.537617 -4.121053 -6.56395 -5.0131593
-3.2219372 -4.553271 -4.592931 -2.0408905 -4.6098995 -0.4049049 -2.6874025 -2.3829608
-2.8763237 -3.0459282 -4.855013 -5.079129 -5.048919 -3.3324175 2.1017075 -4.4710317
-1.3483182 -6.2021613 -3.5634286 -0.6436215 -1.5898415 5.9175334 -1.7575934 -5.4279532
-4.7532253 -4.439828 -4.2385507 -3.621257 -4.994964 -4.937114 -4.4701724 6.228185
-1.6847278 -4.4348454 -4.1332965 -2.9762661 -6.692632 -7.639477 -4.70477 -5.22852
-6.5836234 0.26829952 -0.5835724 -3.6378202 3.4284883 -1.0118799 -3.0543532 -3.2985609
-4.701355 -4.672019 -3.9805856 -4.1645474 -5.0703406 -5.342231 -5.139094 -3.1830747
-5.1263986 -6.2266016 -5.4603205 -2.2492201 -5.454842 -3.624706 -3.4152308 -3.8304024
-5.360877 -1.310987 -4.367845 6.8054857 -3.6029463 12.603152 -1.9047247 -4.237338
-3.2330015 -4.9058948 -2.7315474 -4.9310684 -6.847229 0.98088694 -2.216452 3.2208624
-3.106738 -5.488995 -3.6253 -3.7688355 16.498266 -4.1382036 -3.606013 -1.227336
-3.1999903 0.07156388 -4.854385 -2.7508633 -4.1542797 -2.1889014 -2.4015872 -5.652416
-45.311886 -4.301732 -2.3785715 -4.478223 -2.7725723 -4.35727 -6.625904 -1.6829283
-5.5480986 -5.087422 -4.841553 -1.9834992 -1.511411 -4.980493 -4.2936306 -2.8223739
0.1859658 -4.516847 7.804516 -1.9727013 -3.7818573 -5.8777633 -0.68874234 -3.2114434
-2.202645 -1.9719411 -3.6438358 -4.4989724 -2.5232782 -4.5641747 -3.4203143 -2.189293
-4.617376 -4.867898 -3.3333385 -3.454912 -3.457018 3.8315792 -2.8369913 -3.9739838
-3.773138 -4.0155067 -6.442016 -3.8579602 0.8736518 -3.2052994 -5.0708866 -6.6404977
-3.7769687 -4.9704266 -4.846775 -7.456174 -5.8704257 -4.1859827 4.943084 -3.916014

rcsl.backbone.model.2.weight f4 [200, 200]
00000000: e7df 60bd 78c9 883c ba47 aabc bdc9 80bd
00000010: e817 c23c e657 59bd c7a6 81bc 72e4 4abd
00000020: f846 a33d 07f8 2fbe aa92 68bd 4e5a f0bd
00000030: 9930 b2bc 98f5 48bd 199b 54bd 021b ac3c
00000040: a161 61bd fbfb f8bd f031 8fbe b056 f63d
00000050: 615a 813d ebca 72bd 523f b9bd 46e9 c73b
00000060: b2d5 88bc 489b 303c c22c 40be fb67 76bd
00000070: 0570 3abd c5bd 56bd 768e 89bd a889 40be
00000080: bf28 99bd a44d a6bd 3eaf 873c 726d 3abe
00000090: 7ae7 383d e0d2 62be a473 f3bd 5677 90bc
000000a0: 9a58 103c 29fa 01be 15d9 f7bd 6e93 59be
000000b0: 799a 89bd ae13 47bd f82b 21bd 3f30 ad3c
000000c0: 4bac a2bd 6e76 6dbd 7a73 f83b 43e2 0fbe
000000d0: 1cc9 ed3a 7d65 85bd f44c 72bd 0451 b03a
000000e0: dc21 853c 7b31 9939 bdb8 26bd 6552 3dbb
000000f0: 417d 24be 7a7f 38bd 1823 94bd 9fa3 8bbd
00000100: 1064 25be b9c7 c9bd 9f03 283d 8d37 3ebe
00000110: bdb5 64bd 5eb5 5dbd 78bb e4bd 3607 04bc
00000120: c90d acbd b82d 22be 0196 aa3c 1db7 41be
00000130: f983 98bd 83d1 98bd 8d40 a1bd 7bd8 e1bd
00000140: 5ca4 abbd 29ad 83bd 2c5c e9bd ac16 10be
00000150: 08f1 ccbc 1807 02bd 5be0 de3c c602 2abe
00000160: 08e3 b7bc 6101 34be 15e2 cebd 7f01 b1bd
00000170: 83b5 c13c 3271 c73c 6dc4 b7bd 34a5 04bc
00000180: cc56 73bc 15e6 283d 827b c8be f7b8 0fbd
00000190: f995 e1bd 2bcc 8fbd e205 05be b06d 9cbd
000001a0: c17b 37bd 6aee 64bd 8474 dcbd 9b4c a73d
000001b0: c235 3cbd b403 52bd e47d c8bd a5fc 24be
000001c0: 61be b1bd a690 bdbd 6a58 f5bd f338 eabd
000001d0: 643a 1abe 3a0b 25be 42b2 153e 1126 7f3c
000001e0: ab01 2bbc 4b02 cebc 9d82 cebd 4f8c 36bd
000001f0: f817 86bd b7ad b6bd b8cf d5bd f39a adbd
00000200: cebe 82bc 1ffe a4be f429 8cbd f7b4 943b
00000210: 62bd 51be 4d56 eabd c1bf 62bb 2302 04be
00000220: 38a4 30bd 019b 46bd f920 10bd 9a13 683d
00000230: eacc d7bd 19cc d4bd 17cd febd 4b76 44be
00000240: b3dc 0fba 001a 48be f46c 0ebe f03d ae3c
00000250: e946 aabc 4700 f73c bd4d c0bd d471 c33d
00000260: 33c4 5abd fde6 43bc 6731 a4bd 45c3 b7bd
00000270: 2f5d 83bd f2a1 f6bc d525 e4bd 6218 0fbe
00000280: 1b23 b9bd a9f3 4e3d eff7 013d 1cbe dcbc
00000290: bf3c a3bd f165 1ebd 3cea f4bd a447 4ebd
000002a0: 9daf 8abe b3bb 83bd c902 8b3d 1628 bbbd
000002b0: cbfc 34bd d323 80bd ef9f 37bd 91ab 73bd
000002c0: 6f0a 4ebd e008 cdbd 95bb 0a3d b377 20bd
000002d0: 7b4f 60bd 4e7b 7e3d 6975 05be 9b5d 2bbe
000002e0: 9bbe debd f2e5 a0bd 57de 393c 9992 f8bd
000002f0: a35e 8fbd 9a48 49be fccf fbbd 738c 28bd
00000300: 3d61 14be c036 5abd 4c8c 6fbe f440 9c3c
00000310: b119 d9bc cf87 803c cc26 703d 3760 72bd
00000320: 343a 833e 12a6 d9bf c0db 05bf 8dca 8d3e
00000330: 3f05 d9be 1158 8a3c 646d 283e 67ea 80bf
00000340: 3cba 21c0 5bbd c6bd 9b8f 98c0 2762 7fc0
00000350: c46b 1e3f 7fa9 893f ca86 42bd bb80 533a
00000360: 2fdf 8c3e 7f62 c63e 9688 dabd f2b5 58be
00000370: c901 ec3d 31ba a6c0 f6c3 1fbf 7f1b 38be
00000380: 975f 2bbf 428c dd3f 4abd 7b3a 5938 6e3e
00000390: 4f3e 673f 0de8 06c0 8bda 86bc 03a0 41c0
000003a0: 08d6 3dbd 8ab0 82be 4e84 1b3f 0378 f3bf
000003b0: 37eb bcbc a816 4ac0 a18f 113d 05bf 8dbf
000003c0: f685 12bf 49ff 8c3f e377 c5bf 930e 05bd
000003d0: f97f 973f 5915 883f 9fc3 a7be d50c 53c0
000003e0: c7bf 30c0 aae7 433f ec02 a9bf 87f4 5b3d
000003f0: 6009 ec3d f6de 3abe b156 e93d 868f 1fbe
-0.05490103 0.01669763 -0.020786155 -0.062884785 0.02369304 -0.053062342 -0.015826596 -0.04953427
0.079725206 -0.17184459 -0.056780495 -0.11735974 -0.021751689 -0.04906234 -0.051905725 0.021008972
-0.055024747 -0.121574365 -0.27967787 0.12028253 0.063160665 -0.05927555 -0.090452805 0.0061008064
-0.01670346 0.010779209 -0.18767074 -0.060157757 -0.045516986 -0.052427072 -0.067166254 -0.18802512
-0.07478475 -0.081202775 0.016563054 -0.18205813 0.04514263 -0.22150755 -0.11887291 -0.017635029
0.008810187 -0.12693085 -0.12101952 -0.21247646 -0.067189164 -0.048602752 -0.039348572 0.02114117
-0.079430185 -0.05797427 0.0075821253 -0.14051156 0.00181416 -0.06513498 -0.05915542 0.0013451879
0.016251497 0.000292193 -0.040703524 -0.0028888222 -0.16063406 -0.045043446 -0.07233256 -0.068183176
-0.16151452 -0.09852547 0.04101908 -0.18575878 -0.05583738 -0.054128043 -0.11168569 -0.00805836
-0.08401067 -0.15837753 0.02082348 -0.18917508 -0.07447047 -0.07461836 -0.0787364 -0.110276185
-0.083809584 -0.06429512 -0.113945335 -0.14071149 -0.025017276 -0.031745046 0.02720659 -0.1660262
-0.022447124 -0.17578651 -0.101017155 -0.086428635 0.023646122 0.024345968 -0.08973012 -0.008096028
-0.014852237 0.04123505 -0.3915673 -0.035088506 -0.11014933 -0.07021364 -0.12990525 -0.07638109
-0.044795755 -0.055891432 -0.10764411 0.08168908 -0.045949705 -0.051273063 -0.09789637 -0.16112001
-0.0867889 -0.09256105 -0.11979754 -0.114366435 -0.15061337 -0.16117564 0.14618781 0.015573041
-0.010437409 -0.025147578 -0.10083506 -0.044567402 -0.065475404 -0.08919852 -0.1044001 -0.0847682
-0.015960123 -0.3222513 -0.068439394 0.0045381743 -0.204824 -0.11442242 -0.0034599158 -0.1289144
-0.04312536 -0.048487667 -0.035187695 0.05665932 -0.10537131 -0.10390491 -0.124414615 -0.1918575
-0.0005487904 -0.19541168 -0.1390875 0.021269768 -0.020785766 0.0301515 -0.093898274 0.09543195
-0.053409766 -0.011956927 -0.08017235 -0.089727916 -0.06414258 -0.030106518 -0.111400284 -0.13974145
-0.09039899 0.05052534 0.03173059 -0.02694612 -0.07970571 -0.038671438 -0.11958739 -0.05036129
-0.27087107 -0.06432285 0.067876406 -0.09138505 -0.044186395 -0.06256833 -0.04483026 -0.05948979
-0.05030292 -0.100114584 0.0338703 -0.039176654 -0.0547633 0.06212931 -0.1303307 -0.16734926
-0.10876199 -0.078563586 0.011344514 -0.12137336 -0.070004724 -0.19656602 -0.12295529 -0.041149568
-0.14490218 -0.05327487 -0.23393363 0.01907394 -0.026501508 0.015689759 0.05863075 -0.05917379
0.25630343 -1.7003806 -0.52288437 0.27693596 -0.42386815 0.016887696 0.16447979 -1.0071534
-2.5269918 -0.097040854 -4.76753 -3.9903657 0.6188319 1.0754851 -0.047491826 0.00080681936
0.27514026 0.38747022 -0.10670583 -0.21163157 0.11523778 -5.2102284 -0.6240839 -0.17979239
-0.66942734 1.7308428 0.00096030964 0.23263682 0.9032945 -2.1079133 -0.016461631 -3.0253913
-0.046346694 -0.25525314 0.60748756 -1.9021 -0.023061378 -3.1576328 0.035537366 -1.107392
-0.5723566 1.1015407 -1.5427212 -0.032484602 1.1835929 1.0631515 -0.32766435 -3.2976582
-2.7617052 0.76525366 -1.3204017 0.053699996 0.11525226 -0.18249115 0.11393488 -0.15582094

rcsl.backbone.model.2.bias f4 [200]
00000000: 3592 0ebe 4f14 3a40 b8be 16be c86f 9dbd
00000010: 5226 4b40 8eb8 fdc0 6e53 0cbe 971e 07be
00000020: 106b 0e41 de1b 77bd 05f5 e9bd 6062 e6bb
00000030: fe52 c9bd 35b3 80c0 c899 1e40 ae4d 42c0
00000040: 45cf 83bd 22aa f6bf 14b0 94bc 9be0 69c0
00000050: 6af1 06c1 5f1f 2640 d7c4 b7bf 8926 dac0
00000060: 490f 32bf 03bf 1fc1 2756 3bbe cb29 42c0
00000070: 1115 68c0 adaa 09bd 5899 babe 1a8e 72bf
00000080: 6934 97c0 ceec d3bf 4652 95c0 2d7d 81bd
00000090: 69a6 c140 d2b4 bfbd 74b7 f43e dae0 19c0
000000a0: 9eec 36bc 9dcb 0e41 f3fb 9abc 7f6f c8bd
000000b0: 09e4 fec0 c224 64bd c628 a4bd 134c 36bf
000000c0: 941d db40 3883 27c1 bce1 75bc 7e2f 7940
000000d0: f848 e9c0 1d5e 04c0 5698 0f40 e4ad 71be
000000e0: 67de 1abf 9b2d d0bf 5257 6bc0 7fc1 a8c0
000000f0: 70d3 b0bd e95a 07bd d496 bbbd a07d 2f3f
00000100: 551a 923c f3ef bb3f b41d 1ac0 143e 2dbf
00000110: 6eb6 9bc0 15b9 6b40 a20d 843f 2134 03be
00000120: c969 93bd d8eb ecbd 7356 323d f9a0 3540
00000130: 02ef 97bd 26c8 40be 67d4 11c1 acf9 07c1
00000140: a960 3a40 3b01 293f 0db6 cabd 334f 4fbc
00000150: 6d31 893f 8c29 87bd 1fdc 18bc f635 9ac0
00000160: a328 bdbf 06ed 02c0 a7e5 e2c0 f20c 9540
00000170: ae16 e2bd e7e2 c03e 2351 06be 0093 d7c0
00000180: 76a1 8bbd b0a7 81bd 54d5 0ac0 d5c8 9cbd
00000190: 4b8d 91bd 20ff 0bbe 468d c2c0 182a 65bc
000001a0: c5c1 60be d8ec 96bf 8fee 5abf 1acd 11c1
000001b0: 2cea 283f c18a bebf 6549 a740 5a96 0fc1
000001c0: dac2 31bd 6d2f d0bd e7c4 96bb 4b94 08c0
000001d0: a9e3 b4c0 52aa c4bf 4f74 933a 9d70 2d3f
000001e0: bf32 0ebd 2a94 acc0 79c8 27c0 4dfa 0ec1
000001f0: 7a89 84c0 b7cc fabd a66c f3bd 775e 33c0
00000200: 0ee2 c940 f371 89c0 7337 3340 4de3 ab3c
00000210: 4330 58c0 6f28 36c0 c0a2 1440 03d5 35c1
00000220: adb4 9ebb 0fa5 8240 7a51 64bf 9179 3740
00000230: cbd1 fdbd f548 f3c0 d74c 3fc1 a3b3 afbd
00000240: 4996 8a40 fb81 8fbd d11d 4cbd db8d a8bf
00000250: b4df 51be b794 b0c0 b581 e6bd 490c afbd
00000260: 5d36 07be 5201 ab40 397d c9c0 f267 e63c
00000270: e12d 8cbd 8249 ac40 e75e 59c0 1695 38bf
00000280: 1306 513e 03e2 8fc0 36f7 e03f 3117 80c0
00000290: 466f a2bd 843f 08c0 49d4 fb40 33f1 f4c0
000002a0: cf4c 0cbd f2d8 eebf 44aa b2c0 ed05 0240
000002b0: 1159 93bd 5caf 98bd cd01 b4be 57d7 4340
000002c0: 0e0c 02be a86b 31c1 6858 32c1 ee09 03bd
000002d0: 65a9 d4c0 e45b 5cc0 daa7 1940 645e c8c0
000002e0: 78cf 39c0 1da2 823b ec40 aabd a6ef 753e
000002f0: ea30 08be 32e2 4ec0 e79f a5c0 e232 7340
00000300: 1696 223f 0a8a f8c0 20cf 9fc0 87b9 e6bd
00000310: 129e 10bf 61a9 d13c 60a0 e7c0 fd22 05c1
-0.13922961 2.9074895 -0.14721191 -0.07687336 3.174214 -7.9287786 -0.13703701 -0.13195263
8.901138 -0.06032931 -0.11423687 -0.00703077 -0.09830283 -4.021876 2.478136 -3.0359912
-0.06436018 -1.927067 -0.018150367 -3.6543338 -8.433939 2.5956647 -1.4356946 -6.817204
-0.69554573 -9.984134 -0.18294583 -3.0338008 -3.6262858 -0.033610035 -0.36445117 -0.9474808
-4.7251477 -1.6556642 -4.666293 -0.063227035 6.0515637 -0.093606606 0.47796214 -2.4043489
-0.011164812 8.92471 -0.018918967 -0.09786891 -7.9653363 -0.055699117 -0.080155894 -0.7120983
6.8473606 -10.469536 -0.015007433 3.8935237 -7.2901573 -2.0682442 2.2436728 -0.2360149
-0.6049561 -1.6263918 -3.6772046 -5.27362 -0.086340785 -0.033045683 -0.091596276 0.68551064
0.017834822 1.4682602 -2.408063 -0.6767285 -4.8660192 3.6831715 1.031666 -0.12812854
-0.07197911 -0.11568421 0.043539476 2.83795 -0.07418634 -0.1882635 -9.114356 -8.498455
2.9121497 0.660175 -0.09898005 -0.01265316 1.0718209 -0.06599721 -0.009329825 -4.819087
-1.4778026 -2.0457168 -7.0905337 4.65783 -0.11039482 0.37673113 -0.13116889 -6.7366943
-0.068179056 -0.06330812 -2.1692705 -0.07655493 -0.071070276 -0.13671541 -6.0797453 -0.013987087
-0.21948917 -1.1791029 -0.8552026 -9.112574 0.6598232 -1.4886094 5.2277093 -8.974207
-0.043398716 -0.10165296 -0.0046011093 -2.134051 -5.6527905 -1.5364478 0.0011249873 0.6774996
-0.034716364 -5.3930864 -2.6216109 -8.936109 -4.141782 -0.122460775 -0.118859574 -2.8026407
6.3088446 -4.29516 2.8002594 0.020982409 -3.3779457 -2.8462179 2.3224335 -11.364505
-0.0048433156 4.0826488 -0.89186823 2.8667948 -0.123935305 -7.602656 -11.95626 -0.08579185
4.3308454 -0.07007214 -0.049833123 -1.3168291 -0.20495492 -5.5181537 -0.112552084 -0.08547265
-0.13204332 5.343911 -6.296536 0.028125737 -0.06844688 5.383973 -3.3964174 -0.7210249
0.20412473 -4.4963393 1.7575443 -4.002831 -0.0793138 -2.1288767 7.8696637 -7.6544433
-0.034252938 -1.8659956 -5.5832844 2.0316117 -0.071947224 -0.07455322 -0.35157624 3.0600183
-0.12699911 -11.088783 -11.146584 -0.03199189 -6.645678 -3.4431086 2.4008698 -6.2615223
-2.903288 0.0039866106 -0.08313164 0.240172 -0.13299909 -3.2325559 -5.1757693 3.7999806
0.6351026 -7.7668505 -4.994034 -0.11265855 -0.56491196 0.025593461 -7.238327 -8.321042

rcsl.backbone.model.4.weight f4 [200, 200]
00000000: 7579 81bd 28a2 16be 00b9 02bf b77a 3dbc
00000010: 294c 4bc0 8a8a bac0 7081 2b3d b757 03bb
00000020: 10da de3f 1b08 0d3d 5f37 903d 6e8b 983c
00000030: 69dd 04bc 6e79 723e 4cd7 fdbf 9bc3 353f
00000040: e489 263d b089 b43e ab74 f5bd 4c2b 7dbc
00000050: 5c7a 123d 408c 4fbe 9964 8e3d e0cf d2be
00000060: 9968 23bf 83b5 dcbd 58bc 8c3c 92dd a93e
00000070: 75f1 2cc0 6f34 0dbd 357d ce3d b8df c0be
00000080: 4642 6dbf 81b5 a9c0 0727 763e 2d23 853c
00000090: dc80 bfbe ec8e 253d 4a4e 3abf 5ecd 5b3e
000000a0: 94ce d33b 26dd e03d 93f9 f23c c4d1 8abd
000000b0: ce9d ee3c 4b35 1cbd 3eac 763d 3e59 ef3d
000000c0: 0f00 6fc0 ac30 b33e e51d 0b3d ea4b cb3d
000000d0: 5980 ab3e 98c8 2abe b7af a6be 6c5e 10bb
000000e0: 4550 203e 2a3a 24bd fa15 f2bc 3c2e 313f
000000f0: 5d94 313d d20c 42b5 b0dd 34bc 113b 0ebe
00000100: e773 6b3c 2aa9 33be 032c 2fbf 8c61 93be
00000110: 8e61 613e 337f dfbe 95eb bd3f 4652 22bd
00000120: 3bc5 67bd 81f7 91bc fdd5 fabc b9bd 8abd
00000130: 0287 8c3d 9ada 66bd 00e3 14c0 8af3 9ebe
00000140: 54cb 5bbf f8b4 5dbd dc50 543c be7c 8ebd
00000150: 1e3e 82bf 75b3 dbbc 956b 1abd eb12 acbd
00000160: 7d06 acbf b1e4 8abf ef95 36bf b793 19bf
00000170: 876c 50bd d5e6 cb3e e205 79bc 4c09 c0bf
00000180: 6316 fabc 10ad bfbc 1dd4 99c0 07ad f03b
00000190: 8512 ff3d fe44 20bd b629 12bf e370 d33c
000001a0: 4241 1ebe 389c fa3e 0c55 0fc0 7910 c9bc
000001b0: e321 fbbc 138f 09bf beb1 46bf 6f29 0ebe
000001c0: 1467 b43b 045b 9ebd d695 8c3d 8dc7 693e
000001d0: d38c 21be eeee 0cbf 25d5 783d 4c9b 8dbf
000001e0: a7c1 8cbc 214f b93d e33b 04bf 2959 09bf
000001f0: 54f7 91be 34a7 5d3c 0616 17bd c9ab 903e
00000200: ec95 9d3e 72db a4bf a0be 713e 3c7e 8d3c
00000210: f214 fd3e e3bf 6a3d 7328 e5bd cfab c83e
00000220: 7546 edbc 702f acc0 28d3 6bbf 1425 dcbe
00000230: 5f94 f7bc 50ed e7bf dbeb 84be 5fbf 5d3d
00000240: d10a 59be 41a2 123d 3c03 26bd 81c7 7cbf
00000250: 7a14 8dbc 151c 48bf 2095 4d3d 9687 86bd
00000260: d8a2 9bbd ca31 60be b183 c63e c760 3bbc
00000270: 9135 c2bc cf8a 64be e77a 57bd 665d 0dbe
00000280: bd5e 47bc 856f c7be aec5 b8bf f6e6 53be
00000290: 6a58 c5bc 8bb0 c7bc a4a3 26bf e89f 98bf
000002a0: 2a1d 7dbd 9411 04c0 9f06 5c3e eced 0d3f
000002b0: 84fe 24bd 4388 b73c 4edc c3bf 2839 ebb9
000002c0: 2de3 3e3f b3a1 5dbe 3496 a1be d4bd 063d
000002d0: dc4f ec3e 9331 c7be 6b89 82be f6eb 39bf
000002e0: 6a73 0ebf a7fb 863c 69d6 a7bc 155a 993b
000002f0: da7f 233d d78c e0be b3c1 47c0 24d5 473c
00000300: 7d59 9c3d 09e3 433e 6602 96bf 2290 42bc
00000310: 11fe 1d3f 0718 7e3d fcf3 ffbe ff44 d1bf
00000320: 364b b43d dba0 42bd 2e12 dabd 22dd 223d
00000330: 2c9a 42be a3d2 8dbd c935 8ebd ac78 c83d
00000340: 5b6e 41bd b7f6 d43c 2c0f 4dbd 0b6e 20bc
00000350: 27b8 e6bd 9b6d ff3e c1d5 723e a89a cdbf
00000360: c100 d0bd 829b 3839 f912 febc 792f 503e
00000370: 710c e73b 6708 4c3e 6c68 02c0 829a debe
00000380: 2640 bcbd 3277 bebf db1c a1bd fe41 d93e
00000390: 3f0e 353d e768 e33c 09b7 2d3e 8f1a 21bf
000003a0: a48f e33e f748 133e 3fff 653d 77f5 8a3d
000003b0: 9a23 de3e a924 87bd d25e 873e a09c e8bf
000003c0: d342 c43a 3d6d 1a3c bf18 2fbd 6ca4 9fbc
000003d0: 1a97 43c0 111d 813d 0dac 8cbd 4cb8 81be
000003e0: 647d 32be 101c 33be fdc7 6dbd 963c 053e
000003f0: 3901 e2be 8c63 e8be aca7 883e 7b74 36be
-0.06321994 -0.14710295 -0.5106354 -0.011564902 -3.1765234 -5.8294115 0.041871488 -0.0020041296
1.7410297 0.034431558 0.07041811 0.018621173 -0.008109429 0.23679134 -1.9831328 0.71001595
0.040658846 0.35261297 -0.11985143 -0.015452217 0.035761222 -0.20268345 0.06952781 -0.4117422
-0.6383148 -0.10776808 0.017179653 0.33176857 -2.7022374 -0.034473833 0.10082475 -0.37670684
-0.9267925 -5.3034062 0.24038325 0.016252125 -0.37403 0.040419504 -0.7277571 0.2146506
0.006463835 0.10979681 0.029660022 -0.06778291 0.029127982 -0.03813676 0.060222857 0.116869435
-3.7343786 0.3499807 0.033964057 0.09926589 0.3349636 -0.16678083 -0.32555935 -0.0022028936
0.1565562 -0.040094532 -0.029551495 0.69211173 0.04335438 -7.228929e-07 -0.011039183 -0.1388972
0.014370895 -0.17545 -0.6842653 -0.2878536 0.2200987 -0.43651733 1.4837519 -0.039629243
-0.056584578 -0.017818214 -0.030619616 -0.06774468 0.06861688 -0.05636082 -2.326355 -0.3104518
-0.8585713 -0.054127663 0.0129587315 -0.069573864 -1.0175207 -0.02681897 -0.037700254 -0.08402046
-1.343948 -1.0851041 -0.7132253 -0.5999102 -0.05088475 0.39824548 -0.0151991565 -1.5002837
-0.030528253 -0.023397952 -4.8071427 0.007344845 0.12454704 -0.039128296 -0.57094896 0.025810665
-0.15454581 0.4894731 -2.2395658 -0.024543988 -0.030655807 -0.5373394 -0.77614963 -0.13882993
0.005505452 -0.077322036 0.068645164 0.22830029 -0.15776376 -0.5505208 0.060750145 -1.1063018
-0.017182184 0.09048296 -0.5165388 -0.5365167 -0.2850901 0.013528634 -0.036886238 0.28256062
0.30778444 -1.2879469 0.23607874 0.017272107 0.49430043 0.057311904 -0.11189356 0.3919358
-0.02896426 -5.3807907 -0.92119074 -0.42997038 -0.030222116 -1.8119297 -0.25961193 0.054137584
-0.21195532 0.03579927 -0.04053043 -0.9874192 -0.017221678 -0.7816785 0.050191045 -0.0656883
-0.07599419 -0.21893993 0.38772348 -0.011436648 -0.023707183 -0.22318576 -0.052607443 -0.1380516
-0.012168583 -0.3895227 -1.4435327 -0.20693573 -0.02409001 -0.024376174 -0.65093446 -1.19238
-0.06179539 -2.063573 0.21486901 0.55441165 -0.040281788 0.022403842 -1.5301607 -0.00044865278
0.7456539 -0.21643715 -0.31559908 0.032895878 0.46154678 -0.3890501 -0.25495467 -0.7262567
-0.5564486 0.016477419 -0.02048798 0.004679928 0.03991685 -0.43857452 -3.1211975 0.012196813
0.07634256 0.19129576 -1.1719482 -0.011875184 0.617158 0.062034633 -0.49990833 -1.6349181
0.08803408 -0.047516685 -0.10647999 0.03976167 -0.19004124 -0.069249414 -0.069438525 0.09788641
-0.047224384 0.025996549 -0.050063297 -0.009791861 -0.11265593 0.4988831 0.23714353 -1.6062822
-0.10156394 0.00017605539 -0.031014906 0.2033061 0.0070510437 0.1992508 -2.0376234 -0.43477255
-0.09191923 -1.4880126 -0.07866832 0.4243316 0.04420304 0.027759982 0.16964354 -0.6293115
0.44445527 0.14383303 0.056151625 0.067851 0.43386537 -0.06598789 0.2643953 -1.8172798
0.0014973528 0.0094254585 -0.04274821 -0.019487582 -3.0560975 0.06304372 -0.068687536 -0.2533592
-0.17430645 -0.17491174 -0.05805205 0.13011393 -0.44141558 -0.45388448 0.26690423 -0.17817871

rcsl.backbone.model.4.bias f4 [200]
00000000: a1b6 eac0 d006 863f a52a 0341 2317 aac0
00000010: 80d1 7ebf a362 f8c0 7115 f4bf a928 5cc1
00000020: ed26 8c3f 2ac1 a0c0 3b33 12bf ec3b 01c1
00000030: a954 fcbd 8d65 48bd b7d4 1140 b316 7ebd
00000040: 51cc d6bf 5e93 84bf 4d9b bcbd 8331 3c40
00000050: 7497 37c0 bd88 a740 a7ed 3cc0 614d fbc0
00000060: e27c 25c0 1f84 1ac1 3105 bec0 d2f2 8540
00000070: 7f9e 61c0 52c5 ffc0 99c5 2d3f 20d5 ce3e
00000080: 9348 1dc0 c5fc 86c0 01b1 99bf 93ce ffbd
00000090: a951 13c1 69f7 3340 bc5e d8bf beba c0bf
000000a0: e5ba 95bf a984 e9be 18c0 e23f 7abc f5bf
000000b0: 8d9a bc3f 6826 6a3f e988 90bf 380f 79c0
000000c0: 5a47 2840 ba50 14be 9554 83c0 7f47 fdc0
000000d0: 48df 8cc0 8c25 bc40 627f e3bd 4a1a dec0
000000e0: 1947 d1bf 8e6f 223d 506e 32c0 a897 f7bf
000000f0: f0b0 b1bf e91a ccc0 1579 96c0 06f2 83c0
00000100: 50d0 23bf c9f7 35be 0226 e6be 968b 03bf
00000110: 67ee 2cc1 52a3 4cbd 55d2 00be 583e b6c0
00000120: 0e19 8f40 d0f6 713f 502b b9bf 6263 bebd
00000130: b4af e0c0 fbfb 6ac0 2664 c6c0 14f5 84c0
00000140: cd54 67be 33fe 31c0 1a4c d940 5163 9c3f
00000150: 8c89 bec0 bb35 12c1 08e3 e7bd 61ea 98bf
00000160: b804 08bd a8f0 3640 cdf0 fdbf 2073 0f3c
00000170: 9229 24c0 983a 45bf 88dc 49c0 c58b 9e3f
00000180: 487d 2bc0 fc43 16c0 1213 51be 8cfe 92bf
00000190: 4def 913b 7d16 3f40 af4b 55be 20df e1be
000001a0: 3660 3ac0 0ee5 1cc0 0efc 0fc0 5e00 9abf
000001b0: c1f1 0a40 7a5b d7be 338f 3cbf e6ff ccbd
000001c0: f738 b040 602c 85c0 e38c dfbf 60d5 a7bf
000001d0: 5f24 f3bf d3f3 aec0 1087 b1bf e263 97bf
000001e0: f97b 0bbe cdb9 04c1 1045 53c0 c068 12be
000001f0: b005 2d40 56b2 4dc0 7aa5 4ec0 083e e9be
00000200: 846f ea40 effc 1341 ad82 7a3d c1da 99c0
00000210: 0009 d3bf 2874 93bf ff53 593f 2d9d 0cc0
00000220: 659e 8c40 6392 5cc0 3cc9 95c0 f355 e1c0
00000230: 0e76 c33f 1520 0dbe dbe7 4740 eed7 0ac0
00000240: 1521 6dbf 86ab d240 1cfe 4ac1 43fa 083f
00000250: 2cb7 8dc0 115f 62c0 6b14 b1bf 82c7 0dbe
00000260: f8b5 05c1 62bd 46c0 e776 3440 a45d 18c0
00000270: ebbd 5e40 7a48 8d3f f29e 99bd 09c3 1cc1
00000280: 5320 333f eb5f 8dc0 7d7c 173e d38e d7bf
00000290: 270f 39be 9e9e 0ebe 2b9f a5c0 a0e8 f8bb
000002a0: fc4f 063c 5f9b c7c0 7e9e 2ac1 7063 2040
000002b0: 6718 df40 eab5 c3be b427 32c0 d4ba 86c0
000002c0: 8c75 8140 dd1b 1c40 b17e 52bf 9377 38c1
000002d0: b708 c1bf c0f5 e9c0 9a0b 3dbf 2b75 b0c0
000002e0: eee8 f33f 48af ad3f 45de c240 8454 d2bd
000002f0: 1c13 ec40 8648 56be df47 81c0 dbf8 33be
00000300: c216 f9bf f280 8fc0 cc82 a0bd 369e eebe
00000310: 6306 25c0 8890 b73f bf36 c2bd 7f42 84be
-7.3347936 1.0470829 8.197911 -5.3153243 -0.9953842 -7.7620406 -1.9069043 -13.759927
1.0949379 -5.0235796 -0.5710942 -8.077129 -0.12320835 -0.04892497 2.278608 -0.062033366
-1.6781102 -1.0357473 -0.09209309 2.940522 -2.868619 5.2354417 -2.9520051 -7.8531957
-2.5857472 -9.657256 -5.9381337 4.185891 -3.5252988 -7.992837 0.67879635 0.40396976
-2.4575546 -4.2183557 -1.2007142 -0.12490573 -9.207437 2.8119757 -1.6903911 -1.5056989
-1.1697661 -0.45609024 1.7714872 -1.9198143 1.4734665 0.91464853 -1.1291782 -3.8915539
2.629355 -0.1448392 -4.104075 -7.9149776 -4.402256 5.8795834 -0.11108281 -6.940709
-1.6349822 0.039657168 -2.787983 -1.9343157 -1.3882122 -6.378285 -4.7022805 -4.123294
-0.63989735 -0.17770304 -0.44950873 -0.51384866 -10.808204 -0.049960442 -0.12580235 -5.6951103
4.4718084 0.9451723 -1.4466343 -0.092962995 -7.021448 -3.6716297 -6.199725 -4.154917
-0.22590943 -2.78114 6.7905397 1.2217809 -5.9542904 -9.138118 -0.113226 -1.1946527
-0.033207625 2.8584385 -1.9839112 0.008755475 -2.5650373 -0.7704253 -3.1540852 1.2386404
-2.6795216 -2.3478994 -0.20417431 -1.1483932 0.0044535757 2.9857476 -0.20829652 -0.44115543
-2.9121222 -2.4514804 -2.2497592 -1.2031362 2.1710055 -0.4206198 -0.73656005 -0.10009746
5.5069537 -4.161667 -1.746487 -1.3111992 -1.8995475 -5.4672637 -1.3869343 -1.1827357
-0.1362151 -8.2953615 -3.3010902 -0.14297771 2.7034721 -3.2140098 -3.22885 -0.4555514
7.3261127 9.249251 0.06115978 -4.8079534 -1.6487122 -1.1519823 0.8489379 -2.1970932
4.3943353 -3.4464347 -4.6808147 -7.041742 1.5270402 -0.1378177 3.1235263 -2.1694293
-0.92628604 6.583438 -12.687038 0.5350687 -4.42861 -3.5370524 -1.3834356 -0.13845637
-8.356926 -3.105309 2.8197572 -2.3807154 3.4803417 1.1037743 -0.075010195 -9.797616
0.699712 -4.4179587 0.14793582 -1.6840461 -0.18072186 -0.13927695 -5.1756797 -0.0075960904
0.008197781 -6.237716 -10.663694 2.5060692 6.971729 -0.38224727 -2.7836733 -4.210306
4.045599 2.4392006 -0.82224566 -11.529193 -1.5080785 -7.311249 -0.7384583 -5.5143027
1.905546 1.3569117 6.0896325 -0.10270026 7.3773327 -0.20926103 -4.0400233 -0.175754
-1.946007 -4.4844904 -0.078374475 -0.4660508 -2.5785148 1.4340982 -0.09483098 -0.25831982

rcsl.backbone.model.6.weight f4 [200, 200]
00000000: 8438 c1bf d086 26bf 6233 b8bf 9418 29be
00000010: e61c 8b3e 4a32 0cbe 8f80 d1bd a022 57bd
00000020: 4316 423d 1c12 49be d04b 27bf d3c6 9dbd
00000030: 99c2 153d 3fcd c5bc 1488 a2c0 abe7 053d
00000040: 53f3 a73e bec8 463f 3f80 613d 6096 e83c
00000050: a870 d23d 12d0 ba3c 758d 56bd ba84 a2bd
00000060: 243e e1be 5ae9 c9bc 1f12 17be d412 583d
00000070: 6a70 1abe d93f 8abe 4139 853c 4c6b 79be
00000080: 209d 1f3f 1643 9cbe e351 ef3a 593b e93b
00000090: 0050 293e 7417 c33d 8acb a9bc 1693 fc3e
000000a0: 03aa babd 2027 2f3d e1ed 67be bcd4 bebd
000000b0: 26a8 09be e00a 67be d6e7 fdbe 5264 47bc
000000c0: 9910 eebd cdd0 febc 0aad fbbf 0fce 3ebc
000000d0: efa8 23bd 0e61 45bf 5c80 5d3d b72d 193e
000000e0: 27bd 31be b72c 9fbe 9871 71be 889b 85be
000000f0: 683e f0bd d750 9ebd df1e 12c0 32c7 a73e
00000100: 66f9 37bd 8e64 fb3c 2898 923a 6cf5 bc3b
00000110: 739c 04bf 53f8 ebbc 1a04 15bd e4e1 e33e
00000120: 3859 cb3f 6151 08c0 8363 6dbe d87c 2abd
00000130: 06cb 41bf 118c 3cbe 8a7e 1cbf 646a 7b3e
00000140: 6b98 d83b de5a 38bc c14d 4cc0 60de 113e
00000150: 971b d73d d0c3 c8be 278e bd3a 79c7 c1bf
00000160: f12e e03c bc31 92c0 fdbd 7dbf 84bb a7bb
00000170: b989 993d 182a cfbe 9844 a83d 5231 5dbf
00000180: 5e7b 9bbe 225d 7abe dc6b a03d 3c16 38be
00000190: 6918 c6bc 25f7 663e b063 3abc 34b8 b5be
000001a0: 4790 cc3b 6d16 04be 5f99 7dbe 9e8b e1bd
000001b0: 9ca8 8d3c 11af e0be 7a5a acbf ee98 ebbc
000001c0: 8e90 aec0 de68 553e 6090 5f3e cd5d babf
000001d0: 35aa e33e 6102 67c0 e561 473d 65a4 b33d
000001e0: 78be 333d 9715 3b3e 44ba 853e 8375 06bc
000001f0: 7d7b 17be 742e 013e 5804 ca3d 59de 33be
00000200: 334a 8abe 8097 59c0 4b8f 1dc0 7e2e a6bd
00000210: 15b3 ccbf 1481 dbbe c3c3 cfbe 5f00 0ebe
00000220: 5159 343e 39e6 1e3e fa8c 65be 3b29 993d
00000230: 3ac6 4ac0 2755 5dbd 7d08 17c0 5072 663d
00000240: 731f b43e 0381 86c0 0cb1 953e 7e69 4abe
00000250: 6a3a 38be 165d 8cc0 184c 8e3d 1b9d 5f3d
00000260: e1b2 7bbe fe53 883e 60cd 92be cfec c73c
00000270: 224d 7d3e a50a dec0 d9c7 243d afe3 c23e
00000280: cd15 59bd 3c09 873e 2abc afbf 58c9 4abf
00000290: 0e0b eabd 6916 b83d 4f2d 4bbf a292 1c3d
000002a0: ba21 98be ace0 0cbe db41 d2c0 db9d 8e3d
000002b0: 2998 a4bf bd65 16be 9df9 d83d a797 1ec0
000002c0: f6a4 70be ee25 473d 852d 893d 2894 c3be
000002d0: 5d1a ea3d 838e 9abf 4f6e 423e 49e3 6339
000002e0: d5fd b1bf 641b f0bf c12c fd3d d541 1a3f
000002f0: 1bb5 7ebf 84c0 c73d 46c6 2dbe 4b9d 243b
00000300: 1086 a7be 4c83 90bc 3f43 83bb 339a 1fbf
00000310: f121 9dbe e107 8bbf 95a3 1f3d 0360 ccbc
00000320: 00bc afbe dcb6 f3bd 11da 053d b7bf a5bd
00000330: 5d3e 0dbf e6ee 243e 3fa2 8fbd 9340 003f
00000340: 1785 b23d 19f8 babd 2605 e0bc a448 e9bd
00000350: 53c2 2cbc a4b0 e0bd 119c c2bd 183a e9bc
00000360: f68a 7c3d 9219 d13b 0477 95bd c955 d6be
00000370: 7f79 a33d c7e7 813e da4a 773d 57a5 3dbe
00000380: ccda 43c0 baaa 363e 3011 573e b60d b0be
00000390: 5ebd 7b3d ca68 27be b68f b3bb c144 40bf
000003a0: b6fe c3be 4b4c 5cbc d80c 08be 2474 ea3a
000003b0: 318c c93d 6498 5bbf 9dc6 ebbf 4b16 dfbe
000003c0: 6b07 d3bd 792d 8ebe fca8 07bf 913e 55be
000003d0: 6410 be3c 749d b6be bc65 50be fbcd febd
000003e0: 96ff 213e d48d dd3c 3b79 15c0 ac6f 36be
000003f0: 8d9a 01be c0a4 783e 552d 8e3c 3248 a7be
-1.5095372 -0.6504946 -1.4390681 -0.16513282 0.27170485 -0.13691059 -0.10229599 -0.052523255
0.04738451 -0.19635814 -0.65350056 -0.07703938 0.036562536 -0.02414572 -5.079111 0.03269164
0.3280283 0.7765006 0.055053946 0.028392017 0.10275394 0.022804294 -0.052380998 -0.07935472
-0.43992722 -0.024647404 -0.14753006 0.05275233 -0.15081945 -0.27001837 0.016262652 -0.24357337
0.6234913 -0.30519933 0.0018258657 0.0071176705 0.16534424 0.09525958 -0.020726938 0.49330968
-0.091144584 0.042761922 -0.22649337 -0.093179196 -0.1344305 -0.22562742 -0.4959094 -0.012169914
-0.116242595 -0.031105423 -1.9662182 -0.011645808 -0.03995603 -0.7710122 0.05407749 0.14958845
-0.17357312 -0.31088802 -0.23578489 -0.26095223 -0.11730653 -0.07730263 -2.2831342 0.3276916
-0.04491558 0.030687597 0.0011184262 0.0057665613 -0.5180122 -0.028804934 -0.036380865 0.44508278
1.5886602 -2.129967 -0.23182492 -0.041622967 -0.75700414 -0.18412806 -0.61130583 0.24552304
0.0066099665 -0.011252133 -3.1922457 0.14244986 0.10503309 -0.39211893 0.001446192 -1.5138999
0.027366133 -4.568571 -0.99118024 -0.005118789 0.07496972 -0.40461802 0.08216208 -0.8640338
-0.3036756 -0.2444959 0.078330725 -0.17977232 -0.024181562 0.22555216 -0.011376306 -0.35492098
0.006242785 -0.1289918 -0.24765538 -0.11012958 0.017292313 -0.43883565 -1.3465111 -0.028759446
-5.455146 0.20840785 0.21832418 -1.4559876 0.44465795 -3.6095202 0.048677344 0.0877159
0.043882817 0.18269955 0.26118672 -0.008206728 -0.14793201 0.12615377 0.0986411 -0.17565288
-0.27009735 -3.3998718 -2.461871 -0.081143364 -1.5992151 -0.42871916 -0.40579042 -0.13867329
0.17612197 0.1551751 -0.2241706 0.07478567 -3.1683488 -0.054036286 -2.359893 0.05626136
0.35180244 -4.2032485 0.2923664 -0.19766805 -0.17991033 -4.386363 0.069481075 0.054593187
-0.24579956 0.2662658 -0.28672314 0.024404911 0.24736455 -6.9387994 0.040229652 0.38064334
-0.052999306 0.26374233 -1.3729298 -0.79213476 -0.1142789 0.089886494 -0.7936601 0.038225777
-0.2971323 -0.1375758 -6.570539 0.06963702 -1.2858936 -0.14687248 0.10594485 -2.4780061
-0.23500428 0.048620157 0.06698135 -0.38198972 0.1143081 -1.2074741 0.18987392 0.00021733077
-1.3905588 -1.8758359 0.12362052 0.602567 -0.99495095 0.09753516 -0.16970167 0.0025118168
-0.3271947 -0.017640732 -0.004005819 -0.62344664 -0.30689958 -1.086178 0.038974363 -0.024948126
-0.3432312 -0.11900112 0.032678667 -0.08093207 -0.55173284 0.16106758 -0.07013368 0.5009853
0.08716791 -0.09129352 -0.027346205 -0.11390808 -0.010544377 -0.109711915 -0.095024236 -0.028470084
0.06165596 0.006381222 -0.07298091 -0.41862324 0.07982158 0.25372145 0.06037412 -0.18520103
-3.0602293 0.17838565 0.2100265 -0.3438546 0.06145989 -0.16348568 -0.005479778 -0.7510491
-0.38280267 -0.013445924 -0.1328615 0.0017887396 0.098411925 -0.85779405 -1.8419987 -0.43571696
-0.10304149 -0.27769068 -0.52992225 -0.20824648 0.023201175 -0.35667002 -0.20351309 -0.124416314
0.15820155 0.027045168 -2.3355243 -0.17816037 -0.12656613 0.24281597 0.0173556 -0.32672268

rcsl.backbone.model.6.bias f4 [200]
00000000: bfac 63c0 f9e9 8bc0 e3a4 523f 7538 aec0
00000010: d36f e03f cf09 9940 3a86 4a40 b05c 5540
00000020: f0f5 2bbe a9c5 d7c0 df38 abbe 81f5 7bc0
00000030: 7f63 313e d9eb 43c0 a481 11bf bd3c 6b40
00000040: 255a aa3f 496b a9be ab35 2340 d527 8740
00000050: 2da3 1040 7d27 c23d 05a0 afbf 94fe 703f
00000060: 89ab 3d40 29c5 53c0 e450 82bf 5aef d73f
00000070: 4891 5abf 99cc e7bf f32f 8b3e a25b 823f
00000080: a4ef b9be 1dd3 20bf 9bc6 8ec0 30ec b2be
00000090: 3484 8dc0 25fe af40 fbdc 3bc0 dabb d23f
000000a0: 233c c9bf 34a1 5a3f c47e 8240 cac6 1f3f
000000b0: 3b22 1240 aad2 13c1 d0cd 2cc0 4971 55bf
000000c0: 8700 8fbf 77b4 19c0 ea28 96bf 7244 85bf
000000d0: 264d f9c0 db00 6ec0 2458 cc40 a888 e83f
000000e0: 65f8 8840 ce27 9b40 be9c d3be 8877 4b3f
000000f0: d28d 94be 140a e7c0 c6af 0fbf cb4d c9c0
00000100: b537 73c0 925f 6dbe 424f 8dbf 377b 8ac0
00000110: 55c6 ab3f f331 a940 9403 9b3e f583 56c0
00000120: 3885 f2bf debc 1340 a155 2640 bb7d 7a3f
00000130: e2fb 5cc0 4ab9 44c0 37de 9d3f c600 3ac0
00000140: 369e 3040 22aa 6e40 2588 2e40 dcb8 513f
00000150: 11aa 5bc0 5ebd 1c3f 379f 90c0 07df e63f
00000160: 4e10 20c0 c0a5 18c0 a0b8 1640 aeef 42bf
00000170: c78f b2c0 d218 9c3f f094 5cbf 57d3 9dbf
00000180: cf55 50bf 31cb 8640 f920 09bf f9a9 a83f
00000190: 392f 3040 7761 89be b29c 22c0 c4e8 d9bf
000001a0: 7ecd 10c0 5583 87c0 82a6 b73f 9abb f0bf
000001b0: a0b8 a9c0 2f07 8dbf 02c4 6240 dbad 11bf
000001c0: 6916 9f3e 04bd d2c0 8a94 bbbe 542c 0b40
000001d0: 35fa 3fc0 2357 0c40 e3f1 81bf cf8e a9c0
000001e0: 9ab4 3dbf 7deb 2040 3830 1c40 0992 a4c0
000001f0: c535 d1bf 1def 77c0 a252 25bc 84a4 9340
00000200: 3662 f6c0 8fda e4be 7852 16c0 da11 e6be
00000210: d879 71c0 17fe 4bc0 568b e13f 6703 35c0
00000220: 56e2 5ebf 5a41 34bf 8cb0 dd40 78f1 bbbe
00000230: 9bab f8bf 5184 47bf 7e52 84c0 e1fc b6c0
00000240: ec26 c1c0 6c81 013f 321c 3840 3185 33c0
00000250: 0186 9c3f da35 df3f 2c7c 5fc0 10c0 98bf
00000260: 095e 3f3f fe62 00c1 1590 67bd 6a64 dfbe
00000270: 2f4d a2bf cd5e a4c0 54f5 bc3e 7048 8e3f
00000280: 2c65 ddbe 786a d13f 0e23 21bf 3087 e9c0
00000290: 5ec6 a7bf 4dae 21c0 ebdb 0d3f ba8e 4e40
000002a0: 0249 1e3f b836 b2bf a2e3 81c0 4856 07c1
000002b0: b39b 6dc0 c490 143f 9c1b f53f 8568 43c1
000002c0: 3aed 4640 e21f 1ebf ab16 8dbf b411 48bf
000002d0: 26c5 b2bf 1e48 e6bf 612c a2bf 5d13 f1bf
000002e0: 0850 2abe 7905 bac0 0dec 68bf b36d 09c0
000002f0: 67c1 b93f 3ecf ccc0 889e d73e 4dfb ed3e
00000300: af95 28be 6034 44bf 6417 42bf ac11 4ac0
00000310: c659 b4be b14c b9c0 e7b2 4f3d 3c77 03bf
-3.5574186 -4.372311 0.8228285 -5.4443917 1.7534126 4.7824473 3.1644425 3.3337822
-0.16793036 -6.7428784 -0.33441827 -3.9368594 0.17323111 -3.06127 -0.5683844 3.6755822
1.330876 -0.33089665 2.5501506 4.2236123 2.2599595 0.09480188 -1.3720709 0.94138455
2.9635947 -3.3089087 -1.0180936 1.6869919 -0.8537793 -1.8109313 0.2718502 1.0184214
-0.36315644 -0.62822133 -4.461744 -0.34945822 -4.422388 5.4997735 -2.9353626 1.6463578
-1.5721477 0.85402226 4.0779743 0.62412703 2.2833393 -9.238932 -2.7000618 -0.83375984
-1.1172036 -2.4016397 -1.1731236 -1.0411513 -7.7906675 -3.7188022 6.3857594 1.8166704
4.2803216 4.848609 -0.41330522 0.79479265 -0.2901445 -7.2199802 -0.56127584 -6.290746
-3.800275 -0.23180988 -1.1039813 -4.327541 1.3419901 5.2873473 0.30276167 -3.351804
-1.8946905 2.3084025 2.5989764 0.978481 -3.4528737 -3.0738091 1.233344 -2.9062972
2.7596564 3.729134 2.7270596 0.819227 -3.432255 0.6122645 -4.5194354 1.8036813
-2.5009952 -2.3851166 2.3550186 -0.7614697 -5.580051 1.2195075 -0.8616476 -1.2330121
-0.81380934 4.2123036 -0.5356594 1.3176872 2.7528822 -0.26832172 -2.540814 -1.702416
-2.2625422 -4.2347817 1.4347689 -1.8807251 -5.303787 -1.1017817 3.5432134 -0.5690591
0.31071785 -6.585573 -0.36636764 2.1745806 -2.9996464 2.1928184 -1.0151943 -5.2986827
-0.741037 2.514373 2.440443 -5.1428266 -1.6344534 -3.8739693 -0.010090502 4.6138325
-7.6994886 -0.44697997 -2.3487835 -0.44935495 -3.7730618 -3.1873834 1.7620647 -2.8283327
-0.8706411 -0.7041222 6.927801 -0.36707664 -1.942737 -0.77936274 -4.13507 -5.718369
-6.036001 0.5058811 2.876721 -2.8050044 1.2228395 1.7438309 -3.4919538 -1.1933613
0.7475286 -8.024168 -0.05653389 -0.43631297 -1.2679805 -5.1365724 0.3690592 1.1115856
-0.4324125 1.6360617 -0.62944114 -7.2977524 -1.3107412 -2.5262635 0.55413693 3.2274613
0.6183015 -1.3922949 -4.059037 -8.458565 -3.7126281 0.58033395 1.9149051 -12.213017
3.1082292 -0.617674 -1.1022543 -0.7815201 -1.3966415 -1.7990758 -1.2669793 -1.8834034
-0.16632092 -5.813168 -0.90985185 -2.1473205 1.4512147 -6.400298 0.42113137 0.4648079
-0.1646335 -0.7664242 -0.7581694 -3.1573286 -0.35224742 -5.7906117 0.050707724 -0.5135381

rcsl.backbone.model.8.weight f4 [6, 200]
00000000: a1f8 6abb 7b6e 12ba f208 cfba 5bab 543a
00000010: f615 74bd 4311 4cbb 2867 183b 5f57 0d3c
00000020: a69d 503c d296 4e3d 35a0 48bc 8326 173b
00000030: 6996 28bb 244b 8e3b 2f78 b73b e58a 9f39
00000040: e89f 213c d0de 5e3d 51d4 68bd 2011 d6bb
00000050: eef4 fc3c 6e1f fc3c 837e cf3a 881c 13bd
00000060: 9f8e b03b 9cc1 d43b fee1 d93b f1fd d0bc
00000070: ec8d 39bc 6ad6 1e3c f9c2 e339 1864 79ba
00000080: c413 dabb dc35 1ebd 44d3 89bc 317d e53b
00000090: e434 e9bb 4add 58bb 8f5c 2e3d be76 073b
000000a0: 376c f13b e935 44bd 8455 f33b 3417 3a3c
000000b0: 8748 b0bb 51f4 043c 6cb6 c4bc 2001 353b
000000c0: 7464 6dbd 8a4b da3b 1887 d4bc 2498 393c
000000d0: a0f8 bd3b b27b b53a 1fb2 e73b 9e0e a63a
000000e0: 748e 2a3b 5659 463c 3b26 f83c 0b0d 1ebc
000000f0: 820c 5b3d a6d1 3fbc f894 c7bc 1f5c 42bb
00000100: af85 8ebb 58f1 843d 8023 a2bc 07f2 b9bc
00000110: b44b ac3b 4da8 3239 a982 84bd b333 34bc
00000120: c607 c0bb dbe9 5a3a 9433 88ba f912 b1bb
00000130: 45cf 53ba 32eb 023c 25ec e03b 56cb cc3a
00000140: 9fb6 8dbc 3cfb d73b 0147 113c e35f 47bb
00000150: 4441 7f3b 1b13 3f3b 3e86 7e3c 10e8 adbb
00000160: 3b9e 393d df2a 663b c1a3 2cbd 7d58 d53c
00000170: 0c60 963c bb1c 8b3c 7276 09bb 5d06 0cbb
00000180: 63cd e93b d83f 9d3c 9e8c 95bc 86d3 6abd
00000190: 723d e2bc c2b2 88bb e530 1c3b 114d 26bd
000001a0: 6751 193c c2b7 e9bb e112 f13b 3010 143b
000001b0: c01e 84bb a89c 0dbe 34e9 eeba 245a c7bb
000001c0: e2b2 a83a 083e 963c c1f1 ae3d 30d4 e5bc
000001d0: 8201 c5bd 3c9e 1a3d 6ebb a93b a74a 51bb
000001e0: 54e3 c33d 4f8d 3a3b d2f1 08bd 1d79 393c
000001f0: 8190 b5ba 0b8b acb9 c63b 8bbd 2a27 cf3a
00000200: 7a24 04bb 1269 083c 2140 d5bc 8cee 11bd
00000210: 3737 0bbd a684 983c b9e4 5e3c 767b 653b
00000220: c4ff 823d 1b04 0d3c c9b0 2e3c 4aa5 093e
00000230: a593 023b ad8d 53bd 62f8 cf3b 9d6c 78bb
00000240: bd42 9cbb 88fc 283c 355c 9d3b 9f20 cfbd
00000250: 0dc1 023c bf4a 2b3b ee3a b7ba 32d5 d33b
00000260: 4046 273c 8689 e639 fe4f 51bd b8e0 213c
00000270: 3be2 4dbc 77b9 2abd a002 7239 9aea 2d3c
00000280: f951 cbbd b1e9 803c 1d57 ef3c 1ca9 a4b9
00000290: c509 cd3c 7834 f53b dfc5 293b 8807 debc
000002a0: d0e9 093c 2b13 9e3b a991 003c 55e9 043c
000002b0: aac9 4cbd e007 9cba 5cda 823b 3b48 193c
000002c0: da6b 3cbd bef2 9bba ae15 44bb 1ff9 a8bb
000002d0: 5902 a93b fb1b 923c 090f ed3b 8803 e23b
000002e0: 42cf 27ba 338f a0ba 0b1f 85bb 4e28 5cbd
000002f0: e92d 6bbb 8896 883c bc6d 8ebd d616 82bd
00000300: 84f1 35bb 57bf 123e 69f1 5dbc f8fe 5ebb
00000310: e451 2ebd 5e10 aa3c 5c72 29bb 1395 d6bb
00000320: b553 e23b 0b5a e3bb 62e9 35bd b1ce acbd
00000330: 9e64 213d 4858 653a a104 033c 4793 113d
00000340: 9e03 123e d4d9 fa3b 1026 a23a e5cb c13c
00000350: 34f4 26bd eef2 6c3c 3da9 393d c105 033c
00000360: ae03 6f3b 7794 48bd 6c72 dfbb cb6d 053c
00000370: 8114 7cba 7a48 01bc d9b0 6d3b 4cea 5e3b
00000380: 6fe1 e6bc f332 c0bd d508 d8bb f9a7 8b3b
00000390: 09c0 7abe c5b7 d83b 7059 f9bb 5732 b93b
000003a0: a724 b7bd 4e9f 55bb fb09 c9bc 48a8 84bd
000003b0: 5d7a 363d 4a68 5abd c99c af3a 6e58 0cbd
000003c0: 0344 bdbc d77c ed3b 44b6 523c 4b6d 0bbc
000003d0: 9430 c43a 4324 f73b 4477 52bd 5452 8cba
000003e0: 6029 1fbb 3759 0ebd 8e03 a03c 24bf 8cbd
000003f0: 91ba 0dbd 7a58 a4bc 45f5 dfba 01aa 54bd
-0.003585376 -0.0005585921 -0.0015795513 0.0008112692 -0.059591256 -0.0031138218 0.0023254845 0.008626788
0.012732899 0.050436802 -0.012245228 0.0023063726 -0.0025724417 0.0043424536 0.005599044 0.00030430328
0.009864785 0.05441171 -0.056843106 -0.006532803 0.03087851 0.030776706 0.001583055 -0.03591588
0.0053880955 0.0064928066 0.006649255 -0.025511714 -0.011325341 0.009694675 0.0004344208 -0.00095135113
-0.0066551883 -0.038625583 -0.016824372 0.0070034494 -0.0071169008 -0.0033090883 0.04256874 0.002067014
0.0073676365 -0.047902975 0.0074259657 0.011358071 -0.0053797397 0.00811489 -0.024012767 0.0027619079
-0.057957128 0.006661837 -0.025943324 0.011327777 0.0057974607 0.0013846068 0.0070707942 0.0012669151
0.002602485 0.01210626 0.030291667 -0.009646664 0.053478725 -0.011707699 -0.024363026 -0.002965696
-0.0043494324 0.06491345 -0.019792318 -0.022698415 0.005258048 0.000170381 -0.06470234 -0.010998654
-0.0058603017 0.0008350887 -0.0010391348 -0.005403873 -0.0008079897 0.007990645 0.006864088 0.0015624564
-0.017298995 0.006591229 0.008867026 -0.0030422143 0.0038948813 0.0029155675 0.0155349355 -0.005307205
0.045316916 0.0035120768 -0.042148355 0.026043171 0.018356346 0.016981473 -0.002097514 -0.0021366097
0.0071350797 0.019195482 -0.018255528 -0.05733063 -0.02761719 -0.0041717 0.0023832854 -0.04060084
0.009357787 -0.0071325013 0.007356987 0.0022592656 -0.004031986 -0.13829291 -0.0018227459 -0.0060837436
0.0012870694 0.018340126 0.08542205 -0.02805528 -0.09619428 0.03774856 0.005179814 -0.0031935365
0.09564844 0.0028465574 -0.033433743 0.01132038 -0.001385227 -0.00032909992 -0.0679851 0.0015804518
-0.0020163343 0.008325832 -0.026031556 -0.035627887 -0.033988204 0.01861794 0.013604336 0.0035016215
0.0639644 0.008606936 0.010662266 0.13441959 0.0019924429 -0.051648784 0.006346748 -0.0037906535
-0.004768698 0.010314114 0.0048022517 -0.10113644 0.007980597 0.0026137081 -0.0013979354 0.006464624
0.01020962 0.00043971482 -0.051101677 0.009880237 -0.012566145 -0.04168078 0.00023079896 0.010615015
-0.099277444 0.015736433 0.029216344 -0.00031406514 0.025029073 0.0074830614 0.0025905294 -0.0271032
0.008417562 0.0048240623 0.007847228 0.008112271 -0.04999701 -0.0011904202 0.0039933156 0.0093556
-0.046001293 -0.0011897904 -0.0029920149 -0.0051566507 0.0051577506 0.017835608 0.0072344583 0.0068973936
-0.0006401428 -0.0012249708 -0.0040625385 -0.053749375 -0.003588552 0.016673341 -0.06954524 -0.06352012
-0.0027762363 0.14330803 -0.013546326 -0.0034026485 -0.042558566 0.020759758 -0.0025855517 -0.0065485328
0.0069069513 -0.006938224 -0.044412024 -0.08437861 0.039402597 0.00087488117 0.007996709 0.035540845
0.14259192 0.0076553617 0.0012370963 0.023656795 -0.040760234 0.014462216 0.045327414 0.007996977
0.00364707 -0.048969712 -0.00681906 0.008143852 -0.00096160924 -0.007890815 0.003626874 0.0034014164
-0.028183667 -0.09384718 -0.0065928497 0.0042619673 -0.24487318 0.006613704 -0.0076095387 0.005651753
-0.08942538 -0.0032596174 -0.024540892 -0.064774096 0.04455029 -0.053322114 0.0013398166 -0.03426402
-0.02310372 0.007247548 0.012860838 -0.008509944 0.0014968091 0.0075421645 -0.05138327 -0.0010705688
-0.0024286136 -0.03475305 0.019532945 -0.06872395 -0.03460175 -0.02006172 -0.0017086646 -0.05191994

rcsl.backbone.model.8.bias f4 [6]
00000000: e0b7 1c3f c00c b23e 73b5 2f3f 4b82 653f
00000010: 8ede 303d a61c d93e
0.6121807 0.34775352 0.68636245 0.89651936 0.043180995 0.4240467
