backup/linearq_newenv/rcsl_0.75expert/timestamp_23-0926-144148&144-[16]/model/policy.pth (torch, 1945 bytes, 3 tensors)

rcsl.backbone.model.0.weight f4 [16, 2]
0	0x3ac1ee92	0.0014795831
1	0x3ec309ed	0.3809351
2	0xbf14fcb1	-0.58198076
3	0xbf05381d	-0.5203875
4	0xbe58cec3	-0.21172623
5	0x3dee384b	0.11631831
6	0x3d1c9415	0.03822716
7	0x3f0df175	0.5544656
8	0xbd901122	-0.07034518
9	0x3e38c445	0.18043621
10	0xbe5ad35d	-0.21369691
11	0xbe0e541b	-0.13899271
12	0xbf2cefc2	-0.6755334
13	0xbeefc590	-0.46830416
14	0xbe85935d	-0.26088992
15	0x3e0a4af0	0.13505149
16	0x3e9a3d3f	0.30124852
17	0x3ed345e4	0.4126426
18	0xbef570de	-0.47937673
19	0xbe9da786	-0.30791873
20	0x3e6ba3dd	0.23011728
21	0x3f17216e	0.59035385
22	0xbe4f6a7a	-0.20255461
23	0x3f023ad1	0.50870997
24	0xbe891673	-0.2677494
25	0x3e0399af	0.12851594
26	0x3f2ba82f	0.670535
27	0xbeb76f13	-0.3582693
28	0xbee3eac5	-0.44515052
29	0xbe374fac	-0.17901486
30	0xbe7a7292	-0.24457768
31	0x3f1ce271	0.6128302

rcsl.backbone.model.0.bias f4 [16]
0	0xbf3596d7	-0.7093329
1	0xbea6a886	-0.32550448
2	0xbf5526af	-0.8326215
3	0xbed281a9	-0.41114548
4	0xbf3a4213	-0.7275707
5	0x3f1b9a97	0.6078276
6	0x3ea18c5e	0.31552404
7	0x3f53e287	0.8276753
8	0x3e9295bf	0.28629872
9	0xbeb99c7b	-0.36252198
10	0xbdfa70ec	-0.122285694
11	0xbecdcd61	-0.40195754
12	0xbeca637a	-0.3952902
13	0x3f0ef19f	0.55837435
14	0x3ee46c87	0.4461405
15	0x3e09ce90	0.13457704

rcsl.backbone.model.2.weight f4 [1, 16]
0	0xbdea0c04	-0.11428073
1	0xbc13cb20	-0.009020597
2	0x3d6aa02f	0.05728167
3	0x3e7879af	0.24265169
4	0x3dced2f2	0.100988284
5	0x3d0a55c8	0.033773214
6	0x3e2ba4fe	0.16762158
7	0xbeb51053	-0.35364017
8	0x3d4cc95d	0.049996722
9	0xbe467a6c	-0.19382638
10	0xbe2fbe7e	-0.17162511
11	0xbdfeb5ba	-0.12437005
12	0x3e77e95f	0.24210118
13	0x3ccc01a2	0.024903122
14	0xbe17a46a	-0.14808813
15	0x3d95ba1d	0.07310889
