backup/walker2d-medium-v2/rcsl/rcsl/timestamp_23-0905-073722&3/model/policy.pth (torch, 505723 bytes, 10 tensors)

rcsl.backbone.model.0.weight f4 [200, 18]
-0.02915614 3.0028167 -4.120163 3.2306201 1.7950985 -2.3390543 2.1808612 -0.18155007
-1.4298176 -2.6645255 -0.70281166 0.36830673 0.5252346 -0.16034636 0.7078229 0.56409526
-0.2017231 -0.056439947 2.3679845 0.9471368 -1.4154698 1.0538973 2.9414952 2.3570306
0.022196682 -0.6319253 -0.65873736 -0.95239717 -0.25377166 -0.052719068 -0.14806777 0.2520917
0.47054014 -0.050081827 -0.061311245 -0.02434675 -1.893412 2.3518417 0.19441782 -0.20408969
0.9874648 2.3928096 0.0027396549 -2.7214446 -0.27752855 2.8074112 -0.36683327 0.34807035
-1.1460174 0.46285656 0.39933294 0.60896367 -0.6392826 -0.04906403 -1.4104042 1.633712
2.2670527 3.4929538 1.6619608 6.162862 3.183973 -2.5006177 0.26878503 -0.4036886
1.5319343 -1.0956236 -0.36524615 0.29447043 -1.0095953 -0.67499995 -0.44793186 -0.042625383
-2.0055082 -1.1721576 2.2794971 -2.6844862 -2.1293857 -0.03812788 -4.855215 0.03484854
-1.8659678 2.4894843 -2.457551 -0.9285111 1.4463605 -0.611191 3.3539963 -1.0608168
-0.93337923 -0.00032058818 2.1867487 -7.0116844 6.5580626 6.720047 0.81920886 -2.074373
-9.048199 1.4054414 -1.2877007 -0.54375625 -3.925983 3.0824697 1.0850292 -0.06638408
0.7426812 0.35689697 0.0040363404 0.00038024146 -0.59195244 -3.9963064 -9.797507 0.844762
3.0782173 -3.6584468 -2.1706102 -1.8297262 3.7987456 6.2816706 -0.1634234 1.6738187
0.9195938 0.054432705 -2.478563 -1.3477029 -0.611455 3.4803325e-05 -0.62630355 0.01416945
-0.6602985 -4.1247363 -0.9545208 5.073572 -0.44200575 -1.0098163 -0.8455178 1.3594332
-0.79841274 1.7020829 0.12644517 -0.8929867 -0.28334355 -0.050269403 -0.0005670066 -0.0344772
-0.12372127 -3.5864727 5.698127 -7.3685317 -1.7308515 8.090923 -3.2256355 0.8500646
-2.8014457 5.7134724 -2.9360979 2.4271195 1.9060721 -1.8588907 -1.5204465 -0.450514
-0.40012172 0.0007102891 4.957687 -10.37697 -5.958233 -1.8375657 3.2157972 5.7809625
4.0161366 -0.7860227 0.08449196 1.113045 -3.1306043 -0.8565605 -0.18552539 0.07233287
2.8496726 1.6132406 0.096665464 0.00057834794 -0.35124442 2.391194 -3.9407663 5.3793573
0.46948645 2.043141 -0.4755856 4.3678303 -1.7316028 -0.36014786 1.2912177 -0.08059781
-0.6992604 0.0885822 -0.009572007 0.8817522 -0.32029727 -0.033033814 0.89801466 0.21241783
-3.4183786 1.8427022 0.3974169 2.886032 2.0981894 -1.5699667 0.29341426 -1.7513566
0.8637322 -0.44398797 -0.16423662 -0.45902327 0.123826995 0.14535554 -0.19705446 -0.04310301
-1.4600886 -4.509054 1.338198 1.8368655 -1.6150044 -1.9415953 -0.5452705 -0.99764264
1.3446472 -0.29458025 -0.35868955 0.10734428 0.23616733 -0.16250813 0.5215794 0.67312694
0.5979704 -0.053498086 -1.4312673 -0.68536633 6.7485476 2.047241 -1.5363945 1.6908838
-0.83069426 -2.737486 -1.9266647 0.89023846 0.6991616 0.70690614 1.3160962 1.3018019
-0.65292025 0.89996946 0.91634446 -0.01468792 -0.034881976 -1.0798261 -6.253784 -3.157718
00000000: dbd8 eebc 262e 4040 60d8 83c0 7bc2 4e40
00000010: cac5 e53f 11b3 15c0 3b93 0b40 43e8 39be
00000020: 4304 b7bf 9687 2ac0 77eb 33bf b392 bc3e
00000030: c675 063f d631 24be e233 353f 8c68 103f
00000040: 8090 4ebe 932d 67bd 0f8d 1740 8f77 723f
00000050: 1d2e b5bf 1be6 863f 7541 3c40 97d9 1640
00000060: d1d5 b53c dbc5 21bf 03a3 28bf 4dd0 73bf
00000070: 5cee 81be f3ef 57bd 149f 17be 2a12 813e
00000080: a3ea f03e 9a22 4dbd 8021 7bbd d672 c7bc
00000090: 535b f2bf 9384 1640 7715 473e e3fc 50be
000000a0: 7eca 7c3f cb23 1940 c88b 333b 262c 2ec0
000000b0: 3918 8ebe a0ac 3340 92d1 bbbe 4736 b23e
000000c0: b3b0 92bf 89fb ec3e 5e75 cc3e 0be5 1b3f
000000d0: 06a8 23bf 5df7 48bd 2088 b4bf 7a1d d13f
000000e0: 6417 1140 8e8c 5f40 22bb d43f 2a36 c540
000000f0: 37c6 4b40 1f0a 20c0 319e 893e 46b0 cebe
00000100: 6c16 c43f 653d 8cbf 8b01 bbbe d4c4 963e
00000110: 6b3a 81bf cccc 2cbf 5357 e5be f497 2ebd
00000120: 3f5a 00c0 4309 96bf 48e3 1140 9fce 2bc0
00000130: db47 08c0 fb2b 1cbd ec5d 9bc0 58bd 0e3d
00000140: 08d8 eebf b653 1f40 8448 1dc0 e7b2 6dbf
00000150: 5722 b93f 0377 1cbf e0a7 5640 d8c8 87bf
00000160: f1f1 6ebf 9e14 a8b9 b1f3 0b40 b85f e0c0
00000170: a6db d140 a00a d740 acb7 513f 87c2 04c0
00000180: 6cc5 10c1 81e5 b33f 60d3 a4bf 9c33 0bbf
00000190: 4e43 7bc0 2f47 4540 3de2 8a3f 60f4 87bd
000001a0: 5b20 3e3f 33bb b63e 4743 843b 255b c739
000001b0: 328a 17bf 7cc3 7fc0 97c2 1cc1 5342 583f
000001c0: 8301 4540 fe23 6ac0 47eb 0ac0 7834 eabf
000001d0: a61e 7340 7203 c940 7758 27be b13f d63f
000001e0: 806a 6b3f d4f4 5e3d c7a0 1ec0 8781 acbf
000001f0: 5188 1cbf c9f9 1138 6e55 20bf fb26 683c
00000200: 5309 29bf d7fd 83c0 7a5b 74bf b45a a240
00000210: 944e e2be a941 81bf db73 58bf e801 ae3f
00000220: c764 4cbf dadd d93f d87a 013e c79a 64bf
00000230: 6812 91be 4ae7 4dbd 2ba3 14ba f737 0dbd
00000240: 9461 fdbd c588 65c0 0e57 b640 03cb ebc0
00000250: 8b8c ddbf 6c74 0141 d070 4ec0 d59d 593f
00000260: e34a 33c0 c4d4 b640 07e9 3bc0 ed55 1b40
00000270: 2cfa f33f 21f0 edbf fe9d c2bf c5a9 e6be
00000280: c1dc ccbe b232 3a3a 5fa5 9e40 1208 26c1
00000290: d8a9 bec0 5a35 ebbf 9fcf 4d40 a5fd b840
000002a0: 3184 8040 c938 49bf 1f0a ad3d 4278 8e3f
000002b0: d25b 48c0 8d47 5bbf 5efa 3dbe 4123 943d
000002c0: 0961 3640 ab7e ce3f 8bf8 c53d 469c 173a
000002d0: 4fd6 b3be 5309 1940 8435 7cc0 b223 ac40
000002e0: 8760 f03e d2c2 0240 f57f f3be 44c5 8b40
000002f0: 29a5 ddbf 4d65 b8be 9f46 a53f 7710 a5bd
00000300: bb02 33bf 966a b53d e8d3 1cbc 83ba 613f
00000310: 01fe a3be 774e 07bd 4ae4 653f 0f84 593e
00000320: b7c6 5ac0 aadd eb3f 3a7a cb3e c0b4 3840
00000330: bc48 0640 abf4 c8bf 653a 963e 742c e0bf
00000340: 8e1d 5d3f 6452 e3be a52d 28be 1905 ebbe
00000350: 0299 fd3d 15d8 143e a5c8 49be c88c 30bd
00000360: 2fe4 babf 2c4a 90c0 124a ab3f 691e eb3f
00000370: 77b8 cebf 3286 f8bf d996 0bbf 8265 7fbf
00000380: 661d ac3f 39d3 96be 28a6 b7be 51d7 db3d
00000390: d9d5 713e 8868 26be 3a86 053f 0c52 2c3f
000003a0: 9714 193f cf20 5bbd c433 b7bf 2b74 2fbf
000003b0: 1af4 d740 ff05 0340 93a8 c4bf e16e d83f
000003c0: 61a8 54bf f832 2fc0 f39c f6bf abe6 633f
000003d0: 41fc 323f cdf7 343f d775 a83f 72a1 a63f
000003e0: c825 27bf 6664 663f 8d95 6a3f 9aa5 70bc
000003f0: 67e0 0ebd be37 8abf 001f c8c0 0d18 4ac0

rcsl.backbone.model.0.bias f4 [200]
0.68245244 1.8663704 -1.0367049 -1.3927585 -1.1659466 2.056974 -0.107970625 -1.0122592
-0.61845374 2.6602852 -0.73568296 0.49079818 -1.7484919 -2.0537403 -0.45481503 -1.0165619
1.6681786 -0.39676926 0.6026662 -0.25896102 3.512353 -1.0791165 -1.0983967 -1.2787585
2.03101 -1.5223132 0.54892635 -0.48414335 -0.37122217 -0.35044646 -0.39109862 2.2248867
-1.184126 -0.53349763 -1.5140917 -2.2171016 2.6411068 -2.2335458 -1.2021427 -0.78102297
0.793583 -1.2526263 3.3827193 1.0435144 -0.15700874 -0.79104644 -2.174792 -1.4568427
-0.91063774 -2.1315565 -1.4402229 -0.4770935 -1.4804002 -0.07170321 0.12900835 -2.1415126
-0.8282653 -0.6006871 -0.886959 0.8939962 -0.46576726 -1.184807 -1.5244939 -1.9726846
3.0054095 0.3970767 -0.83085483 -2.080259 -0.9381068 -0.058695726 -0.7352207 -1.1917698
-1.420751 0.70955503 0.04983064 -0.85929924 -1.884752 -1.1950053 -0.76846117 4.16339
-0.8597351 3.6827126 -1.1034977 -0.10093395 -0.3164501 -1.4737556 -2.2530675 -1.519818
-0.7601569 1.0564375 -0.83104455 -0.91355616 1.1413974 -0.56341004 -1.7134223 -0.8155607
-0.551302 -1.2714835 0.5034071 -1.1004639 -1.9112477 -0.9001075 -2.1622424 -1.9609274
1.1680453 -1.3991557 -0.9087834 2.7817426 -0.6023914 -0.8865595 -1.070205 0.4812631
-0.9651874 -0.7211877 -1.5264956 2.5267024 -1.1157985 0.5465169 1.9946712 -0.97125256
0.93686277 -0.116122834 -0.59942275 -3.1772287 -0.13779446 1.3080869 2.7708085 0.901898
0.59746295 -1.0385454 -0.6902951 -0.39552057 0.21756956 -1.2268902 -1.2011821 3.5884607
2.868261 0.48478177 0.4743554 1.2895635 -1.2347448 -0.0045155054 0.3631047 -0.6089772
-1.3300537 -0.33361948 1.1254351 -0.07310297 -0.64199364 -1.9414848 -2.6354332 -1.2957052
-0.5270313 -0.59619856 -0.53638697 0.1830964 2.1269732 -1.9911771 -1.5814093 -0.9973002
1.7003971 -0.029539406 2.0140064 -1.146028 -0.8191137 1.1729759 0.5040504 -0.0053667156
-0.4352946 -0.82129264 3.4573362 0.13057895 -1.8336494 -0.8231901 -0.5222478 -0.98974705
0.09341723 -1.8131183 -0.47724774 -1.1673856 -0.8547238 3.437381 2.3048177 -1.5360582
-0.94115657 1.7900538 -0.1365929 2.2179701 -0.6184109 -0.72378963 -0.8907145 -1.2164558
1.9525342 -0.40697187 -2.110212 0.3163655 -1.674875 -1.0267571 2.018873 -0.31049728
00000000: 34b5 2e3f 3ae5 ee3f bfb2 84bf e945 b2bf
00000010: bd3d 95bf 76a5 0340 b41f ddbd b691 81bf
00000020: fc52 1ebf 1d42 2a40 b855 3cbf e649 fb3e
00000030: 95ce dfbf 7b70 03c0 84dd e8be b31e 82bf
00000040: e086 d53f 5725 cbbe 5548 1a3f 8a96 84be
00000050: 64ca 6040 7d20 8abf 4398 8cbf 5cae a3bf
00000060: 11fc 0140 29db c2bf 7086 0c3f a3e1 f7be
00000070: d510 bebe b86d b3be 143e c8be 8b64 0e40
00000080: 7191 97bf 4d93 08bf c2cd c1bf fee4 0dc0
00000090: e507 2940 6af2 0ec0 d0df 99bf 1ff1 47bf
000000a0: 4128 4b3f 0f56 a0bf 797e 5840 e191 853f
000000b0: e6c6 20be 0582 4abf cb2f 0bc0 d279 babf
000000c0: 8e1f 69bf 6c6b 08c0 3959 b8bf 9945 f4be
000000d0: c17d bdbf 22d9 92bd c41a 043e 8b0e 09c0
000000e0: 3209 54bf a1c6 19bf bf0f 63bf efdc 643f
000000f0: 0c79 eebe c1a7 97bf 9e22 c3bf ee80 fcbf
00000100: a158 4040 a34d cb3e e7b2 54bf f722 05c0
00000110: c427 70bf ee6a 70bd 6c37 3cbf ea8b 98bf
00000120: 2bdb b5bf 66a5 353f 371b 4c3d 09fb 5bbf
00000130: 8e3f f1bf eff5 98bf dfb9 44bf 7e3a 8540
00000140: 9917 5cbf 90b1 6b40 6a3f 8dbf 75b6 cebd
00000150: bf05 a2be 06a4 bcbf 4232 10c0 6589 c2bf
00000160: a599 42bf 5839 873f 56bf 54bf d1de 69bf
00000170: 4f19 923f a43b 10bf 6c51 dbbf 96c8 50bf
00000180: 2122 0dbf f9bf a2bf 4adf 003f 00dc 8cbf
00000190: c4a3 f4bf 726d 66bf 2e62 0ac0 abff fabf
000001a0: 8282 953f 8917 b3bf 07a6 68bf 1208 3240
000001b0: 5336 1abf 90f5 62bf 7afc 88bf 1e68 f63e
000001c0: 8516 77bf c29f 38bf 3564 c3bf 7eb5 2140
000001d0: 7cd2 8ebf 88e8 0b3f 6351 ff3f 02a4 78bf
000001e0: 3dd6 6f3f cfd1 edbd c573 19bf b757 4bc0
000001f0: fe19 0dbe 646f a73f ed54 3140 cae2 663f
00000200: 55f3 183f 0eef 84bf 2eb7 30bf ac81 cabe
00000210: 8eca 5e3e bd0a 9dbf 56c0 99bf 57a9 6540
00000220: 9791 3740 5135 f83e b6de f23e 6b10 a53f
00000230: 1e0c 9ebf cef6 93bb dce8 b93e eee5 1bbf
00000240: 333f aabf 2cd0 aabe 420e 903f 03b7 95bd
00000250: b259 24bf 9382 f8bf f0aa 28c0 abd9 a5bf
00000260: 86eb 06bf 78a0 18bf a850 09bf 9f7d 3b3e
00000270: 5420 0840 e4de febf 9f6b cabf 114f 7fbf
00000280: 9da6 d93f a0fc f1bc 7be5 0040 0cb1 92bf
00000290: 6fb1 51bf 1324 963f 7209 013f 46db afbb
000002a0: efde debe 3c40 52bf ff44 5d40 7db6 053e
000002b0: 06b5 eabf 96bc 52bf 08b2 05bf 1060 7dbf
000002c0: 8851 bf3d 4314 e8bf d159 f4be e46c 95bf
000002d0: 2ecf 5abf 0dfe 5b40 2282 1340 8e9d c4bf
000002e0: a3ef 70bf 7c20 e53f 02df 0bbe 39f3 0d40
000002f0: 2d50 1ebf 474a 39bf de05 64bf d3b4 9bbf
00000300: a4ec f93f 9e5e d0be b70d 07c0 a9fa a13e
00000310: 4e62 d6bf c76c 83bf 3735 0140 80f9 9ebe

rcsl.backbone.model.2.weight f4 [200, 200]
1.025461 0.04686283 -0.7270111 -0.30110535 -0.19803146 -0.43246228 -0.029220128 0.50124294
-0.01691072 -0.5301149 -0.1473344 0.18514857 -0.14453965 -0.41768894 -0.97496283 -0.5017694
-0.27117094 -0.9697943 -0.30886772 0.11570878 -0.4336856 0.04081034 -0.01978892 -0.32681057
-0.18508491 0.36661828 -0.2839823 0.34209082 0.74542093 0.22593093 -0.14175788 -0.258655
-0.33833638 -0.027656047 0.09543275 0.36230794 -0.15252665 -0.27229112 -0.59037805 -0.06368364
0.5012243 -0.7806634 -0.11539772 0.046858422 0.026752077 -0.009071333 -0.0012499179 0.12691288
-0.047587954 0.5341683 0.113075815 0.086935386 -0.65511346 -0.73377174 0.93580806 0.011788019
-0.17101702 0.009941825 0.18049894 0.22464487 -0.44262856 -0.89620996 0.006917998 0.33075798
-0.43012607 -0.29544732 -0.032429773 0.038577903 -1.1182609 -0.15613842 0.6086007 -0.01264384
-0.5535662 -0.23255034 0.46784976 0.045532394 0.39034256 -0.3704504 -0.023368144 -0.44629252
-1.5076175 -0.7053108 0.74767077 0.07487437 -0.48505694 0.12385139 0.1797253 0.10004853
0.22862852 -0.26171982 0.032514803 -0.83948976 -0.06129782 0.5213505 0.6350951 -1.2289486
-0.3848089 1.1794642 0.5454157 -1.1572634 -0.30003536 0.2163998 -0.8002576 -0.29721195
-0.28347668 0.032383926 0.7780433 0.32231706 -0.6303414 -0.282406 0.15907766 0.22968768
-0.026662374 0.25861958 -0.29163268 -0.14115612 0.78410065 -0.22386865 -0.1130006 -0.18418734
-0.17345813 0.5339857 -1.8896518 0.13505569 0.33120492 -0.022820558 -0.2394576 -0.124182194
0.09338828 0.15402924 0.75290257 0.5439801 -0.7358117 -0.49241745 0.0034015628 -0.49105844
-0.029204268 -0.28624874 -0.4546702 -0.28201607 0.013566689 0.1495032 -0.5348401 0.19778584
0.4382927 0.17510808 0.24235931 0.64816 0.056395244 -0.4869933 -0.26949134 0.50695527
-0.29100332 0.5051945 -0.7016412 -0.15192822 0.028251193 -0.36132243 0.58972436 0.21939838
-0.029541707 -0.12527639 -0.3680105 0.049418785 -0.83498317 0.149628 0.261685 -0.66098297
0.49050543 -0.02691632 -0.21326293 0.23967288 0.09397193 0.81395346 0.4732367 -0.39304277
0.48922008 -0.2604696 0.59788793 0.41302732 0.09776036 -0.22711864 0.11508678 -0.364896
0.30215165 -0.2846995 0.442868 -0.0022587324 0.24543123 0.41948044 -0.5856749 0.17445055
0.17951705 0.1508207 -0.2848729 0.22789727 -0.45387527 0.59885854 0.10256034 0.15401489
-0.20875672 0.16864295 -0.06365043 0.16318981 -0.036381554 -0.08233225 -0.008929025 -0.08375984
-0.044643693 -0.27062848 0.05498295 0.06298539 -0.06222188 -0.02682181 0.23029594 -0.14123978
-0.09427548 0.71560425 0.07082337 -0.4555732 -0.14114875 -0.011081127 -0.15979718 -0.16125047
0.031318918 0.2282265 0.04979593 -0.005165041 0.25108126 -0.027325407 0.0024726212 -0.0049414597
0.55544204 0.015683416 0.22053751 -0.21792728 0.10168676 -0.3609708 -0.4408001 -0.15838256
-0.19628893 0.008537181 0.37027875 -0.032088384 -0.05512756 0.044432443 -0.84064204 -0.043067433
-0.081879534 0.03548049 0.030731192 -0.12056492 -0.126419 0.12970656 0.28575563 0.075389735
00000000: 4e42 833f 3df3 3f3d 661d 3abf 7b2a 9abe
00000010: c2c8 4abe b26b ddbe 0d5f efbc 7551 003f
00000020: 5a88 8abc 9cb5 07bf d4de 16be 9697 3d3e
00000030: 3402 14be 53db d5be 2a97 79bf f673 00bf
00000040: ebd6 8abe 7044 78bf e923 9ebe baf8 ec3d
00000050: 0a0c debe be28 273d 601c a2bc b753 a7be
00000060: e686 3dbe 64b5 bb3e 2166 91be 8726 af3e
00000070: e8d3 3e3f 705a 673e fa28 11be 6e6e 84be
00000080: 6d3a adbe ef8e e2bc 3f72 c33d 6d80 b93e
00000090: f22f 1cbe be69 8bbe 0423 17bf 916c 82bd
000000a0: 3c50 003f 8ed9 47bf a455 ecbd 9eee 3f3d
000000b0: 2c27 db3c ee9f 14bc 49d4 a3ba 73f5 013e
000000c0: 96eb 42bd 41bf 083f 4b94 e73d 2e0b b23d
000000d0: 84b5 27bf 77d8 3bbf 1e91 6f3f 8922 413c
000000e0: 161f 2fbe 09e3 223c b7d4 383e 4e09 663e
000000f0: 36a0 e2be 046e 65bf 60b0 e23b 1c59 a93e
00000100: 7c39 dcbe df44 97be 15d5 04bd dd03 1e3d
00000110: 2c23 8fbf c0e2 1fbe 41cd 1b3f 1c28 4fbc
00000120: 84b6 0dbf ad21 6ebe 018a ef3e 2d80 3a3d
00000130: fbda c73e adab bdbe 8d6e bfbc 7480 e4be
00000140: 9cf9 c0bf 408f 34bf 5a67 3f3f bc57 993d
00000150: 6259 f8be cca5 fd3d e909 383e 3ee6 cc3d
00000160: 981d 6a3e 2400 86be 3e2e 053d cde8 56bf
00000170: 6c13 7bbd 3a77 053f 9895 223f 304e 9dbf
00000180: ac05 c5be aff8 963f 5da0 0b3f 3521 94bf
00000190: 3c9e 99be e997 5d3e afdd 4cbf 2a2c 98be
000001a0: db23 91be 02a5 043d d92d 473f be06 a53e
000001b0: 0e5e 21bf 8597 90be 41e5 223e 3f33 6b3e
000001c0: 0d6b dabc c969 843e e150 95be 3b8b 10be
000001d0: d2ba 483f d33d 65be dc6c e7bd 9b9b 3cbe
000001e0: 029f 31be 49b3 083f 1ce0 f1bf 0a4c 0a3e
000001f0: b193 a93e 2ef2 babc 6034 75be 3c53 febd
00000200: 5b42 bf3d d7b9 1d3e 39be 403f 4842 0b3f
00000210: 285e 3cbf 241e fcbe c1ec 5e3b 036c fbbe
00000220: ca3d efbc 328f 92be 88ca e8be 6964 90be
00000230: d146 5e3c 5e17 193e 48eb 08bf 5f88 4a3e
00000240: e767 e03e 884f 333e 0a2d 783e d0ed 253f
00000250: b3fe 663d 3057 f9be c5fa 89be d2c7 013f
00000260: 63fe 94be 6d54 013f c29e 33bf 1293 1bbe
00000270: 0c6f e73c 41ff b8be 2df8 163f f8a9 603e
00000280: 7301 f2bc 7448 00be df6b bcbe 5a6b 4a3d
00000290: 75c1 55bf 1538 193e 94fb 853e 2e36 29bf
000002a0: 8723 fb3e 9d7f dcbc 9961 5abe cf6c 753e
000002b0: 5b74 c03d 415f 503f 154c f23e e73c c9be
000002c0: 0e7b fa3e 455c 85be 2f0f 193f 5178 d33e
000002d0: 9536 c83d ca91 68be 9eb2 eb3d a6d3 babe
000002e0: 9fb3 9a3e 22c4 91be 98bf e23e 3e07 14bb
000002f0: 5352 7b3e 24c6 d63e caee 15bf 2aa3 323e
00000300: 51d3 373e be70 1a3e dcda 91be e75d 693e
00000310: 5762 e8be cb4e 193f 280b d23d 14b6 1d3e
00000320: 52c4 55be bdb0 2c3e 285b 82bd 3b1b 273e
00000330: d304 15bd d09d a8bd 0c4b 12bc 478a abbd
00000340: 4edc 36bd d18f 8abe cd35 613d 7cfe 803d
00000350: 5fdc 7ebd 6ab9 dbbc b3d2 6b3e 29a1 10be
00000360: 8113 c1bd d731 373f d80b 913d e440 e9be
00000370: 4c89 10be 9e8d 35bc dfa1 23be d81e 25be
00000380: 4448 003d 35b4 693e d1f6 4b3d 813f a9bb
00000390: b98d 803e 88d9 dfbc b30b 223b f8eb a1bb
000003a0: 7331 0e3f 827a 803c 96d4 613e 5428 5fbe
000003b0: 2641 d03d 2ad1 b8be 8db0 e1be 0a2f 22be
000003c0: f7ff 48be 88df 0b3c 2d95 bd3e 1c6f 03bd
000003d0: 70cd 61bd cbfe 353d 5134 57bf 7a67 30bd
000003e0: 75b0 a7bd fe53 113d fbbf fb3c beea f6bd
000003f0: fb73 01be ccd1 043e 904e 923e ef65 9a3d

rcsl.backbone.model.2.bias f4 [200]
-1.9613068 1.8829538 0.028114367 0.015277086 0.96309835 -0.62925655 -1.4921371 -0.09849738
-0.48418322 0.35537773 -0.43580186 0.593061 -0.98959297 -0.6344202 -0.5455203 -0.45873997
-1.1893456 -0.7550568 -0.4349836 -0.5075062 1.2310398 0.83466643 -0.5134299 -0.88824844
0.16107544 1.116116 -0.444418 -1.3631102 -0.42994136 0.19286948 0.54634863 -0.25140125
-0.20398408 -0.86454177 -1.9795092 -0.062061507 0.37733302 0.73705155 -0.41080827 -0.07078895
0.0017086639 1.5543952 -0.30142194 -1.265339 -0.50163376 -0.077447794 1.4243251 -0.5562847
0.4646477 0.8437166 0.08939862 2.521148 -0.24012795 -0.11507868 1.6786205 -0.41893312
-0.7889795 -0.13327281 -2.385759 -0.026821082 -0.0738825 -0.20954521 -0.120564036 -1.2236983
-0.25778988 -1.2363226 -0.47165808 0.28639868 0.15698369 1.1887298 -0.73548144 -0.6299494
-0.054226242 -2.0390432 -0.71087325 0.5487065 -0.46565276 -0.14967945 -2.0919378 -1.6009896
-0.253221 -1.2525407 -0.7437171 -0.026567513 -0.3584045 -1.7574619 -0.16641681 0.437519
0.08107634 1.4145625 -0.7572942 -0.35714608 -0.62562406 0.42677423 -1.4309614 2.6076612
-1.0891935 -0.38661003 0.0907756 -0.70526874 -0.58073956 -0.42284998 -0.6947237 0.008536036
-0.11084362 -1.2551228 1.0951948 -0.03385335 1.2488828 -0.2846674 0.16103649 -0.19677533
-0.6653319 -0.5777141 -0.22934285 -1.9314762 -0.39364126 -0.5930964 -0.5434584 -1.1469038
0.20967986 0.72085416 1.1774291 -0.049781866 0.2830293 -0.32712638 -0.6998259 -0.81088424
0.92045134 -1.2040583 -0.5825972 0.04072033 0.7397034 -0.06395229 -0.8321416 -0.24560438
-0.14080793 -1.3314798 0.44803852 1.4771538 0.112001136 -0.6150286 -1.3654919 -0.48516288
0.35651785 -0.051486388 -1.6723639 -0.1823013 -0.2608022 0.15568982 -0.384027 -0.5987164
-1.4997481 -0.66711247 -1.9315739 0.009914966 -0.024758114 1.7398719 1.6448083 -2.6073287
0.47247615 -0.004410648 0.28339186 -0.72337747 1.281701 -0.18378705 0.789589 0.469425
-0.54786396 -0.37205705 -0.86087215 0.14635888 0.69542944 -0.26323366 -1.2576544 -0.41824588
-0.6238833 -0.39299205 2.48715 0.17633957 0.024703356 -1.391092 -2.610465 -2.0448964
0.23968585 0.03946861 -0.54790145 -0.0034665528 0.056742918 -1.4296995 0.9977766 -0.24010997
-1.9436771 -0.25399205 -1.8896061 0.17918144 -1.0901493 -1.0182942 -0.694055 0.09670813
00000000: 1a0c fbbf a104 f13f 1a50 e63c be4c 7a3c
00000010: 9d8d 763f f516 21bf 59fe bebf ffb8 c9bd
00000020: dde6 f7be 12f4 b53e 6c21 dfbe d8d2 173f
00000030: f755 7dbf 5d69 22bf 38a7 0bbf f7df eabe
00000040: 7a3c 98bf 674b 41bf 2cb6 debe edeb 01bf
00000050: b692 9d3f b3ac 553f 2470 03bf 4064 63bf
00000060: f6f0 243e e4dc 8e3f c28a e3be 657a aebf
00000070: 4621 dcbe 947f 453e 81dd 0b3f aab7 80be
00000080: 34e1 50be 9c52 5dbf 8f60 fdbf 3534 7ebd
00000090: cb31 c13e 69af 3c3f 7655 d2be ccf9 90bd
000000a0: 3ff5 df3a 6cf6 c63f fa53 9abe a1f6 a1bf
000000b0: 126b 00bf f39c 9ebd 4950 b63f ad68 0ebf
000000c0: 4ee6 ed3e d0fd 573f a016 b73d 7d5a 2140
000000d0: 1ae4 75be 5fae ebbd 09dd d63f 677e d6be
000000e0: 8ffa 49bf ab78 08be 47b0 18c0 e3b7 dbbc
000000f0: b54f 97bd 0593 56be 47ea f6bd 25a2 9cbf
00000100: 09fd 83be d23f 9ebf 2b7d f1be d9a2 923e
00000110: 55c0 203e 4c28 983f 8348 3cbf 5d44 21bf
00000120: 561c 5ebd af7f 02c0 cafb 35bf 0778 0c3f
00000130: 0a6a eebe 9245 19be 4fe2 05c0 3aed ccbf
00000140: 2fa6 81be 4153 a0bf 3e64 3ebf 1da4 d9bc
00000150: cb80 b7be 83f4 e0bf 2b69 2abe 7e02 e03e
00000160: 5a0b a63d 6210 b53f 08de 41bf dadb b6be
00000170: e628 20bf 2782 da3e be29 b7bf ece3 2640
00000180: b16a 8bbf c0f1 c5be 8fe8 b93d 7e8c 34bf
00000190: 59ab 14bf cb7f d8be 6ad9 31bf bbda 0b3c
000001a0: fb01 e3bd dda7 a0bf 582f 8c3f cfa9 0abd
000001b0: 64db 9f3f edbf 91be c0e6 243e 797f 49be
000001c0: 3153 2abf 12e5 13bf dad8 6abe 9d3a f7bf
000001d0: 598b c9be 2ad5 17bf 1720 0bbf becd 92bf
000001e0: 51b6 563e e689 383f ffb5 963f 12e8 4bbd
000001f0: 37e9 903e 1c7d a7be ca27 33bf 1c96 4fbf
00000200: b3a2 6b3f 951e 9abf 1725 15bf 5cca 263d
00000210: 345d 3d3f 6bf9 82bd 3b07 55bf b77f 7bbe
00000220: f42f 10be ee6d aabf 4e65 e53e 6013 bd3f
00000230: da60 e53d 8472 1dbf 70c8 aebf 4567 f8be
00000240: 8289 b63e 64e3 52bd 0510 d6bf 31ad 3abe
00000250: de87 85be 276d 1f3e 309f c4be 7a45 19bf
00000260: bff7 bfbf e2c7 2abf d03d f7bf 6272 223c
00000270: 87d1 cabc 1fb4 de3f 1489 d23f 79de 26c0
00000280: 65e8 f13e 3287 90bb bd18 913e 442f 39bf
00000290: c70e a43f ac32 3cbe 8122 4a3f 7958 f03e
000002a0: d040 0cbf 437e bebe 1e62 5cbf 1adf 153e
000002b0: aa07 323f 90c6 86be d2fa a0bf 5324 d6be
000002c0: d1b6 1fbf 4136 c9be 772d 1f40 5c92 343e
000002d0: b15e ca3c 4d0f b2bf dc11 27c0 95df 02c0
000002e0: 3570 753e d6a9 213d 4543 0cbf 1b2f 63bb
000002f0: 436b 683d 6500 b7bf 4a6e 7f3f 63df 75be
00000300: 69ca f8bf 3f0b 82be 9dde f1bf 577b 373e
00000310: 038a 8bbf 7757 82bf 97ad 31bf e90e c63d

rcsl.backbone.model.4.weight f4 [200, 200]
-0.5454095 -0.15419014 -0.033025607 0.3673085 0.17001379 -0.1235135 -0.51055175 -0.022916632
-0.23260687 -1.8800546 0.78877 -0.33908778 -0.4868732 0.011225474 -0.26834708 -0.6996536
-0.634597 -0.19274195 0.83194965 -0.6127145 0.12295023 0.13876367 -0.15863879 -0.26965576
-0.05286217 0.29690114 0.06501513 -0.0658296 0.20230545 -2.3271987 0.043957286 -0.14811088
-0.6520802 0.052818105 0.17359243 -0.011719429 0.09237151 0.41223598 -4.3993897 -0.14698759
0.0064640096 0.19727138 0.3339761 -0.16659467 -0.13473006 -0.020560782 -0.2361751 -0.11520949
0.21562852 -0.7502724 0.018181525 -0.28535515 -0.94465476 -0.12190285 -0.33081186 -0.3999717
0.017711975 0.47729328 -0.30037317 0.13042754 0.06509021 0.37654078 -0.078013934 -0.110299625
0.30018908 0.24030149 0.11767152 -0.19870119 0.01701354 0.05004986 -0.20641488 -0.43774033
0.0074013392 -0.2431388 0.035184883 -0.17255916 -0.43636933 0.28670064 -0.07495634 -0.02641718
-0.076640606 -0.031793386 -0.28348297 -0.06955717 0.0049852543 0.12303843 -0.35912797 -0.0106788445
-0.20439802 0.06391916 -0.18751314 -0.021352733 0.08822878 -0.07423432 -0.0050579826 -0.079027385
0.26734835 -0.5541606 -0.2665463 0.35932073 -0.125712 -0.1971955 -0.059388753 0.0412911
-0.071613975 -1.5076822 0.22492526 0.015405864 -0.071497306 -0.21034238 0.1022828 -0.021746013
0.61084545 -1.6292613 0.7124897 0.25835904 0.2664448 -0.21335512 -0.14974648 0.48026583
0.13210323 -0.30017123 -0.10082238 -0.10230925 0.19476064 -0.38742435 0.03960671 -0.24067275
0.40391746 -0.07488811 0.18147993 0.021876007 0.06506963 0.023603331 -0.2578668 -1.2288349
-0.22951765 0.17951603 0.04128959 0.05735302 0.2357426 -0.21143559 0.086168535 0.06306743
0.12619019 0.083954774 -0.09161 -1.6338685 -0.21203063 -0.32769492 0.19308078 -0.56929606
0.13819027 -0.36887884 -0.101193234 -0.16430819 -0.08717949 -0.05841581 0.08263837 -0.9934897
0.633646 -0.04908563 0.29137126 0.0833659 0.31129548 -0.12763624 -0.29336807 -0.016430825
0.34871385 -0.065837614 0.19036539 -0.59374845 -0.13789451 -0.4815884 -0.14804408 -0.8176177
0.27381563 -0.032164127 -0.07561853 -1.1734546 0.07394774 0.07598929 -0.012536565 -0.065208144
-0.008359015 0.017353699 0.3764489 -0.0077815647 -0.11192814 0.37276882 -0.17113136 -0.18899982
-0.17409144 -0.36619103 -0.08786083 0.29944557 0.14101236 -0.5011927 0.40425187 -0.5444173
0.21396516 0.162093 -0.005746363 -0.5916517 -0.27489775 0.27489072 -0.6578907 0.022551933
-0.15923126 0.38617054 -0.03886126 0.12330112 -0.08336354 -0.040660888 -1.0618294 0.22021209
-0.10198476 0.19004643 -1.7991948 0.1508822 -0.2642445 0.12703119 -0.18973319 -0.10332775
0.15192026 0.024061639 0.04709576 -0.03602698 0.30010107 0.46623832 0.11236018 0.022564458
-0.069968395 0.034036834 0.06923831 0.048462518 -0.03281352 0.091437705 0.02247676 0.14780217
0.0014988632 -0.03769336 -0.14208621 -0.61020887 0.12306057 0.0837001 -0.34995088 0.14477926
0.064286396 -0.9247898 -0.5232732 0.039501738 0.1284964 0.00046442915 0.06290429 -0.30324352
00000000: f59f 0bbf 05e4 1dbe dc45 07bd dc0f bc3e
00000010: 1818 2e3e a5f4 fcbd 85b3 02bf a9bb bbbc
00000020: 7f30 6ebe a1a5 f0bf d5ec 493f ea9c adbe
00000030: 7247 f9be 0deb 373c ca64 89be 801c 33bf
00000040: f374 22bf 255e 45be a7fa 543f dcda 1cbf
00000050: 55cd fb3d 1018 0e3e 3572 22be 5210 8abe
00000060: 0186 58bd 6d03 983e a726 853d abd1 86bd
00000070: 2929 4f3e d3f0 14c0 8e0c 343d 61aa 17be
00000080: baee 26bf cc57 583d 37c2 313e d902 40bc
00000090: 462d bd3d 9810 d33e cdc7 8cc0 ea83 16be
000000a0: 0bd0 d33b 8201 4a3e eafe aa3e cb97 2abe
000000b0: adf6 09be 166f a8bc e3d7 71be f4f2 ebbd
000000c0: b9cd 5c3e da11 40bf 6cf1 943c 121a 92be
000000d0: e5d4 71bf 34a8 f9bd 2c60 a9be 17c9 ccbe
000000e0: b418 913c c95f f43e 83ca 99be cc8e 053e
000000f0: 044e 853d f4c9 c03e c5c5 9fbd c5e4 e1bd
00000100: 62b2 993e 9811 763e c4fd f03d 5378 4bbe
00000110: fb5f 8b3c 1501 4d3d 6c5e 53be 801f e0be
00000120: ef86 f23b 61f9 78be 061e 103d 59b3 30be
00000130: cd6b dfbe 6dca 923e b682 99bd d868 d8bc
00000140: c0f5 9cbd c839 02bd ae24 91be fd73 8ebd
00000150: 585b a33b 93fb fb3d 9fdf b7be 52f6 2ebc
00000160: b74d 51be 0ce8 823d 7203 40be edeb aebc
00000170: 4ab1 b43d 2a08 98bd 6fbd a5bb 1cd9 a1bd
00000180: e2e1 883e 78dd 0dbf c278 88be e3f8 b73e
00000190: a6ba 00be 9eed 49be 9f41 73bd db20 293d
000001a0: 59aa 92bd bbfb c0bf cf52 663e e168 7c3c
000001b0: 2e6d 92bd fe63 57be a579 d13d b224 b2bc
000001c0: 5e60 1c3f a28b d0bf ba65 363f a347 843e
000001d0: 746b 883e c479 5abe 2457 19be 67e5 f53e
000001e0: 1246 073e 0bb0 99be f77b cebd 8387 d1bd
000001f0: 556f 473e 7c5c c6be a53a 223d eb72 76be
00000200: 45ce ce3e f05e 99bd e0d5 393e 5035 b33c
00000210: 3a43 853d c65b c13c 1e07 84be 764a 9dbf
00000220: ad06 6bbe 0dd3 373e 461f 293d 00eb 6a3d
00000230: 8266 713e 9282 58be 2179 b03d 7f29 813d
00000240: 0038 013e 7bf0 ab3d 069e bbbd 9a22 d1bf
00000250: 8f1e 59be a1c7 a7be f8b6 453e 63bd 11bf
00000260: c081 0d3e b0dd bcbe 663e cfbd 6840 28be
00000270: 298b b2bd 6b45 6fbd 4e3e a93d 5755 7ebf
00000280: a036 223f 030e 49bd 9d2e 953e bebb aa3d
00000290: 1f62 9f3e 13b3 02be 5734 96be f099 86bc
000002a0: 9f8a b23e dfd5 86bd 25ef 423e e6ff 17bf
000002b0: 3834 0dbe c192 f6be de98 17be 654f 51bf
000002c0: 9031 8c3e 88be 03bd e3dd 9abd c333 96bf
000002d0: ea71 973d 46a0 9b3d 2a66 4dbc d98b 85bd
000002e0: 40f4 08bc 5829 8e3c e9bd c03e 7ffc febb
000002f0: 953a e5bd 8edb be3e 0f3d 2fbe 2b89 41be
00000300: 0745 32be 647d bbbe 61f0 b3bd ee50 993e
00000310: 8b65 103e 2a4e 00bf 1afa ce3e ef5e 0bbf
00000320: af19 5b3e b5fb 253e fd4b bcbb 7c76 17bf
00000330: 66bf 8cbe 7abe 8c3e 866b 28bf d5be b83c
00000340: 850d 23be 25b8 c53e fc2c 1fbd 4c85 fc3d
00000350: 81ba aabd 088c 26bd 07ea 87bf 477f 613e
00000360: 63dd d0bd 889b 423e 044c e6bf dd80 1a3e
00000370: 0e4b 87be 7714 023e 6b49 42be 809d d3bd
00000380: fc90 1b3e ea1c c53c 7ce7 403d 0791 13bd
00000390: d9a6 993e cab6 ee3e 181d e63d 19d9 b83c
000003a0: 974b 8fbd 356a 0b3d d1cc 8d3d a280 463d
000003b0: 7867 06bd b143 bb3d 2f21 b83c 7459 173e
000003c0: 8175 c43a 5a64 1abd 0c7f 11be a636 1cbf
000003d0: 2e07 fc3d f56a ab3d c32c b3be 0441 143e
000003e0: 96a8 833d 06bf 6cbf 3cf5 05bf 93cc 213d
000003f0: 8f94 033e a07e f339 f7d3 803d bc42 9bbe

rcsl.backbone.model.4.bias f4 [200]
0.14977558 1.2353756 -0.13464034 -1.2020025 -3.1374576 -0.6056516 -0.41347405 1.3456577
-1.2865589 0.7346758 -0.43296653 0.99454254 -0.09111304 1.0141349 -1.7629068 -0.5244094
0.20949961 1.7236458 -0.5629347 -2.164725 -2.9765537 -0.19281308 1.0514623 0.16347869
-0.82060695 0.57765216 0.77902126 -0.6893062 0.85585237 0.033208106 0.5542943 0.51987654
-0.21560472 3.4494495 0.55648893 -0.060873214 1.1313812 -0.6730291 2.6782768 -0.27347034
-1.1246557 4.0607905 -0.12376082 -0.5121817 -2.7107995 0.8021829 -1.6157613 0.24825484
1.3420212 -0.42416647 0.441966 -1.2447683 2.179528 -0.09282274 0.053278536 -0.049856782
0.1991755 0.4017523 -0.08635484 -3.454806 0.749249 -2.2760954 1.2086097 1.0722421
1.0306307 -0.08141991 -0.11852248 1.1906183 2.7291124 -0.011524016 -0.07396026 -2.1901746
-0.81022644 -0.12503356 -0.2644062 0.45281914 3.61471 1.0628622 -0.045865532 -1.8900812
-0.070666134 1.641809 1.3728778 -0.35904807 1.5946873 0.004992918 1.5557106 0.4301163
-0.5918461 -0.49225128 -0.91039634 0.4145814 -0.48548323 -1.0509173 -0.0151707325 0.8867677
-0.5158551 -0.0679893 -1.1269953 0.5496573 0.25020722 0.0006409428 -2.3268723 -0.8312474
0.502774 -2.8525918 -0.094423145 0.97450984 -0.3819056 0.65032697 0.67740095 -0.022963922
-0.5800398 -1.2465343 -1.7316916 -1.4567325 0.5986974 -1.0040958 -1.1069406 1.6162668
-0.037969775 0.14650823 1.7605089 -0.753356 0.41822785 0.9375363 -0.29789984 1.0096427
-1.1605743 0.0060357703 0.54966086 -1.1609715 -1.7140447 0.45182753 0.9643346 -1.9364582
-0.16209993 -0.33304787 1.9368606 -0.18193553 -3.5097687 -0.1044588 1.3834457 -0.9868371
-0.15113117 1.3542427 -0.10691937 -1.1168995 -0.077264324 0.25802368 0.55188245 -0.081140906
-2.6927865 -1.701017 1.9370433 1.1113231 0.8094993 1.5854499 0.017249823 0.6358776
1.5783347 0.3110368 1.3386786 -0.22071211 1.2251644 -0.06869127 -0.088366024 1.5100964
-0.5601371 -1.8551433 1.4041923 0.18544082 -0.34475866 -0.12150074 -1.880738 1.2704953
-0.5863839 1.692576 -0.38747728 -0.6839458 -0.023973241 -2.5428257 -1.0374938 -2.048695
-0.5148991 -1.307252 -0.34753656 -0.6221958 0.8901338 -0.41142365 -0.056740854 -0.073050275
0.843337 0.9630607 -1.5093541 2.1832485 1.1590915 -1.1159235 -0.04601571 0.98758686
00000000: c55e 193e ca20 9e3f 28df 09be 38db 99bf
00000010: 1bcc 48c0 fc0b 1bbf dfb2 d3be 833e ac3f
00000020: f6ad a4bf b713 3c3f caad ddbe 579a 7e3f
00000030: 7999 babd 2ccf 813f eea6 e1bf b23f 06bf
00000040: 1187 563e 6da0 dc3f 7d1c 10bf db8a 0ac0
00000050: db7f 3ec0 cb70 45be 5196 863f f566 273e
00000060: 4c13 52bf 03e1 133f f06d 473f 5f76 30bf
00000070: 2419 5b3f 3905 083d 3be6 0d3f a116 053f
00000080: 7cc7 5cbe c8c3 5c40 0f76 0e3f 3156 79bd
00000090: 19d1 903f a34b 2cbf e368 2b40 4e04 8cbe
000000a0: b8f4 8fbf fff1 8140 5076 fdbd 571e 03bf
000000b0: bd7d 2dc0 dc5b 4d3f 44d1 cebf 8436 7e3e
000000c0: 5ac7 ab3f 592c d9be 5e49 e23e 9154 9fbf
000000d0: 637d 0b40 d919 bebd 983a 5a3d a036 4cbd
000000e0: aaf4 4b3e 7ab2 cd3e ceda b0bd 8b1b 5dc0
000000f0: c8ce 3f3f 8cab 11c0 b9b3 9a3f 3b3f 893f
00000100: b5eb 833f 7bbf a6bd eabb f2bd 2e66 983f
00000110: c7a9 2e40 3acf 3cbc 7a78 97bd d22b 0cc0
00000120: 006b 4fbf cc08 00be 4060 87be e9d7 e73e
00000130: 6957 6740 de0b 883f 7fdd 3bbd 2eee f1bf
00000140: 68b9 90bd cc26 d23f 76ba af3f 26d5 b7be
00000150: b71e cc3f a29b a33b 8621 c73f 3438 dc3e
00000160: 3a83 17bf 5c08 fcbe bc0f 69bf 0344 d43e
00000170: 4291 f8be 7584 86bf aa8e 78bc 3503 633f
00000180: 140f 04bf f93d 8bbd 6241 90bf 57b6 0c3f
00000190: 291b 803e f104 283a 7aeb 14c0 a1cc 54bf
000001a0: ccb5 003f dd90 36c0 ec60 c1bd 7a79 793f
000001b0: 2189 c3be d47b 263f 266a 2d3f d61e bcbc
000001c0: 7d7d 14bf 708e 9fbf 12a8 ddbf 3676 babf
000001d0: 3c44 193f 3686 80bf 3bb0 8dbf d5e1 ce3f
000001e0: 3286 1bbd 4106 163e 5b58 e13f f0db 40bf
000001f0: f621 d63e 6102 703f 5486 98be f93b 813f
00000200: b38d 94bf b6c7 c53b 93b6 0c3f b79a 94bf
00000210: d165 dbbf f055 e73e a2de 763f dddd f7bf
00000220: 86fd 25be 4085 aabe 0ceb f73f 4f4d 3abe
00000230: 0da0 60c0 7fee d5bd c014 b13f 5ba1 7cbf
00000240: 21c2 1abe d357 ad3f 8bf8 dabd 90f6 8ebf
00000250: c23c 9ebd ae1b 843e 2b48 0d3f 342d a6bd
00000260: 9d56 2cc0 edba d9bf 09f1 f73f d63f 8e3f
00000270: 593b 4f3f 06f0 ca3f 804f 8d3c e0c8 223f
00000280: df06 ca3f 3740 9f3e d259 ab3f 5b02 62be
00000290: 30d2 9c3f 02ae 8cbd 3ff9 b4bd d74a c13f
000002a0: 2565 0fbf 5675 edbf 93bc b33f 33e4 3d3e
000002b0: 3584 b0be 61d5 f8bd 06bc f0bf 979f a23f
000002c0: 411d 16bf 55a6 d83f 6c63 c6be 1217 2fbf
000002d0: 8863 c4bc a8bd 22c0 99cc 84bf d21d 03c0
000002e0: 6dd0 03bf 0954 a7bf 50f0 b1be 3948 1fbf
000002f0: cfdf 633f 1fa6 d2be 1969 68bd 629b 95bd
00000300: efe4 573f 258b 763f 8432 c1bf 58ba 0b40
00000310: 1c5d 943f 95d6 8ebf f87a 3cbd 7ed2 7c3f

rcsl.backbone.model.6.weight f4 [200, 200]
-0.10559937 -0.079761624 0.41269878 0.0043541645 0.06933764 0.0098640425 -0.041415367 -0.06943745
0.024023326 0.0027029805 0.3302888 0.028414754 0.016410783 0.007289834 0.24971637 -0.07678036
-0.008293541 -0.15006377 0.14941783 -0.3508687 0.2986157 0.03813512 0.017645393 0.034379113
-0.7850085 -0.19171143 -0.10044898 -0.033026963 -0.020419158 -0.08540408 -0.34634376 -0.017757917
-0.4901824 -0.120420955 -0.00335069 0.041435093 0.06630133 0.03363341 -0.02196291 0.075632505
0.10077 -0.01773997 -0.021508882 0.013188908 -0.39972422 0.07734491 -0.042931523 0.07063997
-0.2360394 0.060979422 -0.04371329 0.0676718 -0.10667132 -0.021332303 0.057658195 -0.07283867
0.121866256 -0.13922134 0.05027858 -0.06707528 0.09112715 0.00093845796 -0.004827512 -0.083829805
0.05857102 -0.044839375 0.033911657 -0.09967743 -0.22453998 -0.08574305 -0.014029768 -0.0847716
-0.14072195 -0.020907186 -0.17368487 -0.21838583 0.37234706 0.038991153 -0.080711834 -0.04140516
0.008153451 -0.089414395 -0.010076539 0.034686975 -0.032631747 -0.039429814 -0.2570035 0.09038041
0.18521038 -0.07836435 -0.06907482 -0.20058566 0.047110204 0.037789043 0.46247014 0.03253378
0.1739401 0.026930533 -0.23620455 -0.043093562 0.046675123 -0.032952942 0.043208107 0.16216737
-0.07582503 0.07747684 0.0076515963 0.13957794 -0.07490973 0.06626686 0.18873645 0.004554761
0.00012849743 0.120638214 -0.23749997 -0.14640293 -0.05298203 0.08173118 0.24853602 -0.1961785
-0.057767496 -0.07271037 0.2380485 0.047757406 -0.09083081 -0.123667985 0.2382745 -0.17294313
0.008190848 0.025890803 -0.03185786 0.07178775 -0.4989844 -0.10505231 0.106547646 0.18946841
0.004773645 0.045637276 0.1640243 -0.0029422017 -0.08595012 -0.0590477 -0.28546908 0.21118219
0.052508637 0.017052686 0.0450571 0.0016209127 0.054678045 -0.14102004 -0.7109028 -0.0838434
-0.029405154 0.07965211 0.07802565 0.07027371 -0.4443489 0.061935797 -0.06155473 -0.069210656
-0.013921911 0.012531396 -0.15451212 0.2040827 -0.25204578 -0.027219672 -0.13351461 0.06519783
0.053738125 0.07415729 -0.021148669 -0.26498726 -0.016185569 -0.09221563 -0.025871903 0.19274545
0.0952467 0.022815514 -0.33217576 -0.0032900027 -0.018910369 -0.12788256 0.15849459 0.14916773
-0.17523398 0.018409561 0.16179934 0.17837612 -0.13468002 0.106772594 -0.017756961 -0.008274627
-0.015023562 0.12740503 0.07176939 -0.0070131165 -0.041992478 0.041985616 0.06144854 0.00040020427
-0.23318963 0.21631777 -0.30351695 -0.028210394 -0.02318514 -4.1073236 -0.21656564 -0.21353222
0.28147617 -0.50246906 0.0015371778 0.06889516 -0.073772214 -0.06222355 0.023676246 -0.28429675
-0.036754124 -0.04764828 -0.30021358 -1.3642812 0.049350183 -0.24924974 0.32569963 0.005270988
0.1855287 -0.14805916 -1.2236879 0.27147138 0.043104857 0.037431866 0.17268106 0.124932684
-0.13880657 -0.09109037 -0.196453 0.035950474 -0.2917914 0.016836105 -0.038748182 -0.0012236767
-0.027250098 0.08180231 -0.06720084 -0.1257679 -1.3987814 -0.09198478 0.21309213 -0.037825663
-0.37533417 0.27940688 -0.06887199 0.10573362 0.10339405 -0.059632286 -0.38615257 -0.061209965
00000000: 7c44 d8bd 105a a3bd 414d d33e 61ad 8e3b
00000010: e500 8e3d cb9c 213c 29a3 29bd 3935 8ebd
00000020: 91cc c43c 7d24 313b 9d1b a93e 0fc6 e83c
00000030: e86f 863c 8fdf ee3b a6b5 7f3e 053f 9dbd
00000040: a2e1 07bc 51aa 19be fd00 193e 10a5 b3be
00000050: 28e4 983e 9233 1c3d 128d 903c 1dd1 0c3d
00000060: 51f6 48bf 0050 44be 32b8 cdbd 4847 07bd
00000070: 1446 a7bc 56e8 aebd f853 b1be 0d79 91bc
00000080: 30f9 fabe 439f f6bd 4097 5bbb d8b7 293d
00000090: fec8 873d 30c3 093d 90eb b3bc 37e5 9a3d
000000a0: 8060 ce3d 6a53 91bc 6533 b0bc 4a16 583c
000000b0: a7a8 ccbe 0267 9e3d f7d8 2fbd b0ab 903d
000000c0: 50b4 71be 8fc5 793d b50c 33bd 8397 8a3d
000000d0: 7e76 dabd 15c1 aebc 002b 6c3d 712c 95bd
000000e0: 0495 f93d 0a90 0ebe eaf0 4d3d c45e 89bd
000000f0: dfa0 ba3d d902 763a 1b30 9ebb f6ae abbd
00000100: 2ae8 6f3d 7ea9 37bd f3e6 0a3d ae23 ccbd
00000110: cfed 65be 0d9a afbd 1ddd 65bc bc9c adbd
00000120: 6a19 10be 8c45 abbc 72da 31be 89a0 5fbe
00000130: 46a4 be3e 30b5 1f3d 3f4c a5bd 7598 29bd
00000140: 0d96 053c e51e b7bd 1118 25bc ee13 0e3d
00000150: dea8 05bd 2881 21bd f695 83be 5d19 b93d
00000160: caa7 3d3e 7d7d a0bd 1977 8dbd 5466 4dbe
00000170: a1f6 403d afc8 1a3d e3c8 ec3e 2442 053d
00000180: 5b1d 323e 6c9d dc3c 9bdf 71be e082 30bd
00000190: 6a2e 3f3d aaf9 06bd fcfa 303d 340f 263e
000001a0: 274a 9bbd 2dac 9e3d 3eba fa3b 85ed 0e3e
000001b0: 466a 99bd ebb6 873d 2144 413e 1b40 953b
000001c0: 44bd 0639 2b11 f73d 3133 73be a6ea 15be
000001d0: af03 59bd ad62 a73d 3a80 7e3e 04e3 48be
000001e0: 9c9d 6cbd 2de9 94bd fcc2 733e 459d 433d
000001f0: 8105 babd a445 fdbd 3bfe 733e 0118 31be
00000200: e832 063c f318 d43c 637d 02bd 7505 933d
00000210: e27a ffbe aa25 d7bd a735 da3d 0204 423e
00000220: 3d6c 9c3b 27ee 3a3d fcf5 273e f4d1 40bb
00000230: 9e06 b0bd 00dc 71bd 0129 92be 2540 583e
00000240: 4c13 573d 13b2 8b3c cb8d 383d ce74 d43a
00000250: 16f6 5f3d 8f67 10be bafd 35bf 17b6 abbd
00000260: 14e3 f0bc a520 a33d e9cb 9f3d aaeb 8f3d
00000270: b381 e3be 64b0 7d3d d020 7cbd 51be 8dbd
00000280: ba18 64bc 7c50 4d3c 6d38 1ebe 0efb 503e
00000290: 250c 81be cafb debc 0eb8 08be 7186 853d
000002a0: 821c 5c3d c7df 973d f93f adbc 69ac 87be
000002b0: 9997 84bc 8cdb bcbd 50f1 d3bc 105f 453e
000002c0: b410 c33d 9ae7 ba3c f112 aabe 169d 57bb
000002d0: ebe9 9abc a5f3 02be 684c 223e 6dbf 183e
000002e0: 8970 33be a6cf 963c baae 253e 3ba8 363e
000002f0: 8fe9 09be 97ab da3d 0c77 91bc 4d92 07bc
00000300: 6325 76bc 7776 023e d4fb 923d 49ce e5bb
00000310: 4e00 2cbd 1cf9 2b3d 77b1 7b3d 82d2 d139
00000320: 43c9 6ebe 6882 5d3e 9366 9bbe 7c19 e7bc
00000330: c3ee bdbc 326f 83c0 62c3 5dbe 31a8 5abe
00000340: a51d 903e d0a1 00bf 217b c93a e818 8d3d
00000350: e315 97bd 1fde 7ebd b0f4 c13c 588f 91be
00000360: 7e8b 16bd d82a 43bd 98b5 99be c4a0 aebf
00000370: 6b23 4a3d 533b 7fbe 1ac2 a63e 41b8 ac3b
00000380: 3cfb 3d3e d29c 17be cea1 9cbf 4cfe 8a3e
00000390: b88e 303d 2852 193d 4ed3 303e b5dc ff3d
000003a0: 4f23 0ebe 978d babd fa2a 49be ce40 133d
000003b0: af65 95be dfeb 893c 6ab6 1ebd c763 a0ba
000003c0: 993b dfbc f887 a73d 98a0 89bd 4dc9 00be
000003d0: 450b b3bf 8462 bcbd d334 5a3e 15ef 1abd
000003e0: cd2b c0be 6b0e 8f3e c20c 8dbd de8a d83d
000003f0: 42c0 d33d fc40 74bd cab5 c5be 4db7 7abd

rcsl.backbone.model.6.bias f4 [200]
-0.14205718 -0.21240519 -0.052167222 -2.4918096 -0.037847232 2.1003706 0.15639317 0.46714213
-0.089508705 1.5365479 0.3951472 0.45010117 -1.4314513 0.067289114 0.34970203 1.1520362
0.98854035 -0.11711309 -1.6137016 1.1713986 1.0818852 1.1519915 1.0642964 0.5562649
-0.3178956 -0.6376263 -1.2399377 -0.53807855 -0.16272968 1.7836511 -0.0054283314 1.0301238
-1.605419 -0.5109708 0.31052738 1.117116 -0.09515105 0.1533139 1.4412053 1.1243602
0.056135323 1.1847659 1.7663687 1.3932413 0.8946994 -0.32139915 -0.4807753 -7.316085
2.1194117 1.2344867 0.6637524 0.88534003 -2.7577572 0.54763687 3.0695224 1.5022309
0.80818504 -3.3249178 -0.12092253 0.34845 0.50772846 -0.35208908 -0.17360613 -0.87469053
-0.2020985 -0.11256135 2.12117 0.39207605 0.6814109 1.0862056 -0.34223646 -0.5714334
-1.0548494 0.6978549 0.38205156 0.4315158 1.54303 -0.3474784 -0.107620016 0.6971514
-0.6148661 1.706715 1.4435855 -0.51830345 -0.4544031 0.6544744 1.1282992 1.5758963
1.2170657 2.3989925 1.1064357 1.8194594 -0.19094244 0.6957406 -0.11552347 0.5898524
0.98046994 2.295838 -3.2988925 0.55308443 2.3635871 -0.13748264 2.5574484 -0.12982419
-1.0490782 0.63181895 0.3151976 1.3537654 -0.95374256 -0.10671092 0.16942775 0.92049307
0.5096262 1.8592101 -0.094894335 0.7787816 2.6686401 1.4860003 -0.94274116 -0.8764031
-0.12086132 1.2518721 0.0013555132 1.6570822 0.33063877 -0.1794197 1.5288416 -0.17894551
1.3970048 -2.048439 -0.7650508 -0.8738419 0.29059997 -0.14771049 -0.03802829 1.2173911
0.66973996 -2.9839556 0.99660903 0.024129404 -0.73453647 0.7690203 -0.15014656 -0.16933046
2.6350584 0.35006997 0.23648284 -2.539839 0.23639554 1.3289167 -0.121857874 0.22610725
0.5231148 -0.40576696 1.162139 1.3330517 -0.05835402 0.7408389 0.28158274 0.9752374
-0.09065514 0.31693494 1.3430971 0.4728775 -0.096293636 0.74004465 0.4154723 2.0775936
2.5495536 -1.9676143 -0.07981876 -0.93289506 1.4284818 1.2607583 -0.6335314 0.14949006
0.56802934 -1.249706 -0.25175145 0.4831879 1.8819546 -0.531326 0.88506365 -1.7981493
-1.4324217 1.0231004 0.97169065 -0.13711065 2.5836465 -0.13105108 0.08729069 0.44283077
2.1060786 -0.6347127 -0.08044164 -0.738444 0.57986695 -0.6836626 0.540855 0.2878633
00000000: 7077 11be bf80 59be 4cad 55bd cf79 1fc0
00000010: b305 1bbd 796c 0640 8825 203e 412d ef3e
00000020: 5750 b7bd 9aad c43f bc50 ca3e a973 e63e
00000030: cc39 b7bf e0ce 893d 250c b33e ec75 933f
00000040: fb10 7d3f fdd8 efbd c68d cebf 64f0 953f
00000050: 377b 8a3f 7574 933f dd3a 883f 6067 0e3f
00000060: 36c3 a2be 7a3b 23bf 47b6 9ebf 84bf 09bf
00000070: 9ca2 26be ae4e e43f 25e0 b1bb 19db 833f
00000080: 5f7e cdbf fbce 02bf 72fd 9e3e a8fd 8e3f
00000090: 8ede c2bd 52fe 1c3e 6a79 b83f 09eb 8f3f
000000a0: 27ee 653d 69a6 973f 5f18 e23f bb55 b23f
000000b0: 050b 653f 6e8e a4be 2e28 f6be 5e1d eac0
000000c0: 71a4 0740 a903 9e3f adeb 293f a5a5 623f
000000d0: 187f 30c0 ee31 0c3f 0e73 4440 1a49 c03f
000000e0: 37e5 4e3f 74cb 54c0 3ba6 f7bd 0a68 b23e
000000f0: 7efa 013f 0545 b4be cec5 31be b8eb 5fbf
00000100: e9f2 4ebe 9186 e6bd 40c1 0740 31be c83e
00000110: f270 2e3f c908 8b3f 9e39 afbe 7649 12bf
00000120: 4e05 87bf 9ea6 323f 439c c33e a4ef dc3e
00000130: 0282 c53f b0e8 b1be e267 dcbd 8478 323f
00000140: dd67 1dbf a375 da3f 69c7 b83f 89af 04bf
00000150: 86a7 e8be a28b 273f 1c6c 903f f8b6 c93f
00000160: cfc8 9b3f 1889 1940 af9f 8d3f 0ce4 e83f
00000170: 6a86 43be 0e1c 323f 9297 ecbd 9100 173f
00000180: 1400 7b3f 03ef 1240 0e21 53c0 f196 0d3f
00000190: 0345 1740 40c8 0cbe 3cad 2340 a2f0 04be
000001a0: 3248 86bf e3be 213f 9461 a13e 2f48 ad3f
000001b0: 7928 74bf 418b dabd 787e 2d3e 6fa5 6b3f
000001c0: dd76 023f 99fa ed3f f657 c2bd 3b5e 473f
000001d0: 00cb 2a40 4235 be3f 7c57 71bf f45b 60bf
000001e0: 2486 f7bd 583d a03f 7aab b13a 451b d43f
000001f0: 7c49 a93e ccb9 37be 15b1 c33f 7e3d 37be
00000200: 0ed1 b23f a019 03c0 5fda 43bf 1ab4 5fbf
00000210: 85c9 943e 6b41 17be 8dc3 1bbd 79d3 9b3f
00000220: 1474 2b3f 21f9 3ec0 c521 7f3f 07ab c53c
00000230: 950a 3cbf 84de 443f 05c0 19be f764 2dbe
00000240: cca4 2840 5f3c b33e 8f28 723e b98c 22c0
00000250: ac11 723e f119 aa3f 9f90 f9bd a988 673e
00000260: daea 053f b0c0 cfbe f9c0 943f 70a1 aa3f
00000270: a004 6fbd 9ea7 3d3f 9d2b 903e 29a9 793f
00000280: 67a9 b9bd 4c45 a23e 9bea ab3f 001d f23e
00000290: 9935 c5bd 9173 3d3f c9b8 d43e 4bf7 0440
000002a0: e32b 2340 c9da fbbf 0578 a3bd 36d2 6ebf
000002b0: 7ed8 b63f 8760 a13f 1d2f 22bf ec13 193e
000002c0: 5f6a 113f 5ef6 9fbf 91e5 80be 6864 f73e
000002d0: e3e3 f03f fb04 08bf 8893 623f c229 e6bf
000002e0: 9859 b7bf f4f4 823f b8c0 783f bc66 0cbe
000002f0: 775a 2540 4132 06be 76c5 b23d b7ba e23e
00000300: fec9 0640 887c 22bf 96be a4bd aa0a 3dbf
00000310: 2972 143f 8304 2fbf 7975 0a3f d262 933e

rcsl.backbone.model.8.weight f4 [6, 200]
0.0026907003 -0.0041571055 0.0067097372 0.003137029 0.07541192 0.00574651 0.008650077 -0.02179448
0.031518675 -0.056733847 -0.014740596 0.0009701771 -0.0078281285 0.016776804 -0.008846204 0.02841857
0.008286686 0.0064069936 0.0020593903 -0.0007760119 0.009821239 0.00837766 0.0055308198 -0.004197667
-0.03531264 0.014955513 0.007289211 -0.0072353403 0.010257769 -0.004018887 0.0030899365 -0.0010817272
-0.00773723 0.0033722403 0.0020169732 -0.0019516558 -0.028233852 0.0075865835 -0.008883791 -0.0027936334
0.028935082 -0.061899696 0.0002485726 0.008493168 -0.0013611971 0.11380974 -0.056799848 0.006717267
0.006321622 -0.08120214 0.0043169563 -0.002592501 -0.004376352 0.008805383 0.015411443 0.0117025925
0.012811463 -0.003918776 -0.0288846 0.0037228696 0.019956917 -0.02292838 -0.012138063 0.0067180917
-0.06427715 0.015991978 -0.060481984 0.0015144991 0.018893702 -0.00055756705 -0.0014969357 -0.022241045
0.0070609557 0.008504333 0.007878158 0.0027310962 0.0028422764 -0.005329104 0.0024120423 0.0043927594
-0.01007056 0.012640846 0.005796583 0.012025509 -0.044077307 -0.0003364501 -0.06773969 0.0019978725
0.0046414984 0.037079312 -0.010236498 0.012376372 -0.018041445 0.025569068 -0.014313328 -0.000566083
0.01843422 -0.0059436937 -0.0011014282 -0.00046250358 -0.024983129 0.021351142 0.014628162 -0.019850513
0.009429112 0.014150916 -0.00038085706 0.0080086365 0.012426654 0.005769987 0.005860531 -0.008422656
0.006502694 -0.0009820254 0.016178906 -0.018131822 0.007816518 0.017533263 -0.01266538 -0.08433033
-0.029056925 -0.0066447677 -0.006224918 0.0056447824 -0.0010575871 0.012584711 -0.04840968 0.009189882
-0.0031810224 0.001149153 0.010404947 -0.022234846 -0.00448559 0.01314061 0.002612544 -0.006553586
0.009242025 0.0022336578 0.0097121 -0.05498585 -0.0010153713 -0.0064988206 -0.002656838 0.04935211
-0.0046963505 0.008584747 0.0013866293 0.01968541 0.004582805 0.0011873497 0.0034095843 -0.0077453535
-0.0042565167 -0.051102865 -0.013630826 0.044250607 0.057033326 -0.014112823 -0.025936373 -0.0009786304
-0.00017226764 0.0027777902 0.0048875506 0.0022719426 0.05150576 0.014711652 -0.017558392 -0.008864057
-0.0026560808 0.0018527872 -0.008776261 -0.00014697132 -0.0017526463 0.0006485759 -0.029723136 0.0037459861
-0.008191375 -5.940287e-05 0.0026239413 0.004384377 -0.014082117 0.026212636 -0.015096448 -0.0048281406
0.004672631 -0.035803765 -0.0071163448 0.013919308 0.0046187015 0.0071914103 -0.037215598 -0.026129544
-0.008601596 -0.021382531 0.028277436 -0.039465744 0.0037553327 -0.010345448 -0.0038775003 0.0025174217
0.0028249195 -0.012732652 -0.0010624017 0.037021145 -0.07040991 0.015366778 0.007621518 -0.013589049
-0.043375973 -0.021461498 0.0060064266 -0.006070961 -0.030519526 -0.02352655 0.03249616 0.02743973
0.017899023 -0.0488189 0.0035996188 0.040673703 0.0239535 -0.0040153665 0.00533636 -0.09077946
-0.10236129 -0.0103240255 -0.029681548 0.015811468 0.036011677 0.0013676726 -0.013857854 -0.009571192
-0.040504623 -0.0022575005 -0.042564377 0.0009441651 -0.031747006 -0.013460067 -0.015989767 0.008337255
-0.0010869972 -0.00509735 0.002246894 0.022496939 0.00020096212 -0.06978052 -0.014059758 0.031538475
-0.0055378973 -0.042163517 0.0038034816 -0.079172544 -0.025611555 0.003226575 0.025501512 -0.02480077
00000000: 7656 303b 5438 88bb 5bdd db3b 9d96 4d3b
00000010: 9171 9a3d 384d bc3b 0db9 0d3c 568a b2bc
00000020: ba19 013d c061 68bd 8a82 71bc 7c53 7e3a
00000030: 8d41 00bc 826f 893c abef 10bc 10ce e83c
00000040: e1c4 073c c2f1 d13b d6f6 063b 476d 4bba
00000050: 43e9 203c 7442 093c e13b b53b 958c 89bb
00000060: fda3 10bd f807 753c 55da ee3b 6f16 edbb
00000070: 3410 283c deb0 83bb 8880 4a3b bec8 8dba
00000080: 9788 fdbb ce00 5d3b 322f 043b b4ce ffba
00000090: ae4a e7bc e098 f83b 528d 11bc 6415 37bb
000000a0: 4409 ed3c 898a 7dbd da52 8239 ee26 0b3c
000000b0: 326a b2ba 1515 e93d f5a6 68bd 851c dc3b
000000c0: 9c25 cf3b 4f4d a6bd 4175 8d3b f3e6 29bb
000000d0: 8067 8fbb 7444 103c 4780 7c3c 3bbc 3f3c
000000e0: 2ce7 513c 1369 80bb 669f ecbc 63fb 733b
000000f0: b07c a33c 4cd4 bbbc bade 46bc 7023 dc3b
00000100: bda3 83bd 9c01 833c f5bb 77bd 2882 c63a
00000110: f7c6 9a3c b129 12ba d434 c4ba da32 b6bc
00000120: 975f e73b c255 0b3c 6413 013c 31fc 323b
00000130: 7c45 3a3b c49f aebb 5b13 1e3b 23f1 8f3b
00000140: fdfe 24bc 8d1b 4f3c 43f1 bd3b a406 453c
00000150: 688a 34bd 9165 b0b9 1bbb 8abd bdee 023b
00000160: b617 983b 7ae0 173d fcb6 27bc 44c6 4a3c
00000170: a7cb 93bc 3976 d13c 7382 6abc 3065 14ba
00000180: 5d03 973c 51c3 c2bb cc5d 90ba 2e7c f2b9
00000190: 6ba9 ccbc 97e8 ae3c f5aa 6f3c 8b9d a2bc
000001a0: 907c 1a3c 3ed9 673c c5ad c7b9 a836 033c
000001b0: 2a99 4b3c 2912 bd3b b209 c03b 2eff 09bc
000001c0: 8d14 d53b 4eb7 80ba a089 843c 3089 94bc
000001d0: da10 003c eba1 8f3c 7482 4fbc 61b5 acbd
000001e0: ca08 eebc 5abc d9bb 66fa cbbb def7 b83b
000001f0: bc9e 8aba 1b30 4e3c 3b49 46bd 2991 163c
00000200: b378 50bb 2d9f 963a 8379 2a3c da25 b6bc
00000210: dbfb 92bb b74b 573c 3737 2b3b 77bf d6bb
00000220: dd6b 173c 8f62 123b 801f 1f3c d838 61bd
00000230: 3516 85ba 0ff4 d4bb 581e 2ebb 7025 4a3d
00000240: d8e3 99bb 0aa7 0c3c 8fbf b53a 4c43 a13c
00000250: 5b2b 963b d8a0 9b3a 5573 5f3b bccc fdbb
00000260: 407a 8bbb 3d51 51bd d453 5fbc 2040 353d
00000270: c79b 693d 7839 67bc 8478 d4bc 6345 80ba
00000280: bea2 34b9 960b 363b bf27 a03b dfe4 143b
00000290: b4f7 523d 2409 713c 9ed6 8fbc 8d3a 11bc
000002a0: a411 2ebb 39d9 f23a 4eca 0fbc 501c 1ab9
000002b0: 0db9 e5ba 3105 2a3a ef7d f3bc 387f 753b
000002c0: 1e35 06bc 5927 79b8 6ef6 2b3b d2aa 8f3b
000002d0: aeb8 66bc e2bb d63c 1857 77bc 6135 9ebb
000002e0: df1c 993b f8a6 12bd 3a30 e9bb cf0d 643c
000002f0: 7a58 973b eca5 eb3b 626f 18bd a00d d6bc
00000300: b5ed 0cbc 6b2a afbc 15a6 e73c d5a6 21bd
00000310: 071c 763b f47f 29bc a91d 7ebb 54fb 243b
00000320: 4922 393b 9d9c 50bc 4940 8bba 7ca3 173d
00000330: 1233 90bd f0c4 7b3c edbd f93b 9aa4 5ebc
00000340: 01ab 31bd 06d0 afbc 8fd1 c43b e9ee c6bb
00000350: 1604 fabc c0ba c0bc b21a 053d 49c9 e03c
00000360: f9a0 923c 54f6 47bd 95e7 6b3b 7899 263d
00000370: 213a c43c 5693 83bb a2dc ae3b 95ea b9bd
00000380: cca2 d1bd 1a26 29bc b826 f3bc 0d87 813c
00000390: fb80 133d 7a43 b33a 0d0c 63bc 7dd0 1cbc
000003a0: 2de8 25bd 93f2 13bb fc57 2ebd d981 773a
000003b0: 2609 02bd 9d87 5cbc f9fc 82bc fb98 083c
000003c0: 9379 8eba ac07 a7bb a040 133b 804b b83c
000003d0: 5cb9 5239 17e9 8ebd e65a 66bc 7d2e 013d
000003e0: 4077 b5bb a7b3 2cbd d543 793b 3725 a2bd
000003f0: 53cf d1bc f274 533b 8ce8 d03c fc2a cbbc

rcsl.backbone.model.8.bias f4 [6]
0.46079442 0.32151932 0.3014865 0.80897623 0.19284011 0.018982656
00000000: 3fed eb3e 2e9e a43e 705c 9a3e 1119 4f3f
00000010: e177 453e 8481 9b3c
