backup/halfcheetah-medium-expert-v2/rcsl/old/timestamp_23-0829-204751&0/model/policy.pth (torch, 505723 bytes, 10 tensors)

rcsl.backbone.model.0.weight f4 [200, 18]
10.287717 -2.5883696 -6.9729257 7.367879 1.5207577 -2.608119 4.5245404 0.9786008
-3.137337 -1.7503834 2.1399179 0.8217937 -1.3248181 -0.6640495 -0.18550251 -0.14416757
0.22964227 -0.032681193 -6.5803137 -2.6734428 20.590971 3.0170815 -0.23382051 2.0287673
3.965421 13.150309 -4.209523 -0.37704706 -0.0023620026 -0.7567802 0.55687225 0.17851523
-0.80983984 1.1683464 -0.09706602 -0.11163952 5.7184243 4.308833 1.2271185 3.4079852
2.4585817 1.9944305 -0.20504719 -4.8490953 -0.80998766 -1.7805777 1.1215947 -0.5186777
0.703781 -0.10582224 -0.39956078 -0.25277957 0.47137958 -0.07820382 3.879743 0.5501631
0.55196357 -5.703918 -1.9775673 -3.4461994 -1.6498599 -2.0888069 -4.3071303 4.76395
2.01273 0.45234385 -0.15251015 0.7908305 0.4368704 -0.47234395 1.0290843 -0.019040706
-2.256985 -4.028776 9.482829 -16.12107 -4.28097 6.1819134 -2.8165596 -2.2497935
-6.386832 6.4535594 -1.7636663 0.5739621 0.23997258 0.037808884 0.4385736 0.48401365
0.2835629 -0.15979385 3.7161877 3.3706696 -4.9156675 2.9069514 9.604202 -8.877946
-6.620385 -3.4745538 -5.107063 -3.0663195 0.733271 -0.8481451 0.074809946 -0.42930502
-0.5905478 0.1921811 -0.30700484 -0.026563175 24.465853 11.817804 11.689727 3.4024658
6.53053 -0.43971768 -5.2588134 -9.216979 -6.771596 -7.8131795 1.4191436 0.6373876
-0.7410545 -0.14512354 -0.3113269 0.62075996 -0.04668956 -0.026905334 -33.47721 3.9760337
1.9236857 -6.9735994 3.7210279 -3.7581582 -3.0815597 -0.76310873 -2.2065558 -0.8740731
3.1632445 0.2718247 0.39655685 0.15330765 0.3663727 0.27562964 -0.500961 -0.017617607
169.29933 -18.54652 36.43984 68.9458 2.1528802 -14.465541 -21.906551 -18.073172
0.73984987 31.770966 10.568418 3.167909 4.0795274 0.21723227 -0.23316222 -0.29317734
-0.8060847 4.9753795e-05 9.667532 0.5021753 4.8310084 8.081461 10.781974 3.6892679
-5.4251065 5.963786 -2.7934656 -0.9450791 0.6892926 0.10404793 -0.1712355 -1.0381689
-0.2056863 -0.5409891 0.3301291 -0.023230754 14.531174 1.8629504 2.1665432 1.7958142
-0.050195113 -1.6704507 -9.404143 1.1704687 -3.750903 -1.450248 -0.5734482 -0.60249406
-1.4696679 1.1198496 -0.6697004 0.3567368 -0.6587365 -0.1461637 4.031294 -6.1847844
5.6801596 2.9349937 0.677973 -5.1962953 -1.7998724 -3.4719074 -4.3809257 1.9643538
0.6806977 1.309535 1.0018094 -0.47763935 1.5162014 -0.3774934 0.48941645 -0.059391182
-10.578372 2.021894 0.05778707 1.1641654 2.1547427 -7.0219474 2.890505 -9.4685335
-4.641458 -3.4880695 -4.565698 0.2583269 -0.99708295 0.65300393 -0.2849009 0.21626695
-0.40470806 -0.05390075 6.4282594 -4.708106 2.335319 -4.4321375 3.7769353 4.8816333
7.4872365 9.291323 -4.820086 5.0652194 3.205111 1.8006365 -0.08376125 0.739332
-0.28262088 0.37159672 0.055777557 -0.04501947 -1.4940202 2.6028116 -7.310195 -7.003541
00000000: 7d9a 2441 d9a7 25c0 3522 dfc0 aac5 eb40
00000010: 30a8 c23f 6ceb 26c0 09c9 9040 9585 7a3f
00000020: 21ca 48c0 900c e0bf 6af4 0840 1261 523f
00000030: a493 a9bf 26ff 29bf 5ff4 3dbe aaa0 13be
00000040: 5827 6b3e b7dc 05bd ee91 d2c0 b019 2bc0
00000050: 4fba a441 dd17 4140 a56e 6fbe 53d7 0140
00000060: 75c9 7d40 aa67 5241 6ab4 86c0 500c c1be
00000070: d4cb 1abb 59bc 41bf 2e8f 0e3f b2cc 363e
00000080: aa51 4fbf 608c 953f 8dca c6bd 43a3 e4bd
00000090: 55fd b640 f6e1 8940 3812 9d3f 6e1c 5a40
000000a0: 6759 1d40 8049 ff3f e4f7 51be ca2b 9bc0
000000b0: 5a5b 4fbf f8e9 e3bf 6a90 8f3f 10c8 04bf
000000c0: fe2a 343f 55b9 d8bd 3b93 ccbe 536c 81be
000000d0: aa58 f13e 5329 a0bd b64d 7840 7dd7 0c3f
000000e0: 7c4d 0d3f 7f86 b6c0 ed20 fdbf 888e 5cc0
000000f0: 9c2e d3bf 03af 05c0 03d4 89c0 4772 9840
00000100: 91d0 0040 9d99 e73e 9f2b 1cbe de73 4a3f
00000110: 7aad df3e 11d7 f1be 09b9 833f 41fb 9bbc
00000120: 7172 10c0 bceb 80c0 abb9 1741 f4f7 80c1
00000130: b5fd 88c0 3cd2 c540 8342 34c0 9efc 0fc0
00000140: ee60 ccc0 8f83 ce40 d1bf e1bf 2eef 123f
00000150: 5fbb 753e 7ddd 1a3d b88c e03e a3d0 f73e
00000160: 282f 913e 00a1 23be 05d6 6d40 0db9 5740
00000170: 264d 9dc0 7e0b 3a40 d0aa 1941 110c 0ec1
00000180: 32da d3c0 175f 5ec0 0f6d a3c0 943e 44c0
00000190: a6b7 3b3f 0a20 59bf f535 993d decd dbbe
000001a0: 242e 17bf 1fcb 443e bd2f 9dbe 049b d9bc
000001b0: 11ba c341 ba15 3d41 1f09 3b41 00c2 5940
000001c0: 1afa d040 ad22 e1be 3348 a8c0 bf78 13c1
000001d0: eab0 d8c0 9105 fac0 7fa6 b53f d52b 233f
000001e0: bfb5 3dbf 449b 14be 3d66 9fbe 20ea 1e3f
000001f0: 8d3d 3fbd 9368 dcbc aae8 05c2 5677 7e40
00000200: 553b f63f ba27 dfc0 5225 6e40 aa85 70c0
00000210: 4638 45c0 185b 43bf 3638 0dc0 41c3 5fbf
00000220: 9972 4a40 9b2c 8b3e 8009 cb3e aefc 1c3e
00000230: 3495 bb3e 541f 8d3e fb3e 00bf cd52 90bc
00000240: a14c 2943 465f 94c1 65c2 1142 40e4 8942
00000250: cac8 0940 db72 67c1 9e40 afc1 db95 90c1
00000260: cd66 3d3f f02a fe41 3d18 2941 05bf 4a40
00000270: 7d8b 8240 2372 5e3e 14c2 6ebe 571b 96be
00000280: 915b 4ebf bbae 5038 36ae 1a41 8f8e 003f
00000290: 9f97 9a40 aa4d 0141 f782 2c41 f71c 6c40
000002a0: 799a adc0 56d7 be40 24c8 32c0 b4f0 71bf
000002b0: 7b75 303f 1517 d53d 5c58 2fbe b8e2 84bf
000002c0: 6e9f 52be 437e 0abf ae06 a93e 6c4e bebc
000002d0: b07f 6841 2975 ee3f a5a8 0a40 3ddd e53f
000002e0: 6499 4dbd 54d1 d5bf 5f77 16c1 ebd1 953f
000002f0: cb0e 70c0 baa1 b9bf 80cd 12bf 0d3d 1abf
00000300: 141e bcbf 3b57 8f3f 7c71 2bbf 35a6 b63e
00000310: f5a2 28bf f0ab 15be 5c00 8140 c1e9 c5c0
00000320: dec3 b540 f0d6 3b40 a38f 2d3f 0d48 a6c0
00000330: 3862 e6bf bb33 5ec0 8b30 8cc0 f26f fb3f
00000340: 3442 2e3f d89e a73f 4a3b 803f 258d f4be
00000350: e312 c23f d146 c1be cb94 fa3e 2b44 73bd
00000360: 0341 29c1 b666 0140 22b2 6c3d 5f03 953f
00000370: 4ee7 0940 cbb3 e0c0 09fe 3840 1d7f 17c1
00000380: d386 94c0 883c 5fc0 331a 92c0 6c43 843e
00000390: d440 7fbf 442b 273f 88de 91be 1575 5d3e
000003a0: e535 cfbe 08c7 5cbd 4db4 cd40 cea8 96c0
000003b0: de75 1540 12d4 8dc0 4fb9 7140 5736 9c40
000003c0: 7197 ef40 42a9 1441 253e 9ac0 4716 a240
000003d0: 8a20 4d40 427b e63f 058b abbd dd44 3d3f
000003e0: afb3 90be ed41 be3e 0277 643d 5666 38bd
000003f0: 0e3c bfbf 7794 2640 1eed e9c0 021d e0c0

rcsl.backbone.model.0.bias f4 [200]
-7.3243175 -3.6280732 -12.448731 -7.466118 -6.468787 -11.765278 3.5323408 -6.5785923
-0.37951118 -10.062241 -6.596319 -8.984281 -8.297868 -4.793477 -11.5284395 -8.357338
-3.544059 -4.8321524 -6.4426475 -4.1864567 -8.886386 -12.357384 -5.64611 -6.8844824
-8.054786 -4.298452 -7.982878 -5.320849 -5.566895 -6.4372654 -8.597673 -6.9135714
-33.603775 -1.6812168 -3.1452715 -6.8145022 -5.6967816 -25.479593 -5.593254 -4.895165
-8.044547 -5.705772 -6.3466725 -6.3283486 -7.531132 -4.577945 -6.0042276 2.9140708
-1.3958149 -5.032585 -3.934792 -9.931378 -4.4128566 -6.9700756 -8.4403305 -7.0905824
-6.8634386 16.396738 -3.111726 -6.139716 -6.3801637 -3.6256258 -5.101292 1.6224407
-8.071031 -4.4126077 9.847534 -7.66977 -9.1448345 -7.822748 -12.061049 -9.841085
-2.2269917 -8.372844 -8.244418 -2.540729 -8.095338 -8.816493 -5.5227704 -5.906163
3.0726078 -4.9235106 -6.58964 -7.031508 7.946293 -4.126238 -7.802523 -9.381734
-8.816931 18.339489 -7.4602094 -7.1298804 13.562623 24.41573 -7.605982 16.013092
-6.064223 9.844053 -3.1816783 17.064003 -6.6200686 -8.120638 -1.6164829 2.335633
-5.90308 -3.9441118 -6.653856 -30.63577 -8.726462 -7.4132485 -13.027223 -7.2858434
-12.674654 -9.940646 -8.443421 -1.1563611 -6.579119 0.04518219 -5.4515305 10.888082
-2.9143867 -4.2146044 -1.4455317 -0.66789937 -11.026376 -4.342118 -2.8112197 -9.25611
-6.4532533 -10.268904 -4.5448246 -9.445296 -12.402351 -10.231263 -5.888828 -1.6787477
-8.294341 -5.086482 -4.2371492 -5.443903 -4.341343 -1.048242 -7.100532 -4.0371447
-2.4485312 6.667389 -5.7420444 -0.77912396 -5.060757 -4.9624414 -8.2526 -3.6119876
13.037154 -2.7304466 -2.079335 11.014458 -1.0227704 -8.854544 -4.0892577 -7.661724
-6.3781695 -7.630934 25.793678 9.836545 -6.4410295 -6.5345182 -11.844395 0.7577877
-0.28537372 -5.0833797 2.48719 -6.713243 -4.9405675 -3.149565 -5.3513837 -5.1857266
-10.616751 -4.2248235 -3.904717 -2.8152459 -6.1535177 -4.7653756 -1.2869489 -5.8957415
-5.7210417 -6.254228 -3.468905 -7.2740965 -3.629111 -6.261854 -8.651347 -5.502699
3.8160195 -0.820136 22.321812 -7.032965 -5.3376193 -7.3125734 -3.8088138 -4.8011513
00000000: cf60 eac0 5a32 68c0 012e 47c1 70ea eec0
00000010: 4e00 cfc0 943e 3cc1 df11 6240 d483 d2c0
00000020: 4a4f c2be f0fe 20c1 0c15 d3c0 9dbf 0fc1
00000030: 11c4 04c1 2a64 99c0 7d74 38c1 a8b7 05c1
00000040: ddd1 62c0 fea0 9ac0 2b2a cec0 74f7 85c0
00000050: a32e 0ec1 d8b7 45c1 efac b4c0 ae4d dcc0
00000060: 67e0 00c1 eb8c 89c0 bd73 ffc0 6544 aac0
00000070: 0124 b2c0 14fe cdc0 1290 09c1 fa3b ddc0
00000080: 446a 06c2 1d32 d7bf 214c 49c0 6710 dac0
00000090: 094c b6c0 35d6 cbc1 f0fb b2c0 31a5 9cc0
000000a0: 77b6 00c1 af95 b6c0 f117 cbc0 d581 cac0
000000b0: 09ff f0c0 877e 92c0 a222 c0c0 2380 3a40
000000c0: 10aa b2bf f00a a1c0 a2d3 7bc0 ede6 1ec1
000000d0: 1f36 8dc0 dc0a dfc0 980b 07c1 0de6 e2c0
000000e0: 4aa1 dbc0 852c 8341 8526 47c0 8e78 c4c0
000000f0: 4d2a ccc0 410a 68c0 c93d a3c0 23ac cf3f
00000100: f122 01c1 1534 8dc0 808f 1d41 c16e f5c0
00000110: 3e51 12c1 f453 fac0 0ffa 40c1 1675 1dc1
00000120: 0887 0ec0 2bf7 05c1 23e9 03c1 4e9b 22c0
00000130: 8186 01c1 5b10 0dc1 89ba b0c0 4aff bcc0
00000140: 9ba5 4440 668d 9dc0 55de d2c0 1d02 e1c0
00000150: 0848 fe40 240a 84c0 45ae f9c0 951b 16c1
00000160: 2612 0dc1 46b7 9241 09ba eec0 fb27 e4c0
00000170: 8100 5941 6a53 c341 3464 f3c0 d01a 8041
00000180: 1d0e c2c0 3e81 1d41 9ea0 4bc0 1483 8841
00000190: 9ad7 d3c0 22ee 01c1 e9e8 cebf 037b 1540
000001a0: 08e6 bcc0 546c 7cc0 63ec d4c0 0f16 f5c1
000001b0: 979f 0bc1 5539 edc0 816f 50c1 a125 e9c0
000001c0: 62cb 4ac1 e30c 1fc1 4118 07c1 a403 94bf
000001d0: 2588 d2c0 f610 393d f072 aec0 9535 2e41
000001e0: 5085 3ac0 0ade 86c0 2f07 b9bf 74fb 2abf
000001f0: 096c 30c1 a1f2 8ac0 06eb 33c0 0719 14c1
00000200: 0d81 cec0 6e4d 24c1 346f 91c0 ef1f 17c1
00000210: 0870 46c1 41b3 23c1 4771 bcc0 34e1 d6bf
00000220: 9fb5 04c1 76c4 a2c0 ba96 87c0 7434 aec0
00000230: 48ec 8ac0 cb2c 86bf 8f37 e3c0 4a30 81c0
00000240: bcb4 1cc0 405b d540 d4be b7c0 ab74 47bf
00000250: b9f1 a1c0 52cc 9ec0 a60a 04c1 ce2a 67c0
00000260: 2f98 5041 a3bf 2ec0 d313 05c0 383b 3041
00000270: 24ea 82bf 36ac 0dc1 33db 82c0 d82c f5c0
00000280: f719 ccc0 9c30 f4c0 7459 ce41 7d62 1d41
00000290: ea1c cec0 c61a d1c0 a482 3dc1 60fe 413f
000002a0: 811c 92be 0cab a2c0 1f2e 1f40 e3d2 d6c0
000002b0: 2119 9ec0 7992 49c0 893e abc0 79f1 a5c0
000002c0: 36de 29c1 c131 87c0 e2e6 79c0 fd2c 34c0
000002d0: 9ee9 c4c0 f57d 98c0 beba a4bf eaa9 bcc0
000002e0: c612 b7c0 a322 c8c0 8a02 5ec0 66c5 e8c0
000002f0: 5b43 68c0 1c61 c8c0 eb6b 0ac1 1c16 b0c0
00000300: aa39 7440 6ff4 51bf 1293 b241 0d0e e1c0
00000310: c7cd aac0 9a00 eac0 9bc3 73c0 08a3 99c0

rcsl.backbone.model.2.weight f4 [200, 200]
0.02190347 -0.028490398 0.019338494 -0.08969149 -0.059196044 0.040479224 -0.11204373 0.021733703
-0.020257058 0.083033234 0.012647884 -0.031039592 -0.1437239 -0.09594204 0.12777387 -0.008798137
0.008780273 -0.008319787 -0.021721663 -0.0034662639 0.03948642 -0.05994998 -0.05061116 -0.035749856
-0.056319304 -0.09390549 -0.13072996 0.013010817 -0.13077445 0.037288126 0.036756627 0.03207407
-0.14141668 -0.0032948134 -0.06964097 -0.13521978 0.026387177 -0.033346318 -0.042948287 0.0021286986
-0.14034522 -0.07120671 0.007881497 -0.056583297 0.019741286 0.039054487 -0.15267564 -0.006534943
-0.073256 -0.053205278 -0.07631486 -0.0029418038 -0.01632108 0.1180721 0.014722944 -0.028364109
0.02464617 -0.05442924 0.087211005 0.02672277 0.013357597 -0.04255878 -0.05920051 0.0036914337
0.056529794 0.13478291 -0.067665 -0.019979535 0.06420378 -0.03990436 0.13661475 -0.040510345
0.003912665 0.0024516282 -0.08826206 -0.113361806 0.021716192 -0.021229649 -0.16908996 -0.11912006
-0.04681473 -0.009909401 0.023624051 -0.14736155 -0.11627826 -0.02403428 -0.09048044 -0.00075583643
0.06977342 0.03767457 -0.09761009 -0.016937595 -0.11982185 -0.057033207 -0.043365862 -0.12713264
-0.10086067 -0.12551837 -0.020121729 -0.119053856 0.10332888 0.017680472 0.09618993 0.095106795
-0.11343372 0.00064207864 -0.060068466 -0.20801379 -0.0076845563 -0.11657074 -0.072166495 0.018992107
0.030971106 -0.108032085 -0.046392065 0.107884385 0.007616515 -0.03384627 -0.09956729 -0.057202946
-0.21360715 -0.01910411 0.016520318 0.014166824 -0.040566716 -0.07070857 -0.03478371 -0.05342787
-0.036162134 0.030913197 0.03184946 -0.02240721 -0.049161457 -0.019544408 0.008579658 0.05072037
-0.0061039114 0.050472002 -0.051670097 -0.093122505 -0.15046369 -0.062159672 -0.047052268 0.017950917
0.10090596 -0.1358234 -0.023905588 0.022589425 -0.095368765 0.058975488 -0.043669466 -0.05807301
-0.1700365 0.054464273 0.1259485 -0.052790597 -0.010405826 -0.029076574 -0.060892764 -0.08322499
-0.13399814 0.0013400113 -0.07537572 -0.054846343 -0.046015784 0.08211176 -0.023989601 -0.11432775
-0.1025659 -0.002345699 -0.12221278 -0.0059421947 -0.05753868 -0.051028073 0.07918858 -0.083933726
0.034122143 -0.04150782 0.052834414 -0.15656747 -0.064939246 0.012610735 -0.026945319 -0.030970618
-0.15516879 0.0039676623 -0.015326962 -0.09613261 -0.08056085 -0.12932475 -0.03790461 -0.059585188
-0.055842783 0.03930462 -0.0007143944 0.10402766 0.026003374 0.03069636 -0.035105158 0.021407321
0.031544864 -0.036366615 0.048689976 -0.039398797 0.031181972 0.019612683 -0.1132802 -0.07954198
0.017963897 0.0665812 0.0038702763 -0.011273166 0.040850542 0.0343977 -0.010523485 0.07974854
0.037842758 0.015414083 0.027921537 -0.07119542 -0.034950875 0.00706883 0.0076428363 -0.007887446
0.014266196 0.0066529424 -0.06664578 0.023759872 -0.0041425205 -0.04667523 -0.0724192 -0.018134452
-0.073108904 -0.08696231 0.05582215 -0.043568347 0.009101057 -0.0009175816 -0.027377093 -0.044254255
-0.077441536 0.011552606 -0.04003855 0.007407345 0.017959882 -0.06851361 -0.02312068 -0.086745515
-0.046481397 -0.053841382 0.00014981088 -0.043430176 -0.005889251 -0.00656356 0.048609335 -0.04680083
00000000: e86e b33c b264 e9bc c36b 9e3c 2cb0 b7bd
00000010: 8d77 72bd 8bcd 253d 2f77 e5bd e10a b23c
00000020: 21f2 a5bc 540d aa3d 1239 4f3c be46 febc
00000030: 5c2c 13be 437d c4bd 27d7 023e 1026 10bc
00000040: 22db 0f3c b74f 08bc a1f1 b1bc 422a 63bb
00000050: 83bc 213d 1c8e 75bd a64d 4fbd 716e 12bd
00000060: 12af 66bd 8651 c0bd 13de 05be 522b 553c
00000070: bde9 05be 6fbb 183d 1e8e 163d 1a60 033d
00000080: 89cf 10be cced 57bb ed9f 8ebd 0e77 0abe
00000090: ec29 d83c 2696 08bd 8bea 2fbd a381 0b3b
000000a0: a8b6 0fbe d3d4 91bd 6521 013c e3c3 67bd
000000b0: 7ab8 a13c 99f7 1f3d 0157 1cbe 1323 d6bb
000000c0: 3e07 96bd c7ed 59bd f74a 9cbd 47cb 40bb
000000d0: c9b3 85bc c9cf f13d 8138 713c d95b e8bc
000000e0: c4e6 c93c 32f1 5ebd af9b b23d b6e9 da3c
000000f0: d3d9 5a3c 1e52 2ebd 3c7c 72bd fbeb 713b
00000100: c98b 673d 8804 0a3e f393 8abd 1fac a3bc
00000110: 457d 833d c172 23bd bde4 0b3e 2dee 25bd
00000120: d035 803b 7fab 203b bdc2 b4bd 3c2a e8bd
00000130: 28e6 b13c cde9 adbc eb25 2dbe 38f5 f3bd
00000140: cdc0 3fbd 0a5b 22bc 3a87 c13c f2e5 16be
00000150: 4c23 eebd 8ae3 c4bc cf4d b9bd 5323 46ba
00000160: 5ee5 8e3d a650 1a3d cde7 c7bd b6c0 8abc
00000170: 2865 f5bd a79b 69bd 67a0 31bd 0f2f 02be
00000180: 0a90 cebd e387 00be 53d6 a4bc 82d2 f3bd
00000190: 189e d33d a3d6 903c 3aff c43d 5ac7 c23d
000001a0: f04f e8bd 2b51 283a 5a0a 76bd 9101 55be
000001b0: bbce fbbb a4bc eebd 07cc 93bd 5695 9b3c
000001c0: 1eb7 fd3c ed3f ddbd 9b05 3ebd 7df2 dc3d
000001d0: f593 f93b 63a2 0abd efe9 cbbd a34d 6abd
000001e0: d5bb 5abe 3980 9cbc 9e55 873c f71b 683c
000001f0: 4929 26bd a8cf 90bd 5d79 0ebd 2fd7 5abd
00000200: bf1e 14bd ac3d fd3c 9474 023d 538f b7bc
00000210: 865d 49bd 981b a0bc b291 0c3c 2ac0 4f3d
00000220: 5203 c8bb bbbb 4e3d 06a4 53bd 03b7 bebd
00000230: 2713 1abe 249b 7ebd e1b9 40bd cd0d 933c
00000240: c9a7 ce3d 4a15 0bbe a7d5 c3bc 750d b93c
00000250: b350 c3bd 4890 713d c1de 32bd f7dd 6dbd
00000260: 0c1e 2ebe ee15 5f3d a5f8 003e f43a 58bd
00000270: 337d 2abc ff31 eebc b16a 79bd dd71 aabd
00000280: cf36 09be 51a3 af3a 965e 9abd 8fa6 60bd
00000290: 0c7b 3cbd 362a a83d d785 c4bc ab24 eabd
000002a0: 120e d2bd 4cba 19bb b24a fabd beb6 c2bb
000002b0: aead 6bbd d002 51bd 9f2d a23d 72e5 abbd
000002c0: a9c3 0b3d 1b04 2abd e668 583d 3953 20be
000002d0: defe 84bd 429d 4e3c 6ebc dcbc 18b6 fdbc
000002e0: 91e4 1ebe 2a03 823b f01d 7bbc 2de1 c4bd
000002f0: 16fd a4bd b56d 04be dd41 1bbd 990f 74bd
00000300: 67bb 64bd e2fd 203d 3246 3bba 740c d53d
00000310: 0705 d53c ef76 fb3c 6dca 0fbd 685e af3c
00000320: 3035 013d 29f5 14bd 246f 473d a260 21bd
00000330: 5671 ff3c c7aa a03c 73ff e7bd e8e6 a2bd
00000340: 0629 933c b95b 883d 76a4 7d3b 16b3 38bc
00000350: e652 273d 9ae4 0c3d b26a 2cbc 3453 a33d
00000360: 0201 1b3d 5a8b 7c3c b5bb e43c e8ce 91bd
00000370: a628 0fbd a5a1 e73b c270 fa3b 593a 01bc
00000380: c3bc 693c ed00 da3b 957d 88bd 10a4 c23c
00000390: fbbd 87bb 872e 3fbd 8450 94bd b48e 94bc
000003a0: 1fba 95bd 4c19 b2bd c4a5 643d b974 32bd
000003b0: 9a1c 153c dc89 70ba ed45 e0bc f343 35bd
000003c0: ab99 9ebd 2447 3d3c 76ff 23bd 50b9 f23b
000003d0: 9a20 933c dd50 8cbd 9567 bdbc a2a7 b1bd
000003e0: 4763 3ebd c888 5cbd 8d16 1d39 d7e3 31bd
000003f0: 9efa c0bb 2213 d7bb 951a 473d 3ab2 3fbd

rcsl.backbone.model.2.bias f4 [200]
-0.055226814 0.04419419 -0.00018444163 -3.6182117 -0.11526772 -0.08203404 -2.8311415 -6.2367163
-0.06437818 -0.1350002 3.013475 -0.43421784 -0.087217316 -2.1921244 2.6893423 -10.48642
0.9674686 3.288078 5.8882594 -0.06793112 -0.06330306 -5.708687 -13.668681 -0.08718733
0.3092374 -0.043814152 -15.651661 -0.05421058 -21.5173 -0.04992199 -14.540981 -0.15224709
26.701271 -0.05851404 -6.6270194 -0.068402976 -4.203762 -9.734021 16.083702 -0.33742827
-0.05434013 -10.817203 -0.18001978 -0.042620737 -8.185178 -0.06897361 -15.635516 -12.227244
-34.25537 -9.540711 -4.248625 -5.5987496 0.042062156 -0.031827506 -3.935614 0.33942664
-0.60070187 -0.08882466 7.1364765 -0.08195178 -0.08788641 -0.18356156 -12.114576 3.6113641
6.683353 -0.07891713 -0.0109955035 1.0091286 1.7829565 1.4327894 0.004042645 -2.5915005
-4.435479 -1.3088309 -1.8727028 -0.10012259 -0.17139292 -0.03773673 -0.111740194 -0.07523247
0.65548503 -16.618711 10.180876 -0.19160521 1.4547224 1.4253893 -22.01248 -4.802016
-14.289038 -0.08211536 -0.089764066 3.6835384 -1.3535216 -2.8588178 -0.067499325 5.7616396
-5.1737967 14.487501 -4.917462 -0.08160599 -0.050258294 2.1404374 -0.1094163 10.882056
-0.090804406 -5.0991273 0.0028109627 8.300213 0.29806426 11.373597 -0.004925986 -0.064579554
-0.068115115 -1.6638072 -1.5668473 -10.794883 -1.8648881 -9.601637 -3.2778194 -0.09572983
-0.33824402 12.783868 -10.04249 -0.04376248 3.7359514 -0.03146018 -0.081283085 20.119776
-0.0647447 11.42723 -1.4532664 -0.08845075 -2.6017518 3.2213945 -0.05304556 -0.096219316
-0.0872844 -0.20268528 4.8460994 4.624949 -0.030729715 -0.12981349 -0.0971157 -1.5679762
-0.016642982 -8.348633 -0.01457517 0.008615422 -0.024990976 2.7708435 -26.146687 -0.8509153
19.59467 -0.03052373 -0.12388118 -0.12514839 -0.28009912 4.7175407 -0.05024046 -6.7197185
11.205762 -0.02837785 -0.07520755 -4.178032 -0.058778383 16.287394 -14.670099 -0.12975672
8.998837 -20.086143 -0.08667202 0.014127837 7.7322197 -8.337024 2.8679488 -0.14191738
-2.4145918 -0.013084477 -4.965422 -3.1508722 -0.12895001 -0.04851053 -0.011565112 -13.700393
-0.1021919 8.0449915 -0.12012701 5.7727017 -0.12745547 -0.017628677 -0.12046068 -0.08402615
1.0488067 -0.12918314 -0.15939458 -0.054297585 1.6401476 -0.1165711 -0.02041907 -0.0012048221
00000000: 8335 62bd f804 353d ac66 41b9 c890 67c0
00000010: 7b11 ecbd 7601 a8bd 6c31 35c0 2e93 c7c0
00000020: b5d8 83bd 7e3d 0abe c6dc 4040 cd51 debe
00000030: fe9e b2bd c44b 0cc0 2f1e 2c40 60c8 27c1
00000040: 06ac 773f df6f 5240 9f6c bc40 791f 8bbd
00000050: 09a5 81bd 90ad b6c0 ebb2 5ac1 458f b2bd
00000060: 5d54 9e3e 7876 33bd 346d 7ac1 ea0b 5ebd
00000070: 6e23 acc1 007b 4cbd dca7 68c1 a9e6 1bbe
00000080: 349c d541 6bac 6fbd 8b10 d4c0 dc16 8cbd
00000090: 3885 86c0 8dbe 1bc1 6cab 8041 66c3 acbe
000000a0: c293 5ebd 4313 2dc1 1b57 38be 1593 2ebd
000000b0: 7df6 02c1 0942 8dbd 132b 7ac1 cba2 43c1
000000c0: 8005 09c2 c1a6 18c1 bcf4 87c0 f528 b3c0
000000d0: 5e49 2c3d 8f5d 02bd 1ae1 7bc0 54c9 ad3e
000000e0: 99c7 19bf b4e9 b5bd 045e e440 56d6 a7bd
000000f0: cafd b3bd 90f7 3bbe 4ed5 41c1 9720 6740
00000100: 07de d540 4e9f a1bd 7c26 34bc 202b 813f
00000110: eb37 e43f a565 b73f 2a78 843b 25db 25c0
00000120: 72ef 8dc0 c587 a7bf bab4 efbf 130d cdbd
00000130: a081 2fbe d491 1abd 0bd8 e4bd 7b13 9abd
00000140: decd 273f 1ff3 84c1 dee4 2241 2834 44be
00000150: 5834 ba3f 2873 b63f 8f19 b0c1 1daa 99c0
00000160: e69f 64c1 192c a8bd 39d6 b7bd 18bf 6b40
00000170: 3240 adbf dff6 36c0 163d 8abd 5a5f b840
00000180: be8f a5c0 cecc 6741 d95b 9dc0 0b21 a7bd
00000190: a4db 4dbd edfc 0840 a715 e0bd e71c 2e41
000001a0: a9f7 b9bd 0d2c a3c0 2138 383b accd 0441
000001b0: e19b 983e 41fa 3541 2a6a a1bb 4942 84bd
000001c0: f07f 8bbd a2f7 d4bf 748e c8bf d7b7 2cc1
000001d0: a7b4 eebf 4ea0 19c1 cbc7 51c0 000e c4bd
000001e0: 522e adbe b98a 4c41 0aae 20c1 4940 33bd
000001f0: d419 6f40 64dc 00bd bf77 a6bd 4df5 a041
00000200: df98 84bd efd5 3641 a204 babf ab25 b5bd
00000210: 1a83 26c0 542b 4e40 4d46 59bd a20e c5bd
00000220: 2ac2 b2bd bb8c 4fbe 3f13 9b40 95ff 9340
00000230: e2bc fbbc d4ed 04be 99e4 c6bd 72b3 c8bf
00000240: dd56 88bc 0094 05c1 b2cc 6ebc b327 0d3c
00000250: e0b9 ccbc 8055 3140 6a2c d1c1 96d5 59bf
00000260: e2c1 9c41 e70c fabc 6bb5 fdbd e626 00be
00000270: 2769 8fbe 18f6 9640 f1c8 4dbd ef07 d7c0
00000280: cd4a 3341 aa78 e8bc 6a06 9abd 70b2 85c0
00000290: 9ac1 70bd 954c 8241 bab8 6ac1 f2de 04be
000002a0: 3dfb 0f41 6cb0 a0c1 1a81 b1bd 7178 673c
000002b0: 586e f740 7364 05c1 798c 3740 ca52 11be
000002c0: ac88 1ac0 4660 56bc bde4 9ec0 e4a7 49c0
000002d0: 790b 04be fab2 46bd 987b 3dbc cf34 5bc1
000002e0: fd49 d1bd 49b8 0041 2605 f6bd f9b9 b840
000002f0: b083 02be 046a 90bc 17b4 f6bd e715 acbd
00000300: 4c3f 863f 9648 04be 5538 23be 2567 5ebd
00000310: 5bf0 d13f d4bc eebd e545 a7bc 1feb 9dba

rcsl.backbone.model.4.weight f4 [200, 200]
-0.0633612 0.06175681 0.01181941 -0.036294095 -0.008603946 0.04051881 -0.024106236 -0.30701962
0.08539303 -0.060975302 -0.22924647 -0.1193812 0.036279194 0.07671921 -0.6842864 0.10485011
0.0057106866 0.12447571 0.060295317 0.023086142 0.03958621 -0.21872726 0.03865127 -0.028229842
-0.11008349 0.066629335 -0.08334667 0.017660698 0.0057088016 -0.24714945 0.13643475 -0.026493791
0.36668283 -0.04118923 -0.047299244 -0.10672572 0.22990613 -0.20182405 -0.097244285 0.01768805
0.04861461 -0.088097885 -0.055030636 0.07900684 -0.07619906 0.03551425 -0.04851324 -0.007333387
-0.1382776 -0.03580405 0.42184561 -0.23630524 0.03455541 0.055747442 0.14610702 -0.2850389
0.16733378 -0.018133344 0.045276374 -0.10000199 0.011502252 0.05724091 -0.073870964 -0.09534815
-0.11832433 -0.044823293 -0.038479365 0.482281 -0.029436259 -0.07631662 -0.045752678 -0.039801393
-0.23137033 -0.10610055 0.56081146 -0.0073872022 -0.04500403 0.06601157 -0.11784076 0.017307235
-0.15441263 0.28825074 0.11834726 0.10405042 0.11140485 0.030399939 0.05586306 -0.12360642
-0.10964129 0.00089807477 0.049929686 -0.20015332 -0.07517917 0.163071 -0.058182858 0.098880775
0.09321601 -0.10963901 0.40276742 -0.0234523 0.08220894 -0.034005605 -0.040348683 0.16961999
0.03162812 -0.3573271 0.040296786 -0.058306314 0.09572392 0.116659164 0.005175791 0.025250055
-0.0104775755 0.09045793 0.3400694 -0.22984241 -0.008793295 0.12828891 -0.21313606 -0.09465818
0.02872052 -1.053024 -0.06906622 0.013130184 -0.1531272 0.15233363 -0.021946788 0.27264658
-0.17350772 0.055660553 0.3418469 -0.106808186 -0.04407562 -0.096657604 -0.050406594 0.025866102
-0.034552205 -0.1662687 -0.064994685 -0.12862395 -0.01639693 0.034322146 -0.07191842 -0.13369295
0.07020146 -0.10595334 0.0054117274 -0.10395492 -0.013686475 -0.029849535 -0.044942286 -0.2310699
-0.057508662 0.009655483 0.064872846 -0.14578263 -0.061929923 -0.04648457 -0.023978079 0.0025879461
-0.14793861 -0.0065849214 0.045881737 0.33872586 -0.0485322 -0.092065066 -0.13690951 0.00948864
0.13172632 0.026086178 0.06510987 -0.021971386 -0.29037866 -0.15161137 0.2279586 0.059743457
-0.25794056 0.05989855 0.11044598 0.010510601 -0.060353708 0.028089453 -0.04318893 -0.06843417
0.031089194 -0.20478864 -0.035224233 0.037277594 0.09496307 -0.08751378 -0.0393837 0.13939618
0.1809438 -0.17111066 -0.018483585 0.07240416 0.09717147 -0.007838081 0.09128341 -0.032263294
-0.010608388 -0.010437423 0.057218354 -0.05792534 0.0039731837 0.03919122 -0.028099818 -0.1192025
0.015473011 0.057584994 -0.12717563 0.025601685 -0.036884986 -0.051570646 -0.11432285 -0.09359593
-0.03512931 -0.04475427 -0.06935029 0.018751673 0.054090265 -0.023346033 -0.09460405 0.045022447
-0.099209875 -0.051524274 -0.06768096 -0.05205914 0.05672062 0.01504428 0.021110423 -0.009373294
-0.05325099 -0.04728916 -0.13018167 0.063548915 -0.045282442 -0.0550906 -0.012977387 -0.032905806
0.051344946 -0.115875416 -0.037773546 0.025980785 -0.014768754 -0.04364335 0.028902767 -0.11563421
-0.054320373 -0.03157753 -0.016174728 -0.015380085 -0.048082747 -0.038808066 0.026628256 -0.03591077
00000000: 84c3 81bd b5f4 7c3d 33a6 413c 1ea9 14bd
00000010: 91f7 0cbc 0df7 253d 717a c5bc ad31 9dbe
00000020: 8ae2 ae3d 3dc1 79bd 96bf 6abe 217e f4bd
00000030: 7e99 143d f61e 9d3d 652d 2fbf a8bb d63d
00000040: b620 bb3b 1fed fe3d 39f8 763d 261f bd3c
00000050: 2625 223d 0afa 5fbe cb50 1e3d 4542 e7bc
00000060: 7473 e1bd f674 883d a9b1 aabd 2bad 903c
00000070: e610 bb3b bf14 7dbe 8db5 0b3e 8209 d9bc
00000080: dabd bb3e 0ab6 28bd dabc 41bd 0493 dabd
00000090: 836c 6b3e f7aa 4ebe 0328 c7bd 88e6 903c
000000a0: 1d20 473d aa6c b4bd ce67 61bd 57ce a13d
000000b0: 410e 9cbd 6477 113d d2b5 46bd e94c f0bb
000000c0: a598 0dbe 44a7 12bd 26fc d73e 00fa 71be
000000d0: f989 0d3d 6e57 643d 149d 153e 9ef0 91be
000000e0: 8c59 2b3e 618c 94bc b873 393d d8cd ccbd
000000f0: f173 3c3c 7275 6a3d a949 97bd e445 c3bd
00000100: 0754 f2bd a198 37bd 8a9c 1dbd 89ed f63e
00000110: 4f24 f1bc e34b 9cbd 2967 3bbd c906 23bd
00000120: 58ec 6cbe 3f4b d9bd 5791 0f3f 5810 f2bb
00000130: 2556 38bd 1331 873d 7f56 f1bd e7c7 8d3c
00000140: 581e 1ebe 9a95 933e 0c60 f23d 6318 d53d
00000150: 3a28 e43d 4b09 f93c aad0 643d 5d25 fdbd
00000160: 9d8b e0bd c76c 6b3a 1283 4c3d fef4 4cbe
00000170: 89f7 99bd 16fc 263e 2651 6ebd 0182 ca3d
00000180: 09e8 be3d 6b8a e0bd 8837 ce3e 0a1f c0bc
00000190: 295d a83d 7649 0bbd a944 25bd ddb0 2d3e
000001a0: 7d8c 013d 94f3 b6be 3e0e 253d 9ad2 6ebd
000001b0: e70a c43d 00eb ee3d af99 a93b 34d9 ce3c
000001c0: 23aa 2bbc 0242 b93d 941d ae3e cf5b 6bbe
000001d0: c111 10bc 2b5e 033e 5740 5abe 26dc c1bd
000001e0: 4c47 eb3c 7ec9 86bf 9772 8dbd fc1f 573c
000001f0: 60cd 1cbe 59fd 1b3e c0c9 b3bc 5598 8b3e
00000200: 02ac 31be 52fc 633d 8f06 af3e 40be dabd
00000210: a388 34bd 6cf4 c5bd 2577 4ebd 26e5 d33c
00000220: 9d86 0dbd 5842 2abe ef1b 85bd ffb5 03be
00000230: db52 86bc 6195 0c3d f749 93bd cee6 08be
00000240: c8c5 8f3d 11fe d8bd dc54 b13b 51e6 d4bd
00000250: 3d3d 60bc 0387 f4bc 6715 38bd 969d 6cbe
00000260: 348e 6bbd 0832 1e3c 0edc 843d 0b48 15be
00000270: 3baa 7dbd 9b66 3ebd ad6d c4bc 889a 293b
00000280: 387d 17be 53c6 d7bb 7dee 3b3d 7a6d ad3e
00000290: b3c9 46bd 9c8c bcbd 0232 0cbe 3e76 1b3c
000002a0: 44e3 063e aeb2 d53c 5358 853d 56fd b3bc
000002b0: 83ac 94be 0340 1bbe fb6d 693e 8eb5 743d
000002c0: c910 84be 2f58 753d 8131 e23d a834 2c3c
000002d0: 7335 77bd da1b e63c e0e6 30bd 3727 8cbd
000002e0: c4ae fe3c 1db4 51be 4947 10bd 64b0 183d
000002f0: ff7b c23d 6d3a b3bd cd50 21bd dfbd 0e3e
00000300: 5549 393e a237 2fbe e36a 97bc a248 943d
00000310: d601 c73d 4b6b 00bc ccf2 ba3d 8426 04bd
00000320: cece 2dbc ba01 2bbc cb5d 6a3d 1f43 6dbd
00000330: 7b31 823b f986 203d 9731 e6bc 7120 f4bd
00000340: 8382 7d3c 3ede 6b3d 543a 02be a0ba d13c
00000350: b614 17bd be3b 53bd 1922 eabd 39af bfbd
00000360: c0e3 0fbd 4150 37bd 8607 8ebd 1c9d 993c
00000370: c18d 5d3d 2e40 bfbc c5bf c1bd 7569 383d
00000380: 8c2e cbbd 1e0b 53bd 519c 8abd f73b 55bd
00000390: e153 683d 497c 763c c4ef ac3c 7292 19bc
000003a0: b61d 5abd 47b2 41bd 584e 05be ef25 823d
000003b0: 157a 39bd aea6 61bd 1b9f 54bc 3dc8 06bd
000003c0: 144f 523d 1750 edbd 6fb8 1abd a8d5 d43c
000003d0: a5f8 71bc 5fc3 32bd 7fc5 ec3c a1d1 ecbd
000003e0: 0a7f 5ebd 7157 01bd dd80 84bc c1fc 7bbc
000003f0: 6af2 44bd 35f5 1ebd 8023 da3c 2c17 13bd

rcsl.backbone.model.4.bias f4 [200]
-9.371913 -0.07270237 -1.8949869 7.310315 -2.3532922 0.90095705 -3.4783962 8.393581
-0.21774991 1.311381 -13.382196 -0.17672133 3.0192704 -7.5408545 -0.18428864 -4.6496654
5.75299 -0.10072695 -0.2283823 -8.866587 5.3401413 -3.0386207 -0.21551646 5.779391
-7.828307 -3.9456232 -0.1207967 13.516216 -2.505596 -3.1539712 9.353369 1.718207
-11.236997 -4.693596 0.0021952966 -9.661826 -19.899036 -7.4708915 -7.3956323 -3.2572274
-17.10138 -0.5782579 1.4611182 3.9037993 6.6784196 -0.15269898 -0.15232223 -9.573875
1.826458 -2.882707 -0.19862475 0.91560155 2.8108435 -2.547928 -11.8828945 -0.7037174
-3.3205264 1.5381775 13.484307 -13.887996 -0.19132878 -6.639482 -0.16846019 6.542451
5.2301564 -4.3866024 -19.354195 1.1540931 -0.23556168 -2.102821 0.21038258 2.0564947
3.7382267 4.812634 -8.4674835 -1.1198796 -5.420201 -0.98198456 -6.4523954 -7.8896255
-21.137411 -0.2886676 -0.22285967 -1.0385349 6.4387107 0.08641236 -3.1866262 -0.3190181
12.356834 -1.9708928 3.8557556 1.9193813 -6.446447 0.3942923 -0.17726369 -2.1685817
2.1533186 5.2186174 0.7966696 -0.2220339 4.4045124 -0.049868025 -6.5469613 -4.635462
4.7223454 8.29023 -6.1659846 -7.676242 -5.1908627 4.1569104 -3.6984909 7.553798
-1.1881658 0.6916562 -1.1501322 -9.388351 -0.20976794 18.440887 -0.18136214 -1.6725218
8.484062 1.3459109 -1.5296971 -11.447196 11.534291 -7.364178 -0.28439033 -0.22131053
4.173247 -14.658786 5.1336374 1.3828777 3.6008544 -4.8318005 3.8779483 9.278971
-0.1115607 -6.429842 4.377325 -1.6747756 -5.7982216 -1.7714117 -12.825286 -3.7536912
-0.18123846 3.0793834 -8.9567375 -2.1493778 -3.808146 12.633429 1.7365711 5.3672566
6.4785085 -0.1037302 -2.3086913 2.281044 6.0477 -7.4317837 -4.1327515 -12.790687
-3.5397236 -8.206587 6.750281 0.018093036 3.0961118 -0.16785747 1.8251647 -11.350734
-5.27835 -0.4897281 -9.026875 1.8140314 -11.249889 -3.379323 -7.170766 6.471607
4.9857726 11.363694 -0.25384346 -0.5233349 -9.834699 -1.1769642 -0.110546544 -0.25446147
-0.7379151 -0.3774867 4.7348375 -5.2170887 -11.10533 -6.2593236 -6.289739 7.203547
9.992114 -8.872729 -5.780603 -0.0934361 -1.3145334 -10.538309 1.1814576 -0.0508905
00000000: 5bf3 15c1 fbe4 94bd ee8e f2bf 1aee e940
00000010: 579c 16c0 1fa5 663f 0b9e 5ec0 1c4c 0641
00000020: d5f9 5ebe 55db a73f 7a1d 56c1 70f6 34be
00000030: ba3b 4140 ae4e f1c0 29b6 3cbe 0fca 94c0
00000040: 7e18 b840 ee49 cebd 0ddd 69be 8add 0dc1
00000050: 70e2 aa40 c378 42c0 59b0 5cbe c5f0 b840
00000060: 7e81 fac0 1785 7cc0 4364 f7bd 6c42 5841
00000070: af5b 20c0 aada 49c0 66a7 1541 35ee db3f
00000080: bdca 33c1 f031 96c0 f7de 0f3b d796 1ac1
00000090: 3a31 9fc1 8b11 efc0 05a9 ecc0 6a76 50c0
000000a0: a0cf 88c1 b608 14bf ec05 bb3f d9d7 7940
000000b0: 9db5 d540 1f5d 1cbe 5cfa 1bbe 982e 19c1
000000c0: 60c9 e93f 467e 38c0 4964 4bbe dd64 6a3f
000000d0: dce4 3340 4111 23c0 5620 3ec1 d326 34bf
000000e0: 8183 54c0 00e3 c43f b9bf 5741 3b35 5ec1
000000f0: b1eb 43be a376 d4c0 d480 2cbe c25b d140
00000100: 715d a740 0c5f 8cc0 64d5 9ac1 53b9 933f
00000110: 1537 71be 9f94 06c0 886e 573e 9c9d 0340
00000120: 1b3f 6f40 1901 9a40 d07a 07c1 3758 8fbf
00000130: 4972 adc0 5763 7bbf 067a cec0 d077 fcc0
00000140: 6b19 a9c1 3dcc 93be 5335 64be b6ee 84bf
00000150: eb09 ce40 f7f8 b03d aff1 4bc0 5756 a3be
00000160: 98b5 4541 3746 fcbf b3c4 7640 49ae f53f
00000170: 4b49 cec0 aee0 c93e 9d84 35be 0bca 0ac0
00000180: f9cf 0940 eafe a640 8af2 4b3f db5c 63be
00000190: c4f1 8c40 6a42 4cbd b580 d1c0 b455 94c0
000001a0: 741d 9740 c8a4 0441 bf4f c5c0 c6a3 f5c0
000001b0: 8c1b a6c0 6905 8540 13b4 6cc0 b7b8 f140
000001c0: d115 98bf 6110 313f 8837 93bf b036 16c1
000001d0: 68cd 56be f086 9341 ffb6 39be 3215 d6bf
000001e0: b8be 0741 cf46 ac3f 1dcd c3bf b727 37c1
000001f0: 758c 3841 59a7 ebc0 9c9b 91be 3a9f 62be
00000200: 3d8b 8540 638a 6ac1 c246 a440 2302 b13f
00000210: 6674 6640 1c9e 9ac0 4e30 7840 aa76 1441
00000220: f079 e4bd 44c1 cdc0 0c13 8c40 0c5f d6bf
00000230: 088b b9c0 9ebd e2bf 5f34 4dc1 7a3c 70c0
00000240: 9396 39be 9e14 4540 cc4e 0fc1 688f 09c0
00000250: aab8 73c0 8622 4a41 f647 de3f 91c0 ab40
00000260: f14f cf40 8070 d4bd 99c1 13c0 a0fc 1140
00000270: c286 c140 2cd1 edc0 803f 84c0 a7a6 4cc1
00000280: d58a 62c0 2e4e 03c1 4d02 d840 d937 943c
00000290: b226 4640 d4e2 2bbe ff9e e93f 9b9c 35c1
000002a0: 3ee8 a8c0 a4bd fabe 146e 10c1 2e32 e83f
000002b0: 8cff 33c1 d446 58c0 ea76 e5c0 6817 cf40
000002c0: 738b 9f40 b1d1 3541 c5f7 81be 47f9 05bf
000002d0: ed5a 1dc1 c3a6 96bf 3a66 e2bd c648 82be
000002e0: 01e8 3cbf f045 c1be ca83 9740 64f2 a6c0
000002f0: 6faf 31c1 614c c8c0 8b45 c9c0 7583 e640
00000300: b3df 1f41 b3f6 0dc1 b3fa b8c0 6d5b bfbd
00000310: a142 a8bf ea9c 28c1 013a 973f 8f72 50bd

rcsl.backbone.model.6.weight f4 [200, 200]
-0.048606034 0.004719628 -1.165455 -0.2030391 -0.018600395 -0.076178834 0.03002348 -0.1307357
-0.06533523 -0.17103244 -0.17355323 -0.044876732 -0.09374308 -0.40829867 -0.036468577 0.1481021
0.021269318 0.04469802 0.022438658 0.019740568 0.12357963 -0.29636717 -0.034881588 -0.06598778
-0.12615345 -0.08470964 -0.023201408 0.05317995 0.03002615 -3.205568 -0.090084575 0.01928212
0.06348197 0.0047597946 -0.08684765 0.014322057 0.115956545 -0.5166645 -0.08637242 -0.17373754
-0.1098934 -0.011181038 -0.040123723 0.04322659 0.047885105 0.029852673 -0.049882866 -0.027318045
-0.16755699 -0.03807516 0.012919671 0.11937056 -0.07292979 -0.83276635 -0.020218663 -0.07672612
-0.034452844 -0.07697607 0.24706613 -0.06130477 -0.014619793 -0.044770245 0.041607797 0.0039048542
-0.00992524 0.06590216 0.039890222 -0.07684128 0.003545557 -0.47062716 -0.02927149 -0.10567466
-0.07622511 0.024985885 0.086787745 -0.022529738 -0.02925303 -0.35377628 0.0852647 -0.05292678
0.002201184 -0.1141689 0.024434304 0.107689954 -0.13487662 -0.16638854 0.05915207 -0.052947823
-0.18260325 -0.8406588 -0.18584107 -0.110512145 -0.15223035 0.0131584685 0.091893405 -0.10407835
0.15367225 -0.10218454 -0.14840776 0.016827907 -0.018159535 -0.111494206 -0.13707617 -0.20296909
-0.16631575 -0.06844247 0.07754881 -0.71113116 0.17359984 -0.061041437 0.21419105 0.058464445
-0.18507774 -0.047427077 -0.028164743 -0.0049742498 -0.28940758 0.006295927 -0.0018908993 0.0795455
-0.056309063 0.04184712 0.048597205 -0.019180162 -0.0472229 -0.15422392 0.0057001393 0.0095513975
0.07010127 0.12807466 -0.29617378 -0.030188652 -0.78630424 -0.18867514 -0.12974134 0.20327747
-0.0137935355 -0.06368353 -0.03846196 0.031239523 -0.108835295 -0.14294659 -2.5211036 -0.07571164
0.042947628 -0.0042891838 -0.32592794 0.061546724 0.11542583 0.2742427 -0.28234363 -0.09885676
-0.09106826 0.02303939 -0.11118412 -0.728871 -0.16707253 -0.11534945 -0.114811614 -0.016095942
-0.09169777 -0.27772236 0.025278918 -0.07341317 -0.06956829 -0.041586228 -0.12142647 -0.03718355
0.12823525 -0.0018254239 -0.46315038 -0.79971963 0.019756507 -0.28780392 -0.0016291963 0.10501413
0.061556764 -0.030184662 -0.056789886 -0.060586944 1.28787215e-05 -0.09808361 -0.040392987 0.07533921
-0.029799925 -0.028413434 -0.18574876 -0.2310836 -0.010520937 -0.12643965 -0.055360407 -0.0695649
-0.26042068 -1.2385287 -0.024237107 -0.026678795 -0.19919285 0.06758666 0.10152018 0.045543995
0.096889466 -0.019698527 -0.040964983 -0.33247098 -0.5660635 0.002928938 0.00029650785 -0.5656199
0.05351561 -0.059302162 0.13954292 -0.035030812 -0.11797926 -0.012713797 0.048844624 -0.92113036
0.18872836 -0.001231 -0.03385353 0.24132961 0.19436395 -0.15345763 -0.020413255 0.16829805
-0.18195066 0.060716383 -0.18513705 0.17464134 0.096400104 -0.2159417 0.14967705 -0.71731955
-0.14923711 -0.5785945 0.10694679 -0.010049431 -0.3341407 0.65038234 -1.5422667 -0.21147496
-0.5960865 0.29212943 0.14007717 0.16444208 0.1064228 0.049547017 -0.0617671 -0.089776464
-0.23241287 0.5472609 0.04909173 0.11304026 -0.18788457 -0.7937681 -1.8646263 -0.07946049
00000000: 1f17 47bd 1ca7 9a3b a12d 95bf 7be9 4fbe
00000010: db5f 98bc a603 9cbd cdf3 f53c 94df 05be
00000020: 7ace 85bd 2123 2fbe f0b7 31be aad0 37bd
00000030: 5ffc bfbd 860c d1be 1360 15bd 14a8 173e
00000040: fe3c ae3c 4515 373d 47d1 b73c f9b6 a13c
00000050: 5117 fd3d 70bd 97be ffdf 0ebd 9a24 87bd
00000060: 5f2e 01be 3f7c adbd e110 bebc 38d3 593d
00000070: 67f9 f53c 0728 4dc0 437e b8bd 89f5 9d3c
00000080: d602 823d 0df8 9b3b 2edd b1bd 10a7 6a3c
00000090: a07a ed3d 2044 04bf 06e4 b0bd 41e8 31be
000000a0: ca0f e1bd ac30 37bc c658 24bd 5d0e 313d
000000b0: 2c23 443d 988d f43c fa51 4cbd 18ca dfbc
000000c0: 0f94 2bbe b3f4 1bbd 07ad 533c 8d78 f43d
000000d0: 375c 95bd 2d30 55bf 9ca1 a5bc 9622 9dbd
000000e0: 6d1e 0dbd a1a5 9dbd e7fe 7c3e b61a 7bbd
000000f0: db87 6fbc 0161 37bd f06c 2a3d 95e8 7f3b
00000100: 799d 22bc b6f7 863d ee63 233d f65e 9dbd
00000110: 935c 683b 0bf6 f0be c4ca efbc f56b d8bd
00000120: e91b 9cbd 33af cc3c c6bd b13d 4990 b8bc
00000130: 0da4 efbc 2a22 b5be 429f ae3d c0c9 58bd
00000140: bd41 103b 62d1 e9bd 732a c83c 8d8c dc3d
00000150: 191d 0abe c261 2abe 7149 723d d1df 58bd
00000160: 59fc 3abe 6a35 57bf 1f4d 3ebe 3154 e2bd
00000170: 46e2 1bbe 9e96 573c 9c32 bc3d 0827 d5bd
00000180: 425c 1d3e 2146 d1bd 34f8 17be aeda 893c
00000190: 4ec3 94bc 1357 e4bd b25d 0cbe 21d7 4fbe
000001a0: ad4e 2abe 912b 8cbd e9d1 9e3d b10c 36bf
000001b0: 28c4 313e 9606 7abd e654 5b3e 6a78 6f3d
000001c0: 0585 3dbe e542 42bd bfb9 e6bc 08ff a2bb
000001d0: 3b2d 94be 104e ce3b 0dd8 f7ba c0e8 a23d
000001e0: 55a4 66bd e367 2b3d dd0d 473d b71f 9dbc
000001f0: cd6c 41bd e0ec 1dbe 3cc8 ba3b 777d 1c3c
00000200: 4191 8f3d 0126 033e 17a4 97be 314e f7bc
00000210: 3c4b 49bf 0e34 41be eada 04be f827 503e
00000220: 48fe 61bc 836c 82bd 4a8a 1dbd 07ea ff3c
00000230: 0ae5 debd 9760 12be c359 21c0 b40e 9bbd
00000240: dae9 2f3d 488c 8cbb 07e0 a6be 6b18 7c3d
00000250: 6164 ec3d 8a69 8c3e 588f 90be 6a75 cabd
00000260: ff81 babd 1abd bc3c 80b4 e3bd 4a97 3abf
00000270: 1015 2bbe 553c ecbd 5a22 ebbd a3db 83bc
00000280: 0acc bbbd a031 8ebe bc15 cf3c a559 96bd
00000290: d279 8ebd 5256 2abd 71ae f8bd c74d 18bd
000002a0: 1a50 033e 1043 efba 0c22 edbe 6dba 4cbf
000002b0: 66d8 a13c 095b 93be c28a d5ba a611 d73d
000002c0: f222 7c3d d345 f7bc 839c 68bd 042a 78bd
000002d0: b011 5837 0fe0 c8bd 1e73 25bd 724b 9a3d
000002e0: f91e f4bc 4ac3 e8bc ec34 3ebe 2ea1 6cbe
000002f0: 0260 2cbc 6579 01be 98c1 62bd 0b78 8ebd
00000300: dc55 85be 1c88 9ebf e68c c6bc 7d8d dabc
00000310: 36f9 4bbe e06a 8a3d d0e9 cf3d 578c 3a3d
00000320: fc6d c63d ce5e a1bc e6ca 27bd a339 aabe
00000330: 8ae9 10bf 6df3 3f3b 9c74 9b39 77cc 10bf
00000340: 2f33 5b3d d3e6 72bd 57e4 0e3e 787c 0fbd
00000350: 1c9f f1bd 884d 50bc 4d11 483d 33cf 6bbf
00000360: 0242 413e 8159 a1ba 00aa 0abd 1c1f 773e
00000370: 5807 473e ff23 1dbe b339 a7bc 5356 2c3e
00000380: 4651 3abe beb1 783d 9194 3dbe 2ed5 323e
00000390: 6b6d c53d d21f 5dbe f144 193e 41a2 37bf
000003a0: 9dd1 18be c51e 14bf eb06 db3d 5ea6 24bc
000003b0: 7d14 abbe 757f 263f ff68 c5bf e48c 58be
000003c0: 2099 18bf fd91 953e 6470 0f3e 8163 283e
000003d0: 32f4 d93d d0f1 4a3d 80ff 7cbd b9dc b7bd
000003e0: a4fd 6dbe 4a19 0c3f 6914 493d a781 e73d
000003f0: d064 40be 6334 4bbf 13ac eebf 2ebc a2bd

rcsl.backbone.model.6.bias f4 [200]
3.8943958 -12.146687 -8.56662 2.4274263 3.9205947 5.1465826 -6.930284 -2.3713949
2.3977292 3.7304626 -0.5262188 -4.4513474 3.1239915 -2.1396465 2.9964414 -3.9045334
-0.46538916 -0.512204 -7.2478642 1.0457546 -3.3258214 4.5280614 -13.147209 -1.97313
-9.592999 3.1001236 2.1343923 0.69822824 -1.7847282 -2.7044086 6.556996 -6.8818097
-4.113727 -3.3030355 -5.8305125 2.9065032 0.09318588 -2.044655 3.8619056 -6.4910865
-6.293791 2.4211519 -1.5749189 -6.0484486 -2.2706418 -0.576407 -4.8999877 1.1821184
-5.5188212 -5.4421577 -4.6009955 -13.938446 4.0368586 0.01570711 -4.6265407 -1.0767795
-7.177002 -7.767048 -4.799371 -0.11487654 0.12158611 -0.56714624 -0.75230044 6.156261
-2.6679776 -9.757252 -7.2665386 -5.9166965 -2.5520964 0.28901964 3.9243538 4.197921
1.2720661 1.3323874 -4.669059 -2.76188 -1.4698263 3.9748619 -1.2307508 -9.600656
-4.483617 1.916099 -13.863784 4.562827 -1.6052928 0.25800142 -2.7935686 1.972569
-0.57883066 -5.6307635 -5.990451 1.8692666 -4.642036 -2.075686 -1.2769554 -3.6903114
-5.9188557 -5.287746 2.485578 -3.3042905 4.1397543 -6.174541 0.4900596 -11.148293
-0.44334757 -0.65819955 3.358869 -3.289253 0.8942574 -2.7603512 4.058103 -0.16355258
-3.0924304 -8.70661 1.2765574 -0.6910241 2.0034766 -5.834825 -5.2010627 -0.26450375
-4.2221556 -1.0993924 -0.8997369 -2.190314 2.4110935 -0.7546749 -3.483328 4.6480985
-5.621081 4.0806274 3.3403416 -6.1475196 0.13682397 -4.8275943 3.251113 -3.7215974
-3.347563 -1.4262768 -6.1279283 -1.4107485 -2.3994982 -3.635873 -6.4113345 1.8472966
3.899776 -3.5864882 3.130705 -1.5653175 2.6436667 -1.1789416 1.6210896 -4.779459
4.42926 -5.4416904 -2.009402 -2.3612804 -6.5230203 -0.96574646 -4.3563294 1.2183789
-1.3874836 3.4152539 -5.887301 -5.303458 -0.8286638 -5.8743467 -4.4862847 -1.7842937
1.0690345 5.480576 -4.3435144 -2.5434997 -3.9254544 1.0419084 -1.2811801 -6.695623
-3.9513316 -0.6144326 2.8169312 4.403497 -4.832022 -3.2924664 -0.9465872 1.2483355
-1.401044 -4.4799237 -5.300732 3.4861283 -5.947787 -5.161803 -4.4676766 -2.0891702
-6.88546 -7.180249 -1.1870145 -4.120911 2.4699588 -1.4829278 5.8546042 2.2012336
00000000: c83d 7940 d458 42c1 e010 09c1 f45a 1b40
00000010: 06eb 7a40 ceb0 a440 e3c4 ddc0 efc4 17c0
00000020: 6574 1940 e6bf 6e40 46b6 06bf 7071 8ec0
00000030: 7aef 4740 f8ef 08c0 b2c5 3f40 e0e3 79c0
00000040: 7d47 eebe cd1f 03bf 81ee e7c0 49db 853f
00000050: 42da 54c0 e1e5 9040 f85a 52c1 868f fcbf
00000060: ed7c 19c1 6d68 4640 e299 0840 16bf 323f
00000070: f971 e4bf 0815 2dc0 e9d2 d140 c937 dcc0
00000080: a7a3 83c0 ef64 53c0 8f93 bac0 2604 3a40
00000090: 3dd8 be3d a1db 02c0 7629 7740 fbb6 cfc0
000000a0: bc66 c9c0 27f4 1a40 f196 c9bf e48c c1c0
000000b0: 3252 11c0 698f 13bf b3cc 9cc0 a84f 973f
000000c0: 2f9a b0c0 2826 aec0 5b3b 93c0 e003 5fc1
000000d0: f22d 8140 32ac 803c 9f0c 94c0 e9d3 89bf
000000e0: 00aa e5c0 a88b f8c0 7294 99c0 6444 ebbd
000000f0: 2302 f93d 7f30 11bf c396 40bf 1700 c540
00000100: 25c0 2ac0 b41d 1cc1 7c87 e8c0 9455 bdc0
00000110: 8c55 23c0 62fa 933e 9d28 7b40 5e55 8640
00000120: 10d3 a23f ac8b aa3f ee68 95c0 a4c2 30c0
00000130: 4523 bcbf 2364 7e40 3e89 9dbf 499c 19c1
00000140: ca79 8fc0 bb42 f53f 0fd2 5dc1 ae02 9240
00000150: 3c7a cdbf c318 843e d4c9 32c0 247d fc3f
00000160: 3f2e 14bf 372f b4c0 c6b1 bfc0 2144 ef3f
00000170: 8f8b 94c0 0ad8 04c0 4673 a3bf 102e 6cc0
00000180: 4467 bdc0 3735 a9c0 b613 1f40 7f79 53c0
00000190: de78 8440 d795 c5c0 18e9 fa3e 685f 32c1
000001a0: 74fe e2be c47f 28bf b6f7 5640 1f83 52c0
000001b0: 0eee 643f 98a9 30c0 fbdb 8140 547a 27be
000001c0: 61ea 45c0 464e 0bc1 3c66 a33f f5e6 30bf
000001d0: f638 0040 e3b6 bac0 1b6f a6c0 096d 87be
000001e0: e61b 87c0 e4b8 8cbf 2855 66bf 1b2e 0cc0
000001f0: 5b4f 1a40 6032 41bf d9ee 5ec0 39bd 9440
00000200: e5df b3c0 8094 8240 28c8 5540 7bb8 c4c0
00000210: 951b 0c3e a77b 9ac0 3c12 5040 a72e 6ec0
00000220: 793e 56c0 3d90 b6bf fd17 c4c0 6893 b4bf
00000230: 6191 19c0 25b2 68c0 a729 cdc0 3774 ec3f
00000240: ee95 7940 0689 65c0 795d 4840 535c c8bf
00000250: d631 2940 8fe7 96bf dd7f cf3f 54f1 98c0
00000260: 7fbc 8d40 5422 aec0 0b9a 00c0 381f 17c0
00000270: 95bc d0c0 293b 77bf 0d67 8bc0 d7f3 9b3f
00000280: 1099 b1bf 8593 5a40 c564 bcc0 eeb5 a9c0
00000290: 5023 54bf a6fa bbc0 a58f 8fc0 bc63 e4bf
000002a0: 1fd6 883f e160 af40 12fe 8ac0 b3c8 22c0
000002b0: a53a 7bc0 415d 853f b6fd a3bf 8b42 d6c0
000002c0: 9ee2 7cc0 744b 1dbf 9a48 3440 73e9 8c40
000002d0: ed9f 9ac0 c5b7 52c0 8a53 72bf 75c9 9f3f
000002e0: 6955 b3bf 895b 8fc0 999f a9c0 ba1c 5f40
000002f0: 4554 bec0 7d2d a5c0 35f7 8ec0 f7b4 05c0
00000300: b055 dcc0 9ac4 e5c0 17f0 97bf 81de 83c0
00000310: ce13 1e40 94d0 bdbf eb58 bb40 03e1 0c40

rcsl.backbone.model.8.weight f4 [6, 200]
0.011784656 -0.0038703855 0.00037362444 0.008777502 -0.00062723213 -0.00096011785 -0.010431349 0.009767225
0.03521572 -0.0020866585 -0.007451093 0.034978803 0.0027261311 0.03629875 0.0020856524 -0.06194749
-0.0012539343 0.06720933 -0.066795744 0.008648094 0.00020110952 0.031298727 -0.04894814 -0.005052088
0.043260586 0.030313943 -0.0005261257 0.0016744256 0.023864789 0.004159422 -0.018580118 -0.00039947228
-0.0008654466 0.011572563 0.055211477 -0.0016044216 -0.009957235 -0.017667163 -0.0043733767 -0.0021500052
-0.03414552 -0.03656947 -0.007193342 -0.068176694 -0.0005398913 0.03496622 0.0030224838 -0.040796217
-0.0029469128 -0.0046776547 0.034701582 0.0042521562 -0.0028441711 -0.051418886 0.0069205198 -0.009573348
0.0453583 0.0032511717 -0.015177578 0.016776694 -0.0028938053 0.09161652 0.039299034 -0.006794169
0.0037111484 -0.006493429 -0.041486133 -0.0006290287 0.03329575 -0.002485497 0.073618874 0.0064817285
-1.0640136e-06 0.010299554 -0.0027659289 0.11204309 -0.13814583 -0.0024101448 -0.005394954 0.06409274
0.00402284 -0.0005016458 0.009766402 -0.0056014587 0.008749278 0.000100941594 -0.07447815 0.015795995
0.036565803 0.05300939 -0.01410584 -0.009977594 -0.0027130707 0.007882558 0.027376758 0.20482562
-0.0035622346 0.00010606496 0.00075404206 0.022378486 0.0051563573 0.0013708862 -0.10603299 0.055915378
-0.0035319002 -0.052017484 -0.07426753 -0.24326079 0.013697561 0.0032655278 -0.0033779137 0.0081722755
0.02949485 0.016845817 -0.002371666 -0.058225337 0.006191256 -0.045538533 0.0067718504 0.0043753306
-0.0005513523 -0.0007894208 -0.0032181563 0.0008605135 -0.008413173 -0.06690034 -0.0021890656 0.0027720002
-0.0067780646 0.01939098 0.009578612 -0.0071141287 -0.0020183704 0.024950057 -0.00022561323 -0.16507816
0.0073200674 0.004248681 -0.06029231 0.0024019673 -0.0013325152 -0.05719626 0.04830289 0.001337188
0.003458772 -0.002197378 0.00023912234 0.061101094 0.0006848475 -0.086504415 0.008121036 0.0028328882
-0.0109711895 -0.0067836945 0.0017592737 0.03015973 -0.0011895563 -0.00094083615 0.1473116 0.012302325
0.0047348235 -0.0068871872 -0.0040347716 -0.001639913 -0.1691507 0.0031068055 0.0034885341 -0.13422237
-0.04139322 -0.06656788 -0.00017619206 -0.06333687 -0.008683917 0.00013710969 0.012507279 -0.048538428
0.004953133 0.07339388 -0.0024962262 0.008501576 -0.0012161363 -0.047965713 0.08992219 -0.036797944
0.001642232 0.053724155 0.0004785302 -0.0014347109 -0.054156158 0.00452671 -0.0010174186 -0.012804562
0.0044554467 0.00028045947 0.00090739044 -0.0023237697 0.010186945 0.0024397734 0.0958606 -0.011025946
0.0038482167 -0.0036797593 0.0016785203 -0.03389576 0.001981926 -0.0002563498 0.09492031 0.046331692
0.023122234 0.012261628 0.30767488 -0.0012385967 -0.0012945549 -0.0034199615 -0.0057338686 -0.00792462
0.016162656 0.12139312 -0.014069636 0.0026730497 -0.055239763 0.0021995592 -0.016400935 -0.009732091
-0.027910348 -5.2362575e-06 0.038958818 -0.004458791 0.051410135 0.051569175 -0.007953191 0.032866362
0.01910979 0.010365728 0.07530217 -0.004254705 -0.03792773 0.01612547 -0.0053994376 -0.003422555
-0.021948062 -0.008720681 0.011277802 -0.02788936 -0.001143572 -0.05138039 0.0020915703 -0.004994462
-0.0118505405 0.02312668 0.014372781 0.0022535785 0.011863474 0.010809062 -0.0035306867 -0.009723033
00000000: 6e14 413c 4ba6 7dbb 06e3 c339 83cf 0f3c
00000010: d66c 24ba 6bb0 7bba 40e8 2abc b606 203c
00000020: 5c3e 103d 52c0 08bb 4c28 f4bb ef45 0f3d
00000030: e4a8 323b 00ae 143d 71af 083b a7bc 7dbd
00000040: 0e5b a4ba 0ca5 893d 35cc 88bd bcb0 0d3c
00000050: ede0 5239 1833 003d d87d 48bd fc8b a5bb
00000060: 0332 313d f254 f83c b3eb 09ba 6678 db3a
00000070: 1780 c33c c34b 883b 5535 98bc 4370 d1b9
00000080: 23df 62ba d99a 3d3c 6e25 623d 754b d2ba
00000090: ac23 23bc baba 90bc 8b4e 8fbb 1ae7 0cbb
000000a0: 2cdc 0bbd dec9 15bd 20b6 ebbb 39a0 8bbd
000000b0: 7e87 0dba bd38 0f3d dd14 463b ef19 27bd
000000c0: fe20 41bb 0347 99bb 3f23 0e3d ac55 8b3b
000000d0: 4665 3abb 9c9c 52bd 87c5 e23b 88d9 1cbc
000000e0: a0c9 393d 9c11 553b 60ab 78bc 476f 893c
000000f0: ffa5 3dbb 71a1 bb3d 06f8 203d 9fa1 debb
00000100: bd36 733b d5c6 d4bb 5ded 29bd 67e5 24ba
00000110: 2061 083d b8e3 22bb 7ec5 963d ae64 d43b
00000120: 3bcf 8eb5 76bf 283c 9644 35bb d976 e53d
00000130: 1a76 0dbe 85f3 1dbb 27c8 b0bb 0e43 833d
00000140: 07d2 833b e180 03ba 4203 203c 718c b7bb
00000150: 2259 0f3c 9bb0 d338 0088 98bd 9a66 813c
00000160: 06c6 153d 6020 593d 2e1c 67bc 1079 23bc
00000170: c6cd 31bb d825 013c 3945 e03c cfbd 513e
00000180: 6174 69bb 316f de38 e8aa 453a 1653 b73c
00000190: a9f6 a83b 4faf b33a d327 d9bd 8607 653d
000001a0: 7477 67bb 4910 55bd 9319 98bd 5b19 79be
000001b0: bc6b 603c 7702 563b fd5f 5dbb 02e5 053c
000001c0: 2f9f f13c 3d00 8a3c f46d 1bbb b17d 6ebd
000001d0: 05e0 ca3b 9d86 3abd 66e6 dd3b ef5e 8f3b
000001e0: a088 10ba 22f1 4eba b4e7 52bb 1594 613a
000001f0: 68d7 09bc 0c03 89bd 6d76 0fbb 72aa 353b
00000200: 871a debb d5d9 9e3c 9cef 1c3c a31d e9bb
00000210: a346 04bb 1064 cc3c 9792 6cb9 400a 29be
00000220: 2ddd ef3b 8538 8b3b 12f5 76bd 536a 1d3b
00000230: caa7 aeba a046 6abd 40d9 453d 9544 af3a
00000240: 91ac 623b e301 10bb eabc 7a39 2445 7a3d
00000250: 5687 333a 3a29 b1bd 180e 053c faa7 393b
00000260: 81c0 33bc c149 debb 6e97 e63a 8a11 f73c
00000270: e3ea 9bba 72a2 76ba dad8 163e b18f 493c
00000280: 9426 9b3b eaad e1bb 1e36 84bb 59f2 d6ba
00000290: d735 2dbe 8c9b 4b3b e49f 643b 9771 09be
000002a0: f08b 29bd be54 88bd 32c0 38b9 c3b6 81bd
000002b0: fd46 0ebc 1ac5 0f39 55eb 4c3c 3bd0 46bd
000002c0: e44d a23b 884f 963d ba97 23bb 324a 0b3c
000002d0: c366 9fba b277 44bd 2029 b83d 71b9 16bd
000002e0: 2940 d73a dc0d 5c3d 3ce3 fa39 e90c bcba
000002f0: d9d2 5dbd cc54 943b e75a 85ba 3aca 51bc
00000300: fffe 913b a20a 9339 f1dd 6d3a 634a 18bb
00000310: 25e7 263c 9be4 1f3b 9052 c43d 2ba6 34bc
00000320: 5d32 7c3b 1e28 71bb cc01 dc3a 48d6 0abd
00000330: 33e3 013b b066 86b9 9465 c23d 4dc6 3d3d
00000340: d76a bd3c ffe4 483c 9087 9d3e 6958 a2ba
00000350: 0eae a9ba 6f21 60bb 2de3 bbbb 44d6 01bc
00000360: 8c67 843c f59c f83d 5584 66bc 552e 2f3b
00000370: 1743 62bd 7b26 103b 415b 86bc 5973 1fbc
00000380: 3ea4 e4bc 1cb3 afb6 4893 1f3d 0d1b 92bb
00000390: 6f93 523d 333a 533d 1a4e 02bc e19e 063d
000003a0: 228c 9c3c 04d5 293c 0638 9a3d 0d6b 8bbb
000003b0: 1b5a 1bbd 9019 843c c4ed b0bb f24c 60bb
000003c0: 6ccc b3bc 30e1 0ebc 88c6 383c 3a78 e4bc
000003d0: e9e3 95ba 3e74 52bd ba12 093b 95a8 a3bb
000003e0: c528 42bc 2a74 bd3c d07b 6b3c c6b0 133b
000003f0: 045f 423c 7e18 313c 1863 67bb 5b4d 1fbc

rcsl.backbone.model.8.bias f4 [6]
-0.307873 -0.21378396 -0.85241544 -0.29094946 -0.47879517 -0.23301217
00000000: 88a1 9dbe 2fea 5abe e637 5abf 54f7 94be
00000010: a424 f5be be9a 6ebe
