backup/linearq_newenv/rcsl_0.75expert/timestamp_23-0926-155428&48-[8]/model/policy.pth (torch, 1881 bytes, 3 tensors)

rcsl.backbone.model.0.weight f4 [8, 2]
0.26677656 0.29350695 -0.58198076 -0.5203875 -0.08389375 0.28621835 -0.14484428 0.47459245
-0.12894265 0.1381 -0.21369691 -0.13899271 -0.6755334 -0.46830416 -0.06164989 0.06912321
00000000: f096 883e 8b46 963e b1fc 14bf 1d38 05bf
00000010: 7dd0 abbd 368b 923e 0f52 14be c8fd f23e
00000020: 8b09 04be 166a 0d3e 5dd3 5abe 1b54 0ebe
00000030: c2ef 2cbf 90c5 efbe 9884 7cbd 7890 8d3d

rcsl.backbone.model.0.bias f4 [8]
0.26089036 0.42428017 -0.5617483 -0.26455575 0.55236524 0.5871729 -0.1455227 0.14280632
00000000: 6c93 853e 403b d93e bdce 0fbf da73 87be
00000010: cf67 0d3f f750 163f e703 15be d23b 123e

rcsl.backbone.model.2.weight f4 [1, 8]
0.027382053 0.037410934 0.40944612 -0.24544588 -0.18884343 -0.08950743 -0.13781509 0.25122112
00000000: 5450 e03c 353c 193d eca2 d13e 2a56 7bbe
00000010: 2c60 41be ac4f b7bd 661f 0dbe 0ea0 803e
