backup/halfcheetah-medium-expert-v2/rcsl/timestamp_23-0829-204800&2/checkpoint/policy.pth (torch, 505723 bytes, 10 tensors)

rcsl.backbone.model.0.weight f4 [200, 18]
0	0x4085eec5	4.1853967
1	0xbe2bc721	-0.1677518
2	0x40d61504	6.6900654
3	0xc01e2105	-2.4707654
4	0x3f6ba08a	0.9204184
5	0x404e73c8	3.2258167
6	0x4029d0d2	2.6533704
7	0x40ca5b7a	6.3236666
8	0xbfe20be7	-1.7659882
9	0xc0a9a268	-5.301075
10	0x3f1f60b4	0.6225693
11	0xbf54819e	-0.8301028
12	0x3f65146c	0.89484286
13	0x3dcb88f5	0.09938232
14	0x3e7c1bb4	0.24619943
15	0x3f0af5f7	0.5428156
16	0xbf199b89	-0.6000295
17	0xbc43661d	-0.011926201
18	0xc1cea960	-25.832703
19	0x401bab91	2.4323466
20	0x40a8ad28	5.271137
21	0x4159da16	13.615744
22	0x409e8883	4.954164
23	0x40838417	4.1098742
24	0xbfe7ea8c	-1.8118453
25	0x3f2865d5	0.65780383
26	0xc0171553	-2.3606765
27	0xbe91b141	-0.28455546
28	0x3f8e98f4	1.1140428
29	0x3e73073c	0.23733228
30	0xbea3b31b	-0.31972584
31	0xbeb858dc	-0.36005294
32	0x3f89cb39	1.0765144
33	0x3f167c38	0.5878329
34	0xbe521968	-0.20517504
35	0xbd130f58	-0.035903305
36	0x40faf795	7.8427224
37	0xc095ca26	-4.6809263
38	0xbfe3a5ac	-1.7784934
39	0xc06b4ecd	-3.6766846
40	0xc098583b	-4.7607703
41	0xc02fae88	-2.7450275
42	0x402c59a9	2.6929724
43	0x409b4f4f	4.853431
44	0xc00440be	-2.0664515
45	0xbfeb038e	-1.836046
46	0xc027b22e	-2.6202502
47	0x3f56ae2f	0.83859533
48	0xbf21d8ba	-0.63221323
49	0x3d15b866	0.03655281
50	0x3e5419a8	0.20712912
51	0xbe990e89	-0.29893902
52	0xbf600fe6	-0.8752426
53	0xbd395902	-0.0452509
54	0x41153bf5	9.327138
55	0x3e9725b3	0.2952095
56	0xc0461f20	-3.0956497
57	0xc0d4a1f0	-6.6447678
58	0xbd96e6ae	-0.073682174
59	0x4078c2c5	3.8868878
60	0x40b0d78d	5.5263124
61	0x3f5063c9	0.8140226
62	0xbfcfec85	-1.6244055
63	0x3de13253	0.10995927
64	0x3fefbc14	1.8729272
65	0x3f92b732	1.1462157
66	0x3d51d163	0.051225077
67	0x3e1b16fc	0.15145487
68	0x3db9b7f0	0.090682864
69	0x3f5f9243	0.8733255
70	0x3f8a6015	1.0810572
71	0xbd7e0d98	-0.062024683
72	0xc18d8f2f	-17.694914
73	0x40dd0529	6.90688
74	0xc060f508	-3.5149555
75	0xc0ff1f33	-7.9725585
76	0x4100ae46	8.042547
77	0x3f7254cf	0.9466066
78	0xc1130aa9	-9.190103
79	0xbefcc268	-0.4936707
80	0xbe42014f	-0.18945812
81	0x40314c63	2.7702873
82	0xbfb6cf91	-1.4282094
83	0x3f17db37	0.5931887
84	0xbd2e9e49	-0.04263142
85	0xbd0d2268	-0.03445664
86	0x3d55a50a	0.052159347
87	0x3bd0a5aa	0.006367405
88	0xbeaf9b3f	-0.3429813
89	0xbca7362a	-0.02041157
90	0x407d9d20	3.9627151
91	0xc04f9d59	-3.2439787
92	0x40848e70	4.1423874
93	0x4115463e	9.329649
94	0x4119841a	9.594751
95	0xbff0a465	-1.8800169
96	0x414cc228	12.797401
97	0x405a366c	3.4095716
98	0xc011cf3c	-2.2782736
99	0x409ae851	4.840859
100	0xc06d1855	-3.70461
101	0xbf6d9375	-0.92803127
102	0x3f377867	0.71668094
103	0x3f5258c3	0.8216669
104	0x3f0f84dc	0.560621
105	0x3cbfaade	0.023396906
106	0xbf6db578	-0.92855024
107	0xbd9518a1	-0.07280088
108	0x40cc28c9	6.3799787
109	0xc05b269d	-3.4242318
110	0x3fe5d1e7	1.7954682
111	0xbf9ebf8c	-1.2402205
112	0x40cf01a7	6.4689517
113	0x40878221	4.234635
114	0x411dbd74	9.858753
115	0x40a6a3f8	5.2075157
116	0xc03b70b1	-2.9287531
117	0x40c84d50	6.2594376
118	0xbfb866b2	-1.440634
119	0x3ecfa461	0.405551
120	0x3c411fc3	0.011787358
121	0x3e24017c	0.16016191
122	0xbf82b8fc	-1.0212703
123	0x3e845537	0.25846264
124	0x3eea7ce8	0.4579842
125	0xbcf6c9f3	-0.030125594
126	0x3fdefab4	1.7420259
127	0x40271f14	2.6112719
128	0xbf38c742	-0.72179043
129	0xbfe98173	-1.824263
130	0xbfa800bb	-1.3125223
131	0x404992a2	3.1495748
132	0x403a9989	2.915621
133	0x407b06e5	3.9222958
134	0xc0af47da	-5.477521
135	0x3fb4ae82	1.4115756
136	0xc02203a9	-2.5314734
137	0xbeb26f15	-0.34850374
138	0x3eee1263	0.46498403
139	0xbe871f2e	-0.26390976
140	0x3e95eee7	0.2928383
141	0x3fa714d7	1.3053235
142	0xbeae7d5e	-0.34080023
143	0xbcdcb770	-0.026942939
144	0x41295acf	10.58467
145	0x402601e6	2.5938659
146	0xc095b53b	-4.678373
147	0xc00132c6	-2.018724
148	0x3ed1db43	0.40987596
149	0xbf26d57c	-0.651695
150	0xc0757ae3	-3.8356254
151	0x3f806402	1.003052
152	0xc072b1c9	-3.7921011
153	0xc0c43937	-6.131984
154	0xbf1f585e	-0.6224421
155	0xbe4f73c9	-0.20259012
156	0xbf4852d4	-0.78251386
157	0x3eba5387	0.3639185
158	0x3d6ae10e	0.057343535
159	0x3ee6308e	0.4495892
160	0x3e8fe34e	0.28103107
161	0xbd10368e	-0.035208277
162	0x411008be	9.002134
163	0xc0c1618b	-6.043157
164	0xc01278cc	-2.2886229
165	0xbed12d22	-0.40854746
166	0xc02fe5c0	-2.7483978
167	0xbf5edcff	-0.87055963
168	0xbffc26a4	-1.9699292
169	0xc1469a6a	-12.412699
170	0xc0327570	-2.7884178
171	0x3ffb18f5	1.9616991
172	0xbfe96db7	-1.8236607
173	0xbe96dfac	-0.29467523
174	0x3f0b4821	0.54406935
175	0xbf9c7423	-1.2222942
176	0xbe9fcde5	-0.31211773
177	0xbe8cf814	-0.2753302
178	0xbee74a9a	-0.45174104
179	0xbddd0ffd	-0.10794065
180	0x411e6f2e	9.9021435
181	0xc2841832	-66.04726
182	0x421414cc	37.02031
183	0xc1f21931	-30.2623
184	0x402b2676	2.6742225
185	0xc182a12a	-16.328693
186	0x41aae531	21.36191
187	0xc14934de	-12.575407
188	0x40a5ad29	5.1773877
189	0x411402b0	9.250656
190	0xbfe06928	-1.7532091
191	0xc0042a16	-2.0650687
192	0x3e5b46ac	0.21413678
193	0xbec3c76e	-0.3823809
194	0xbec67c49	-0.38766697
195	0x3f3efbc4	0.74602914
196	0xc01b6b1a	-2.428412
197	0x38c2302d	9.259614e-05
198	0x40fc422b	7.883077
199	0xc0eb1eee	-7.3475256
200	0xc0093930	-2.1441154
201	0xc11a1b5d	-9.6316805
202	0xc01263bf	-2.287338
203	0x41218088	10.09388
204	0x3fc7ced7	1.5609998
205	0x3e46747b	0.19380371
206	0xbf866ee7	-1.0502595
207	0x40aa92fc	5.3304424
208	0x3f5a61e9	0.8530565
209	0xbda5908f	-0.08084213
210	0xbe671312	-0.22565868
211	0xbedbbfd6	-0.42919797
212	0xbeffa683	-0.49931726
213	0xbf0893ac	-0.5335033
214	0xbd8b97af	-0.06816041
215	0xbd3d5484	-0.04622318
216	0xc2141630	-37.021667
217	0xc22c2d2d	-43.044117
218	0xc0ff3706	-7.9754667
219	0xc1b27e27	-22.311598
220	0xc1dc7ac8	-27.559952
221	0x402802fe	2.6251826
222	0x41c6c70e	24.847195
223	0x41207fd0	10.031204
224	0xc02a9142	-2.6651158
225	0xc12d5ea9	-10.83561
226	0x4092e86e	4.590873
227	0x40c18ac7	6.0481906
228	0x3f565f76	0.8373941
229	0xc05045c7	-3.2542589
230	0xc00d3336	-2.2062507
231	0xbf833b52	-1.0252478
232	0xbfefc47e	-1.873184
233	0x38cabb7d	9.667033e-05
234	0x420024b2	32.035835
235	0xbe8429d7	-0.2581317
236	0xbffdb28b	-1.9820112
237	0x3f0a543d	0.5403479
238	0xc0657509	-3.5852683
239	0x411eb76c	9.919781
240	0xc0babed2	-5.8357935
241	0xc0c78a6c	-6.235647
242	0xc0848564	-4.141283
243	0x3f48c759	0.7842918
244	0x406df24f	3.7179143
245	0x3fa02082	1.2509921
246	0x3f04c2b5	0.518596
247	0x3e2f83ad	0.17140074
248	0xbda78546	-0.08179717
249	0x3e8ea541	0.27860454
250	0xbf6dc0ee	-0.9287251
251	0xbd0341fa	-0.032045342
252	0x414ea9ea	12.916483
253	0xc011a7aa	-2.2758584
254	0x40415138	3.0205822
255	0xc0acc278	-5.398739

rcsl.backbone.model.0.bias f4 [200]
0	0xc0c00f19	-6.001843
1	0xc10f55ca	-8.958445
2	0xc08986b6	-4.297694
3	0xc10842a9	-8.516274
4	0xc0e02ec6	-7.0057096
5	0xc1097b6f	-8.592635
6	0xc10a5a30	-8.647018
7	0xc0a7dd08	-5.2457314
8	0xc0ebe511	-7.371712
9	0xbf0f3510	-0.5594034
10	0xc036656d	-2.8499405
11	0xc02c465f	-2.691795
12	0x40c1ccf4	6.0562687
13	0xbf7663e5	-0.96246177
14	0xc0d70993	-6.7199187
15	0xc06e2b67	-3.721399
16	0xc104de4f	-8.304275
17	0xc03d1ab1	-2.954754
18	0xbf56b51e	-0.8387011
19	0xc0196667	-2.3968751
20	0xc0e913ca	-7.2836657
21	0xc06b3269	-3.6749518
22	0x4188fbcd	17.12295
23	0xc0c6e3dd	-6.2153153
24	0xc0ec655f	-7.3873744
25	0xc0b3fca7	-5.6245914
26	0xc0e44414	-7.1333103
27	0x40bd9679	5.9246182
28	0xc1021f36	-8.13262
29	0xc106e1b8	-8.430107
30	0xc0353b36	-2.831739
31	0xc09dda4a	-4.9328966
32	0xc05eb20a	-3.4796166
33	0xbf66f58a	-0.9021841
34	0xc0b8a9c0	-5.7707214
35	0xc09d3819	-4.913098
36	0xc0fe42d5	-7.945658
37	0x3f13992d	0.576556
38	0xc0ca4764	-6.3212147
39	0xc0a6b311	-5.2093587
40	0xbf7193b9	-0.9436603
41	0xc09ff98a	-4.9992113
42	0xc041bfe9	-3.0273383
43	0xc10094eb	-8.036357
44	0xc0e5d263	-7.181932
45	0xc0acdc42	-5.401887
46	0xc0d780a2	-6.7344522
47	0x4147a0cd	12.476758
48	0xc0e0c1b2	-7.0236444
49	0xc0af7408	-5.482914
50	0xc10b0a26	-8.689978
51	0xc0c076a7	-6.014484
52	0xc05ea16c	-3.4786024
53	0xc0306949	-2.756426
54	0xc08dbac2	-4.4290476
55	0x4117ee90	9.495743
56	0xc002a9fd	-2.0416253
57	0xc0c60cf7	-6.1890826
58	0xc0a38365	-5.1097894
59	0xc06c70c4	-3.6943827
60	0xc0cf5df7	-6.4802203
61	0xc114ca1a	-9.299341
62	0xc114fe89	-9.312142
63	0xc1106427	-9.024451
64	0xc0aaf1c0	-5.3420105
65	0xc0db21fa	-6.8478975
66	0xc0cdd089	-6.431706
67	0xc062bfd9	-3.5429595
68	0xc0bb02e7	-5.8441043
69	0xc0d8a345	-6.7699304
70	0xc0a68e96	-5.2049055
71	0xc109acae	-8.604658
72	0xc0fb81ae	-7.85958
73	0xc0daa77a	-6.832944
74	0xc0f1a8c6	-7.551852
75	0xc0f20601	-7.563233
76	0xc083b7f7	-4.1162066
77	0xc12953d8	-10.58297
78	0xc124075b	-10.251796
79	0xc0cb73a9	-6.3578687
80	0xc0be4441	-5.945832
81	0xc0f152a4	-7.541338
82	0xc0bc9dc5	-5.894259
83	0xc10c20d8	-8.7580185
84	0xc0dc62c4	-6.8870564
85	0xc124b075	-10.29308
86	0xc1054176	-8.328482
87	0xc12d6729	-10.837686
88	0xbfb95adc	-1.4480853
89	0xc0e6f765	-7.2176995
90	0xc219e7b7	-38.476284
91	0xc0d341d7	-6.601787
92	0xc0e17310	-7.0452957
93	0xc0a400eb	-5.125112
94	0xc048765d	-3.1322243
95	0x3da521c3	0.0806308
96	0x3ddd3437	0.10800975
97	0xc08e1cd4	-4.441019
98	0xc07217be	-3.782699
99	0xc0bab8f4	-5.8350773
100	0xc0be86fa	-5.9539766
101	0xc0746817	-3.8188531
102	0xc0da777e	-6.8270864
103	0xc0b8a2b4	-5.769861
104	0xc12512fc	-10.317135
105	0xc0e28a04	-7.0793476
106	0x41a2a0df	20.32855
107	0xc102875b	-8.158046
108	0x3f8b7fb5	1.0898348
109	0xc08e1443	-4.4399734
110	0xc0a36358	-5.105877
111	0xc08176af	-4.0457377
112	0xc0b04941	-5.508942
113	0x4115b88d	9.357556
114	0xc0cc7604	-6.389406
115	0xc0885e77	-4.2615314
116	0x403ab3ad	2.9172165
117	0xc0de316b	-6.9435325
118	0xc0b5634f	-5.6683726
119	0x41429896	12.162252
120	0xc0dc283d	-6.879912
121	0xc099b2aa	-4.8030596
122	0xc10fb656	-8.982016
123	0xc0ff2366	-7.973071
124	0x41a5c02e	20.718838
125	0xc07fbb83	-3.9958198
126	0xbf9ca55b	-1.2237962
127	0x4016d53f	2.3567655
128	0xc0d8e664	-6.778124
129	0xc120a26f	-10.039657
130	0xc0e4704b	-7.1387076
131	0xc10bf182	-8.746462
132	0xc14b15ca	-12.69282
133	0x4124990e	10.287367
134	0xc04e566f	-3.2240255
135	0xc0d350b2	-6.6036005
136	0xc0cd1420	-6.4087067
137	0xc1050c29	-8.315469
138	0xc10c5c3d	-8.772519
139	0xc0f5d95f	-7.6827846
140	0x41ab46eb	21.409628
141	0x41828fb3	16.320166
142	0xc0919e21	-4.550553
143	0xc10d00a8	-8.81266
144	0xc02c6f13	-2.6942794
145	0xc1239e8d	-10.226209
146	0x417ac646	15.673407
147	0xc0e339c6	-7.1008024
148	0xc080d7e5	-4.0263543
149	0xc10cd7cc	-8.802685
150	0xc0d6d06a	-6.712941
151	0xc0697358	-3.647665
152	0x4054668e	3.3187594
153	0xc07212d8	-3.7824001
154	0x414ffb0b	12.99879
155	0xc0fb1f0d	-7.8475404
156	0x40f28d1b	7.579725
157	0xc10b2377	-8.696158
158	0x3fbe402f	1.4863337
159	0xc0e920af	-7.2852397
160	0xc0854b76	-4.1654615
161	0xc079f63d	-3.9056542
162	0xc104e964	-8.30698
163	0x40a3d837	5.1201434
164	0xc08fa8d8	-4.489361
165	0xc0974a0c	-4.727789
166	0xc02ec65d	-2.7308571
167	0xc0aedadb	-5.4642158
168	0xc1047090	-8.277481
169	0xc09ede53	-4.964639
170	0xc0b7a3bd	-5.7387376
171	0xc0fb835a	-7.859784
172	0xc1159b39	-9.350396
173	0xc0ae35c0	-5.4440613
174	0x402e20d5	2.720754
175	0xc0f70fef	-7.720695
176	0xc0470603	-3.109742
177	0xc110114c	-9.004223
178	0xc0ef1c78	-7.472225
179	0xc0f93a74	-7.7883854
180	0xc103d60f	-8.23976
181	0xc048cd28	-3.1375217
182	0xc12a6e0d	-10.651868
183	0xc0bf7cd4	-5.983988
184	0xc0ea0df9	-7.3142056
185	0xc0e89b66	-7.2689695
186	0xc1043e68	-8.265236
187	0x3fe4883f	1.7854079
188	0xc0f5b862	-7.6787577
189	0xc0837462	-4.107957
190	0xbfd4586b	-1.6589483
191	0xc0db115c	-6.845869
192	0xc09321fb	-4.597898
193	0xc11fbe4a	-9.983957
194	0xc0a43011	-5.1308675
195	0xc0d93ead	-6.788901
196	0xc22d482b	-43.320477
197	0xc0a0ccdc	-5.0250072
198	0xc12f4408	-10.954109
199	0xc0c6b4be	-6.2095633

rcsl.backbone.model.2.weight f4 [200, 200]
0	0x3e9b09ce	0.30280918
1	0xbfc13324	-1.5093732
2	0x3e42f7f1	0.19039895
3	0x3f6ced92	0.92550004
4	0xbf0f582c	-0.55993915
5	0xbe37bf96	-0.17944178
6	0xbf8ef9f1	-1.1170026
7	0xbc3b9f53	-0.01145156
8	0x3f4637ca	0.7742888
9	0xbec2348c	-0.37930715
10	0xbd2cb8ff	-0.042168614
11	0xbec601d3	-0.38673267
12	0xbd631d8f	-0.05544811
13	0xbf528eaa	-0.8224894
14	0xbd922706	-0.071363494
15	0xbdcec3fc	-0.10095975
16	0xbe047759	-0.12936153
17	0xbf116396	-0.5679258
18	0xc0428d54	-3.039876
19	0xbfa8dde0	-1.3192711
20	0x3e00f474	0.12593251
21	0xbf3d9e51	-0.74069697
22	0xbda1c116	-0.07898156
23	0xbd5da71c	-0.054114446
24	0x3f70011d	0.937517
25	0xbf88ad99	-1.0677978
26	0xbf96707f	-1.1753081
27	0xbd063fd2	-0.032775708
28	0xbf9d8884	-1.2307286
29	0x3e8a5baa	0.2702306
30	0xbf45ea4e	-0.77310646
31	0xbdb439d7	-0.088000946
32	0xbf57cfdd	-0.8430155
33	0xbf06174b	-0.5237929
34	0xbfb0834b	-1.3790067
35	0xbe3b7149	-0.18304934
36	0xc03fce07	-2.99695
37	0xbd141a5d	-0.036157954
38	0x3e9157d7	0.2838733
39	0x3e88b999	0.267041
40	0x3e020668	0.12697756
41	0x3eb400f5	0.3515698
42	0xbeb2aec6	-0.34898967
43	0x3f6b9f4f	0.9203996
44	0xbe05109e	-0.1299462
45	0xbdef104c	-0.1167303
46	0x3ead1fe4	0.33813393
47	0xbdd8a8b1	-0.1057905
48	0x3e285c9b	0.16441576
49	0x3e459314	0.19294387
50	0xbf8fd303	-1.1236271
51	0x3fb76f08	1.4330759
52	0xbed2d5b2	-0.41178662
53	0xbef43307	-0.4769518
54	0xbed75fe8	-0.42065358
55	0x3dd89fbb	0.10577341
56	0xbff91684	-1.9459996
57	0xbf9e089c	-1.2346377
58	0x3f3b7e87	0.7323994
59	0xbe7fd03f	-0.24981783
60	0xbf0b0546	-0.5430492
61	0x3ce0da87	0.027447952
62	0x3ed92e6f	0.4241824
63	0x3f20432a	0.62602484
64	0xbf754a4b	-0.9581649
65	0x3ecdbd09	0.40183285
66	0xbf235059	-0.63794476
67	0xbee1001d	-0.439454
68	0xbf49ee2d	-0.7887905
69	0x3eacbf93	0.3373991
70	0xbe4eeaa3	-0.20206694
71	0x3fb0b6de	1.3805807
72	0xbedb632f	-0.4284911
73	0xbe40f6c2	-0.1884413
74	0xbe5eb282	-0.21747783
75	0xbf4d0f7a	-0.8010174
76	0x3f715dec	0.9428394
77	0x400fc36e	2.246303
78	0x3fc0c7cf	1.5060977
79	0xbeb58bcc	-0.3545822
80	0x3f4afe0d	0.792939
81	0x3fa5a15a	1.2939866
82	0x3f456db0	0.77120495
83	0x3f6ec5b9	0.9327045
84	0xbf0e5a8e	-0.55606925
85	0x3f49a437	0.78766197
86	0x3eb7f3f7	0.35928318
87	0x3e8b391e	0.27192014
88	0xbd1b5614	-0.037923887
89	0xbefc4f24	-0.4927913
90	0x3cf8fe0d	0.030394578
91	0xc018e877	-2.3891885
92	0x3ca494dd	0.020090515
93	0xbd9ea9ae	-0.077472076
94	0xbebc4a9d	-0.36775675
95	0xbfb51bf3	-1.4149154
96	0xbc03e993	-0.008051294
97	0x3c5d8292	0.0135199
98	0x3d595fff	0.053070065
99	0xbf1a1ea8	-0.6020303
100	0xbdb26016	-0.08709733
101	0xbf5531da	-0.8327919
102	0xbf162a44	-0.5865824
103	0x3d0fd115	0.035111506
104	0x3dc8cc68	0.098046124
105	0x3f4cc295	0.7998441
106	0x3caca532	0.021074865
107	0x3f03d293	0.51493186
108	0xbce0f812	-0.02746204
109	0x3e8d05b5	0.27543417
110	0xbfb034b0	-1.3766079
111	0xbf4b15b6	-0.79330003
112	0xbe734989	-0.2375852
113	0xbe1660aa	-0.14685312
114	0x3f345fec	0.70458865
115	0x3eb53e84	0.35399258
116	0xbeb6d29d	-0.3570756
117	0x3ed34de8	0.41270375
118	0xc0837324	-4.1078053
119	0xbeac4402	-0.33645636
120	0xbfa7460c	-1.3068252
121	0x3e87b192	0.26502663
122	0x3e0e11d1	0.13873984
123	0xbe20337b	-0.15644638
124	0x3dbda982	0.09260847
125	0x3e7cf259	0.24701823
126	0xbeb2026c	-0.34767473
127	0x3e3dee6c	0.18547982
128	0xbe8a08a2	-0.2695971
129	0x3e86dac1	0.2633877
130	0x3f2f9846	0.68591726
131	0x3e2f5c60	0.17125082
132	0x3d9395f6	0.07206337
133	0x3d9a3e37	0.07531398
134	0x3f369182	0.7131578
135	0xbf8234fc	-1.017242
136	0x3f69c553	0.9131672
137	0xbf352aaa	-0.70768225
138	0x3e05e109	0.13074125
139	0xbf2e954e	-0.6819657
140	0xbe9ac073	-0.30224952
141	0x3f0e4a92	0.55582535
142	0x3c110ef4	0.008853663
143	0xbff9ae7d	-1.9506375
144	0x3f6c631b	0.9233872
145	0x3fa5fa7a	1.2967064
146	0x3e9dd037	0.30822918
147	0x400fa1f9	2.244261
148	0x3f6f6a43	0.9352152
149	0x3ef39e45	0.47581688
150	0x3da8ba84	0.082387
151	0x3f6cd3ff	0.9251098
152	0xbcad14b8	-0.021128044
153	0xbea9ed59	-0.33188894
154	0x3e26d0de	0.16290614
155	0x3e77ffea	0.24218717
156	0xbe009823	-0.12558036
157	0x3fcac9f0	1.5842876
158	0x3e12b50c	0.14326876
159	0xbf57c0ee	-0.8427876
160	0x3fc634e3	1.548489
161	0x3d10411a	0.035218336
162	0xbfa90583	-1.3204807
163	0x3e54d160	0.20782995
164	0x3d23d456	0.03999742
165	0x3ed30e55	0.41221872
166	0xbecfd554	-0.40592444
167	0xbfc47820	-1.5349159
168	0x3fb6795a	1.4255784
169	0xbfd6718f	-1.6753405
170	0x3f0d288b	0.5513999
171	0xbf2b1484	-0.6682818
172	0xbeafa4c1	-0.34305385
173	0x3e85ea39	0.2615526
174	0x3e6771a0	0.22601938
175	0x3f62ae39	0.8854709
176	0xbe04cb18	-0.12968099
177	0x3f9e991d	1.2390476
178	0xbf0c18cf	-0.54725355
179	0x3f413c4e	0.7548264
180	0x3e7fc2b7	0.24976622
181	0xbd94819e	-0.07251285
182	0xbfcf1079	-1.6176902
183	0xbfb5564f	-1.4166964
184	0xbf76d454	-0.96417737
185	0x3f4d4e7f	0.801979
186	0x3df3e776	0.11909382
187	0xbbfaabd2	-0.007649877
188	0x3f34a414	0.70562863
189	0xbf518ae4	-0.81852555
190	0x3ecabb5d	0.39596072
191	0xbdfca240	-0.12335634
192	0x3f2e29cb	0.6803252
193	0x3f443313	0.76640433
194	0xbec631f3	-0.38709983
195	0x3f3f0bcd	0.7462738
196	0xc00cc3dc	-2.1994543
197	0x3e5e1576	0.21687874
198	0x3e6586bb	0.22414677
199	0x3db94a11	0.0904733
200	0xbd402089	-0.046906028
201	0xbd72b4f9	-0.05925462
202	0xbcc98e43	-0.024603968
203	0xbd827065	-0.06369094
204	0xbe13c0bc	-0.14428991
205	0x3ba76fe5	0.0051097744
206	0xbd3f0115	-0.04663189
207	0xbdb57f04	-0.08862117
208	0x3cc6cabf	0.024266599
209	0xbda6ca25	-0.08144025
210	0xbdc3704c	-0.09542903
211	0xbdd59a99	-0.10429878
212	0xbce04334	-0.027375795
213	0xbc4029d1	-0.01172872
214	0x3c0937e2	0.00837514
215	0xbe014d21	-0.12627079
216	0xbc65632b	-0.014000694
217	0xbdbfad00	-0.09359169
218	0x3c9edb40	0.019391656
219	0xbd69f84c	-0.05712156
220	0xbd5dc314	-0.05414112
221	0xbd373d9a	-0.044736482
222	0xbd2ef010	-0.04270941
223	0xbbc0b816	-0.0058813198
224	0x3c409906	0.011755234
225	0x3d66c792	0.05634267
226	0xbbb53544	-0.0055300314
227	0xbd62a735	-0.055335242
228	0xbcc7f457	-0.024408503
229	0x3dea0f3e	0.114286885
230	0xbdff2d0b	-0.12459763
231	0xbda4b88b	-0.08043011
232	0xbdf9ab98	-0.12190932
233	0xbcd32108	-0.025772586
234	0x3cafea2b	0.021473965
235	0xbe00346c	-0.12519997
236	0xbd670be3	-0.05640782
237	0xbd7a305c	-0.061081275
238	0xbd8b5818	-0.06803912
239	0xbda17659	-0.07883901
240	0xbb8af87e	-0.0042410484
241	0x3c5cfbec	0.013487797
242	0xbd890b53	-0.06691613
243	0xbd349d3a	-0.044095255
244	0xbd217c55	-0.039425213
245	0xbd200717	-0.03906926
246	0x3badde58	0.0053060465
247	0xbe0877a4	-0.1332689
248	0xbc2c5ba6	-0.010519898
249	0x3b78c59f	0.0037959588
250	0x3cf5a40c	0.02998545
251	0xbd3b26a0	-0.045691133
252	0xbd44d674	-0.04805608
253	0xbb113a34	-0.0022159936
254	0xbdb648d9	-0.08900613
255	0xbde141c2	-0.109988704

rcsl.backbone.model.2.bias f4 [200]
0	0xc151afcc	-13.105419
1	0xbe019374	-0.12653905
2	0xbdf3e3eb	-0.11908706
3	0xc17a724a	-15.652903
4	0x40cb52be	6.3538504
5	0x4111efdd	9.12106
6	0x3fdd1813	1.7272972
7	0xbdcc898b	-0.09987172
8	0xc0ea5250	-7.322548
9	0x41ada8ba	21.707386
10	0xbca7faf9	-0.020505415
11	0xc04c7e1d	-3.1951973
12	0x4131d88a	11.115366
13	0xbd6c4967	-0.05768719
14	0x3d6f1615	0.05837067
15	0x3fa09af2	1.2547286
16	0xbc56b055	-0.013103564
17	0xbd92f138	-0.07174915
18	0x40bf3ec1	5.9764104
19	0xbd9ba657	-0.07600086
20	0x40032f95	2.0497792
21	0x3f7449f6	0.95425355
22	0xbdfae6ed	-0.12251077
23	0xc0e2d20e	-7.0881414
24	0xbe2b17c3	-0.16708283
25	0xc03eaddf	-2.9793622
26	0x409cdfb4	4.9023075
27	0xbe3aac02	-0.18229678
28	0x3fdd2ad0	1.727869
29	0x3c03a9be	0.008036075
30	0xc11e4ee4	-9.89426
31	0xc16b943d	-14.723691
32	0xbf63c75e	-0.88976085
33	0xbcd958c7	-0.02653159
34	0xbc9106bb	-0.017703405
35	0xbe053a05	-0.13010414
36	0x4017edf6	2.373899
37	0xc187100b	-16.882833
38	0x4124e587	10.306037
39	0xbe216825	-0.15762384
40	0xc125741e	-10.340849
41	0xc04b6885	-3.1782544
42	0xbd8c7b9b	-0.06859513
43	0xbda2e8c2	-0.07954551
44	0xbd991601	-0.074749
45	0xc08baa4e	-4.364539
46	0xc09b495d	-4.8527055
47	0x4089360e	4.2878485
48	0xbdd717b4	-0.10502568
49	0xc1866956	-16.801434
50	0xbc8bf50e	-0.017084625
51	0xc1090213	-8.563006
52	0xbd20b4d1	-0.03923494
53	0xc16a549d	-14.645658
54	0xbcf2eac4	-0.02965296
55	0x40d0f597	6.529979
56	0xc1705214	-15.020039
57	0xc1126c4d	-9.151441
58	0x40c965b4	6.293665
59	0xc0a74c66	-5.228076
60	0xc011ea2a	-2.2799172
61	0xbc799ff2	-0.015235888
62	0x406fcada	3.746756
63	0x3f98c477	1.1934956
64	0x412f14d1	10.942582
65	0xbd2ad141	-0.041703466
66	0x40cb9490	6.361885
67	0xc1b476ab	-22.557943
68	0x419599cb	18.700094
69	0xbfab56b6	-1.3385837
70	0xbdb388a8	-0.087662995
71	0x404fbdd8	3.2459621
72	0xc019224d	-2.3927186
73	0xc0d63b6c	-6.6947536
74	0xc134e8b7	-11.306815
75	0xbdd6d2da	-0.104894355
76	0x40362088	2.8457355
77	0x405f4c39	3.4890273
78	0xbda8cc9d	-0.08242152
79	0x3cd67102	0.026176933
80	0xbd18ecd2	-0.037335224
81	0x40b0bc03	5.5229506
82	0x4135b3c5	11.356389
83	0xbddd2a9d	-0.107991435
84	0xbdd51fe0	-0.1040647
85	0xbdc7f174	-0.097628504
86	0xbd9dbd7a	-0.077021554
87	0xbe061891	-0.13095309
88	0xbda622cf	-0.08112108
89	0x3b95e0cc	0.004573917
90	0xbd79c697	-0.060980406
91	0xbd1204fe	-0.035649292
92	0xbd6d96ae	-0.058005027
93	0xbc9c0048	-0.019043103
94	0x3a9b4f4c	0.0011849194
95	0xc095af79	-4.67767
96	0xbdd5ee0b	-0.10445794
97	0xbe12a092	-0.14319065
98	0x40a9c79b	5.305616
99	0xc1405ae9	-12.022195
100	0x4161876f	14.095565
101	0xc0663cd4	-3.5974627
102	0x41df8a24	27.942451
103	0xbde01dd3	-0.109431885
104	0xbda6e921	-0.081499346
105	0xbd4e96d2	-0.050436802
106	0xbd7d9fc5	-0.061919946
107	0x3fe235b7	1.7672642
108	0x3f70df49	0.94090706
109	0xc018e627	-2.3890474
110	0xbeacdaf2	-0.33760792
111	0x4126cc18	10.424828
112	0xbc15c6a1	-0.009141595
113	0xbe06e849	-0.13174547
114	0xbdf0ec2e	-0.11763798
115	0xc0c77553	-6.233072
116	0x3fd9cb0a	1.7015088
117	0xc1aca2f3	-21.579565
118	0x412a371d	10.638455
119	0x4074e1b1	3.826275
120	0x3ffe9dd1	1.9891912
121	0x4147c53b	12.485652
122	0xc03ac351	-2.9181712
123	0x41974cf8	18.912582
124	0x3fe3ba09	1.7791148
125	0xbd3e2684	-0.04642345
126	0xc150c6bb	-13.048518
127	0xbd77b149	-0.060471807
128	0xc1497594	-12.591206
129	0xbd5953fd	-0.053058613
130	0xbdd27543	-0.10276272
131	0xbdea266c	-0.1143311
132	0xc0ae8e9e	-5.4549093
133	0xbdf5d72e	-0.12003933
134	0xc02456f8	-2.5678082
135	0x3ca86d26	0.020559859
136	0xbd4ced57	-0.050031032
137	0x411cb14c	9.793285
138	0x3c4a7288	0.012356408
139	0x402d9a56	2.712545
140	0xc080bf60	-4.023361
141	0xbd22dcf2	-0.03976149
142	0xbe271e1b	-0.16320078
143	0x411a96e6	9.66184
144	0xbf2e8ba7	-0.6818184
145	0xbdf753f8	-0.12076563
146	0xbcab002f	-0.020874111
147	0xbca9dbcd	-0.020734692
148	0xc1248d00	-10.284424
149	0x40aee697	5.465648
150	0xc15e1a83	-13.881473
151	0xbd80f561	-0.06296802
152	0xc07d4fef	-3.9580038
153	0x40935eb1	4.605309
154	0xbe9f3a3c	-0.31099117
155	0xc00a19cf	-2.1578252
156	0x40175e01	2.3651125
157	0xbf340284	-0.7031634
158	0xbdffeacc	-0.12495956
159	0xbdbafa84	-0.09129813
160	0x402967a7	2.6469514
161	0xbe75a302	-0.23987964
162	0xbdf3ec09	-0.119102545
163	0xc161ebff	-14.120116
164	0x406f42a7	3.7384431
165	0x41209a31	10.037644
166	0xbd9985e2	-0.07496239
167	0xc1972050	-18.890778
168	0xbc9f1d8b	-0.019423267
169	0xbf302d06	-0.688187
170	0xbd378d86	-0.0448127
171	0x3a760f50	0.0009386437
172	0xbd1129b3	-0.035440158
173	0x417d0d37	15.815726
174	0xbc2f336c	-0.010693412
175	0xbd848a76	-0.06471722
176	0xc08b3ea6	-4.3513975
177	0xbf97736d	-1.18321
178	0xbd1d44c2	-0.03839565
179	0x4095138a	4.658635
180	0xbde28e17	-0.11062258
181	0xc1149a66	-9.287695
182	0xbcbafa2f	-0.022824375
183	0xbdcba1be	-0.09942959
184	0xbf04f4e8	-0.519362
185	0x40964033	4.695337
186	0x40b51bb5	5.659632
187	0xbe2b7b64	-0.16746289
188	0xbda65e36	-0.08123438
189	0xbd624838	-0.055244654
190	0xc125e0ef	-10.367415
191	0xbb1e5044	-0.0024156729
192	0xc15e6786	-13.900274
193	0x400ef710	2.2338295
194	0xbcef5a83	-0.029217964
195	0xc0a8b00b	-5.2714896
196	0xbdc6fc01	-0.09716035
197	0x407bed36	3.9363532
198	0xc04bbc42	-3.1833653
199	0xbf617e43	-0.88083285

rcsl.backbone.model.4.weight f4 [200, 200]
0	0xbe9dfcee	-0.30857033
1	0xbd03e4fb	-0.032200795
2	0xbd700c54	-0.058605507
3	0xbc0eeaba	-0.008722955
4	0xbe0264d8	-0.12733781
5	0x3acace16	0.0015472795
6	0xbdf9c58d	-0.12195883
7	0xbd968d4e	-0.073511705
8	0x3b4ed2fe	0.0031558867
9	0xbdbdf9a2	-0.09276129
10	0x3cc5064a	0.02405085
11	0xbcfdc143	-0.030975943
12	0xbde03e30	-0.10949361
13	0xbd0a9b8f	-0.03383976
14	0x3c02a6bf	0.007974326
15	0x3bf4d7af	0.0074720006
16	0x3a924ad9	0.0011161222
17	0x3c6f3aa5	0.014601384
18	0xbcb4debb	-0.022078862
19	0x3c8f2329	0.01747282
20	0x3d28c81c	0.041206464
21	0xbc65af5a	-0.014018858
22	0xbdb541db	-0.088504516
23	0xbe40c886	-0.18826494
24	0xbd846b1e	-0.064657435
25	0xbbc6f8da	-0.006072146
26	0x3c9f0903	0.019413477
27	0xbba1e48b	-0.0049405745
28	0x3ca294a1	0.019846262
29	0x3dc79cea	0.09746726
30	0xbd819f96	-0.06329267
31	0xbc9c23cd	-0.01906004
32	0x3db08f8a	0.08621128
33	0xbd04b65c	-0.032400474
34	0xbd7108c9	-0.05884627
35	0xbd4bcd39	-0.049756262
36	0xbe1766c1	-0.14785291
37	0xbe2e8680	-0.17043495
38	0x3d2eb61c	0.04265414
39	0x3b0c3cd6	0.0021398566
40	0xbd923bf5	-0.07140342
41	0xbe49c280	-0.19703102
42	0x3d58e45d	0.05295216
43	0x3c047c7c	0.00808632
44	0x3d227e39	0.039671157
45	0x3b5e8d0c	0.0033958582
46	0xbcee8bcb	-0.029119393
47	0xbe067477	-0.13130365
48	0x3d5e68cf	0.054299172
49	0xbdc98c72	-0.09841241
50	0x383d048c	4.5065346e-05
51	0xbe85d2d4	-0.26137412
52	0x3d1e6077	0.038666215
53	0xbd9a33a2	-0.075293794
54	0xbd96dedc	-0.07366726
55	0xbe23c362	-0.15992501
56	0xbca3bf6e	-0.019988742
57	0xbee18a4c	-0.44050825
58	0x3c9fad93	0.019491946
59	0xbc832320	-0.01600796
60	0xbe0f50db	-0.13995688
61	0x3d21803f	0.039428946
62	0xbe1b626a	-0.1517426
63	0xbd241577	-0.040059533
64	0xbcf088ed	-0.029362166
65	0x3d965736	0.07340853
66	0xbd9ec4dc	-0.07752392
67	0xbe47174b	-0.1944248
68	0x3d127d94	0.035764292
69	0xbde69308	-0.11258513
70	0xbd83ca4d	-0.0643507
71	0x3cd07e06	0.025450718
72	0xbe3a32a4	-0.1818338
73	0x3df8f8e7	0.12156849
74	0xbd4adbbc	-0.04952596
75	0xbdea18fc	-0.11430547
76	0xbc85c42e	-0.016328897
77	0xbe26f968	-0.16306078
78	0xbd4c140d	-0.04982381
79	0x3d277802	0.040885933
80	0x3d039f90	0.032134593
81	0xbd741296	-0.059588037
82	0x3b792923	0.0038018904
83	0xbb8f0eb4	-0.0043657664
84	0x3d71b8b7	0.05901405
85	0xbd6df2ff	-0.058093067
86	0xbccd9b3d	-0.025098437
87	0xbdb938ca	-0.09044035
88	0xbcce9e4d	-0.025221968
89	0x3c8f6091	0.017502101
90	0xbcba61b8	-0.022751674
91	0x3cd918f2	0.026501153
92	0xbd4b2360	-0.049594283
93	0xba597919	-0.0008295938
94	0x3d01c1e5	0.031679053
95	0xbe2d4c83	-0.16923718
96	0x3c28ea76	0.010309806
97	0xbd502929	-0.050820503
98	0xbdd7d83e	-0.10539292
99	0xbd20a39d	-0.039218534
100	0x3d3a02f6	0.04541298
101	0x3df3f7df	0.11912512
102	0xbe37f9ef	-0.17966436
103	0xbd98ec87	-0.07466989
104	0xbe417e0e	-0.18895742
105	0x3cff43e9	0.031160312
106	0xbd196b67	-0.037455942
107	0xbdc729ae	-0.09724747
108	0xbd34379a	-0.04399834
109	0xbd6f89cf	-0.058481034
110	0xbdb9b554	-0.09067789
111	0xbdb72fb6	-0.08944647
112	0xbdb98fec	-0.09060654
113	0xbcbbaa23	-0.022908276
114	0x3ccdf3c6	0.025140654
115	0x3c683ac9	0.014174172
116	0xbd50d58a	-0.050984897
117	0x3d27d903	0.040978443
118	0xbd39c879	-0.0453572
119	0x3d589f73	0.052886438
120	0xbdc53c53	-0.096306466
121	0x3ce9c654	0.028536953
122	0xbe492900	-0.19644547
123	0xbe075ee5	-0.13219793
124	0xbdbe1db6	-0.09283011
125	0xb9ccc6d5	-0.00039058054
126	0xbe6c08e8	-0.23050272
127	0xbd87436e	-0.06604658
128	0xbdb5852b	-0.088632904
129	0x3c81d874	0.015850283
130	0x3ce2b947	0.027676238
131	0xbd3a2158	-0.045441955
132	0xbdd26f86	-0.10275178
133	0xbdc7e074	-0.09759608
134	0xbd5710de	-0.05250632
135	0x3d97a836	0.074051306
136	0x3d38f063	0.045151126
137	0xbc7e98bc	-0.015539344
138	0x3cf8a27a	0.030350912
139	0xbc287a07	-0.010283
140	0xbc886ce6	-0.01665349
141	0xbd0601a9	-0.032716427
142	0xbb4f74d5	-0.003165533
143	0xbd5aad72	-0.053388067
144	0xbdeb758b	-0.11497029
145	0x3d3e297d	0.046426285
146	0xbd4ab119	-0.0494853
147	0x3d49a982	0.04923392
148	0x3ba514d5	0.0050378838
149	0xbde8552c	-0.1134437
150	0x3ca963fb	0.020677557
151	0xbd9c751a	-0.07639523
152	0x3d036100	0.03207493
153	0xbd9a5e70	-0.07537544
154	0x3bb74195	0.005592535
155	0x3d5cb7bd	0.053886164
156	0xbd28cf00	-0.041213036
157	0xbb0c3fd4	-0.002140035
158	0xbc71ae74	-0.0147510655
159	0xbd6986fc	-0.057013497
160	0x3e0c67a8	0.13711417
161	0xbd10ec58	-0.035381645
162	0x3d3790b0	0.04481572
163	0xbdfe9ba2	-0.12432028
164	0xbdbf88cd	-0.093522646
165	0xbe0f99da	-0.14023533
166	0x3bac1f3d	0.0052527473
167	0xbd1afe03	-0.0378399
168	0xbd439953	-0.047753643
169	0xbe133465	-0.14375456
170	0x3d685c71	0.056728784
171	0x3d3640a5	0.044495244
172	0xbcaeb9e7	-0.02132888
173	0xbda34636	-0.07972376
174	0x3d0912c3	0.03346516
175	0xbd0a9339	-0.03383181
176	0xbd561305	-0.052264232
177	0xbe095101	-0.13409807
178	0xbd699922	-0.057030804
179	0xbe0cc462	-0.13746789
180	0xbd9c3f2e	-0.07629238
181	0xbd5941ea	-0.053041376
182	0xbd6d57f5	-0.05794521
183	0xbc5b3f34	-0.013381768
184	0xbc92f921	-0.01794106
185	0xbe7d47cb	-0.24734418
186	0xbd907288	-0.07053095
187	0xbcefc9b8	-0.029270992
188	0xbca627d6	-0.020282667
189	0x3b325f0a	0.0027217292
190	0xbe0605d2	-0.13088158
191	0x3c9c528c	0.01908233
192	0xbe36b5ee	-0.17842838
193	0xbcde8c49	-0.027166503
194	0x3d296510	0.041356146
195	0x3cfb0091	0.030639919
196	0xbd484d66	-0.048901938
197	0x3cafe7b5	0.021472791
198	0xbd2153f6	-0.039386712
199	0xbcc41b77	-0.023938878
200	0x3cc6beb5	0.024260858
201	0x3d6b8c73	0.05750699
202	0xbd04fb50	-0.032466233
203	0x3be6054d	0.007019675
204	0xbd09bc0a	-0.033626594
205	0xbd8ea152	-0.06964363
206	0x39858aa1	0.00025471023
207	0xbcad6d93	-0.021170413
208	0xbd19f604	-0.037588134
209	0xbd771f49	-0.06033257
210	0x3d64a00b	0.05581669
211	0x3c847307	0.01616813
212	0x3b478982	0.0030446951
213	0xbd4a2c6e	-0.049358778
214	0xbca1d7d0	-0.019756228
215	0xba4c604a	-0.00077963306
216	0x3d5477d4	0.05187209
217	0x3d36cdc3	0.044629823
218	0xbb84079f	-0.004029229
219	0xbce4ce62	-0.027930442
220	0xbd7046f0	-0.0586614
221	0x3db93dc8	0.09044987
222	0xbd8f2c45	-0.069908656
223	0xbd9a78d4	-0.075425774
224	0x3d0e2881	0.034706596
225	0x3d25a818	0.04044351
226	0xbdd04026	-0.10168485
227	0xbceba83a	-0.02876674
228	0xbcca8864	-0.02472324
229	0xbd343478	-0.04399535
230	0xbd853e2a	-0.065059975
231	0xbc9ef9ee	-0.019406285
232	0xbc2c703b	-0.010524805
233	0xbd1e5f28	-0.038664967
234	0xbd7a131e	-0.061053388
235	0xbd0ad1bd	-0.03389143
236	0xbc7742f7	-0.015091649
237	0x3d524f3e	0.051345102
238	0xbce291c7	-0.027657403
239	0xbcfeee54	-0.031119503
240	0xbd239994	-0.039941385
241	0xbd5c7d5c	-0.05383049
242	0xbd82b8a7	-0.06382876
243	0x3d33ad40	0.043866396
244	0xbc24444d	-0.01002605
245	0xbd5acf6a	-0.05342046
246	0xbd2852e8	-0.04109469
247	0xbe1c2109	-0.15246977
248	0x3d8102ae	0.06299339
249	0xbd64058b	-0.05566935
250	0x3d6d7e63	0.05798186
251	0xbe1e2ab7	-0.15445982
252	0xbd3bd9f2	-0.045862146
253	0xbd321969	-0.043481264
254	0xbc7ec55d	-0.015549985
255	0xbdf7ff84	-0.121092826

rcsl.backbone.model.4.bias f4 [200]
0	0xbd940a4d	-0.07228527
1	0xbe654b51	-0.22392012
2	0xbf3f5b8b	-0.7474906
3	0xbe1f0b20	-0.15531588
4	0x3e3bc8e9	0.1833836
5	0x411e9761	9.911958
6	0xbe794af7	-0.24345003
7	0xbead263d	-0.33818236
8	0xc0417c4c	-3.0232115
9	0xbf101793	-0.5628597
10	0xbe58ca16	-0.2117084
11	0x414300fc	12.18774
12	0x40a0567e	5.010558
13	0xbf0e7622	-0.55649006
14	0x4092543e	4.5727835
15	0xbe51c873	-0.20486622
16	0xc15da840	-13.853577
17	0x410b89f1	8.721177
18	0xbe4c8cb9	-0.19975556
19	0xc05b6660	-3.4281235
20	0x40af0795	5.4696755
21	0xc110f990	-9.060928
22	0x3fc23e63	1.5175289
23	0xbf815ca9	-1.0106403
24	0xbdb9368b	-0.09043606
25	0xc04e592e	-3.224193
26	0x3d1bee62	0.038069136
27	0xc053336d	-3.3000138
28	0x40f77534	7.733057
29	0xc0ad2809	-5.411137
30	0xc01222da	-2.2833772
31	0xc1440552	-12.251299
32	0xc06fb599	-3.7454588
33	0x4116948b	9.411265
34	0x40d15914	6.542124
35	0x403333fc	2.8000479
36	0xc0184f59	-2.379843
37	0xc16cc242	-14.797426
38	0xc12b2158	-10.695641
39	0xbe44231a	-0.19154015
40	0x3efe3228	0.4964764
41	0x3fd50ca5	1.6644484
42	0x4108cb03	8.549563
43	0xc112cf5a	-9.175623
44	0xc0c8b7bc	-6.2724285
45	0xbe8c2f2d	-0.27379742
46	0xbe0fea23	-0.1405416
47	0xc12a41b3	-10.64104
48	0x41524767	13.142432
49	0xbf630835	-0.886844
50	0x414fbb84	12.98328
51	0xc14db364	-12.856297
52	0x40021ebd	2.033126
53	0xbfec04cb	-1.8438963
54	0xbf68a089	-0.9086996
55	0xc1224ef4	-10.144276
56	0xc091c0ef	-4.5548015
57	0x41100a2b	9.002482
58	0xc023c0d2	-2.5586438
59	0xbea4cded	-0.3218836
60	0xc015f683	-2.343171
61	0xc0d48ab8	-6.6419334
62	0xbea16770	-0.3152423
63	0xbea3dcb9	-0.32004336
64	0x40862218	4.191662
65	0x412d7baa	10.842691
66	0x416c3457	14.762778
67	0x401d0e46	2.4539962
68	0xbea6e62f	-0.3259749
69	0xc0c79c27	-6.2378116
70	0x3eff12b8	0.4981897
71	0x3fd9a5d9	1.7003738
72	0xc0ac05c3	-5.3757033
73	0x40928f0d	4.5799623
74	0xbe778ba7	-0.24174367
75	0xbe063f67	-0.13110124
76	0x413567a9	11.337808
77	0x402de642	2.7171788
78	0xc10daef6	-8.855215
79	0x401a4084	2.4101877
80	0xbe172c8f	-0.14763092
81	0x40dfd389	6.994572
82	0xbe395156	-0.18097433
83	0xc0f1cee7	-7.5565066
84	0xbf469c76	-0.7758249
85	0x40893b28	4.288471
86	0xc168de3b	-14.5542555
87	0xc16a4e62	-14.644136
88	0x414183ae	12.094648
89	0xbe6f2521	-0.23354007
90	0xc107ed2d	-8.495404
91	0xc0947024	-4.638689
92	0xc09a80fe	-4.828246
93	0x410a4e1c	8.64407
94	0x408f6f2e	4.4823217
95	0xbdb6cbdf	-0.08925604
96	0x414db548	12.856758
97	0xc084468f	-4.133613
98	0xbf800445	-1.0001303
99	0xc0813521	-4.0377355
100	0xc09e69ac	-4.9503994
101	0x40774ea5	3.864175
102	0xc0fc5a83	-7.886049
103	0x3faf179d	1.3679081
104	0x4147bb95	12.483296
105	0x3f254eee	0.6457356
106	0xc0b16828	-5.5439644
107	0x3fdfeda8	1.7494402
108	0xc140b208	-12.043465
109	0xbec2c2c3	-0.38039216
110	0xc0afb42b	-5.490743
111	0xbea17330	-0.31533194
112	0x41170be9	9.440408
113	0xc0f21bd8	-7.565899
114	0x40b549cf	5.66526
115	0x412ec0e1	10.92209
116	0xbd2335fb	-0.0398464
117	0x40d1b34e	6.553138
118	0x4104e1ee	8.305159
119	0x40f9838b	7.7973075
120	0xc03a162c	-2.9076033
121	0xc189d36c	-17.228233
122	0xbdcbd9e6	-0.0995367
123	0xc0b3626f	-5.605766
124	0x41307dd2	11.030718
125	0xbfc0b96d	-1.5056587
126	0x40bb01f6	5.8439894
127	0x40a6b0df	5.2090907
128	0xc136c15a	-11.422205
129	0xc06a4e43	-3.6610267
130	0xbdb99779	-0.09062094
131	0xc0bbea6e	-5.872367
132	0xbde018bc	-0.10942218
133	0xc16c8636	-14.782766
134	0xc0579d79	-3.3689864
135	0x40e3d9f0	7.1203537
136	0x40dda085	6.9258447
137	0xbfe77bb5	-1.8084627
138	0xc0d49d04	-6.644167
139	0xbdc471b2	-0.09591998
140	0xc0ed5b54	-7.4173985
141	0xc0e06929	-7.012837
142	0x3f5d25d1	0.8638583
143	0xc0f09bbf	-7.519012
144	0xc0f5dd67	-7.6832767
145	0x3fcab253	1.583567
146	0x415f8eef	13.972396
147	0xc0d51ac9	-6.6595197
148	0x3fa9efb5	1.3276278
149	0x3fab924e	1.3404024
150	0xbf79db63	-0.9760038
151	0x3d0d7d0e	0.03454309
152	0xc00c39e4	-2.1910334
153	0xbe6b64c2	-0.22987655
154	0xc0ef44ba	-7.4771395
155	0x40a923a8	5.2856026
156	0xc061bb82	-3.5270696
157	0xc0997d39	-4.796536
158	0x410e3c07	8.889655
159	0xc05ada46	-3.4195724
160	0x4050c118	3.2617855
161	0xc133e357	-11.243003
162	0x4108f4d9	8.559777
163	0x4117687b	9.463008
164	0xbfcb6b61	-1.5892144
165	0xc1a2d8ca	-20.355854
166	0x407f9d33	3.9939697
167	0xbe20acae	-0.15690872
168	0xc12d087d	-10.814572
169	0xbe209b10	-0.15684152
170	0xc04a6c44	-3.162858
171	0x40d3f663	6.6238265
172	0xc06b1925	-3.6734097
173	0xc11aa2ba	-9.664728
174	0x419f5b8e	19.919704
175	0xc147c7ff	-12.486327
176	0xc0fa265b	-7.817182
177	0xbd75a486	-0.059971355
178	0xbe86bd95	-0.26316515
179	0xc17ea525	-15.9153185
180	0x4155dae2	13.365938
181	0xbe255f90	-0.16149735
182	0x407fed40	3.9988556
183	0x411971ba	9.590265
184	0xc1614a08	-14.080574
185	0xbe34adb0	-0.17644382
186	0x40fd5b4b	7.917394
187	0x4134853b	11.282527
188	0x41129126	9.160437
189	0xbea02e87	-0.31285498
190	0x4177a238	15.477104
191	0x41583323	13.512485
192	0x418f7edc	17.936943
193	0xbd55ac2a	-0.05216614
194	0x413bcf1a	11.738062
195	0xc1706090	-15.023575
196	0x404e8028	3.226572
197	0x3f811d56	1.0087078
198	0xc048ab34	-3.1354494
199	0x413f561e	11.958525

rcsl.backbone.model.6.weight f4 [200, 200]
0	0xbcc726eb	-0.02431055
1	0x3d957529	0.07297737
2	0xbc0fb003	-0.008769992
3	0x3d383489	0.044971976
4	0xbec28897	-0.37994835
5	0xbe3aa0ca	-0.18225399
6	0x3d8f5e9a	0.07000466
7	0x3d4cdeab	0.05001704
8	0xbeb6ecab	-0.35727438
9	0x3e034bba	0.12821856
10	0xbd091b1f	-0.03347313
11	0xbf5c1528	-0.8596978
12	0xbfe93320	-1.8218727
13	0x3dd8c429	0.105842896
14	0xbe8bcbf0	-0.2730403
15	0xba773613	-0.000943036
16	0xbe5d7515	-0.21626695
17	0xbf4c93de	-0.7991313
18	0xbd8c53e9	-0.06851942
19	0xbf413d57	-0.7548422
20	0xbd565031	-0.05232257
21	0xbdf0c483	-0.11756232
22	0xbdead27c	-0.11465928
23	0x3f1a5c7b	0.60297364
24	0x3e25c972	0.16190127
25	0xbcb2a894	-0.0218089
26	0xbd93eb1f	-0.0722258
27	0x3dd4fbf0	0.10399616
28	0xbeaea1f7	-0.34107944
29	0xbf5840c0	-0.844738
30	0xbd3cc0f9	-0.04608247
31	0xc0170bbb	-2.360091
32	0xbf5eb1bd	-0.8698996
33	0x3f06a207	0.52590984
34	0xbe5cbd5d	-0.21556611
35	0xbfaaafd3	-1.3334907
36	0x3e61aa60	0.22037649
37	0xbe3bac62	-0.18327478
38	0x3eeeec63	0.46664724
39	0x3d3d02ae	0.046145134
40	0x3e2c3428	0.16816771
41	0x3e92ccef	0.28671977
42	0xbe3104da	-0.17287007
43	0xbf9299fd	-1.1453243
44	0xbcb433a1	-0.021997275
45	0x3d9fb143	0.07797482
46	0xbbd9b348	-0.0066436864
47	0x3eb14b8e	0.34627956
48	0xbf634c54	-0.8878834
49	0x3f56febf	0.8398246
50	0xbe930c9f	-0.28720567
51	0xbddcd505	-0.10782818
52	0xbf2d38a2	-0.6766454
53	0xbd7ac463	-0.061222445
54	0xbeb55ecb	-0.35423884
55	0xbee2eadd	-0.4431981
56	0xbccdaa88	-0.02510573
57	0xbd17cf38	-0.037062854
58	0xc05f4398	-3.4885006
59	0x3d98b311	0.07456029
60	0xbf936d1b	-1.1517671
61	0xbf6043f5	-0.87603694
62	0x3e0bda9d	0.13657613
63	0xbcb26dfe	-0.021780964
64	0xbedf4f36	-0.4361512
65	0x3e4783b5	0.19483836
66	0xbf3f073f	-0.7462043
67	0xbf9d6215	-1.2295557
68	0x3c7e145b	0.015507783
69	0x3db0575c	0.086104125
70	0xc0022eed	-2.0341141
71	0xc000b8b8	-2.0112743
72	0xbfed22cb	-1.8526243
73	0xbf97858e	-1.1837633
74	0xbc73fd65	-0.014891957
75	0xbd989a3a	-0.074512914
76	0xbf6c811f	-0.92384523
77	0xbf1bff53	-0.6093647
78	0xbe500942	-0.20316032
79	0xc05c2b7d	-3.4401543
80	0x3dbdafc3	0.092620395
81	0x3e936275	0.28786054
82	0x3aeb65bb	0.0017959395
83	0xc0772e4d	-3.862201
84	0xbe00c99c	-0.12576908
85	0xbf345cb4	-0.70453954
86	0xc06d56be	-3.7084193
87	0xc030f86d	-2.7651627
88	0xbf160038	-0.58594084
89	0xbc8b5c40	-0.017011762
90	0xc0870165	-4.21892
91	0xbfb8ee0d	-1.4447647
92	0xbe8ef7e2	-0.27923495
93	0x3f54f651	0.8318835
94	0xbf86fd59	-1.0546066
95	0x3d8e13c6	0.06937365
96	0xbe8f8aff	-0.28035733
97	0xbf364edd	-0.71214086
98	0xbf8aeb5e	-1.0853078
99	0xc0124b26	-2.2858367
100	0xbd128c23	-0.035778176
101	0xbd81baf2	-0.06334485
102	0xbed2f710	-0.4120412
103	0x3edd0757	0.43169662
104	0x3ea08bf6	0.31356782
105	0xc0a8d513	-5.27601
106	0x3e5b2377	0.21400248
107	0xbd8717ec	-0.065963596
108	0x3f97f9a3	1.1873058
109	0xbde8963c	-0.1135678
110	0xbf94685a	-1.1594346
111	0xbc9064a4	-0.017626114
112	0xbf20588f	-0.6263513
113	0xbfb6660d	-1.4249893
114	0x3c7e1eec	0.015510302
115	0xc008fbf9	-2.1403792
116	0x3e31cd30	0.17363429
117	0xbeb1bb98	-0.34713435
118	0x3e9a4a12	0.30134636
119	0x3e50ea07	0.20401774
120	0xbf49e45a	-0.7886406
121	0xbdcc42d5	-0.09973685
122	0xbc4bcb42	-0.012438597
123	0xbf85e5d7	-1.0460767
124	0x3f9136da	1.1344864
125	0xbf4a63dc	-0.79058623
126	0xbe42f91e	-0.19040343
127	0xbf76f54f	-0.9646806
128	0xbfa8eab4	-1.3196626
129	0x3efeda65	0.49775997
130	0x3d198165	0.037476916
131	0xbdd26b27	-0.10274344
132	0xbe7f7d70	-0.24950194
133	0x3d977a89	0.073964186
134	0xbeee4840	-0.46539497
135	0x3e8e5369	0.27798012
136	0xbf9a4ae3	-1.2054104
137	0xbf90cca4	-1.1312451
138	0x3dc69a24	0.09697369
139	0x3d7133dd	0.05888735
140	0x3f32dd18	0.6986861
141	0xbea745d2	-0.32670456
142	0x3e5e42d1	0.21705176
143	0xbe96b5fc	-0.29435718
144	0x3e88bbff	0.2670593
145	0xbf05dad7	-0.5228705
146	0x3f6c5ab3	0.92325896
147	0x3e9df3ab	0.30849966
148	0xbf8688aa	-1.0510457
149	0xbf782b59	-0.96941143
150	0xc015e591	-2.3421366
151	0xbfdaa9c3	-1.7083057
152	0xc02cb296	-2.6984
153	0x3d11a798	0.03556022
154	0x3df87402	0.12131502
155	0x3d43e75f	0.047828075
156	0xbe8d1e70	-0.27562284
157	0xbf0c0c58	-0.54706335
158	0xbdc24a65	-0.09486846
159	0x3e4d8d9b	0.2007355
160	0xbfcc0e73	-1.594191
161	0xbdab7de9	-0.08373625
162	0xc04e1380	-3.2199402
163	0x3db90782	0.09034635
164	0x3e05fb97	0.13084255
165	0xbf4efe9c	-0.80857253
166	0x3e4bc906	0.19900903
167	0x3cb64c59	0.022253202
168	0xbe43c0f8	-0.1911658
169	0x3d9582aa	0.07300313
170	0xbfae81b0	-1.3633327
171	0x3e15de99	0.14635696
172	0x3d610bce	0.0549429
173	0xbfe455d3	-1.7838691
174	0xbf2b4a0c	-0.6690986
175	0x3d9be865	0.07612685
176	0x3c08c994	0.008348841
177	0xbe2e3d94	-0.17015678
178	0x3d7f4f08	0.06233123
179	0x3c8755a0	0.016520321
180	0xbc4bd92d	-0.012441915
181	0xbdab83d7	-0.08374756
182	0xbe83bf3a	-0.25731832
183	0x3eddb617	0.43302986
184	0xbdbae3b3	-0.091254614
185	0xbda2ddb9	-0.079524465
186	0xbe05dda3	-0.13072829
187	0xbf9506ca	-1.1642697
188	0xbd00b08c	-0.03141837
189	0x3d6f769b	0.05846272
190	0xbfac0a2f	-1.3440608
191	0xbe6a686f	-0.22891401
192	0xbd53bab9	-0.051691744
193	0x3e38d478	0.180498
194	0x3e72b741	0.23702718
195	0xbef3fd6f	-0.47654292
196	0xbf6ed473	-0.9329292
197	0x3e025bf4	0.1273039
198	0xbe115dd4	-0.14195949
199	0x3e71ae06	0.23601541
200	0xbb82c772	-0.003991061
201	0x3d386698	0.045019716
202	0xbe31da52	-0.17368439
203	0xb9a913fd	-0.00032249084
204	0xbd07d425	-0.0331613
205	0x3cac885a	0.021061111
206	0xbd010de5	-0.03150739
207	0x3b855943	0.0040694787
208	0xbd2997bb	-0.041404467
209	0xbdb53cae	-0.08849464
210	0xbc9f1b3a	-0.019422162
211	0xbea83e4f	-0.32860038
212	0xbe30100b	-0.1719362
213	0xbd002dac	-0.031293556
214	0xbe01655f	-0.12636326
215	0xbd89ac8d	-0.067223646
216	0xbd71e14f	-0.05905276
217	0x3cc80d98	0.024420545
218	0x3bea2ed4	0.0071466956
219	0xbc510384	-0.012757186
220	0x3c3f5585	0.011678104
221	0xbe29724d	-0.16547509
222	0xbc8ae1cd	-0.016953373
223	0x3d0296f4	0.03188224
224	0x3d025a89	0.031824622
225	0xbddeaa9f	-0.10872387
226	0xbd4c5f8a	-0.0498958
227	0xbe66a73b	-0.22524731
228	0xbe274b4a	-0.16337314
229	0xbd72a451	-0.059238736
230	0xbe5d41b5	-0.21607096
231	0x3d03aebf	0.032149073
232	0xbe0f1dd6	-0.13976225
233	0xbe5aa352	-0.21351364
234	0xbe83be6b	-0.25731215
235	0xbdc295e4	-0.095012456
236	0xbddea772	-0.108717814
237	0xbda5c5e5	-0.08094386
238	0xbd84abf4	-0.0647811
239	0x3d742421	0.059604768
240	0xbd81c38a	-0.06336124
241	0xbcbfa4c4	-0.023393996
242	0xbc08728c	-0.008328091
243	0xbd9f2e67	-0.077725224
244	0x3bb36e40	0.0054757893
245	0x3c233b2d	0.009962839
246	0x3d37cc17	0.04487237
247	0xbd09dac5	-0.0336559
248	0xbdb4539c	-0.0880501
249	0x3da2197b	0.07915016
250	0xbd6e0bf8	-0.058116883
251	0xbd8b97f2	-0.06816091
252	0xbc867041	-0.016410949
253	0xbd50ea51	-0.05100471
254	0x3b5c25e7	0.0033591927
255	0xbe0875f2	-0.13326243

rcsl.backbone.model.6.bias f4 [200]
0	0xc0e7943a	-7.236844
1	0xbf00e375	-0.5034707
2	0xbf1701ff	-0.5898742
3	0xc13c0183	-11.750369
4	0xc0bcb701	-5.8973393
5	0xbf6b315e	-0.91872203
6	0xbdf76de4	-0.12081507
7	0xc097e411	-4.74659
8	0xc050acf0	-3.2605553
9	0xbe59f2af	-0.21283983
10	0xc04e0eb5	-3.2196476
11	0x4057dcef	3.3728597
12	0xbc58a0f4	-0.013221968
13	0xbe0985df	-0.13429974
14	0xbfd03acf	-1.6267947
15	0xbec39b40	-0.38204384
16	0x3fae15bd	1.3600384
17	0xc008fe12	-2.1405072
18	0xc06096c8	-3.509203
19	0x3e85b013	0.26110896
20	0xc0b3e206	-5.6213408
21	0xc100557a	-8.020868
22	0xc0229f11	-2.5409586
23	0xc10147fc	-8.080074
24	0x3faa652d	1.3312126
25	0xc00ceb83	-2.2018745
26	0xc0dc4960	-6.883957
27	0x407c5707	3.9428117
28	0xc0aad0f8	-5.338009
29	0x402299e6	2.5406432
30	0xc11137d3	-9.076129
31	0xc11e462b	-9.892131
32	0xbf33a6d0	-0.7017641
33	0x408f79e2	4.4836283
34	0xbf0c7494	-0.54865384
35	0xc0f19787	-7.549747
36	0xc0b9ebd6	-5.8100386
37	0xc0b1d5a3	-5.5573287
38	0xc069e538	-3.6546154
39	0xc0e5a64f	-7.1765513
40	0x3edda8a8	0.43292737
41	0x40a9da51	5.3079
42	0x3f51154c	0.8167312
43	0xbf8896fe	-1.0671079
44	0x4046afdd	3.1044838
45	0xbf19b2d4	-0.60038495
46	0xc0d29f6b	-6.58196
47	0x3e945a30	0.28975058
48	0xbf181ad8	-0.5941596
49	0xbf320a68	-0.6954713
50	0xc0848141	-4.140778
51	0xb7720101	-1.4424558e-05
52	0xc09ef432	-4.967309
53	0xbf75039a	-0.9570862
54	0xbf6c9798	-0.92418814
55	0xc08fe5ac	-4.496786
56	0xbfaa6aaf	-1.3313807
57	0xc0f18723	-7.547746
58	0xc0f7ce3f	-7.7439265
59	0xbf6b8b0c	-0.92009044
60	0xbf216b61	-0.6305447
61	0xbee8b80b	-0.45452914
62	0x3ff48eea	1.9106114
63	0x3e974c33	0.29550323
64	0xc0b7d878	-5.7451744
65	0xc08078ba	-4.014737
66	0x3ef5ac76	0.4798314
67	0xc13dcc89	-11.862435
68	0xbf988b87	-1.191758
69	0x4062397e	3.534759
70	0x40b3a42f	5.613792
71	0x3f7959b5	0.9740251
72	0x3ecfe595	0.40604845
73	0xc0b31651	-5.596474
74	0xc0f02f36	-7.505763
75	0xc0b229de	-5.5676107
76	0xbed2b83b	-0.41156182
77	0xc027936b	-2.6183727
78	0xc04de04a	-3.2168145
79	0xc0b3599b	-5.604688
80	0xc0a9d8ff	-5.307739
81	0x40d94dcd	6.790747
82	0xc0499895	-3.1499379
83	0xc0e4235c	-7.1293163
84	0xc0448540	-3.070633
85	0xc01a7348	-2.4132862
86	0x3fb9dfce	1.4521425
87	0x3fa9c0d9	1.3261977
88	0xbf04c5c5	-0.5186427
89	0xbe413412	-0.1886752
90	0x3f72b071	0.9480048
91	0xc0607d1b	-3.5076358
92	0xc0a3eff1	-5.1230397
93	0xc0239b02	-2.556336
94	0xbf9c7b43	-1.2225116
95	0xbf2c8218	-0.6738601
96	0xc00c3479	-2.1907027
97	0xbfe88463	-1.8165401
98	0x3ee5c29b	0.44875035
99	0x40c5e835	6.1845956
100	0xc1087be4	-8.530247
101	0x4064e485	3.5764477
102	0xc0971d67	-4.722339
103	0xc092d1c3	-4.5881057
104	0xc0104899	-2.254431
105	0xbf5c61c6	-0.8608669
106	0xc0c17699	-6.0457273
107	0xc0cba303	-6.363649
108	0xbef197ef	-0.4718623
109	0x401ffa24	2.4996424
110	0x409b838c	4.859808
111	0xbf8cab3c	-1.0989757
112	0xbeed7307	-0.4637682
113	0xc115813a	-9.344049
114	0x3f193351	0.5984393
115	0x3fa36ac3	1.2766956
116	0x3f9b701d	1.2143589
117	0xc03057f3	-2.755368
118	0xc0078a01	-2.117798
119	0xc078fc41	-3.8903964
120	0xc0989cba	-4.7691317
121	0xc060ee34	-3.5145388
122	0x3f635e4c	0.8881576
123	0xc12caf6c	-10.792828
124	0x3fdf6431	1.7452451
125	0xbf8de003	-1.1083988
126	0x3dbb2c47	0.091393046
127	0x4014f2f3	2.3273284
128	0xc060fea0	-3.515541
129	0xc0f06f46	-7.513583
130	0xc03aa4e5	-2.9163144
131	0xc0a8c9ff	-5.2746577
132	0xc0d7d666	-6.7449217
133	0xbf9cc228	-1.2246752
134	0x3ea6a5d1	0.32548383
135	0xc097db7a	-4.7455416
136	0xc080218a	-4.004094
137	0xc13dc206	-11.859869
138	0xbf0e6252	-0.55618775
139	0xbfdeba38	-1.740058
140	0x40f2a503	7.582643
141	0xbfe5b503	-1.7945865
142	0xbfff318b	-1.9936994
143	0x3fefc3a6	1.8731582
144	0xbe926f18	-0.28600383
145	0xc11e5e33	-9.897998
146	0xbf87f2ff	-1.0621032
147	0xc0b40484	-5.625551
148	0xbf41e0d4	-0.75733685
149	0x40666b0b	3.6002834
150	0x3f223ba7	0.6337227
151	0xc10e3c3f	-8.8897085
152	0xc110d3a6	-9.051672
153	0xc0541b73	-3.3141754
154	0xbe6f0c32	-0.23344496
155	0x40907dba	4.5153475
156	0xc1553ec9	-13.327828
157	0xc044ded9	-3.0761015
158	0xc08ed539	-4.463528
159	0xbf144a4b	-0.5792586
160	0x40904087	4.507877
161	0x40154b35	2.3327153
162	0x3ccfc177	0.025360806
163	0xc10b2a5f	-8.6978445
164	0xc18e26ca	-17.76894
165	0x3f3b31eb	0.73123044
166	0xbee548df	-0.4478216
167	0xc100b207	-8.043464
168	0xbfd143d6	-1.6348827
169	0x4097cc0e	4.743659
170	0xbf08e14f	-0.53468794
171	0xbfce6d0a	-1.6127026
172	0x3ef5e647	0.4802725
173	0x3f2caa74	0.6744759
174	0xc0df5a45	-6.979769
175	0x3ff35f72	1.9013503
176	0xc03c7bfa	-2.945067
177	0xbfd30c99	-1.648822
178	0x3d0e10da	0.03468404
179	0x40c04a41	6.009064
180	0xc09cab17	-4.895885
181	0xc0eaa2de	-7.3323812
182	0xc0996cc7	-4.7945285
183	0x408ccf4f	4.400306
184	0xbfe221d5	-1.7666575
185	0xbf0ff8bd	-0.5623892
186	0xbf0f6226	-0.5600914
187	0xc036f089	-2.858431
188	0xbf23daab	-0.64005536
189	0x3e899907	0.26874563
190	0xc0ec035c	-7.37541
191	0xbafd0ef1	-0.0019306821
192	0xbf00f2ca	-0.50370467
193	0xbf2bcce1	-0.67109495
194	0x4082da7c	4.0891705
195	0xc0adedfe	-5.435302
196	0xc0dc6121	-6.8868566
197	0xc087129b	-4.221021
198	0xc107d808	-8.490242
199	0xc08eadc7	-4.458713
