backup/walker2d-medium-expert-v2/rcsl/timestamp_23-0830-214207&1/model/policy.pth (torch, 505723 bytes, 10 tensors)

rcsl.backbone.model.0.weight f4 [200, 18]
000000 2d 14 97 c0 a4 51 19 40 44 6f 14 c0 2a 71 b1 c0
       -4.721213 2.395608 -2.319291 -5.545064
000010 70 0d c6 c0 00 93 8d 40 d3 a3 29 c0 9e 31 37 bf
       -6.1891403 4.4241943 -2.650624 -0.71560085
000020 ee 66 e0 bf 1b 45 c6 3f aa e8 68 bd b0 ab 64 3f
       -1.7531412 1.5489839 -0.05686251 0.89324474
000030 94 47 6b 3e 73 74 09 bf c4 3b 26 bf 01 a1 7b 3f
       0.22976524 -0.5369331 -0.64934945 0.9829255
000040 aa 5b ef 3e b6 17 a0 bd 22 91 27 c1 06 c8 cb c0
       0.46749622 -0.078170225 -10.472933 -6.368167
000050 ec b0 c6 41 47 a4 55 c0 1e 20 a4 c0 94 93 0e c1
       24.836388 -3.3381517 -5.1289206 -8.91103
000060 1e ea a8 c0 3d a4 dc c0 9b 5a da 3f ee 06 68 bf
       -5.2785788 -6.8950486 1.70589 -0.90635574
000070 75 8b 34 c0 48 e9 d9 3f bf fe 35 bf 61 1e 85 3d
       -2.8210118 1.7024317 -0.71091837 0.06499935
000080 25 a7 40 3f 5d 10 91 3e 0c be 59 bf 65 82 0c bd
       0.7525504 0.28332797 -0.85055614 -0.03430404
000090 b7 cc a8 41 07 4e 57 c1 6e a9 fa 41 09 f3 24 c2
       21.099958 -13.45655 31.33273 -41.23734
0000a0 3a ab 41 41 e7 5b db 40 0d 35 06 41 1a d8 91 c0
       12.104303 6.8549685 8.387952 -4.5576296
0000b0 06 7e 0d c1 00 04 89 c0 dd 56 f0 3f a5 0a b4 3f
       -8.843267 -4.2817383 1.8776509 1.4065748
0000c0 b0 b0 8d 3f 81 8e 2e bf d8 5b b3 bf d6 be 56 3f
       1.1069546 -0.68186194 -1.4012403 0.8388494
0000d0 18 83 ce 3e 7c 11 be 38 9a 6b dc c0 cd 41 ee 40
       0.40334392 9.063163e-05 -6.888135 7.4455323
0000e0 dc 25 b1 c1 5d 20 bc c1 50 07 1e 41 93 98 c6 41
       -22.143486 -23.515802 9.876785 24.8245
0000f0 13 a4 32 3e e5 c4 b5 bf 99 bb d6 bf f1 5c c7 40
       0.17445402 -1.4200712 -1.6776 6.2300954
000100 b5 44 dd 3e 25 02 07 3f a3 9f 17 bf 60 3f 49 3f
       0.43216482 0.5273765 -0.5922796 0.7861233
000110 83 58 15 c0 4e e7 8b 3e e2 c0 56 3f e4 70 a2 bc
       -2.3335273 0.2732491 0.83888066 -0.019829221
000120 a9 05 13 c0 2b b0 1e bf 63 40 c9 3e 8a c0 76 40
       -2.2972205 -0.6198756 0.39306936 3.8555017
000130 4f 3b bd c0 02 9e 37 41 b7 4f 81 40 89 63 30 bf
       -5.91349 11.476076 4.040981 -0.6890188
000140 bc 6e d4 bf 98 be 2f c0 ce 91 89 3f 7d 85 4f 3f
       -1.6596293 -2.746008 1.0747621 0.8106306
000150 01 14 c2 3f fd 88 1c be 4a 82 00 c0 71 8c 05 be
       1.5162355 -0.15286632 -2.0079522 -0.13041855
000160 ad c1 91 3f 81 31 26 bd a3 6e cc c0 cf b9 6e bf
       1.138723 -0.040574554 -6.3885055 -0.9325227
000170 ea 45 32 c0 61 a3 f1 3f f7 16 a5 c0 94 09 ea bf
       -2.7855172 1.8877984 -5.1590533 -1.8284173
000180 ec 33 63 3f 30 c9 2e 40 48 50 ec bd 22 db 00 3f
       0.887511 2.7310295 -0.1153875 0.5033437
000190 6a 8d 74 3f 50 b9 a9 be 6b 3c 28 bf 99 00 19 3e
       0.9552828 -0.33149195 -0.6571719 0.14941634
0001a0 db f4 82 3f 60 87 13 3f 94 5d 16 3f 5e 66 77 bd
       1.0230974 0.5762844 0.5873654 -0.06040036
0001b0 69 8f 23 41 77 14 e9 c1 2b 9a 19 41 34 12 c4 41
       10.222512 -29.134993 9.600139 24.508888
0001c0 2d d4 c8 41 23 3a a8 c1 59 0a 07 42 58 94 58 41
       25.103601 -21.028387 33.760105 13.536217
0001d0 67 92 e9 40 94 fb 1c c0 5d fc c0 3e 1b 11 81 c0
       7.2991214 -2.452855 0.37692538 -4.033338
0001e0 06 fa ac bf 60 40 05 bf c9 28 61 3f 6c 4b 52 3e
       -1.3513801 -0.52051353 0.8795286 0.20536584
0001f0 f0 7d 87 3e 95 34 f0 b7 63 41 a6 c0 ce 30 80 40
       0.2646327 -2.8634715e-05 -5.195482 4.0059576
000200 59 e5 5d c0 35 cc 04 c1 10 ad e4 bf 7e 14 d8 40
       -3.4671233 -8.299855 -1.7865314 6.7525015
000210 7f 85 a6 bf bf ae 1a 3f cd 61 54 3d 58 aa cd 3f
       -1.300949 0.6042289 0.051851083 1.606761
000220 8e fb b9 3c 23 b0 01 3f fb 81 00 3f 86 b7 f4 bd
       0.022702958 0.5065939 0.50198334 -0.11949067
000230 71 52 d6 be f4 1f 56 3f 95 83 f6 be f8 00 91 be
       -0.41859773 0.83642507 -0.48147264 -0.28321052
000240 ca f7 94 c0 5b c0 94 40 f9 46 09 41 03 07 b6 c0
       -4.6552477 4.648481 8.579827 -5.688356
000250 2d a1 08 40 71 0f 78 bc 47 d8 80 c0 93 2e 8a 3f
       2.1348374 -0.0151404 -4.026401 1.0795463
000260 b7 3b 7b bf 2a 15 8e 40 fd d9 c3 be 66 cd 53 bf
       -0.9813799 4.4400835 -0.3825225 -0.8273529
000270 c7 96 81 bf 49 36 97 be b7 42 ee 3f f7 ed 1a bf
       -1.0124139 -0.29533604 1.861411 -0.60519356
000280 e4 81 fe bd 2b b0 4d be d6 28 ff c0 26 85 06 41
       -0.124271184 -0.20086734 -7.973735 8.407507
000290 df 94 90 3f a6 09 0f bf 09 d3 75 c0 0d 4d a9 40
       1.1295432 -0.558741 -3.8410056 5.2906556
0002a0 9b 87 7f 40 ea 83 f5 bf b9 8a e8 3f 64 e9 b0 3e
       3.9926517 -1.9180882 1.8167335 0.34553063
0002b0 cf 2d 70 be 31 68 a3 3f 9e a5 1e bf 6e 7a 9f 3e
       -0.23454975 1.2766172 -0.6197146 0.31148094
0002c0 53 36 b6 3e 20 b8 14 3f 97 a6 42 3d a0 2e e5 bb
       0.3558832 0.5809345 0.047522154 -0.0069940835
0002d0 50 94 62 c0 be 76 36 41 3e 22 60 41 d6 04 09 41
       -3.5403023 11.40399 14.00836 8.563681
0002e0 73 06 69 c0 2d 4f 1d 41 d9 c7 39 bf b0 42 15 40
       -3.6410186 9.83183 -0.7257057 2.3321953
0002f0 5c fd 24 c0 87 88 3d 3f c4 11 98 3f d9 4e 09 bf
       -2.5779638 0.7403645 1.1880422 -0.53635937
000300 80 32 63 be b7 53 f8 3d 5a 12 42 3f b1 13 82 3e
       -0.22187233 0.12125342 0.7580925 0.25405648
000310 54 b4 b9 bf c1 f6 e6 bc fe 67 cf c0 e8 ef 8d c0
       -1.4508157 -0.028193833 -6.4814444 -4.4355354
000320 31 e7 68 3f f4 fa 1d c0 1c ec d9 c0 5e 4c a5 c0
       0.9097777 -2.468442 -6.810072 -5.165572
000330 ff d7 81 41 46 a6 ed 3f 1e 68 66 bf 45 e3 45 c0
       16.230467 1.8566368 -0.9000262 -3.0919964
000340 c3 7d 2d bf c1 18 2d bf 2e 4b 91 3e 50 f6 1c 3e
       -0.6777002 -0.67615896 0.2837767 0.15328336
000350 4c 8c 2f 40 68 6e 8f 3f 35 18 93 be 75 bd 4f bc
       2.742938 1.1205568 -0.28729406 -0.012679447
000360 17 aa 9a 3e f4 73 0c c1 f8 02 7e c1 73 08 7a 41
       0.30207893 -8.778309 -15.875725 15.627063
000370 e4 0a b1 be 4f 3a ca 40 f9 13 e8 40 8e d9 5f c1
       -0.3457862 6.3196177 7.252438 -13.990614
000380 8e bf 12 c0 e6 9a 68 bf 8d eb 10 40 6b e5 dd be
       -2.2929416 -0.90861356 2.2643769 -0.43339095
000390 55 73 31 bf 52 47 96 3e b6 6b b0 bf 38 0e 4c bf
       -0.6931661 0.29351288 -1.3782871 -0.79709196
0003a0 14 48 0e 3f 5e 74 8b bc 5f 85 18 c0 3b 2d c2 41
       0.5557873 -0.017023262 -2.3831403 24.272085
0003b0 59 4e e3 41 55 54 76 41 08 a9 4f c1 89 80 25 c2
       28.413256 15.395589 -12.978767 -41.375523
0003c0 9b f3 93 c0 2e d9 ab 40 08 5b 00 41 a0 ee 14 3f
       -4.623487 5.370261 8.022224 0.5817661
0003d0 53 fd 7e 40 d8 ad c4 c0 0c 82 08 c0 e7 1d df bf
       3.9842117 -6.146221 -2.1329374 -1.7431
0003e0 bb e0 25 40 96 62 01 40 36 00 97 3e ac 4f 08 38
       2.5918415 2.0216422 0.29492348 3.2499127e-05
0003f0 af 0c c1 41 39 24 2c c1 2d ef 0c c2 e2 15 30 41
       24.131193 -10.758843 -35.23357 11.0053425

rcsl.backbone.model.0.bias f4 [200]
000000 5a 0b f0 bf 72 d3 f3 c0 0c dd 3a 41 4b eb ae c0
       -1.8753464 -7.619561 11.6789665 -5.4662223
000010 04 9d 65 c0 70 5e 9f c0 f5 25 0c bf cc dc 47 c0
       -3.5877085 -4.980278 -0.5474542 -3.1228514
000020 5c 3e 5c c0 42 4e ad c0 51 d8 4b c0 61 2a cb c0
       -3.441306 -5.415803 -3.185078 -6.348923
000030 ff b5 ab bf 17 02 59 bf 72 57 4b 41 c9 dd 75 c0
       -1.3414916 -0.84768814 12.708849 -3.8416617
000040 6f 79 93 c0 0c 8d fa c1 ff a1 1e c0 09 31 e6 40
       -4.6085734 -31.31887 -2.4786375 7.1934857
000050 f4 37 b0 c0 19 5f 5d c0 73 51 8c c0 cc 17 d2 c0
       -5.50683 -3.4589293 -4.3849425 -6.565405
000060 82 58 5b c0 a7 2f 85 bf ff e2 53 c0 c9 cc ba 3f
       -3.427277 -1.0405167 -3.3107297 1.4593745
000070 ba fa 75 bf d3 4e 5f c0 cd 28 4c 41 60 07 32 c0
       -0.96085703 -3.489186 12.759961 -2.7817001
000080 94 bd 87 c0 2a 8a 8d c0 a2 77 61 c0 9c d8 b4 c0
       -4.241892 -4.4231157 -3.5229268 -5.6514416
000090 b8 d9 03 40 2d bc 99 c0 b9 dd 33 c0 51 c5 7c c0
       2.0601635 -4.8042207 -2.8104079 -3.9495432
0000a0 16 1a 2b c0 45 df 94 c0 55 4a 45 c0 04 57 e3 40
       -2.6734672 -4.6522546 -3.0826619 7.104372
0000b0 06 b8 ff 40 60 1e ca c0 24 17 47 c0 4b a0 86 c0
       7.991214 -6.316208 -3.1107874 -4.207067
0000c0 fe e4 9f c0 b4 a5 68 c0 3a f0 99 c0 2d cd 2e c0
       -4.996703 -3.6351137 -4.8105745 -2.731273
0000d0 17 cb 89 c0 15 be b1 c0 6c c5 a2 c0 7c db 17 c0
       -4.3060412 -5.5544534 -5.0865993 -2.3727713
0000e0 9f 97 bc c0 a3 5d f7 bf b8 9a 0a 40 87 a1 8f c0
       -5.8935084 -1.9325451 2.1656933 -4.4884677
0000f0 47 0b ed 40 b3 6a 6e c0 de c2 87 c0 7f 42 e1 c0
       7.4076266 -3.7252624 -4.2425375 -7.039367
000100 ce dd 3c c0 8f d0 a5 c0 22 cb 77 c0 17 29 25 c0
       -2.951038 -5.181709 -3.8717732 -2.580633
000110 9a 40 b9 bf e6 9d 8e c0 6a c9 9d bf 35 95 f3 bf
       -1.447284 -4.4567747 -1.2327092 -1.9029909
000120 18 c5 9f c0 29 9a ab bf 2a e1 94 c0 86 60 86 c0
       -4.9928093 -1.3406421 -4.652486 -4.1992826
000130 9c 07 8d c0 14 62 1a bf 45 6f 7d 3f 72 b4 23 c0
       -4.407179 -0.60305905 0.9899791 -2.5578885
000140 86 bb 7a c0 ff 8f b0 bf 10 12 9a c0 dd 7f d9 c0
       -3.9176955 -1.3793944 -4.814705 -6.7968583
000150 b6 c6 05 41 81 da 88 c0 33 f5 f7 c0 d7 0e c8 bf
       8.361013 -4.276673 -7.7486815 -1.5629529
000160 ae 81 ac c0 4a 55 84 c0 1b f7 91 c0 9c 15 10 c1
       -5.39083 -4.1354113 -4.5614142 -9.005276
000170 9b 7d 17 41 e1 f2 46 c0 a0 cc 8a c0 17 a3 83 bf
       9.468165 -3.1085742 -4.3374786 -1.0284146
000180 94 6c cb c0 7f b1 bd c0 06 95 b4 c0 dc cd 03 c1
       -6.357004 -5.927917 -5.6431913 -8.237759
000190 6d 8e 7f c0 80 31 bd bf 51 44 3b c0 7e 02 88 c0
       -3.993068 -1.4780731 -2.9260447 -4.250304
0001a0 c9 1c 5c c0 3a bc 3f c0 de a4 0e c0 4b 30 cb c0
       -3.439257 -2.9958634 -2.2288127 -6.349645
0001b0 26 01 88 c0 0b e2 4c c0 46 82 d1 c0 7f 15 67 c0
       -4.25014 -3.2012966 -6.5471525 -3.610687
0001c0 90 55 db 3e 66 2d 53 c0 7f fc 82 bf 0d 76 17 c1
       0.42838717 -3.299646 -1.0233306 -9.466321
0001d0 86 eb 98 c0 c3 ff 94 c0 3f cd ca c0 95 7f 1e c0
       -4.7787504 -4.656221 -6.3375545 -2.476537
0001e0 72 d5 97 c0 79 ed b3 c0 d5 fa df c0 ca 3f 83 c0
       -4.7448053 -5.6227384 -6.999369 -4.1015368
0001f0 42 d8 92 c0 8d 0c b9 c0 38 2d c6 c0 50 31 23 c0
       -4.5888987 -5.782782 -6.19302 -2.5498848
000200 01 15 0a c0 aa 54 59 41 5f 87 d7 c0 8b 3f 7b c0
       -2.157532 13.58317 -6.735275 -3.9257534
000210 eb ad 0b 40 cf ff 1b c1 3f a3 7a c0 ad c8 a7 c0
       2.18249 -9.749953 -3.9162138 -5.2432466
000220 89 72 9f c0 31 aa 6c c0 dd 5b a2 bf c5 df 91 c0
       -4.9827313 -3.6978877 -1.2684284 -4.5585656
000230 a3 51 44 41 c7 aa 45 c0 6e 73 d3 bf bc 27 a6 c0
       12.269931 -3.0885484 -1.6519601 -5.1923504
000240 bf ae e7 bf db 75 e2 bf 29 b7 b8 c0 74 1b 73 c0
       -1.8100203 -1.7692217 -5.7723584 -3.7985506
000250 8b b4 b6 c0 a5 fb a8 c0 5f d4 7f c0 d6 76 69 c0
       -5.709539 -5.2807183 -3.997337 -3.6478782
000260 6e 68 9d c0 37 94 7b c0 ef 0f ab c0 00 36 c7 bf
       -4.918998 -3.9309213 -5.345695 -1.5563354
000270 8a 82 2f bf d1 3a 8a c0 0a d2 c3 c1 e5 f1 7e c0
       -0.6855856 -4.3196797 -24.477558 -3.983514
000280 f6 7b 80 c0 31 1c 5d c0 b3 f3 13 40 28 d9 b0 c0
       -4.015132 -3.4548457 2.3117492 -5.5265083
000290 18 c7 88 c0 6f c4 06 c0 52 b4 38 c0 1e 8a 66 c0
       -4.2743034 -2.1057394 -2.8860059 -3.60218
0002a0 6a 46 9b c0 60 e4 72 c0 44 d0 36 c0 6a cc a4 c0
       -4.8523455 -3.795189 -2.8564615 -5.149953
0002b0 89 16 67 3e f5 16 03 c0 e6 9c b8 c0 e7 43 8c c0
       0.2256719 -2.0482762 -5.7691526 -4.383289
0002c0 f5 30 e2 be a2 6b 16 41 e8 18 b5 c0 4a 41 74 c0
       -0.44177976 9.401278 -5.6592903 -3.816485
0002d0 50 10 cd c0 34 08 82 c0 88 25 56 c0 8c bb 99 c0
       -6.4082413 -4.0635014 -3.3460407 -4.804144
0002e0 b2 a0 20 c0 a7 24 c2 c0 c2 f4 5a c0 b1 2f 39 c0
       -2.509808 -6.066974 -3.4211888 -2.8935359
0002f0 d3 ee be bf fa ef 19 c0 37 98 cc bf c0 c1 90 41
       -1.4916633 -2.405272 -1.5983952 18.094604
000300 bd 8b 8b c0 31 a4 98 c0 5d 57 7e c0 9e 4e 53 c0
       -4.360808 -4.770043 -3.9740822 -3.3016734
000310 8c ce d5 bf 30 e7 77 40 7b 97 2a c0 e7 10 cc 3f
       -1.6703658 3.8734856 -2.6654956 1.5942658

rcsl.backbone.model.2.weight f4 [200, 200]
000000 1f 29 ea 3f e0 d4 69 c0 12 4e 1e be 85 ba c9 bf
       1.8293799 -3.6536179 -0.15459469 -1.5760046
000010 9c e5 66 bf ca 03 72 3f 82 f7 ed bd 60 e8 a6 3f
       -0.90194106 0.9453703 -0.11619474 1.3039665
000020 8a 10 49 3e 75 38 dc bf d4 4a f9 be de 65 a0 3f
       0.19635215 -1.7204729 -0.48689902 1.2531087
000030 61 b6 f0 3e 21 f1 b5 3e 20 ff ef 3c f1 05 10 3e
       0.47014144 0.3553553 0.029296458 0.14064766
000040 57 6a 90 bc 47 93 07 bc 55 3b 63 bd 37 a7 27 be
       -0.017628832 -0.00827486 -0.055476505 -0.16372381
000050 93 8d 19 c0 8f 6c d3 bd 64 2d cd 3e 56 76 ef be
       -2.399266 -0.1032344 0.40073693 -0.4676997
000060 b8 22 cb bf a4 d4 2c be 02 4e d0 bf 53 a8 43 3d
       -1.586997 -0.16877991 -1.6273806 0.04776795
000070 f9 5d d7 bd 32 63 aa be fc 0b e2 3d e5 70 c8 3e
       -0.10515971 -0.33278805 0.11037442 0.39148632
000080 1c 35 83 bf 4a 1e cc 3e 78 24 46 bf fc 7a ab 3e
       -1.0250583 0.3986686 -0.77399397 0.33492267
000090 3f 40 28 bf 99 7a 0a 3f 3f 63 c0 3f c4 af 14 bf
       -0.6572303 0.5409332 1.5030288 -0.580807
0000a0 70 cb 9f bf 23 fd f4 3f 2d 1e 96 3e 1f bc e2 bd
       -1.2483959 1.9139751 0.29319897 -0.110710375
0000b0 b8 c5 9f bd d4 83 b6 bf 6f 4b fe bd de 3f 7f bf
       -0.07801384 -1.4258981 -0.124167316 -0.9970683
0000c0 47 30 91 bf 02 ff 09 c0 e9 2c 82 c0 9c 4a 7c c0
       -1.1342858 -2.1561894 -4.067982 -3.9420538
0000d0 bb e9 5f bf 68 c8 06 3f 4c 57 85 40 80 c3 c3 bf
       -0.8746602 0.52649546 4.1669064 -1.5294037
0000e0 d8 dc b5 3e b5 e4 03 c0 39 a5 dd 3e f3 05 47 40
       0.35520053 -2.0608342 0.43290117 3.109738
0000f0 34 74 fd be ad 5f 32 bf e9 e6 17 3f 20 18 9e be
       -0.49502718 -0.6967724 0.59336716 -0.3087778
000100 44 ae 3e be 96 8a c6 3e 9c 90 28 bf 63 a2 89 40
       -0.18621165 0.38777608 -0.65845656 4.3010726
000110 ed 1a bd 3c f1 bd 60 bf 06 29 64 3e b5 ee 64 3f
       0.023084128 -0.8778983 0.22281274 0.8942674
000120 a6 f7 6f 3f cf 26 26 3f a7 88 91 c0 91 9b 17 c0
       0.93737257 0.6490297 -4.547931 -2.36887
000130 94 f9 2b 3e 6a 76 cf bf 43 4b 1a 3f bf 28 a4 3e
       0.16794425 -1.6208012 0.6027109 0.32062337
000140 f8 58 12 bf dd 46 cf be 1d 32 7e 3e 07 cf 3d 3d
       -0.57167006 -0.40483752 0.24823804 0.046340015
000150 9d cc e2 bd 8e f2 35 c0 de a7 87 3d bb 61 87 be
       -0.11074183 -2.8429294 0.06623815 -0.2644175
000160 75 89 bb bf 1e 64 2a bf 83 80 d3 3e 96 09 74 bf
       -1.4651324 -0.66559017 0.41308984 -0.95327127
000170 cf d6 00 be a2 e4 4e be ec 76 c6 3f a5 61 d1 bc
       -0.12581943 -0.20204404 1.5505042 -0.025559256
000180 35 1d 4f 3f 68 df 18 bf e4 89 06 c0 92 e1 bc 3d
       0.8090394 -0.5971589 -2.1021662 0.092227116
000190 c6 56 1a bc f0 ba 0b be bb 68 67 bf bd 2f 0f bf
       -0.009420102 -0.1364553 -0.9039418 -0.5593222
0001a0 08 ab 8f bf 1b fa 30 40 de 80 37 3f c0 60 5b 3d
       -1.122407 2.7652652 0.7168101 0.053559065
0001b0 ff fc 6c bd ae 9a 07 be 31 07 2e c0 67 b7 58 bf
       -0.057858463 -0.132426 -2.719189 -0.8465485
0001c0 ea d0 10 3e 73 49 c5 bf d6 ce 0c be 6a 8a 6a 3c
       0.14142194 -1.541304 -0.13750777 0.014315227
0001d0 ae df 01 3e cd 71 5b 3f 2e 51 47 bf ea c8 e1 bf
       0.12682983 0.8572052 -0.77858245 -1.7639439
0001e0 3e a8 fd be 65 1a 70 be 7f 54 9f bd 4f 77 6c c0
       -0.4954242 -0.23447569 -0.07779788 -3.694782
0001f0 91 97 05 40 c9 06 3a c0 91 7c 9c 3e be 06 6c 3f
       2.0873759 -2.9066641 0.30563787 0.9219779
000200 b5 5f 11 bf 96 3d 95 be d4 d9 35 be 2b 04 07 bf
       -0.5678666 -0.2914855 -0.17758876 -0.52740735
000210 2e 0c d9 bc 15 27 c9 bf 49 b7 de 3f 33 49 9b bf
       -0.026495066 -1.5715052 1.7399684 -1.2131714
000220 79 b9 c7 bf 00 66 79 c0 1b 96 ba 3d 8a 8c 56 c0
       -1.5603477 -3.8968506 0.091106616 -3.3523278
000230 8f 3b 85 be 53 f5 ab be 8a 9e 36 c0 e3 e2 10 40
       -0.26022002 -0.33585605 -2.8534265 2.263848
000240 67 f3 32 3e e8 13 b4 3d f4 8b e6 3f 12 ab 1d be
       0.17475663 0.08792859 1.801146 -0.1539729
000250 f6 51 a5 bf ba ca 00 3f 83 74 84 be b5 91 82 bf
       -1.2915637 0.50309336 -0.2587014 -1.0200716
000260 16 c1 a8 bf 91 4d 19 c0 cb 3f 1f 40 f3 ed 01 bf
       -1.3183925 -2.3953593 2.4882686 -0.50753707
000270 67 35 52 3e e9 2d 1b 3f 00 14 1f be 0a 0b 62 bf
       0.20528184 0.6061693 -0.15534973 -0.88298094
000280 98 6c df 3f 3b c2 97 3f dd d7 ff 3e 41 53 ed bd
       1.7455015 1.185615 0.49969378 -0.11588145
000290 f2 ec 77 3f e8 ef f5 3f cc 91 ad c0 51 54 37 40
       0.96845925 1.9213839 -5.4240475 2.8645213
0002a0 75 8e 43 c0 0c 83 cb bf 7c f7 ff bf 39 9d 72 be
       -3.05557 -1.5899367 -1.9997401 -0.23692788
0002b0 43 c4 f8 be 7f 74 5b bf 76 19 2e 3f 8b a0 19 be
       -0.48587236 -0.85724634 0.680076 -0.15002649
0002c0 eb 33 0d bf 01 9f e0 bd 64 24 d9 bf 4e 1e db be
       -0.55157346 -0.109678276 -1.696423 -0.42796558
0002d0 c1 54 01 bf c0 f5 77 bf 34 2a e8 be fe 73 10 be
       -0.5051995 -0.9685936 -0.45344698 -0.14106748
0002e0 9e 9b 9f bf c6 27 16 c0 eb a2 e3 39 6f cc 88 3e
       -1.2469366 -2.3461776 0.00043418197 0.2671847
0002f0 d3 5f 86 bd c8 72 35 bf 31 aa c8 3e ac c2 b7 be
       -0.06561246 -0.7087827 0.39192346 -0.3589071
000300 22 e2 ca 3f 05 d7 a2 c0 a5 dd 0a c0 6c 62 8d 3f
       1.585026 -5.0887475 -2.169778 1.1045661
000310 5b fd 2a 3e de f0 cb be 98 78 fc be 70 1a 06 3f
       0.1669821 -0.39832205 -0.49310756 0.5238409
000320 22 38 d2 3f 98 e7 b1 bf 92 94 85 be fc 55 e3 3e
       1.642338 -1.3898802 -0.26089913 0.44401538
000330 cd 28 42 c0 44 12 23 40 01 67 28 be 58 c2 7e 3f
       -3.0337403 2.5479898 -0.16445543 0.99515295
000340 c3 57 c7 bf 38 a2 5b 3f 2f bd c7 3f 74 4e a5 bf
       -1.5573658 0.857944 1.5604609 -1.2914567
000350 3f 1d 13 3d a2 97 26 be e3 0e 29 3f 80 5e 16 c0
       0.035916563 -0.16268781 0.6603834 -2.3495178
000360 f9 2a dc be b4 1f 63 bd 1d 4c 0c 3f cc d3 df be
       -0.43001536 -0.055450156 0.5480364 -0.43716276
000370 66 0e cd 3f 43 c9 c5 3e dc 06 08 bf 39 ec e1 3f
       1.6020019 0.38630113 -0.53135467 1.7650214
000380 a7 b6 ef bf 78 07 6b bf de 2e b5 3f d4 9e 80 3e
       -1.8727616 -0.9180827 1.4154928 0.25121176
000390 b0 b3 9f bd 01 5a 6f 3f 91 c0 6b bf ae 50 54 3f
       -0.077979445 0.9349671 -0.9209071 0.8293561
0003a0 de 7a 4c bf ca ad 01 c0 ad c1 85 bf eb 99 0b 40
       -0.7987498 -2.0262322 -1.044973 2.1812694
0003b0 d1 ba 2f bf 83 1c df be 32 d8 84 40 b6 b9 07 c0
       -0.68644434 -0.4357644 4.151391 -2.12071
0003c0 e9 71 e3 3e a8 b2 87 bd 5e ba ea 3e 28 6f a5 be
       0.44422844 -0.06625873 0.45845312 -0.32311368
0003d0 6d 20 e6 bd 3a aa 8c c0 15 71 c6 bf 78 4a 94 3f
       -0.112366535 -4.3957796 -1.550326 1.1585226
0003e0 d2 df ac bf e0 93 41 bf 38 7c 90 be 74 54 d5 3c
       -1.3505805 -0.75616264 -0.2821977 0.026041247
0003f0 1f d3 3b c0 99 4c 80 c0 79 f4 62 bf b4 4f ae c0
       -2.9347608 -4.0093503 -0.88654286 -5.4472294

rcsl.backbone.model.2.bias f4 [200]
000000 e2 22 f2 c0 f3 20 f0 be 11 29 18 3d 72 c9 21 40
       -7.566758 -0.46900138 0.03714854 2.5279202
000010 e0 5f b3 3f 6d 3f d3 bd a8 6a 04 c1 86 71 be 3f
       1.4013634 -0.10314832 -8.276039 1.4878395
000020 ed b4 3a 41 d1 7e 49 40 8e b8 3b 3c 98 86 93 c0
       11.669171 3.1483653 0.0114575755 -4.61018
000030 39 c9 03 be d6 f4 5d c1 bf bc 1a be 24 fa b4 bf
       -0.12869729 -13.872274 -0.15111063 -1.4138837
000040 bb 8d 4c bd 63 08 dd bf e1 a2 cb c0 bd 64 1c 3c
       -0.049939852 -1.7268184 -6.3636327 0.009545502
000050 0f a6 85 c0 d9 16 aa bd 18 31 a7 3b ab ab c0 bd
       -4.176521 -0.08305139 0.005102288 -0.09407743
000060 e9 e6 27 c1 ed d8 b8 bc 5f c5 e5 bd 5d b9 c2 c0
       -10.493875 -0.022564376 -0.11219286 -6.0851274
000070 a1 fa 80 c0 0d 4b af bd fb 84 83 c0 46 5a 3e bf
       -4.0305943 -0.08559237 -4.109983 -0.74356496
000080 52 30 79 bd 08 61 d8 bd 80 b2 f8 bf 3e e0 31 be
       -0.060837097 -0.10565382 -1.9429474 -0.17370698
000090 e7 66 50 bd 77 36 e3 ba d0 2d 23 c0 24 c5 d9 40
       -0.050879385 -0.0017334957 -2.5496712 6.805315
0000a0 42 ca 4b c0 6b 11 11 be 03 71 57 bc c6 eb 0a c0
       -3.1842198 -0.141668 -0.013149503 -2.1706405
0000b0 0f da 9f 3f 77 c8 da c0 77 49 8a bd 6e b3 af 40
       1.2488421 -6.836971 -0.067522936 5.490653
0000c0 85 bf b2 bf bc ca fc bd 9a 73 29 be 13 63 b3 c0
       -1.3964697 -0.12343356 -0.16548005 -5.605844
0000d0 51 16 1e c0 46 23 e9 bd 38 96 36 be f1 b0 2d c0
       -2.470112 -0.11383681 -0.17830741 -2.7139246
0000e0 d2 b3 57 be 24 8d d7 c0 8a b9 59 3f a1 dd c5 c0
       -0.2106469 -6.735979 0.85048735 -6.1833043
0000f0 06 e5 d4 c0 2e b5 5d c0 7f e8 cd bd 11 a0 89 bd
       -6.652957 -3.4641833 -0.10054111 -0.06719983
000100 14 3a 9c bc 46 c0 63 c0 69 e0 6c 3f 77 42 ab bf
       -0.019070663 -3.5586104 0.9252992 -1.3379658
000110 e4 de 07 41 20 62 8f c0 4a 85 c9 c0 90 eb c6 c0
       8.491917 -4.480728 -6.2975206 -6.216255
000120 86 14 8d c0 58 56 59 3e ba 95 4d c0 2f db 4a 3c
       -4.4087553 0.21224344 -3.2122636 0.012381359
000130 eb 8a 07 be 01 1a b9 bd 9f fb d2 3e 6c 44 a8 bb
       -0.13236587 -0.09038163 0.41207597 -0.0051351096
000140 d6 cf c3 bd 1f 41 85 3f 7e 8c d0 be d6 97 6d bd
       -0.09561126 1.0410498 -0.40732187 -0.05800613
000150 1c 35 0b be d9 9d d8 bd bd c5 53 3d a3 0d a2 3e
       -0.13594478 -0.10576982 0.05170225 0.3165103
000160 4e 3f d7 40 1f 8b 04 bd 90 1d 94 bd 0c 03 19 bd
       6.7264776 -0.03235924 -0.07232201 -0.03735642
000170 09 e0 10 c0 91 21 1f c1 e6 29 ac 40 cd ff c5 bd
       -2.263674 -9.945695 5.3801146 -0.09667931
000180 f4 62 73 3f 5f 40 d9 c0 78 7b f0 bf 43 81 a0 c0
       0.95072865 -6.789108 -1.878768 -5.015779
000190 ff b5 77 c1 80 e6 ba c0 99 a1 f1 c0 6f d3 87 40
       -15.481933 -5.840637 -7.5509763 4.24456
0001a0 2a be 3d 3f a9 09 5f 3e c7 09 86 c0 cb db ac bf
       0.7411829 0.21781029 -4.1886935 -1.3504575
0001b0 ff de 08 40 1b 3e 63 bd 9e b2 55 bd 62 91 a9 c0
       2.1386106 -0.05547915 -0.052172296 -5.298997
0001c0 61 f3 24 bd ae 13 c3 bf a7 8f 75 bd b4 d4 f4 bd
       -0.040271167 -1.5240381 -0.05995145 -0.119546324
0001d0 af 6d 91 c1 f4 35 df bd 42 70 ec bd 22 01 88 c0
       -18.178556 -0.108989626 -0.11544849 -4.2501383
0001e0 98 47 f6 c0 ca ec ce bd da d5 6d c0 82 c6 2b 40
       -7.6962395 -0.10103758 -3.7161775 2.683991
0001f0 59 02 45 40 c6 35 17 c0 ae 6d a3 c0 f0 9e b0 40
       3.0782683 -2.362657 -5.1071386 5.5194016
000200 07 5b f1 bd 3b a2 61 c0 7d 13 a5 c0 8d d5 99 bd
       -0.1178494 -3.5255268 -5.158629 -0.07511435
000210 3d 24 56 be 5c 79 b3 c0 eb 86 23 c0 5c 5b 16 bd
       -0.20912261 -5.6085644 -2.5551097 -0.03670822
000220 c8 74 71 3e ca 5b 35 c0 a5 5c 94 40 24 ad cc 3f
       0.23579705 -2.8337274 4.636309 1.5990338
000230 5b cf e8 bf e6 df 95 3e 32 e9 f0 bf 11 71 08 c0
       -1.818828 0.29272383 -1.8821166 -2.131901
000240 b1 fa 8d 40 bb 3a 1d c0 bd 21 de 39 ae 76 32 c0
       4.436852 -2.4567096 0.00042368277 -2.7884936
000250 3c 31 da bc 4d f6 2b c0 e0 0f b8 bd 9e 74 4f bd
       -0.026634805 -2.686908 -0.08987403 -0.050648324
000260 41 3c bf bf 8e 28 45 c0 56 36 98 40 17 72 d5 c0
       -1.4940263 -3.0806003 4.756633 -6.670177
000270 ec 7c 5f bd e8 71 23 bd a2 e0 14 3d 8b d4 d8 bd
       -0.054562494 -0.03990355 0.03634704 -0.10587414
000280 59 5a ec bd 3d 9e b7 c0 85 54 8b c0 49 9e 99 bf
       -0.1154067 -5.738066 -4.3540673 -1.200143
000290 ff 86 56 40 ba cd d3 bd 50 52 d5 c0 4f 12 c3 bf
       3.3519895 -0.103419736 -6.666298 -1.5239962
0002a0 7d 37 7a 3f 3e be f8 bf 83 e8 90 bd 29 5e 06 bd
       0.9774092 -1.9433057 -0.07075598 -0.032804642
0002b0 59 58 b1 c0 bc 8b ce bc 56 70 46 bf 94 bb 61 3b
       -5.5420346 -0.025213115 -0.7751516 0.003444408
0002c0 0f a5 8a c0 14 69 5b bd 83 76 c0 40 a2 12 bf 3e
       -4.3326488 -0.053567007 6.014467 0.37318903
0002d0 53 98 56 c0 64 47 bb 3e 6d 71 d6 bf a4 a4 2d c0
       -3.3530471 0.36577904 -1.6753365 -2.7131739
0002e0 0f 66 51 c0 cf 9b f6 40 41 fc 3b bf e3 6f ea 3f
       -3.2718542 7.7065196 -0.73431784 1.8315395
0002f0 7b b1 55 bf e9 58 1a c1 b5 c2 9f 3f c3 99 0e be
       -0.8347394 -9.646707 1.2481295 -0.13925843
000300 94 16 12 c0 8d c5 11 be 39 9c 0b be 3f 12 81 bf
       -2.282628 -0.14235516 -0.13633813 -1.0083693
000310 9c 87 2d bd b6 b4 1f c0 09 e8 a2 c0 58 55 25 bf
       -0.042365655 -2.4954047 -5.0908246 -0.6458335

rcsl.backbone.model.4.weight f4 [200, 200]
000000 e2 80 21 c0 c8 2f 0e 3e 6f 2d 55 bc 99 69 83 be
       -2.5234914 0.13885415 -0.0130113205 -0.25666502
000010 92 ba 1e be 25 df c5 bd f3 93 20 be 05 a1 2c 3e
       -0.15500858 -0.09661702 -0.15681438 0.16858299
000020 b7 06 0e be 81 af ad 3d b4 53 e4 bc 48 56 f1 bd
       -0.13869749 0.0848074 -0.027871944 -0.11784035
000030 e7 4f 70 be 97 9e 63 bc 1f 42 89 bc ac 41 a2 be
       -0.2346798 -0.013892791 -0.016755162 -0.3169073
000040 9d ab 3d 3d aa ad a3 be 27 67 db c0 74 ab a6 3c
       0.04630624 -0.31968433 -6.856342 0.020345427
000050 f5 54 95 3d 4e b4 8c bb bf b7 88 bc 37 04 70 3d
       0.07291595 -0.004293955 -0.01668918 0.05859777
000060 d5 7b cf be 67 45 8f 3d 97 67 4c bd 57 fd 8d be
       -0.40524164 0.06995659 -0.04990348 -0.27732345
000070 ec 8e dd bd 23 d3 22 bc 1c 59 26 c0 7b 89 05 be
       -0.10818276 -0.009938034 -2.5991888 -0.13040726
000080 66 3b 06 bc f2 bb 92 c0 ce 38 90 3d 4a 2d d1 bd
       -0.008192873 -4.5854425 0.07042085 -0.10213716
000090 26 88 ba bc 69 58 f3 bb dd 29 fb 3e 37 95 d2 3c
       -0.022769999 -0.007426311 0.49055377 0.025705917
0000a0 e3 aa 22 be 0c 89 18 3e 51 d9 58 bd 9e 34 5d be
       -0.158855 0.14896029 -0.052941624 -0.21602103
0000b0 1e 94 15 3e 06 ff 3d 3e 20 c5 ca bc 22 44 85 bd
       0.14607283 0.18554315 -0.0247522 -0.06507136
0000c0 b4 e1 00 3e b7 5d 8a bd c6 87 c0 3e 5f 9c 7c be
       0.12586099 -0.06756156 0.37603587 -0.24669026
0000d0 ca 44 54 3e 54 be 84 3d ca e4 d0 bd c5 db d4 3e
       0.20729366 0.06481615 -0.10199888 0.4157392
0000e0 1e bc 88 3d ae 84 83 3e d8 76 82 be 6b f3 1a be
       0.066765055 0.25687164 -0.25481296 -0.15131919
0000f0 df 4b 2a 3d ae 58 09 c0 fb e9 e4 3d 2f b6 de 3c
       0.041576263 -2.1460376 0.11177441 0.027186481
000100 11 df 53 3d 97 4b fa be 51 4c 5a be ea 4e 02 be
       0.051726405 -0.48885795 -0.21318175 -0.12725416
000110 84 0a 94 bc e7 98 5d bf 56 6f fc bd 21 12 8e be
       -0.01807142 -0.86561435 -0.12325923 -0.27748206
000120 05 7d 69 3e 4f d0 43 3c 7c 20 2b 3c 23 5d 68 3d
       0.22801597 0.01195152 0.010444757 0.056729447
000130 31 83 26 bd 20 73 8b 3c 9a 77 80 be 4b 4c 13 3d
       -0.040652458 0.01702267 -0.2509125 0.03596143
000140 f2 11 47 3d e3 02 ba be 8e ba d8 3d d9 ed 7d bc
       0.0486011 -0.36330327 0.105824575 -0.015498602
000150 b1 42 11 be f3 ed 16 bd 97 a4 63 bc 37 d4 17 bf
       -0.14185597 -0.03684802 -0.013894222 -0.5930819
000160 b1 a8 bb bd 1b 53 20 bd 0a 62 82 bd 0c b3 56 bd
       -0.09163035 -0.039141756 -0.06366356 -0.052416846
000170 35 66 51 be 1b d2 2f 3d 0d 05 46 be 7c d1 78 3d
       -0.20449145 0.04292498 -0.19337864 0.060746655
000180 76 0f 02 be cf bf b7 3e bc 77 c9 3a b1 14 e9 bd
       -0.1270121 0.35888526 0.0015370767 -0.113809
000190 6f 01 23 c0 06 7e 4d 3b ab 56 a4 be 40 06 fc bb
       -2.5469625 0.0031355633 -0.32097372 -0.0076911747
0001a0 90 b8 cd 3d 66 20 f9 bb f9 22 5e be 93 cf c1 bd
       0.10044968 -0.007602739 -0.21693029 -0.0946342
0001b0 dd c6 77 be 8b 28 a8 bd 34 79 0e bd 98 86 8b bf
       -0.24196954 -0.08210858 -0.034783557 -1.090045
0001c0 63 9a 46 bd fc 07 11 be 39 51 b3 3d 70 b6 a6 bd
       -0.04848708 -0.14163202 0.08755726 -0.08140266
0001d0 63 3f 9c bb 37 cd 8f bd 43 91 04 3d 3a 3a 39 3e
       -0.0047682985 -0.070215635 0.032365095 0.18088618
0001e0 47 b8 d9 3e 5b 38 90 bc f9 40 e0 bc f0 81 24 3d
       0.42523405 -0.017604997 -0.027374731 0.04016298
0001f0 35 05 74 3d 6d f8 a5 bf 14 70 cf be 91 86 8b c0
       0.05957528 -1.2966439 -0.40515196 -4.3601766
000200 0d a9 47 3d bf f4 c8 3c 64 ac 39 3e 31 15 71 3d
       0.048745204 0.024530767 0.18132168 0.0588581
000210 0d f1 c5 c0 31 c6 19 bd 8e 10 23 3f c7 93 d5 3c
       -6.185675 -0.037542526 0.63697135 0.026071442
000220 6f 43 6e be d5 81 c9 3d 3f 1d fe 3d 6f c5 7e be
       -0.23267911 0.098392166 0.12407922 -0.24880002
000230 17 5b fb 3c b5 b8 95 bd bd dc 84 be ed e4 0a 3f
       0.030683083 -0.07310621 -0.2594966 0.54255563
000240 88 33 59 be d2 38 0c 3c 11 d7 c0 3e b0 38 5f c0
       -0.21211064 0.008558469 0.37664083 -3.487835
000250 2f dd 0a bc 93 49 6a bd e3 6c 84 3d 7f dc 26 3d
       -0.008475586 -0.057199072 0.06466081 0.040737625
000260 99 5f fe bc 35 05 80 be 52 2f 56 be 83 d6 04 c0
       -0.031051444 -0.25003973 -0.20916489 -2.0755928
000270 0a 54 68 3c 9e 95 94 bd 08 93 3f bd ca b9 f0 bb
       0.014180193 -0.072551 -0.04677108 -0.0073463665
000280 f8 1b ab 3d e0 5a e3 bf 97 ac 67 3e b1 3d a5 bd
       0.08354944 -1.7762108 0.22624432 -0.08068407
000290 e6 86 06 bd 27 b9 3e 3b 9f 02 9e 3e e6 40 08 3f
       -0.032843493 0.0029102059 0.30861375 0.5322403
0002a0 80 fe b4 bb a6 66 aa be 35 be 5c 3d 89 fb 76 3b
       -0.005523503 -0.3328144 0.053892333 0.0037686548
0002b0 2d 2d 05 3f 65 3e 02 3e dc 49 48 bd f4 d6 14 3c
       0.5202206 0.12719114 -0.048898563 0.009084452
0002c0 e7 c6 ca 3e 5a 95 35 bd 95 89 64 be 5b f8 b3 3c
       0.39604875 -0.044331886 -0.22318108 0.021969011
0002d0 06 73 7c bc fd e5 d0 be ca 2f 4f 3f 08 21 a2 be
       -0.015408283 -0.40800467 0.80932295 -0.31665826
0002e0 da a0 8e 3e 63 62 42 3e d9 d4 ed bb db a0 3d bf
       0.27857095 0.18982844 -0.0072580394 -0.7407357
0002f0 72 bb 3c be 86 94 91 be 5b 54 36 3c c1 2d 24 3c
       -0.1843088 -0.28433627 0.01112851 0.010020674
000300 31 56 88 3e 3a 74 4b bd 37 7b 86 3c 72 19 16 bd
       0.2662826 -0.04967139 0.016416175 -0.03664536
000310 1b e4 71 bd ef d8 ed 3e d1 86 d0 bf 34 89 22 3f
       -0.05905543 0.4645457 -1.6291143 0.63490605
000320 42 74 26 c0 cc 79 c4 3d dc aa 53 3d a5 8b a3 be
       -2.6008458 0.095935434 0.051676616 -0.31942478
000330 e2 5a 30 bf 23 0e 12 3e 3f e5 06 40 44 e5 01 c0
       -0.68888676 0.14263205 2.107742 -2.0296183
000340 aa 65 ae bd bc da 05 3f 2d 3b 98 bd 98 66 cd bf
       -0.08515485 0.5228689 -0.07433162 -1.6046934
000350 a1 d8 be 3c 3b 9b c8 3d ff b2 67 bd db 00 54 3f
       0.023296656 0.09795233 -0.05656719 0.82813805
000360 2f b3 19 3d 6d 6f 97 3e 90 24 90 bf 9e b3 55 3d
       0.0375244 0.295772 -1.1261158 0.05217325
000370 59 2c 08 3f 94 e8 50 bd 49 33 80 3d f9 74 eb bc
       0.5319267 -0.051003054 0.06259782 -0.0287423
000380 96 38 09 3e ed 06 fd bc 0a 4f a8 39 ff 5e c2 be
       0.13400492 -0.030887092 0.00032102346 -0.379631
000390 3f 6a db 3e 74 05 e2 bd 2e 61 86 bf 80 6e b3 be
       0.42854497 -0.11036196 -1.0498407 -0.35045242
0003a0 47 73 23 bd 15 7a d1 be bc 60 41 3e 57 62 65 3d
       -0.03990486 -0.40913454 0.18884557 0.056001987
0003b0 22 c9 0b 3d fb d4 19 3e 94 4f 19 bf 80 60 85 3e
       0.034127362 0.15022652 -0.5988705 0.26050186
0003c0 dd a0 be bf 62 98 4c be 7e e3 23 bd 43 d1 f0 3e
       -1.4892842 -0.19980004 -0.040011875 0.47034654
0003d0 6a 7e 06 3f a6 20 56 bf 46 39 95 bd e3 e8 56 bd
       0.5253664 -0.8364357 -0.07286315 -0.05246819
0003e0 fc 62 05 c0 48 09 12 3d f3 30 e9 be e1 b3 02 3f
       -2.0841665 0.035653383 -0.45545158 0.51055723
0003f0 ea 01 90 bf b0 be 3c bc a2 bf ea bd 5c 80 a0 3b
       -1.1250584 -0.011520073 -0.11462332 0.004898114

rcsl.backbone.model.4.bias f4 [200]
000000 c9 79 2e 40 63 f8 b9 40 bd 6b 90 bf 2f 73 71 40
       2.7261832 5.8115706 -1.1282879 3.7726552
000010 db f7 8a c0 b5 3c a7 40 28 e8 cc bf f2 07 56 be
       -4.342756 5.2261605 -1.6008348 -0.20901468
000020 60 c3 04 3f e2 60 8e 3f b6 1e 87 40 f3 9c 7c 40
       0.5186062 1.1123316 4.222499 3.9470794
000030 a5 ea 7e c0 26 19 c2 bd a1 f9 c1 c0 d5 a2 0e 40
       -3.9830716 -0.09477453 -6.0617223 2.2286885
000040 01 7c 16 c0 38 5c 28 c1 10 63 14 c0 60 5c fe 40
       -2.3513186 -10.522514 -2.3185463 7.9487762
000050 43 06 09 bf 95 ba 26 c0 f6 95 1e 40 6d 5d f1 be
       -0.5352518 -2.605138 2.477903 -0.4714159
000060 11 45 e7 bd dd b1 b3 c0 ff 49 0b c1 cf ec b2 c0
       -0.1129247 -5.615462 -8.705565 -5.5914073
000070 2b 60 2a 40 19 ff 00 3f 37 41 f8 bd ae 75 0c be
       2.6621196 0.5038925 -0.12121814 -0.13716766
000080 9f ef 1a 40 92 5c 03 40 6b 6a a0 3f 77 0b 01 c1
       2.4208753 2.052525 1.2532476 -8.065299
000090 72 ee 9e 3f a4 a5 46 c1 4c ce fb bd 29 9e dd be
       1.2416518 -12.41544 -0.122952074 -0.4328473
0000a0 94 ac 34 c1 ae d0 a7 bd 48 9b 7c c0 70 62 95 c0
       -11.292133 -0.08194099 -3.9469776 -4.6682663
0000b0 2d cc 87 bf 90 00 c2 c0 98 42 f8 c0 c8 94 00 c0
       -1.0609185 -6.0625687 -7.758129 -2.009081
0000c0 86 f9 2a c0 c2 7e 8a c0 c7 6f 07 be 1f 10 59 3f
       -2.6714797 -4.3279734 -0.13226233 0.84790224
0000d0 ee cd 3c 3e f5 94 01 40 35 6e 55 be 67 d5 8b c0
       0.18437931 2.0247166 -0.20842822 -4.3698
0000e0 77 59 96 c0 a4 57 f2 bf 37 48 23 c0 4b 78 89 c0
       -4.698421 -1.8932996 -2.5512826 -4.295934
0000f0 ea 11 1c 3f b1 d6 6a c1 04 dd 88 c0 91 e1 5a 40
       0.60964835 -14.677415 -4.2769794 3.4200175
000100 2b 51 c5 3f 21 6a 65 40 e0 58 66 c0 52 e3 9a bf
       1.5415395 3.5846026 -3.5991745 -1.2100623
000110 df 42 e6 c0 dd 7a 13 c0 f8 b8 8e c0 ab 6d 99 c0
       -7.195663 -2.304374 -4.460079 -4.794637
000120 77 5a 7a be cb 96 a2 3f 34 56 0d c1 5a 42 11 be
       -0.24448572 1.2702268 -8.833546 -0.14185467
000130 e4 4f e9 bf f9 d8 c3 3f c0 d8 fc c0 a7 a7 80 40
       -1.8227506 1.530059 -7.9014587 4.0204654
000140 94 c5 e5 bf e2 63 72 c1 d5 b6 2f c1 5b 50 8f 40
       -1.7950921 -15.149385 -10.982137 4.478559
000150 5b 62 f0 3f fe 9a 81 40 53 e4 c0 bf 07 73 d0 bf
       1.8780016 4.05017 -1.5069679 -1.6285104
000160 bc 39 5e 3f cd 90 af c0 be b6 b6 c0 6e 5e 77 40
       0.86806846 -5.486426 -5.7098074 3.8651385
000170 27 ea 92 c0 e2 b2 66 c0 b2 56 b3 c0 38 8d e3 c0
       -4.591083 -3.6046681 -5.604333 -7.1109886
000180 77 22 de bf 1e c3 fc bd 4f aa 27 c1 83 37 87 40
       -1.7354268 -0.12341903 -10.479079 4.2255263
000190 63 e9 fb bc 46 45 5f bd f2 5a 02 c1 39 d7 92 be
       -0.030750936 -0.054509424 -8.147203 -0.28679827
0001a0 fd b6 f8 c0 d2 82 41 bf 7d 1f 13 c0 a5 7e 1c c1
       -7.7723374 -0.7559024 -2.298797 -9.780919
0001b0 00 45 09 40 77 31 4e c0 d8 5c 3b c1 e7 e6 fa c0
       2.1448364 -3.221769 -11.710167 -7.8406863
0001c0 34 f1 3e be c4 31 5a 40 b5 79 1f c0 bb 9b a2 3f
       -0.18646699 3.4092875 -2.4918034 1.2703775
0001d0 25 09 3c be 88 7e e1 bc 87 75 f5 c0 62 63 d0 c0
       -0.18362863 -0.027526155 -7.6705966 -6.5121317
0001e0 bb 0b 9c bf 78 e2 c4 bd 67 76 b6 40 eb e0 bf c0
       -1.219108 -0.09613508 5.7019534 -5.996206
0001f0 b0 5b dd c0 dc 80 a5 bd 5f de b1 3f 6e 65 2f c1
       -6.9174423 -0.080812186 1.3895987 -10.962263
000200 40 89 ca bf 7f bd 19 bd c6 6d bd 3f ee f9 c6 bf
       -1.5823135 -0.037534233 1.4799125 -1.5545022
000210 63 c1 81 bf b6 7a dc 3f fa 81 84 c0 9a 15 75 be
       -1.0137142 1.7224948 -4.1408663 -0.23934022
000220 86 9f bd 40 41 c5 5f c1 ff 2f cd 40 b8 10 bf bd
       5.925723 -13.985658 6.412109 -0.09329361
000230 73 c4 cb 3d fd ed 94 bd e7 62 99 40 73 d6 ea 3f
       0.09949579 -0.07271955 4.793323 1.8346695
000240 fa 31 2a 3f 6c 97 83 40 82 d2 13 c1 60 6c 46 c0
       0.6648251 4.112234 -9.2388935 -3.1003647
000250 c9 e7 9d 3f 27 0d 0a c0 34 8d 9c c0 87 99 39 c0
       1.233636 -2.1570528 -4.8922367 -2.8999956
000260 f8 08 9b c0 e3 14 86 c0 bf 1a dc 40 01 33 0b be
       -4.844845 -4.1900496 6.878265 -0.13593675
000270 a8 c6 d0 bf fa e1 a5 c0 7e 18 d2 bf bc 6d 4e bd
       -1.6310625 -5.183835 -1.6413724 -0.05039762
000280 2d 88 26 c1 8f e5 b0 bc 9a 92 c3 c0 ed 3d 7a bc
       -10.408246 -0.021593837 -6.1116457 -0.015273553
000290 6d cf 0a c1 71 25 99 3f b7 04 24 c0 ad 0e 09 c0
       -8.675641 1.1964551 -2.5627878 -2.1415207
0002a0 a3 dd e3 bf d1 48 bb 40 0e 88 c7 40 c3 c0 0c bf
       -1.7802013 5.8526387 6.235358 -0.5498163
0002b0 b2 a4 8c bf d2 b3 36 bd aa eb 12 c0 2f 1a 12 41
       -1.0987761 -0.044605084 -2.2956338 9.1313925
0002c0 33 bc 90 c0 29 f1 9a bd 4e 99 5a be 2c 9a 83 40
       -4.5229735 -0.07565529 -0.21347544 4.11257
0002d0 6d d9 7c 40 3a c2 a3 3f 2f bf 44 c1 0a 47 ac c0
       3.9507706 1.2793648 -12.296676 -5.3836718
0002e0 19 dd 27 c0 42 e4 e4 be 1d 3b 15 c0 0a 65 ed bd
       -2.6228697 -0.44705397 -2.331733 -0.11591537
0002f0 be 54 2c bd a7 f6 f1 bd ce fc e0 bd f3 26 0c c1
       -0.042073004 -0.11814623 -0.10985719 -8.759509
000300 7a a1 22 41 a9 fb 2a be 3c 4e cb bf ed eb 97 40
       10.164423 -0.16697563 -1.588325 4.7475495
000310 00 86 a6 c0 34 d4 d3 c0 dc 6b 15 c0 0b 92 cf bd
       -5.2038574 -6.6196537 -2.3347082 -0.10135277

rcsl.backbone.model.6.weight f4 [200, 200]
000000 7c 01 5f be b5 97 0f bd 42 57 8d bd da f4 6f 3d
       -0.2177791 -0.03505679 -0.06901409 0.058583118
000010 4d c5 d0 bc 89 6e 78 3d 3b e2 39 be 0e ec 20 3d
       -0.025484705 0.06065229 -0.18152706 0.03928762
000020 46 f6 85 bf bb ff 62 3c 39 a1 06 3e 0d d1 1f be
       -1.0465782 0.013854916 0.13147439 -0.1560709
000030 6c 41 b7 3d 78 e3 ac 3d 15 20 ef be 9e 30 90 bd
       0.08948025 0.08441824 -0.46704164 -0.07040523
000040 a0 89 91 3d 01 c9 8a 3c c9 90 6f 3e 97 df 9b bd
       0.07106328 0.01694155 0.23395075 -0.07611006
000050 fb f3 f3 3c e6 07 a1 3d 62 04 83 3d f9 0f 2e 3e
       0.029779425 0.07862835 0.0639732 0.1699828
000060 03 62 a1 bd a4 ad a9 3d ac 3c 40 be 41 69 0e be
       -0.078800224 0.082850724 -0.18773144 -0.13907339
000070 66 12 23 be 7e 61 d7 3d a5 e8 68 bd 06 f7 2b 3d
       -0.15924987 0.10516642 -0.056862492 0.041983627
000080 0c b2 00 3c 60 58 a8 bc 8b 86 fd 3d 4f ae b7 bc
       0.00785495 -0.020549953 0.12379178 -0.022421984
000090 ff 68 4e 3d 58 e0 8b be 01 6a 41 3e fe 45 68 be
       0.0503931 -0.27319598 0.18888094 -0.2268295
0000a0 22 86 c5 bd 83 e2 fa be 5f ab 19 bc ef 13 e5 bd
       -0.096447244 -0.4900094 -0.009379237 -0.11185443
0000b0 74 55 50 bd ba 39 d2 bc 28 bf 84 bd de 9a f3 bd
       -0.050862744 -0.025662292 -0.06481773 -0.11894773
0000c0 00 2b e1 3c bf 19 ce bc 7c 87 35 3e e0 84 90 bd
       0.027486324 -0.025158761 0.17727464 -0.07056594
0000d0 63 9b a3 b9 ec d0 23 be 9e e1 a8 3d f8 68 3e 3e
       -0.00031205555 -0.15997666 0.08246158 0.1859473
0000e0 eb fb 06 bd 5b 39 70 3c 07 4e 9e bd a4 93 d1 bc
       -0.03295509 0.014662112 -0.07729726 -0.025583096
0000f0 d7 c8 be be 4b 55 a8 bf 68 9f 2b be 56 4b c1 3c
       -0.37262604 -1.3151029 -0.16760027 0.023595493
000100 13 49 9f 3d ce 22 1b 3e 07 58 9f 3e 10 ec 9a 3d
       0.0777761 0.15149996 0.31121847 0.075645566
000110 47 7f 68 3e 5d f2 19 3c a1 23 4a bc 03 6e aa 3e
       0.22704802 0.009396163 -0.012337596 0.33287057
000120 9a 56 8c bc 98 3f f4 3c 7b 06 03 bd 8e ac e4 3c
       -0.017131139 0.02981548 -0.031988602 0.027914312
000130 4f 9d aa bc b4 21 d8 be 32 d0 eb bd 86 71 69 be
       -0.020826964 -0.42213213 -0.115143195 -0.22797212
000140 f7 02 6d be 71 0c 21 3e 66 b6 09 be 15 d6 ce 3d
       -0.23145662 0.15727402 -0.13448486 0.10099427
000150 b9 f7 ab 3c da 00 05 3e 31 dd 24 be 88 62 47 be
       0.020992147 0.12988606 -0.16100003 -0.1947118
000160 46 68 77 bd 99 d1 1c 3d 87 25 b4 bc 20 0a 14 3e
       -0.060402177 0.038285825 -0.02199055 0.14456987
000170 11 08 80 bd 99 ca 02 3d 74 e4 85 bd ef 67 6a 3d
       -0.062515385 0.031931493 -0.065377146 0.057228025
000180 cf 21 1f 3e da e7 0a 3d e7 3e 05 3d fe e5 50 bd
       0.1554024 0.033912517 0.03253069 -0.051000588
000190 b3 54 12 bd fc 7f b4 3c f5 07 04 bd 1c 71 ab bc
       -0.035725307 0.022033684 -0.03223415 -0.020927958
0001a0 97 96 4b 3d 85 c9 33 3b 74 71 54 bd 7a cb 42 be
       0.04970416 0.0027433347 -0.05186601 -0.19022933
0001b0 7b d4 ae 3d d8 2a d4 3b a3 18 10 be 66 55 bc be
       0.08536621 0.006474834 -0.14071898 -0.36783904
0001c0 7c f1 be bd 2a 29 2d be f6 45 bb bd af 95 23 be
       -0.09323403 -0.16910234 -0.09144203 -0.15975069
0001d0 1b 1c 2c bd d0 1e 7d 3d 25 d3 87 bf 14 d9 a4 3d
       -0.04201899 0.061796963 -1.0611311 0.08049217
0001e0 05 1d 67 3d d3 40 9c 3d d3 30 4d 3e 35 db 77 bd
       0.05642416 0.07629552 0.20038156 -0.060511786
0001f0 ab b6 a8 3d d6 69 b6 3c d8 5b 5c 3b 3e e0 f5 bd
       0.08237966 0.022267263 0.003362408 -0.120056614
000200 f9 fb 63 bb b9 c3 68 3d 10 0a 92 bd 38 0c 80 bf
       -0.0034787639 0.05682728 -0.071308255 -1.0003729
000210 57 68 31 3e 94 31 8c bd 44 f3 8f 3d 27 8e 81 3d
       0.17324959 -0.06845394 0.07028821 0.063259415
000220 1b 19 04 bc a6 3a 37 bd 42 90 78 b8 0e f5 02 3d
       -0.008062626 -0.044733666 -5.9262158e-05 0.031971984
000230 d6 1c b0 3d 62 1e 9b bc 2e a2 fd bd 76 cc e0 3d
       0.0859925 -0.018935386 -0.12384449 0.10976498
000240 4c 7e ff bd 4b 40 01 be 0a 9d 54 be d5 1f d1 bd
       -0.12475261 -0.12622182 -0.2076303 -0.102111496
000250 14 6c 81 be 3f 1e cb bd 7b 43 2b be e8 6c bf be
       -0.2527777 -0.09917878 -0.1672496 -0.37387776
000260 3b 00 f1 bd eb a8 01 3d 46 39 be bc 4f fb 58 3d
       -0.11767622 0.031655233 -0.02322067 0.05297404
000270 44 90 ab 3e 82 5a 10 3c f8 33 80 3e d3 e2 52 3c
       0.33508503 0.008810641 0.2503965 0.012871462
000280 2b dc df bd 33 f7 12 be 69 f5 ea bc 4d 25 a6 3d
       -0.109306656 -0.14352112 -0.028681474 0.08112583
000290 0f 48 86 bd 22 0a 13 be 5c c9 53 c0 fa f9 c4 be
       -0.06556713 -0.14359334 -3.309165 -0.38471967
0002a0 f2 6e b0 3d a0 cf c5 3c 70 6c 52 bc f7 2a 77 bd
       0.08614911 0.024146855 -0.012843236 -0.06034371
0002b0 dc 29 05 bf b4 f6 47 3d 70 a2 61 be af eb 5d be
       -0.52017 0.04881926 -0.22034621 -0.21671937
0002c0 5f 6b 9c bd eb b9 67 3d ac 8f de 3c f6 6c 11 be
       -0.07637667 0.05657379 0.027168117 -0.14201722
0002d0 5f e1 64 3e 84 e7 b9 bc 41 c9 ba 3d 48 02 88 3c
       0.22351597 -0.022693403 0.091204174 0.01660265
0002e0 66 45 c3 bd 24 76 0b bf 1c 59 95 ba 2c db 7d 3c
       -0.09534721 -0.54477143 -0.0011394355 0.015494149
0002f0 e0 11 73 bc 7a 6b 6d 3d 68 57 3b 3c a6 1c cf 3d
       -0.014835805 0.057963826 0.0114344135 0.10112886
000300 22 85 8c 3c b1 ef b2 3c 97 be d0 be 70 fd 2d be
       0.017153326 0.02184281 -0.4077041 -0.1699121
000310 95 1a 89 bb 0e 83 fa be af ed 9c be 29 8f 40 3d
       -0.004184077 -0.48928112 -0.30650088 0.04701153
000320 96 9e 25 3e ca 7f 93 3c a0 a2 05 bb 42 f5 e0 be
       0.16173777 0.01800527 -0.0020391122 -0.43937117
000330 77 4c 4c c0 a9 80 80 bd 52 e1 f9 be 60 13 83 bf
       -3.192167 -0.0627454 -0.48804718 -1.0240288
000340 c2 ef 01 c0 20 02 d4 3d 1e 76 68 bf b9 d5 3f 3d
       -2.0302587 0.10351968 -0.9080523 0.04683468
000350 9e ff 63 bf ea 57 2a 3a eb ba 8f bf 34 93 75 bf
       -0.89061916 0.00064980856 -1.1228918 -0.9592774
000360 69 d7 e6 3d 1d 23 be bd cf 97 f8 bc 45 39 7b 3c
       0.11271555 -0.09284041 -0.030345825 0.015333478
000370 1c 10 88 be 27 2a 67 3b 95 e7 13 be 53 a4 29 c0
       -0.2657479 0.0035272927 -0.1444381 -2.6506546
000380 58 e1 14 3d 66 d4 a0 bf 63 08 cf be d5 83 2b bf
       0.036347717 -1.2564819 -0.40436086 -0.66998035
000390 b5 e5 65 bc 2c 56 a2 bd da 9a 18 3c 18 7a 02 3c
       -0.014031817 -0.07926592 0.009314263 0.00796368
0003a0 76 5b dd 3d e4 35 24 3d ab 63 99 bd 1c 80 8e be
       0.108084604 0.040090457 -0.07489713 -0.27832115
0003b0 fb 6c 96 be aa 27 6b be cf 8b ba bc c4 28 16 bf
       -0.2938002 -0.2296435 -0.022771744 -0.58655953
0003c0 e2 8c 30 bf d1 ca 56 3e 2e 2b 9b c0 f1 0a 0e be
       -0.6896497 0.20975806 -4.849021 -0.13871361
0003d0 04 ad 24 3d bf 2d d4 3e a0 b6 19 3c d7 f2 97 3d
       0.040204063 0.41441151 0.00938192 0.07419365
0003e0 fc f6 be 3a 75 ef cc 3d 46 ed 1a bc c5 12 f1 bd
       0.0014569457 0.1000661 -0.009455984 -0.11771158
0003f0 0e 5d 63 c0 67 2e 91 be 3f 60 95 bb 6b 76 a2 be
       -3.5525546 -0.28355715 -0.0045585926 -0.3173097

rcsl.backbone.model.6.bias f4 [200]
000000 73 57 55 3f 61 de 42 bd 0a 75 82 40 c1 1d 59 40
       0.8333656 -0.04757536 4.076787 3.392441
000010 74 47 f1 c0 22 7a 05 c0 25 10 46 3f ea f7 96 3e
       -7.5399723 -2.0855794 0.77368385 0.29486018
000020 f5 a3 65 c0 30 79 42 c0 1c f0 59 bf 8b 32 f0 be
       -3.5881321 -3.0386467 -0.85132 -0.4691356
000030 8c b3 9a 40 83 4a b0 c0 0f 6a 0e 40 fa 53 a9 3f
       4.8344173 -5.5090957 2.2252233 1.3228753
000040 81 da 91 bf 40 07 40 c0 17 32 5e be 96 23 0a 3f
       -1.1394807 -3.0004425 -0.21698795 0.5396055
000050 aa 3b b6 c0 1b 22 7d bf 83 ba af be b6 42 a7 c0
       -5.694783 -0.98880166 -0.34321985 -5.2268934
000060 5d 23 c0 3e 82 52 91 40 a2 a4 e0 3f 43 18 46 3f
       0.3752698 4.5413218 1.7550242 0.7738077
000070 7b 6b f3 3f 5b ec 05 c0 f4 9e 2e c0 09 18 cb 3e
       1.9017175 -2.092551 -2.7284517 0.39666775
000080 01 72 b7 3f 48 9f e9 bf 3e cd a0 be b6 34 4d 40
       1.4331666 -1.8251734 -0.31406587 3.2063422
000090 6c 87 e8 3e ed 72 e2 3e 64 38 5b c0 99 3f 63 3f
       0.4541582 0.44228306 -3.4253168 0.8876892
0000a0 1f 1e d6 3e 5c 1c e0 be 1f 32 6e 3f a4 25 63 be
       0.41819856 -0.43771636 0.9304523 -0.22182328
0000b0 18 b2 f8 bd 9b aa 7b bf d6 8d 95 be 4a 96 a1 bf
       -0.12143344 -0.983072 -0.29209775 -1.262399
0000c0 8a 3e 63 c0 96 28 f2 c0 30 9b 28 40 73 a1 b5 bf
       -3.550692 -7.5674543 2.634472 -1.4189895
0000d0 4a b3 1d c0 c7 0f 76 bf f1 0f ea bf cf 47 3e 40
       -2.464068 -0.96117824 -1.8286115 2.9731328
0000e0 01 e5 a9 40 24 51 6d 40 c7 d0 56 40 c1 05 bd 3f
       5.3092046 3.7080774 3.3564928 1.4767381
0000f0 27 60 82 c0 9b 7c d1 bf 21 d5 a9 c0 5f 7d 89 bf
       -4.0742373 -1.6366152 -5.3072667 -1.0741385
000100 d5 9d ee c0 96 b9 cf be b8 70 fb 3f 9e d4 a9 be
       -7.4567666 -0.40571278 1.9643774 -0.33170027
000110 da e3 5d c0 37 6d 86 3f 4f 49 9b c0 98 21 fc 3f
       -3.467032 1.050208 -4.852699 1.9697752
000120 ac 13 41 3f 27 5e ec be 9f 84 c5 bf 7d 45 b7 3f
       0.7542064 -0.46165583 -1.5431098 1.4318081
000130 7c 2a e1 3f 93 a8 4c c0 3e 95 60 40 45 e8 30 c0
       1.759109 -3.197789 3.509109 -2.7641766
000140 fb 4d a6 3f da 1f 87 c0 25 e9 73 c0 91 14 1a 40
       1.2992548 -4.222638 -3.811105 2.4075053
000150 1c f2 ca bf d7 6e 4b bf 03 e2 0f c1 d9 72 64 40
       -1.5855136 -0.79466003 -8.992679 3.5695097
000160 77 31 da 3e 8d 49 17 c0 a2 14 1e 3f e2 f8 0d 3f
       0.42615864 -2.3638642 0.61750233 0.5545789
000170 e5 cc 94 40 3f 53 55 c0 ef fc e4 bf 45 09 81 be
       4.6500115 -3.333206 -1.7889689 -0.25202385
000180 a1 e6 b7 bf bd 83 b7 3f b2 fd 18 c0 39 71 55 c0
       -1.4367257 1.4337078 -2.3904843 -3.3350356
000190 d7 d6 06 c1 5e b4 80 40 21 c9 70 c0 31 34 8d bf
       -8.427451 4.0220175 -3.762276 -1.1031553
0001a0 15 6f a9 bf 8a cd 91 bf ef 96 1c bf 64 23 07 bf
       -1.3237025 -1.139085 -0.61167806 -0.52788377
0001b0 65 a1 dd c0 1b 06 b4 c0 05 64 35 c0 7e 6a bf c0
       -6.9259515 -5.6257453 -2.8342297 -5.9817495
0001c0 7a b5 88 bf eb ea a3 be b9 68 cf be 5e 10 4f c0
       -1.0680382 -0.32015166 -0.40509585 -3.235374
0001d0 82 0b 55 c1 f3 19 1e c0 32 60 fd bf 73 6d a3 be
       -13.31531 -2.4703338 -1.9794981 -0.3191944
0001e0 e6 3a 10 3e 16 12 c5 bf cb a2 bb 40 4f 41 12 c1
       0.14084968 -1.5396144 5.863622 -9.1409445
0001f0 17 a8 04 3d d4 a6 83 be 60 7f 82 bf 53 1b 35 bf
       0.032386865 -0.25713217 -1.0195122 -0.7074482
000200 5d b4 30 c0 44 ff ce bf 88 c6 37 c0 57 f4 a5 c0
       -2.7610085 -1.6171651 -2.8714924 -5.1860766
000210 6f 42 0c c1 8f d9 99 3f 6a 76 42 40 98 17 78 c0
       -8.766219 1.2019519 3.0384774 -3.87644
000220 b9 0c 77 3f 78 04 28 bf f2 fa e0 3f 24 47 c7 be
       0.9650379 -0.6563182 1.7576582 -0.38921463
000230 4f ca 3c bf 8e 67 b8 c0 3d ca 82 3f 4f 59 25 3e
       -0.737462 -5.762641 1.0217968 0.1614735
000240 c4 c0 6b bf e1 5a fa 3f 56 28 23 c0 e7 a0 42 c0
       -0.9209101 1.9558984 -2.549337 -3.0410707
000250 dc 6d 72 40 de e1 bc c0 48 57 28 c0 90 69 12 3f
       3.7879553 -5.9025717 -2.6303272 0.57192326
000260 9c 63 17 c0 15 c9 11 40 5d 11 80 40 e4 5b 8c bd
       -2.3654547 2.277898 4.0021195 -0.06853464
000270 09 90 70 3e c8 7c 99 bf e7 5a 35 40 a2 8f a9 3f
       0.23492445 -1.1991205 2.8336732 1.3246958
000280 6b b7 0a 40 db 91 b7 3f 0f 71 76 40 98 80 44 c0
       2.167445 1.4341387 3.8506505 -3.0703487
000290 b8 da 0c c0 63 62 81 3f d9 5a a5 c0 6b 79 33 3f
       -2.2008495 1.010815 -5.16734 0.70107144
0002a0 40 e2 94 be de d6 c3 c0 d7 94 ad 3f 6c e7 55 c0
       -0.29078865 -6.119979 1.3561047 -3.3422499
0002b0 20 77 21 c0 33 a0 3b 40 3b 22 7f c0 89 af d1 c0
       -2.5228958 2.9316528 -3.9864643 -6.5526776
0002c0 18 39 c3 3f 20 c8 bb c0 3f 5a 83 c0 29 82 97 40
       1.5251799 -5.8681793 -4.1047664 4.7346387
0002d0 77 91 bf 3f f3 b6 75 40 87 ae df be 95 01 f6 3f
       1.4966267 3.8392913 -0.4368784 1.9219233
0002e0 d5 f1 59 c0 3e 7d 12 c0 3b 6b ab c0 3a 6a cc 3f
       -3.4053853 -2.2888942 -5.3568397 1.5969918
0002f0 28 39 92 3e 3f 15 52 c1 7f c5 55 3e ac 37 8a 3f
       0.28559232 -13.130187 0.2087612 1.079824
000300 74 98 97 40 f3 d4 d2 40 1b 01 10 c1 cf dc 13 40
       4.73736 6.588495 -9.00027 2.310352
000310 ad 36 59 40 61 50 cb bf 8b 37 64 c0 6c 0c a2 be
       3.3939621 -1.5883905 -3.56589 -0.31650102
