backup/walker2d-medium-expert-v2/rcsl/timestamp_23-0830-214125&0/model/policy.pth (torch, 505723 bytes, 10 tensors)

rcsl.backbone.model.0.weight f4 [200, 18]
-4.199978 -2.3982782 -3.6725104 3.312471 -9.76435 12.334598 -0.38476583 0.47964117
-2.9445498 -2.178451 0.6478195 -1.1070012 -0.18296318 0.119312175 -0.21289024 0.7356138
0.6657794 -0.022728032 -8.040374 6.1600413 -2.505831 2.812945 -1.7078713 4.4164996
-1.1746671 -0.23247194 -1.5306889 -3.9714746 1.7480131 0.32197866 -0.15286194 1.6957573
-0.5233327 0.14302646 -0.46086043 -0.601794 -3.0412803 1.5571303 7.1620255 -10.625997
5.8007245 3.07617 4.0729675 -5.378546 -2.0805302 -2.6369598 -0.8058542 1.5312382
0.7936552 -0.011375236 -0.24132068 -0.08766923 -0.2129743 -0.041037694 5.6433215 -26.303238
-38.986492 -11.492892 -16.202103 15.118436 25.109835 23.674316 -0.43935862 7.7111454
-0.9867964 -1.7112985 -0.2532231 -0.65463334 3.3096461 2.5631478 -1.6787424 -2.121801e-05
-4.2441897 5.78919 -7.1303186 1.297743 -6.117164 -1.711707 2.3139403 -5.84461
-3.9508166 -0.89149964 1.3208851 -0.4180963 0.6296622 0.37339935 -0.23891301 -0.8146434
0.2907604 -0.050264362 -4.126249 6.5750666 -8.820135 -0.3487371 1.4588951 -2.0124915
-1.7749585 -3.99163 -3.3739688 -2.5941896 0.5277522 0.28688338 -0.30351827 -0.22495309
-0.9480489 -0.34116003 -0.6263616 -0.086227715 10.573358 18.93955 -0.9211241 4.0485644
13.368575 25.611883 -6.4255967 2.4576128 -6.6890984 5.0784326 -2.6516428 1.5362992
1.3460233 1.1933914 -0.042793833 6.364423 0.5235122 0.0047402172 -2.2215827 -14.004902
6.5145473 4.365724 0.1989418 3.314647 6.11751 -2.8086913 -1.2104917 6.794962
-0.91080475 -2.1915934 -0.5090259 0.8196711 3.7537274 2.5629933 0.00021778324 -0.02520716
2.3913727 19.448946 16.828562 3.5635707 -5.789489 31.13196 2.876157 -2.1894293
-4.848262 -3.4386175 5.172588 -0.958705 3.566401 -0.07775799 -1.9632255 1.0629486
1.3986794 -0.009002444 -5.98258 -0.82364935 -5.2757325 0.53565377 -4.5157166 -0.27089405
-0.799867 -1.8452069 -1.0022614 -3.6523297 1.6431597 -0.13954797 -0.05884859 -0.4597785
-1.1841369 -1.150624 0.889796 -0.11469758 -2.6880882 2.4896178 -2.7143223 -6.1512375
-0.7354282 -0.6001283 2.1076262 -2.5748925 -1.9754764 1.667189 0.10129999 1.5613539
0.39380068 0.5354721 0.11417608 -0.6884889 -0.4530718 -0.10101191 -2.2746415 1.7985034
4.0096307 2.8815396 -3.3111024 12.119651 -4.7378654 -6.9422426 -2.963542 1.383939
2.3671665 -0.35510775 -0.9612794 0.5939703 -0.3963777 -0.34272882 0.064245746 -0.04766423
-3.536957 5.107942 -0.708639 1.1154215 -3.3654437 -1.863647 -3.664107 2.6459403
-6.1675334 1.5346045 1.6591728 2.135907 0.75806236 0.38611597 -1.7511727 -0.47663316
-0.46201536 -0.023211956 -2.4073057 -0.18310648 1.0062258 -5.8467073 -0.5313791 10.284669
-0.8990346 -5.7382765 -2.2936425 2.4589076 -2.5524893 1.5131654 0.79389405 -0.9476249
2.0829024 -0.278653 -0.45882013 -0.033678103 -5.699874 3.6448953 4.157744 -5.5798006
00000000: 3866 86c0 647d 19c0 690a 6bc0 86ff 5340
00000010: c73a 1cc1 835a 4541 0700 c5be 8793 f53e
00000020: 8173 3cc0 be6b 0bc0 80d7 253f 37b2 8dbf
00000030: b35a 3bbe f159 f43d e6ff 59be 3051 3c3f
00000040: 8570 2a3f 2330 babc 5fa5 00c1 0f1f c540
00000050: 895f 20c0 4a07 3440 879b dabf f753 8d40
00000060: 7e5b 96bf 200d 6ebe 9ded c3bf a42c 7ec0
00000070: e5be df3f 63da a43e d787 1cbe 930e d93f
00000080: 22f9 05bf 8775 123e e6f5 ebbe 2c0f 1abf
00000090: 56a4 42c0 0c50 c73f 502f e540 1504 2ac1
000000a0: 899f b940 f8df 4440 c055 8240 0d1d acc0
000000b0: 6827 05c0 f3c3 28c0 764c 4ebf 9dff c33f
000000c0: fd2c 4b3f 335f 3abc c51c 77be ed8b b3bd
000000d0: ef15 5abe 2417 28bd 1796 b440 086d d2c1
000000e0: 2bf2 1bc2 e3e2 37c1 e89d 81c1 1de5 7141
000000f0: f1e0 c841 0065 bd41 9df3 e0be b4c1 f640
00000100: b09e 7cbf d40b dbbf 75a6 81be 0d96 27bf
00000110: 3ed1 5340 9d0a 2440 08e1 d6bf 54fd b1b7
00000120: 67d0 87c0 0b41 b940 922b e4c0 711c a63f
00000130: cfbf c3c0 3719 dbbf 9917 1440 0c07 bbc0
00000140: 2eda 7cc0 5239 64bf c312 a93f b810 d6be
00000150: 8b31 213f 332e bf3e 9da5 74be 788c 50bf
00000160: 8cde 943e 01e2 4dbd 3b0a 84c0 f266 d240
00000170: 461f 0dc1 ab8d b2be 13bd ba3f a9cc 00c0
00000180: d731 e3bf de76 7fc0 1bef 57c0 3407 26c0
00000190: c51a 073f 61e2 923e bf66 9bbe 1a5a 66be
000001a0: 55b3 72bf 87ac aebe 3c59 20bf 2898 b0bd
000001b0: 792c 2941 3384 9741 cace 6bbf d78d 8140
000001c0: afe5 5541 23e5 cc41 7d9e cdc0 8749 1d40
000001d0: 180d d6c0 8582 a240 84b4 29c0 74a5 c43f
000001e0: 7e4a ac3f 0dc1 983f 9648 2fbd 5aa9 cb40
000001f0: e504 063f d353 9b3b 692e 0ec0 1414 60c1
00000200: 2c77 d040 03b4 8b40 66b7 4b3e 2d23 5440
00000210: a4c2 c340 99c1 33c0 64f1 9abf 5470 d940
00000220: 802a 69bf 1143 0cc0 854f 02bf f7d5 513f
00000230: 123d 7040 1508 2440 be5c 6439 3f7f cebc
00000240: 400c 1940 7197 9b41 e5a0 8641 8b11 6440
00000250: 7e43 b9c0 410e f941 f512 3840 9c1f 0cc0
00000260: f624 9bc0 4f12 5cc0 d785 a540 b16d 75bf
00000270: ea3f 6440 953f 9fbd f94a fbbf b30e 883f
00000280: ed07 b33f fd7e 13bc 4c71 bfc0 afda 52bf
00000290: cdd2 a8c0 9b20 093f c080 90c0 a0b2 8abe
000002a0: 15c4 4cbf bd2f ecbf 1a4a 80bf c5bf 69c0
000002b0: 0f53 d23f aae5 0ebe 380b 71bd 1668 ebbe
000002c0: cc91 97bf a647 93bf acc9 633f 91e6 eabd
000002d0: a309 2cc0 e655 1f40 75b7 2dc0 f0d6 c4c0
000002e0: 0645 3cbf 02a2 19bf 59e3 0640 0acb 24c0
000002f0: 69dc fcbf 7366 d53f 5f76 cf3d 72da c73f
00000300: 3ea0 c93e b314 093f 26d5 e93d cf40 30bf
00000310: 07f9 e7be 55df cebd ba93 11c0 5c35 e63f
00000320: e54e 8040 256b 3840 1ae9 53c0 17ea 4141
00000330: 989c 97c0 da26 dec0 acaa 3dc0 ea24 b13f
00000340: a87f 1740 afd0 b5be 6816 76bf 700e 183f
00000350: 05f2 cabe 277a afbe 4693 833d 913b 43bd
00000360: 815d 62c0 4374 a340 5e69 35bf 22c6 8e3f
00000370: 6e63 57c0 fc8b eebf bb80 6ac0 1657 2940
00000380: 6f5c c5c0 ec6d c43f c65f d43f b3b2 0840
00000390: 6010 423f feb0 c53e 6d26 e0bf 4309 f4be
000003a0: 478d ecbe 0027 bebc 4c11 1ac0 4480 3bbe
000003b0: 02cc 803f 3a18 bbc0 7608 08bf 018e 2441
000003c0: 2227 66bf f69f b7c0 0acb 12c0 be5e 1d40
000003d0: fc5b 23c0 67af c13f a43c 4b3f 8c97 72bf
000003e0: 464e 0540 9bab 8ebe 79ea eabe 0df2 09bd
000003f0: 5e65 b6c0 f745 6940 3d0c 8540 ba8d b2c0

rcsl.backbone.model.0.bias f4 [200]
-4.464198 -4.281385 -2.548115 7.1256766 -3.2850435 -2.5941446 10.591734 -3.4742856
2.981045 -4.2047653 -2.0940647 -1.4229901 -3.793557 -2.993791 -4.79403 -1.3879544
-6.9706984 -1.403004 3.7971144 2.6598935 -7.2430453 -3.84913 -1.9684782 -4.4188986
-3.3003392 -3.692199 -1.3111665 -4.8015447 -9.3693075 -3.4539595 -4.0350294 -4.1886964
-3.0110579 -5.4305606 -2.090099 -4.5836225 -7.2888374 -4.5060234 -3.4351323 -3.962007
-3.5039203 -6.0640955 -3.8558881 -4.49309 -3.3480833 -4.0615025 -7.987886 -7.994766
-2.4534168 -4.060439 -4.211655 -2.1963396 -3.7503521 -5.8392057 -2.4361517 -4.417992
-2.643813 -2.1373904 -3.538952 -5.893337 -2.272115 -4.1043262 0.06499169 -3.6891484
-6.7068934 -5.5654073 -2.347692 5.0910206 -4.346846 -2.8615377 -6.1275773 -4.9337378
-1.966364 -4.9551554 -1.0324556 4.393588 -1.023503 -1.6964415 -2.834843 -4.5906663
-3.229931 -5.2555223 -3.6121578 13.311408 8.549577 -5.7449374 -0.756375 -4.1657
-5.117169 -3.104235 -17.294231 -5.6865854 7.118392 -6.067715 -4.506781 -0.5230117
-9.471277 -4.7984524 -4.650873 -6.1093497 11.984969 -6.1538672 -2.9685144 -0.07969452
-1.3047651 -5.8503394 -2.6242552 -3.5226943 -4.8621716 -1.7236192 -6.660024 -6.01436
-5.478755 -7.1677966 13.31114 -3.7488115 -1.4275948 -1.7881076 -5.27511 -6.085153
7.455644 -4.0434003 -4.400924 8.182474 -4.8223944 -3.8685362 -6.5441747 -4.353771
-6.247246 -3.6172957 -4.2649155 -1.2442609 -4.9881587 -3.2157083 -1.5227121 -3.4079936
-4.774496 -1.7296795 -2.8853579 2.4546015 -2.6893167 -5.1411514 -5.943112 -4.354373
-2.6720939 -4.204831 -2.4140143 -5.5683327 -5.1361113 -4.987287 -2.8348818 -6.3177986
-4.354793 -4.802044 6.584277 -2.604221 -3.6573184 -3.6911318 -1.7695273 -2.6440742
-1.3394587 -7.075425 13.199219 0.0095148785 -1.6629932 -3.985139 -1.4035305 -2.9263387
-2.2460241 -3.509675 -2.834174 -5.6729064 -4.665071 -3.30234 -0.7596343 -2.217798
-4.955611 -1.1932551 -0.08463094 -7.47804 -3.852863 -3.689811 -1.7091085 -4.855531
-4.550419 -4.443391 -1.4404238 -2.7336621 -4.4665203 -3.515483 2.2148533 -6.4961853
15.041611 -3.5893009 -7.1486244 -5.408645 -3.4341009 -1.343176 -4.3914843 -2.7120569
00000000: b6da 8ec0 1b01 89c0 5114 23c0 8b05 e440
00000010: 273e 52c0 7706 26c0 be77 2941 b25a 5ec0
00000020: 71c9 3e40 708d 86c0 2805 06c0 8a24 b6bf
00000030: a3c9 72c0 469a 3fc0 b268 99c0 7da8 b1bf
00000040: f60f dfc0 a395 b3bf ec03 7340 b23b 2a40
00000050: 07c7 e7c0 2558 76c0 18f7 fbbf 9e67 8dc0
00000060: c238 53c0 fd4c 6cc0 4ed4 a7bf 41a6 99c0
00000070: afe8 15c1 ac0d 5dc0 f61e 81c0 cd09 86c0
00000080: 2cb5 40c0 27c7 adc0 2fc4 05c0 09ad 92c0
00000090: 283e e9c0 5831 90c0 35d9 5bc0 8691 7dc0
000000a0: 3b40 60c0 120d c2c0 dfc6 76c0 65c7 8fc0
000000b0: ff46 56c0 d4f7 81c0 c39c ffc0 20d5 ffc0
000000c0: c804 1dc0 1eef 81c0 e1c5 86c0 d490 0cc0
000000d0: c505 70c0 c6da bac0 e9e9 1bc0 3160 8dc0
000000e0: 3b34 29c0 01cb 08c0 317e 62c0 3796 bcc0
000000f0: 556a 11c0 a456 83c0 5d1a 853d 021b 6cc0
00000100: df9e d6c0 d117 b2c0 9640 16c0 a4e9 a240
00000110: 5d19 8bc0 6f23 37c0 1d15 c4c0 2ee1 9dc0
00000120: d1b1 fbbf a290 9ec0 8127 84bf 4698 8c40
00000130: 2502 83bf ff24 d9bf 116e 35c0 bde6 92c0
00000140: 31b7 4ec0 3d2d a8c0 982d 67c0 87fb 5441
00000150: 11cb 0841 87d6 b7c0 cba1 41bf 6a4d 85c0
00000160: d9bf a3c0 c9ab 46c0 965a 8ac1 82f8 b5c0
00000170: dec9 e340 b92a c2c0 8d37 90c0 18e4 05bf
00000180: 5a8a 17c1 ec8c 99c0 f4d3 94c0 cb7f c3c0
00000190: 6fc2 3f41 7bec c4c0 24fc 3dc0 e136 a3bd
000001a0: 8b02 a7bf fb35 bbc0 ccf3 27c0 d373 61c0
000001b0: e996 9bc0 8e9f dcbf eb1e d5c0 a375 c0c0
000001c0: f651 afc0 975e e5c0 6efa 5441 87ec 6fc0
000001d0: 6dbb b6bf b6e0 e4bf b3cd a8c0 93b9 c2c0
000001e0: a394 ee40 8963 81c0 5fd4 8cc0 6aeb 0241
000001f0: 0e51 9ac0 1996 77c0 e169 d1c0 1852 8bc0
00000200: 70e9 c7c0 c681 67c0 307a 88c0 f143 9fbf
00000210: ff9e 9fc0 2ace 4dc0 3be8 c2bf 911c 5ac0
00000220: acc8 98c0 2366 ddbf b4a9 38c0 3118 1d40
00000230: c41d 2cc0 5084 a4c0 f92d bec0 0657 8bc0
00000240: 9603 2bc0 fa8d 86c0 367f 1ac0 c82f b2c0
00000250: 065b a4c0 db97 9fc0 b46e 35c0 682b cac0
00000260: 775a 8bc0 58aa 99c0 66b2 d240 8fab 26c0
00000270: 8111 6ac0 813b 6cc0 df7f e2bf 8338 29c0
00000280: 6273 abbf e269 e2c0 0030 5341 4be4 1b3c
00000290: f6dc d4bf 840c 7fc0 e3a6 b3bf 2249 3bc0
000002a0: dcbe 0fc0 849e 60c0 1b63 35c0 7388 b5c0
000002b0: 4348 95c0 8a59 53c0 6577 42bf 67f0 0dc0
000002c0: 5e94 9ec0 95bc 98bf fc52 adbd 1b4c efc0
000002d0: 4f95 76c0 dd25 6cc0 11c4 dabf 8360 9bc0
000002e0: 089d 91c0 4230 8ec0 cf5f b8bf 52f4 2ec0
000002f0: bced 8ec0 acfd 60c0 28c0 0d40 c0e0 cfc0
00000300: 70aa 7041 1bb7 65c0 88c1 e4c0 9f13 adc0
00000310: 4fc8 5bc0 31ed abbf 0a87 8cc0 5792 2dc0

rcsl.backbone.model.2.weight f4 [200, 200]
0.26578894 -5.664313 0.68718904 0.40493146 1.5542463 2.912415 -0.14617682 -1.0397483
0.2243801 2.7276106 -2.6062543 -2.3892624 -1.6910846 -5.3958006 0.43296742 1.9651749
-0.14570054 -0.062349804 0.15447356 -0.85732704 -1.4201684 -0.29605064 -3.3358583 -1.2381297
2.3254392 -0.27892917 -1.2325525 -1.5855743 -0.022979578 0.076790795 1.6364465 2.749642
0.05467716 -1.6358584 -4.756092 -1.8345015 0.3347313 0.17290947 1.2499944 -4.185534
-0.1066695 0.21567433 -2.327361 2.062702 0.7044445 -1.2120796 -0.448264 -0.54294354
-0.97997785 1.8131602 2.0658658 -3.64817 -2.0826385 2.866311 -0.339569 -8.58695
1.3179337 -0.48429927 -0.8827066 0.6418106 -0.6305703 0.09510148 0.1000494 -1.2847202
-0.09322083 2.2008305 0.36282215 -0.35556456 1.5041776 -0.5269824 0.48429516 -3.6047907
-0.79936945 0.80108863 -0.88159186 -0.023966484 -0.3159218 1.0899839 0.6620126 1.6963927
0.28223294 0.7486003 -6.7115865 -0.22650628 -0.48420024 -1.6948433 3.290004 -2.2681904
-1.0867547 1.6671244 -0.08955613 -0.7698092 -0.14329429 -1.378352 1.2892307 -0.28623223
-0.9401503 0.7662961 1.495947 -4.554172 -0.84450334 0.27502376 -1.2325144 -0.8851641
-0.12655193 -0.56258744 1.5765704 0.0799147 -2.9000719 -1.2449307 1.1900473 -0.5089828
1.1261082 0.7437292 -0.14906663 -1.9585555 -3.407924 -2.691915 -6.4668856 1.3776327
-0.432904 -2.8257544 -1.6824019 -0.04504415 1.3048722 1.9700483 -0.6655735 4.5310698
-1.1099517 1.6977891 2.176638 -1.8828624 -0.7976927 -0.60869676 -0.521197 -0.37153947
-0.10551927 -0.44486603 -5.670754 -0.11944464 -7.0281854 -3.5088568 1.9243308 -0.72776496
0.69119257 0.97332704 1.5048654 0.28143236 -1.1507255 -1.0340608 2.853854 2.529957
-1.451408 0.13457143 -0.6605581 0.32426453 -0.09089789 1.3672191 -0.00671963 1.0553747
-5.945843 -0.5455615 0.39238822 3.2638345 2.8291807 -0.82440406 -0.3029598 -0.33929658
0.19822928 -6.5061464 2.088875 -0.30589798 -8.677209 -2.9796088 0.042579435 0.07693394
2.709061 -0.13541237 -3.7648282 -0.4426768 -2.5155516 0.10954565 -0.4830948 -2.1152272
-4.7849755 0.6696106 1.9064244 1.1175661 -3.1681168 0.95623034 0.3072376 -0.41377136
-0.8636857 -1.1909802 0.55043507 1.222323 -0.5843504 -2.7775297 0.07438403 -2.907946
-2.3709753 -2.1843684 -1.3629853 0.21445264 -0.26623088 -0.2819813 0.26276374 -2.6579406
0.2364119 0.25942758 -0.34181553 0.06303626 -3.6890438 0.7794434 1.0919329 0.5444921
-0.27909943 0.1380458 0.22834425 -0.20381361 -1.3799006 0.75476354 0.3715727 3.1073146
-1.4178784 -2.033535 1.1493455 0.64246625 -0.18369752 0.8948923 1.8557814 -0.060363293
0.8016173 -0.27482876 1.0503421 1.5396789 -0.7564287 -1.0127016 -0.4355336 -3.8329196
2.2517722 -1.136949 4.8575068 -1.9503233 -0.06653003 -2.4807897 0.41294467 0.92573756
-2.6429043 1.0841924 -8.716943 -0.24757905 -1.2895813 0.2361064 0.33621278 0.24857067
00000000: 7d15 883e 0d42 b5c0 9feb 2f3f 2d53 cf3e
00000010: 8bf1 c63f 0265 3a40 60af 15be 7916 85bf
00000020: e6c3 653e 2c91 2e40 dfcc 26c0 ade9 18c0
00000030: 7675 d8bf 66aa acc0 e8ad dd3e da8a fb3f
00000040: 8632 15be 8262 7fbd 512e 1e3e c979 5bbf
00000050: 14c8 b5bf f393 97be b47e 55c0 097b 9ebf
00000060: ffd3 1440 cecf 8ebe 48c4 9dbf 19f4 cabf
00000070: ab3f bcbc 7e44 9d3d 1477 d13f 22fa 2f40
00000080: 28f5 5f3d cf63 d1bf e831 98c0 f2d0 eabf
00000090: e761 ab3e 2e0f 313e d1ff 9f3f e5ef 85c0
000000a0: 8a75 dabd bbd9 5c3e 7cf3 14c0 4f03 0440
000000b0: 7a56 343f 6d25 9bbf dc82 e5be 59fe 0abf
000000c0: d4df 7abf a215 e83f 2537 0440 9e7b 69c0
000000d0: f349 05c0 a471 3740 fddb adbe 2664 09c1
000000e0: 0db2 a83f 13f6 f7be 0ff9 61bf b34d 243f
000000f0: 0e6d 21bf 91c4 c23d b3e6 cc3d b671 a4bf
00000100: 90ea bebd 68da 0c40 d3c3 b93e 8f0c b6be
00000110: e488 c03f 52e8 06bf 89f5 f73e e4b4 66c0
00000120: 7aa3 4cbf 2514 4d3f 01b0 61bf 5c55 c4bc
00000130: 81c0 a1be 9884 8b3f a879 293f 6523 d93f
00000140: d680 903e 45a4 3f3f 51c5 d6c0 43f1 67be
00000150: 18e9 f7be a0f0 d8bf 6d8f 5240 082a 11c0
00000160: c71a 8bbf 5564 d53f 3469 b7bd 3712 45bf
00000170: bdbb 12be d76d b0bf 8305 a53f 088d 92be
00000180: b1ad 70bf fb2b 443f 317b bf3f c7bb 91c0
00000190: 5f31 58bf eacf 8c3e 08c3 9dbf 1d9a 62bf
000001a0: d496 01be bb05 10bf 0fcd c93f 51aa a33d
000001b0: c79a 39c0 e459 9fbf 7853 983f b24c 02bf
000001c0: 5024 903f 0965 3e3f eca4 18be f2b1 fabf
000001d0: 6d1b 5ac0 5648 2cc0 baf0 cec0 4556 b03f
000001e0: 98a5 ddbe 29d9 34c0 f258 d7bf 3780 38bd
000001f0: 0d06 a73f 8b2a fc3f 0663 2abf 86fe 9040
00000200: e612 8ebf 2751 d93f 094e 0b40 a301 f1bf
00000210: 9735 4cbf 8dd3 1bbf 2b6d 05bf 6c3a bebe
00000220: 7d1a d8bd 7bc5 e3be d176 b5c0 649f f4bd
00000230: e5e6 e0c0 1c91 60c0 7950 f63f ce4e 3abf
00000240: fff1 303f f62b 793f 6e9f c03f e717 903e
00000250: f94a 93bf 1b5c 84bf 8ba5 3640 d1ea 2140
00000260: bdc7 b9bf 18cd 093e 561a 29bf 0006 a63e
00000270: ac28 babd 0901 af3f 5830 dcbb 8516 873f
00000280: 5944 bec0 eba9 0bbf 1ce7 c83e aae2 5040
00000290: 4c11 3540 250c 53bf 8c1d 9bbe 48b8 adbe
000002a0: 9efc 4a3e 5a32 d0c0 21b0 0540 a99e 9cbe
000002b0: d9d5 0ac1 e9b1 3ec0 c667 2e3d 8b8f 9d3d
000002c0: 4161 2d40 8aa9 0abe f2f2 70c0 89a6 e2be
000002d0: ccfe 20c0 7859 e03d 3458 f7be e25f 07c0
000002e0: 851e 99c0 9a6b 2b3f b705 f43f 680c 8f3f
000002f0: 6dc2 4ac0 83cb 743f 3f4e 9d3e d7d9 d3be
00000300: 821a 5dbf 0a72 98bf 50e9 0c3f 1475 9c3f
00000310: fd97 15bf 0cc3 31c0 a856 983d ca1b 3ac0
00000320: 0fbe 17c0 b1cc 0bc0 4d76 aebf 7999 5b3e
00000330: 6a4f 88be da5f 90be f888 863e b31b 2ac0
00000340: f615 723e b1d3 843e 7202 afbe 2819 813d
00000350: 4b19 6cc0 9a89 473f 75c4 8b3f d663 0b3f
00000360: 1fe6 8ebe e15b 0d3e 13d3 693e 84b4 50be
00000370: 95a0 b0bf 2f38 413f c73e be3e 3ede 4640
00000380: 0a7d b5bf 7025 02c0 c11d 933f ab78 243f
00000390: 341b 3cbe a917 653f 3f8a ed3f 803f 77bd
000003a0: cb36 4d3f 5bb6 8cbe 9c71 863f 3314 c53f
000003b0: 50a5 41bf 35a0 81bf 43fe debe 8e4e 75c0
000003c0: 091d 1040 8b87 91bf b270 9b40 32a4 f9bf
000003d0: e540 88bd 42c5 1ec0 7c6d d33e 23fd 6c3f
000003e0: 5825 29c0 d1c6 8a3f 9978 0bc1 5d85 7dbe
000003f0: 0011 a5bf e0c5 713e 1524 ac3e 4f89 7e3e

rcsl.backbone.model.2.bias f4 [200]
-1.3334589 0.5166432 4.696064 5.1092525 -0.096588925 -0.11549247 -1.7351552 3.8311293
-2.2354877 -0.10561152 0.09823326 -1.4703323 -1.0659261 -4.2563057 -3.0516393 10.791471
-4.707182 -9.143328 1.9299554 -0.061747678 -0.3453543 -0.14524771 -0.097119465 -12.20959
-1.427268 -0.03419964 2.7908301 -2.6418283 1.6867152 -0.042307682 -1.5711215 -0.14497627
-5.0582037 -0.08454448 8.290984 6.3401623 2.1097455 -8.248447 -0.10111113 -4.15138
0.0017671821 6.381392 -0.015714012 -4.917585 -0.87859684 -3.3191464 -0.17135526 5.2194977
-3.856722 -3.6746087 -0.037179273 0.057602197 2.7021046 -0.035942134 -10.281413 5.771395
5.508415 -6.254417 0.94670826 -0.56527454 -0.10374642 -3.8472452 2.1270142 -9.767873
-0.88854253 0.1441421 -2.3770092 -0.33120564 0.017957324 0.033261623 -0.03286224 -0.094339915
-0.6909174 5.386252 6.772478 -0.6178586 -3.3603845 -0.12811495 -4.053786 -0.08469234
-3.8671148 5.6266856 2.2673764 -3.5361392 5.3596306 -4.1917095 2.5193512 -8.1114435
-15.7623005 -0.046785004 -0.3950642 -6.437932 -1.3287761 10.041064 -0.065431006 0.17024322
-0.110815614 -3.2421184 -1.2605695 -0.012016105 -2.664091 3.1258237 -0.057997387 -2.4433482
-9.400668 1.8584341 -4.0239744 0.9994669 -2.37178 -5.3181977 0.018690139 -0.06344874
-4.789889 -1.3406771 -6.8417826 -6.902818 0.90289664 3.147469 -2.3150632 -0.11697345
1.4666754 6.1771936 -4.876939 -0.042716272 -7.201016 0.001134336 -0.18193613 -0.04435696
-0.08768556 -0.7730194 -4.670647 -0.0696655 -9.59674 -5.3076468 -0.012169182 -0.08985454
-0.074826464 -4.659674 -11.509486 -3.0136597 -0.03492741 -2.9175518 -0.015668968 -5.294114
-2.768871 -2.517136 0.36260295 -0.039058443 -0.7500757 -0.0635747 -0.46057698 -6.363608
5.871666 -0.049750485 -0.05200529 -0.12241748 -7.7567077 -5.7573533 -7.775504 -0.054803114
-13.430279 0.014436733 -0.012991957 -0.074004866 -2.2904544 -2.7472985 1.1813974 -0.112981305
0.40737814 -0.94762945 -0.0608263 -0.0036170748 0.01456049 -2.5815349 -0.0024308206 -8.265324
-1.526333 -0.008631102 -0.10845422 -2.6460047 -0.06952671 -8.98068 0.008537886 -8.8393755
0.8600711 -3.2174177 1.0218154 -21.817104 -0.07660481 -0.18284072 -0.14441186 -0.11220036
2.9755182 -7.4631195 -9.147062 -1.9885534 -0.08980626 -0.15690896 -0.012835464 -8.807997
00000000: c8ae aabf bb42 043f 2846 9640 ff7e a340
00000010: 6ad0 c5bd 5187 ecbd 9119 debf 3931 7540
00000020: 3b12 0fc0 da4a d8bd 852e c93d d933 bcbf
00000030: 4470 88bf a833 88c0 0f4e 43c0 dda9 2c41
00000040: 3ca1 96c0 124b 12c1 c708 f73f 22eb 7cbd
00000050: 47d2 b0be d1bb 14be 92e6 c6bd 7b5a 43c1
00000060: b8b0 b6bf ec14 0cbd f69c 3240 b713 29c0
00000070: 49e6 d73f d24a 2dbd 821a c9bf a974 14be
00000080: cedc a1c0 a825 adbd dfa7 0441 9ce2 ca40
00000090: 1206 0740 a4f9 03c1 5a13 cfbd 1bd8 84c0
000000a0: cba0 e73a 5d34 cc40 acba 80bc db5c 9dc0
000000b0: b9eb 60bf e56c 54c0 c177 2fbe 2006 a740
000000c0: 89d4 76c0 ca2c 6bc0 4b49 18bd 48f0 6b3d
000000d0: 48ef 2c40 0f38 13bd ab80 24c1 45af b840
000000e0: f044 b040 2f24 c8c0 795b 723f d5b5 10bf
000000f0: 0179 d4bd 4439 76c0 0021 0840 3549 1cc1
00000100: 8677 63bf fd99 133e eb20 18c0 c993 a9be
00000110: 3d1b 933c 573d 083d 8e9a 06bd 4935 c1bd
00000120: f6df 30bf 2d5c ac40 24b8 d840 fb2b 1ebf
00000130: 8a10 57c0 9130 03be 9db8 81c0 2d73 adbd
00000140: cf7e 77c0 cf0d b440 b21c 1140 1b50 62c0
00000150: 1882 ab40 7c22 86c0 0d3d 2140 79c8 01c1
00000160: 6232 7cc1 a2a1 3fbd db45 cabe 8a03 cec0
00000170: 5615 aabf 33a8 2041 b100 86bd 3d54 2e3e
00000180: 4cf3 e2bd de7e 4fc0 575a a1bf 33df 44bc
00000190: 7880 2ac0 7f0d 4840 ab8e 6dbd d15f 1cc0
000001a0: 2369 16c1 2be1 ed3f 66c4 80c0 10dd 7f3f
000001b0: 3ecb 17c0 ad2e aac0 101c 993c 6af1 81bd
000001c0: c546 99c0 4f9b abbf e2ef dac0 e3e3 dcc0
000001d0: 3c24 673f 2270 4940 ff29 14c0 c78f efbd
000001e0: 05bc bb3f 92ab c540 e20f 9cc0 42f7 2ebd
000001f0: b96e e6c0 00ae 943a 774d 3abe a5af 35bd
00000200: 7d94 b3bd 99e4 45bf f175 95c0 c9ac 8ebd
00000210: 3f8c 19c1 3ed8 a9c0 4061 47bc a805 b8bd
00000220: 9e3e 99bd 0d1c 95c0 db26 38c1 cddf 40c0
00000230: 0b10 0fbd 2bb9 3ac0 355c 80bc 6269 a9c0
00000240: 2f35 31c0 c218 21c0 18a7 b93e bffb 1fbd
00000250: f604 40bf 7433 82bd bfd0 ebbe ada2 cbc0
00000260: b0e4 bb40 2ac7 4bbd 8003 55bd 04b6 fabd
00000270: f336 f8c0 3d3c b8c0 eed0 f8c0 3b79 60bd
00000280: 6ce2 56c1 0c88 6c3c 38dc 54bc dd8f 97bd
00000290: ce96 12c0 bdd3 2fc0 0838 973f be62 e7bd
000002a0: de93 d03e d897 72bf 0025 79bd 720c 6dbb
000002b0: 1f8f 6e3c de37 25c0 674e 1fbb c43e 04c1
000002c0: e15e c3bf 7769 0dbc 3f1d debd 2458 29c0
000002d0: 0564 8ebd deb0 0fc1 7de2 0b3c 156e 0dc1
000002e0: 9f2d 5c3f 2cea 4dc0 d9ca 823f 6e89 aec1
000002f0: fce2 9cbd 993a 3bbe b4e0 13be 4dc9 e5bd
00000300: e46e 3e40 e0d1 eec0 5e5a 12c1 eb88 febf
00000310: 58ec b7bd beac 20be d74b 52bc 8eed 0cc1

rcsl.backbone.model.4.weight f4 [200, 200]
-0.066245876 -0.012483714 0.00840335 -0.01181627 0.010851827 0.045664266 0.014212095 -0.0103852535
0.06679722 0.014405086 -0.028806688 -0.10626232 0.011403715 -0.0928611 -0.086576946 -0.05646513
-0.045103833 -0.038225196 -0.09831198 0.026486455 -0.053843405 0.03930259 -0.028382737 0.0009455439
0.014213173 0.06423606 -0.06253008 0.046701584 -0.06581057 -0.07400828 0.01934897 -0.04111026
-0.021318445 -0.042769596 0.0028760175 -0.093389586 -0.030986872 -0.007893903 -0.049429607 -0.08958464
0.008911888 -0.0028015205 -0.071641356 0.02797829 -0.0958048 0.00027204998 -0.03446957 -0.07748246
-0.07667536 -0.091751486 -0.06848369 -0.024528963 -0.02448963 0.003370645 0.008630076 0.017703364
0.061496384 0.026819943 -0.07756435 -0.09717674 0.004213913 0.017785704 -0.07494865 0.018935388
0.006375794 -0.08992576 -0.02248957 -0.07630836 -0.0815952 0.037331976 -0.04140135 0.012975715
-0.03416613 -0.056435592 -0.024115654 -0.07073816 -0.062970586 0.0364155 -0.072349794 0.009929367
0.051529255 0.02382823 -0.050044723 -0.07696906 -0.0991038 -0.010309886 0.0063721016 -0.06563975
-0.0034482344 0.020906465 0.0050025806 -0.026179334 0.02323108 -0.08968529 0.0088579245 0.05125259
-0.066079035 -0.051120806 -0.11973346 0.0068211723 -0.04041885 -0.11165587 -0.03939964 -0.032119453
-0.06804805 -0.07625642 -0.049183354 -0.0641473 -0.08568912 -0.13799354 -0.060691267 0.06070892
-0.0003935102 -0.04261945 0.02279747 -0.04776838 -0.09055378 0.041537058 -0.011441824 0.024922837
-0.018715985 -0.0141600175 0.04868956 -0.022238212 -0.0379417 0.055490147 -0.066632204 -0.014502272
-0.060930636 0.009701583 -0.089973874 -0.009580042 -0.061584406 0.012101714 0.033276506 0.012246317
0.0154702235 -0.07185533 -0.07207721 -0.11573187 -0.05199029 0.03579837 -0.056408618 -0.13207743
0.021072555 -0.07008663 0.037654463 -0.046752006 -0.050509904 -0.010018661 -0.06444114 0.033290844
-0.08753062 0.014232664 0.02663477 -0.057233825 -0.008596908 -0.092725545 -0.061308052 0.003048526
0.0046977215 0.0008679048 0.05277198 -0.013214427 -0.035351235 0.021730924 -0.112238586 -0.0010792703
0.026186058 -0.085986175 0.004161728 -0.056996662 0.009540407 -0.03864866 -0.039885644 0.03549786
-0.037610807 0.05665776 0.0050604553 -0.017835839 -0.041839555 0.036125556 -0.011619902 -0.09807466
-0.019818334 0.022080237 -0.02568294 -0.011356925 0.0019228405 -0.06741432 -0.055659737 0.0063168877
-0.12469753 -0.01983288 -0.053731278 -0.06155727 -0.033616688 -0.019633356 -0.016179662 -0.08409049
0.00264356 -0.021915164 0.13443646 -0.049993496 -0.0025907191 0.06357842 0.058075514 -0.016151723
0.14136313 0.098441444 0.27496743 0.46285528 -0.0977913 -0.06550069 0.034282032 -0.03906649
-0.13687444 -0.11357553 -0.066441104 -0.013367464 -0.100844674 0.03474855 0.041297812 -0.089976475
-0.012960461 -0.027720695 -0.10182353 -0.01872212 -0.25709462 0.09996473 0.2811553 -0.017889602
0.24040426 0.19547607 -0.07263421 0.42723244 -0.0065959636 0.07217751 -0.022615585 0.05073118
0.0612088 -0.028715134 0.039114926 -0.26264417 -0.090409696 -0.11989325 0.27525514 0.019169832
0.0027145157 -0.044075586 0.046494253 0.182549 0.11699103 -0.035777636 0.03713778 -0.1864516
00000000: ebab 87bd 7e88 4cbc 34ae 093c 0799 41bc
00000010: ddcb 313c 740a 3b3d d9d9 683c e926 2abc
00000020: fbcc 883d 4f03 6c3c 01fc ebbc 0fa0 d9bd
00000030: a6d6 3a3c f62d bebd 414f b1bd fb47 67bd
00000040: ccbe 38bd 0692 1cbd cb57 c9bd 1ffa d83c
00000050: e78a 5cbd c1fb 203d ea82 e8bc 61de 773a
00000060: 5ede 683c 328e 833d c50f 80bd 294a 3f3d
00000070: b1c7 86bd a791 97bd bb81 9e3c 3b63 28bd
00000080: 05a4 aebc 2c2f 2fbd 917b 3c3b 0a43 bfbd
00000090: 2ed8 fdbc 6e55 01bc b376 4abd 2778 b7bd
000000a0: 2b03 123c b799 37bb b4b8 92bd ba32 e53c
000000b0: 4f35 c4bd eea1 8e39 f72f 0dbd 20af 9ebd
000000c0: f907 9dbd 34e8 bbbd 2d41 8cbd f7f0 c8bc
000000d0: 7a9e c8bc 0ae6 5c3b 2a65 0d3c a506 913c
000000e0: a2e3 7b3d 7fb5 db3c 0fda 9ebd 9904 c7bd
000000f0: dd14 8a3b 53b3 913c ae7e 99bd 631e 9b3c
00000100: 09ec d03b ff2a b8bd 0c3c b8bc 8f47 9cbd
00000110: 621b a7bd 6ae9 183d 7694 29bd 1898 543c
00000120: c9f1 0bbd 0229 67bd 318e c5bc 2bdf 90bd
00000130: b9f6 80bd 6b28 153d 212c 94bd c9ae 223c
00000140: 5710 533d 6c33 c33c b2fb 4cbd f4a1 9dbd
00000150: eff6 cabd ccea 28bc 10cd d03b 226e 86bd
00000160: c6fb 61bb 0944 ab3c b0ec a33b 0b76 d6bc
00000170: 1b4f be3c ecac b7bd d420 113c 3cee 513d
00000180: 7254 87bd 0d64 51bd d136 f5bd 2484 df3b
00000190: 3c8e 25bd d5ab e4bd 8461 21bd b08f 03bd
000001a0: c75c 8bbd 532c 9cbd 7c74 49bd a95f 83bd
000001b0: c77d afbd 2e4e 0dbe 6897 78bd eba9 783d
000001c0: 0c50 ceb9 bb91 2ebd c3c1 ba3c c7a8 43bd
000001d0: 4374 b9bd c322 2a3d 7d76 3bbc fa2a cc3c
000001e0: 4452 99bc 6bff 67bc b46e 473d e92c b6bc
000001f0: c268 1bbd a349 633d 7776 88bd f09a 6dbc
00000200: 6792 79bd 63f3 1e3c 3944 b8bd 9cf5 1cbc
00000210: ee3f 7cbd 4446 463c f24c 083d c7a4 483c
00000220: d276 7d3c e328 93bd 379d 93bd d504 edbd
00000230: c5f3 54bd 50a1 123d b90c 67bd 4e3f 07be
00000240: 5aa0 ac3c 9489 8fbd 913b 1a3d 087f 3fbd
00000250: 79e3 4ebd 4f25 24bc b7f9 83bd fb5b 083d
00000260: 4143 b3bd 1f30 693c 2931 da3c 046e 6abd
00000270: 0cda 0cbc e4e6 bdbd 271e 7bbd c7c9 473b
00000280: 58ef 993b 1b84 633a 6f27 583d 5381 58bc
00000290: 75cc 10bd 0d05 b23c 58dd e5bd 4d76 8dba
000002a0: 2584 d63c 8519 b0bd 1b5f 883b 5575 69bd
000002b0: 5e4f 1c3c 0f4e 1ebd 215f 23bd 3466 113d
000002c0: ca0d 1abd f811 683d 2dd2 a53b 771c 92bc
000002d0: f45f 2bbd 64f8 133d 6761 3ebc 5edb c8bd
000002e0: 0f5a a2bc 9de1 b43c 0765 d2bc 6512 3abc
000002f0: d207 fc3a 8510 8abd 77fb 63bd e5fd ce3b
00000300: 6b61 ffbd 9078 a2bc 5415 5cbd 7a23 7cbd
00000310: a7b1 09bd 22d6 a0bc 368b 84bc a337 acbd
00000320: 943f 2d3b 6e87 b3bc b6a9 093e fbc5 4cbd
00000330: 0ec9 29bb 6735 823d 97e0 6d3d 9e50 84bc
00000340: 7fc1 103e ab9b c93d 88c8 8c3e 5efb ec3e
00000350: ce46 c8bd 3a25 86bd 516b 0c3d 2f04 20bd
00000360: d028 0cbe 4a9a e8bd 4612 88bd 3503 5bbc
00000370: a787 cebd 7f54 0e3d e527 293d 9645 b8bd
00000380: 1d58 54bc 8316 e3bc db88 d0bd 225f 99bc
00000390: e8a1 83be 4fba cc3d 96f3 8f3e 378d 92bc
000003a0: 892c 763e e12a 483e 3fc1 94bd 36be da3e
000003b0: f422 d8bb cdd1 933d 5244 b9bc 7fcb 4f3d
000003c0: 14b6 7a3d 003c ebbc f936 203d 4c79 86be
000003d0: b828 b9bd 988a f5bd 3eee 8c3e 0d0a 9d3c
000003e0: 04e6 313b 9a88 34bd c270 3e3d 20ee 3a3e
000003f0: fe98 ef3d 928b 12bd c91d 183d 2bed 3ebe

rcsl.backbone.model.4.bias f4 [200]
-0.08958034 -1.324879 1.611827 -3.1025538 -0.13549817 3.3954468 0.9372102 -0.082631156
-0.19157831 -0.06840589 -5.459405 0.06459857 -8.877106 -0.048128653 -1.701632 -7.225355
-0.22452852 0.617326 9.77977 -0.19831443 -4.478029 6.062229 -3.9334636 -2.817974
6.221944 -3.6374905 -1.5738548 -0.111752436 -1.9754618 1.2519697 0.79654855 -4.9050527
-10.757694 -4.360082 -4.820801 7.842854 -0.02984695 -1.6544415 -4.9199643 0.0761062
7.3390403 -0.089000545 -16.06917 -2.4635155 -4.2423677 -0.16910505 -0.8665677 5.589036
-0.60357165 0.7609848 -0.23643558 2.9224062 9.125554 -0.091591656 -0.35546097 2.202642
3.921446 -5.1845026 4.4594684 5.3536325 -0.12635554 -5.9849796 -0.06955189 0.4542457
1.8913598 1.2671248 1.6901805 6.3760786 -0.7640314 -2.7331164 -4.800989 -6.6289773
-2.1923068 0.8162682 -12.807968 2.0917594 -0.7214628 -0.085091725 -2.4382417 2.267855
-2.185421 -1.240662 -0.18400835 -0.086487435 -7.1585255 -3.7594118 4.167692 -0.19330907
-0.16397578 -0.12076452 -2.3340392 -6.7062073 7.5798016 -7.043114 -0.098488964 -8.348294
-0.14155579 -0.060742524 4.1961484 5.8243785 -3.7040498 1.6890516 -4.228376 -10.424204
1.2003292 -7.0688424 -7.3473063 -0.20964386 -5.493021 -3.341156 -7.4188323 -0.030777326
-2.613529 -4.678194 -0.3334832 -0.39790052 2.0845978 1.8958175 -4.0548 -9.25184
-0.2932138 -3.7271159 -3.9602053 -0.14638343 -0.95623547 -5.9117994 -0.16531533 -0.1621929
-1.3515707 -0.078236096 -8.310587 -2.0035791 -0.87634486 -6.9827113 -0.035778776 5.861509
-0.033996228 2.7957916 8.097773 -0.9751476 9.991167 2.5918007 -1.9834516 7.7980356
-0.14618763 -3.590865 -4.0817885 -16.697622 -0.09425301 -0.49599946 -1.408245 -5.0297804
-4.0033765 6.765655 -0.088791855 2.06483 -0.57808745 -1.2898207 -3.2123122 -0.7588404
-0.14345457 -1.3573359 1.984665 -0.77554816 -1.2916967 -0.17273577 -2.707629 0.029052721
-1.358464 -14.637017 -5.7889776 -2.57507 -0.052727703 -5.2975106 -7.83218 -1.073756
-3.9733284 -3.2424111 -0.2554848 -0.011194409 -6.237985 -16.279533 0.2121061 -0.11466131
-5.0474377 3.8819444 -3.6779892 2.4113805 -7.153291 1.5614374 -7.466037 8.1221695
-2.1691215 3.4775658 -1.7279875 -0.1427647 2.8227665 -0.14587438 7.570869 -0.048784375
00000000: e675 b7bd a395 a9bf 5950 ce3f 3e90 46c0
00000010: 08c0 0abe 004f 5940 02ed 6f3f 863a a9bd
00000020: 1b2d 44be 6318 8cbd 72b3 aec0 414c 843d
00000030: a008 0ec1 8d22 45bd 14cf d9bf 1c36 e7c0
00000040: ceea 65be 1409 1e3f f079 1c41 f012 4bbe
00000050: 034c 8fc0 c8fd c140 debd 7bc0 b059 34c0
00000060: 2a1a c740 a5cc 68c0 1374 c9bf 76de e4bd
00000070: efdb fcbf 8b40 a03f 9bea 4b3f 31f6 9cc0
00000080: 841f 2cc1 cb85 8bc0 0044 9ac0 a9f8 fa40
00000090: 9781 f4bc bdc4 d3bf 5970 9dc0 91dd 9b3d
000000a0: 6bd9 ea40 eb45 b6bd a98d 80c1 3daa 1dc0
000000b0: 7ac1 87c0 e029 2dbe 61d7 5dbf 62d9 b240
000000c0: ac83 1abf e6cf 423f 2b1c 72be b408 3b40
000000d0: 4502 1241 6894 bbbd fbfe b5be 16f8 0c40
000000e0: f9f8 7a40 72e7 a5c0 f7b3 8e40 f550 ab40
000000f0: 5963 01be f484 bfc0 3971 8ebd e492 e83e
00000100: 1418 f23f 2531 a23f d657 d83f d608 cc40
00000110: 9097 43bf 61eb 2ec0 b4a1 99c0 9520 d4c0
00000120: c14e 0cc0 f4f6 503f 70ed 4cc1 63df 0540
00000130: c9b1 38bf 9244 aebd 270c 1cc0 8924 1140
00000140: f0dd 0bc0 03ce 9ebf af6c 3cbe 5320 b1bd
00000150: a412 e5c0 349a 70c0 bc5d 8540 d0f2 45be
00000160: 44e9 27be 6353 f7bd e660 15c0 4099 d6c0
00000170: bc8d f240 3161 e1c0 95b4 c9bd 9d92 05c1
00000180: 00f4 10be 27cd 78bd d946 8640 4f61 ba40
00000190: 270f 6dc0 d832 d83f db4e 87c0 8ac9 26c1
000001a0: 63a4 993f f533 e2c0 221d ebc0 e1ac 56be
000001b0: d4c6 afc0 80d5 55c0 1367 edc0 bb20 fcbc
000001c0: 0f44 27c0 c4b3 95c0 4fbe aabe 9eb9 cbbe
000001d0: 0d6a 0540 26aa f23f ecc0 81c0 8907 14c1
000001e0: 1f20 96be 1189 6ec0 0174 7dc0 8ae5 15be
000001f0: d9cb 74bf 762d bdc0 6c48 29be e515 26be
00000200: 4500 adbf 3f3a a0bd 2af8 04c1 a43a 00c0
00000210: 2358 60bf 5f72 dfc0 c48c 12bd 7b91 bb40
00000220: a13f 0bbd 40ee 3240 7a90 0141 46a3 79bf
00000230: d2db 1f41 10e0 2540 bee1 fdbf 8289 f940
00000240: 36b2 15be bbd0 65c0 039e 82c0 bb94 85c1
00000250: b907 c1bd a4f3 fdbe 5f41 b4bf f6f3 a0c0
00000260: a91b 80c0 3f80 d840 81d8 b5bd 2d26 0440
00000270: 8afd 13bf d818 a5bf 8696 4dc0 5d43 42bf
00000280: c1e5 12be 2fbd adbf 8109 fe3f 538a 46bf
00000290: 5156 a5bf a5e1 30be cb49 2dc0 f9ff ed3c
000002a0: 26e2 adbf 3931 6ac1 4e3f b9c0 f2cd 24c0
000002b0: 01f9 57bd 3585 a9c0 38a1 fac0 d670 89bf
000002c0: 034b 7ec0 aa83 4fc0 e7ce 82be c168 37bc
000002d0: 939d c7c0 7c3c 82c1 5732 593e 8dd3 eabd
000002e0: 9c84 a1c0 c771 7840 2d64 6bc0 0f54 1a40
000002f0: c3e7 e4c0 2edd c73f c6e9 eec0 68f4 0141
00000300: e3d2 0ac0 7090 5e40 b22e ddbf e930 12be
00000310: 35a8 3440 1860 15be 8f44 f240 20d2 47bd

rcsl.backbone.model.6.weight f4 [200, 200]
0.09296556 -0.24892333 -0.037439305 -3.4652321 0.031562615 0.07639947 0.07638864 0.03901275
-0.09955751 -0.06788364 0.12428499 0.14858912 -0.21939465 0.12276429 -1.4193844 -0.5319216
-0.014079891 0.07896883 -0.35513133 0.057070386 -0.16749294 -0.15607347 -0.047607653 0.37587628
0.069357075 0.19604734 0.020062875 0.018106397 0.033182193 0.11958378 -0.019742027 0.106397845
-0.07342538 0.08561652 -2.0555737 -0.28598723 -0.008179679 -0.015391584 0.045479506 0.11339116
0.051999934 -0.005747704 -0.2348645 -0.09477062 -0.04867334 0.118281566 0.13250299 0.33017755
-0.10190854 -0.11352031 -0.059771344 0.17787394 -0.3294926 -0.00015943909 0.053779073 0.019426987
0.06454756 0.02412455 -1.1453569 -0.11751038 -0.08589588 0.08766672 -0.0118330065 -1.8395654
0.08646849 0.012502336 -0.0024098968 -0.19361833 -0.009541059 -0.03645273 -0.15843621 -0.12072837
-0.012199197 -0.24298593 -2.0368845 -0.05618563 0.046923667 0.020922644 -0.0574516 0.005706555
-0.13033564 -0.26655003 0.04546172 -0.0028810962 -0.7107826 0.218545 0.047524754 -0.008751953
-0.037926648 -0.0014968079 0.02609466 0.1290663 -0.26219055 -0.035644952 0.063487045 -0.21688555
0.0067920997 -0.21887197 0.018631762 -0.22221309 -0.024727715 -0.10438853 0.047321197 -0.1941348
-0.11310112 -0.3291471 -0.1558676 -0.06963575 -0.15253133 0.06750138 -0.10398262 -0.24280854
-0.047359828 -0.70042723 -0.86842597 0.13629524 0.15507895 -0.558277 0.09755931 -3.1966486
-0.05190245 -0.19908166 0.044390786 -0.0026807166 0.09118361 -0.13770002 0.021580426 0.087753035
0.1001771 -0.05823213 -0.049967326 0.13788903 -0.27922675 0.010512312 -0.022614108 -0.12452839
-0.021563675 -0.18217267 -0.231456 0.12539539 -0.18052433 -0.87603784 -0.035700746 0.028394036
-0.2138254 -1.6144867 0.12642579 -0.53472483 0.00889143 0.1610893 0.11308088 0.17228656
-0.104469985 -0.13610613 0.113115504 0.2543755 0.02573109 0.08170363 0.054762118 0.08275553
-0.03724636 -0.10354872 -0.06808688 0.14829925 -0.39788955 -0.018845862 -0.15661737 0.016795503
-0.1484526 -0.022801 -0.11661182 -0.25373763 0.02434574 -0.070294164 0.014801177 -0.09735352
-0.24417967 0.028911175 -0.08706688 0.0487292 0.024339981 -0.13568175 -0.09161207 -0.023379777
-0.028914625 0.0482516 -0.0068926057 -0.06959098 -0.02574096 -3.5511558 -0.09113034 -0.36380026
-0.5126749 -0.37574708 0.15032558 0.016861062 -0.15969346 0.04527316 -0.22233512 -0.0038623374
-0.03190167 -0.33915922 -3.710058 0.3459001 0.061718397 -0.16849321 -0.28401247 -0.043174263
0.046717864 0.01374842 0.27390194 0.070026785 -2.5379922 0.022020558 0.32347888 0.13313234
0.03871597 -0.446923 -0.6206315 -0.7225476 -0.15992786 -1.3726302 -0.051690202 0.16263591
-0.49900717 -0.004418102 -0.39174765 0.03590432 -0.6352226 0.20395406 0.6833574 0.27866462
-1.23801 -1.3757619 -0.4662012 0.34463835 -0.069367774 -3.297575 0.034108497 -0.5186896
-0.566842 -0.020619791 0.3018259 0.37278932 0.32987976 0.9057073 -0.74568194 -1.1553656
0.3436595 -0.09455374 0.056780554 0.13922712 -0.31010875 0.03484962 -0.14345364 0.36467794
00000000: ba64 be3d c2e5 7ebe f559 19bd 5dc6 5dc0
00000010: cd47 013d 5377 9c3d a671 9c3d d5cb 1f3d
00000020: cfe4 cbbd 9406 8bbd 2189 fe3d bf27 183e
00000030: fea8 60be d86b fb3d 63ae b5bf 042c 08bf
00000040: 58af 66bc 69ba a13d c6d3 b5be a3c2 693d
00000050: 4583 2bbe b9d1 1fbe 3e00 43bd db72 c03e
00000060: 150b 8e3d a2c0 483e e65a a43c de53 943c
00000070: 0dea 073d 57e8 f43d 08ba a1bc 1de7 d93d
00000080: 0c60 96bd b757 af3d 858e 03c0 eb6c 92be
00000090: 0f04 06bc fb2c 7cbc b848 3a3d a039 e83d
000000a0: e2fd 543d 3c57 bcbb 5280 70be 1917 c2bd
000000b0: b25d 47bd 9b3d f23d ddae 073e 080d a93e
000000c0: 6db5 d0bd 567d e8bd ccd2 74bd 9624 363e
000000d0: 41b3 a8be 1b2f 27b9 7247 5c3d 5825 9f3c
000000e0: 8331 843d d9a0 c53c 0e9b 92bf 48a9 f0bd
000000f0: 2eea afbd 9c8a b33d 3adf 41bc e176 ebbf
00000100: 6416 b13d 99d6 4c3c 5cef 1dbb e243 46be
00000110: 1a52 1cbc 754f 15bd 1a3d 22be 7040 f7bd
00000120: 24df 47bc 4ed1 78be 515c 02c0 e722 66bd
00000130: 0833 403d f765 ab3c 5e52 6bbd 0efe ba3b
00000140: b576 05be 3f79 88be 1236 3a3d c6d0 3cbb
00000150: d9f5 35bf 43ca 5f3e 51a9 423d 5a64 0fbc
00000160: f958 1bbd 8a30 c4ba 78c4 d53c f529 043e
00000170: d73d 86be 7100 12bd 7f05 823d 3f17 5ebe
00000180: 4390 de3b f91f 60be a3a1 983c d48b 63be
00000190: c791 cabc a7c9 d5bd dfd3 413d 46cb 46be
000001a0: 8fa1 e7bd f885 a8be c29b 1fbe 309d 8ebd
000001b0: 2c31 1cbe 2a3e 8a3d d7f4 d4bd cda2 78be
000001c0: 61fc 41bd 334f 33bf 2a51 5ebf fb90 0b3e
000001d0: 04cd 1e3e 3eeb 0ebf 2dcd c73d e495 4cc0
000001e0: aa97 54bd 10dc 4bbe 1dd3 353d f6ae 2fbb
000001f0: 79be ba3d 3c01 0dbe 6fc9 b03c ddb7 b33d
00000200: a729 cd3d d084 6ebd 8aaa 4cbd c832 0d3e
00000210: cff6 8ebe d53b 2c3c 3941 b9bc be08 ffbd
00000220: 4ea6 b0bc 798b 3abe cd02 6dbe a667 003e
00000230: 5fdb 38be 0444 60bf f23a 12bd 9c9a e83c
00000240: 0cf5 5abe 80a7 cebf c375 013e bae3 08bf
00000250: 5cad 113c 98f4 243e f396 e73d e36b 303e
00000260: 5cf4 d5bd 685f 0bbe 1aa9 e73d 813d 823e
00000270: 02ca d23c 3c54 a73d 3e4e 603d bb7b a93d
00000280: a48f 18bd 5a11 d4bd 2271 8bbd c2db 173e
00000290: 2eb8 cbbe a362 9abc 4e60 20be b996 893c
000002a0: f503 18be 2ac9 babc 2ed2 eebd e6e9 81be
000002b0: b870 c73c 63f6 8fbd a380 723c 4861 c7bd
000002c0: 3c0a 7abe 21d7 ec3c 1f50 b2bd 4598 473d
000002d0: a464 c73c 28f0 0abe 1c9f bbbd f286 bfbc
000002e0: 5dde ecbc 78a3 453d 5edb e1bb b785 8ebd
000002f0: b5de d2bc 2346 63c0 8ba2 babd 0744 babe
00000300: aa3e 03bf ec61 c0be f3ee 193e 3620 8a3c
00000310: af86 23be 5970 393d d1ab 63be 451f 7dbb
00000320: 53ab 02bd 47a6 adbe 9771 6dc0 d119 b13e
00000330: 6ecc 7c3d 7c89 2cbe 156a 91be 7fd7 30bd
00000340: 3b5b 3f3d 0e41 613c e03c 8c3e 346a 8f3d
00000350: 776e 22c0 7564 b43c 069f a53e d853 083e
00000360: a394 1e3d 17d3 e4be b5e1 1ebf e1f8 38bf
00000370: 21c4 23be 59b2 afbf 1bb9 53bd 078a 263e
00000380: de7d ffbe bac5 90bb 2693 c8be 6910 133d
00000390: f39d 22bf 55d9 503e 83f0 2e3f 21ad 8e3e
000003a0: 1d77 9ebf f718 b0bf ecb1 eebe 7074 b03e
000003b0: b110 8ebd 780b 53c0 5ab5 0b3d d7c8 04bf
000003c0: 8f1c 11bf d6ea a8bc ed88 9a3e 3ede be3e
000003d0: 00e6 a83e 6fdc 673f 03e5 3ebf 05e3 93bf
000003e0: 23f4 af3e 64a5 c1bd ba92 683d 8e91 0e3e
000003f0: 93c6 9ebe 7abe 0e3d 83e5 12be 11b7 ba3e

rcsl.backbone.model.6.bias f4 [200]
0.56312376 -7.3352222 -1.9107804 4.33105 -0.33975264 -0.60377747 -3.0631058 5.3394556
0.7248253 -0.6148212 -0.38551673 1.4441162 -2.2619236 -4.392563 -0.56892824 1.6793622
-5.1030927 -6.1323266 -3.1738274 0.42943057 4.854321 -3.0376456 4.446031 -1.2247393
0.25173384 -0.635735 0.4941107 1.153244 -2.9328465 -2.1367671 -1.366962 -0.37326625
2.4520926 -0.16254392 -2.2506921 1.4895838 -0.5411748 -3.0373764 4.105046 -1.6176317
-2.886901 -7.087205 -2.2928565 1.4725903 -7.321885 -0.5253975 1.8338305 1.5537353
-2.7117312 -6.841821 -2.0138423 0.23954476 -13.40191 -0.8151948 -0.56553113 -3.3930578
0.6818855 3.1501148 -0.9918848 -0.9272509 4.419161 -3.791939 -5.732626 -4.408749
-5.295475 -0.36231184 -0.40423036 1.5309956 2.668759 -3.388632 -0.57113 -3.6988049
-0.3069045 0.031746034 -0.3784951 -11.161979 -3.2662547 -0.790005 3.6304877 3.2131903
-3.739123 2.0765693 -0.8107122 -0.20481206 3.6594365 -5.133973 1.5533348 1.6917518
-6.801358 -2.3761184 -1.3227587 -0.18115033 4.914154 5.427682 -4.6191792 -2.5424144
2.5883088 -2.2078776 1.8027512 -3.8930352 -2.7161381 0.50017524 4.870452 -0.371923
-0.40897763 -3.7155004 -6.0044494 2.5212975 -5.3088117 -2.6708581 -0.36712134 -1.4583801
-2.925875 0.11556926 2.5136337 -0.62421924 4.8904443 2.9486983 0.24991487 2.2385852
3.1812432 -4.2695284 -2.6204014 -3.7259483 -4.064311 -7.6952157 2.512106 1.7377084
-4.2066746 -1.396534 -2.9733422 3.4527297 1.5722518 -1.3188565 3.323384 -1.4989464
7.7240458 -1.3103824 -4.587558 -1.7243412 -0.7640476 1.0306375 0.5531243 -0.3784764
0.47009772 -0.70431286 0.26498345 -3.7921984 0.6856776 -0.9339857 -2.23604 0.005354452
-1.1286263 -0.60260355 -0.42340288 2.7151814 -3.6434977 -0.6630143 -3.9551682 -6.5308704
-1.0438542 -3.0310762 0.84833246 -2.3040092 -6.0809417 0.015227545 -2.4175055 0.25377402
2.9042578 2.0019598 -2.2149663 -0.18316597 -1.5636817 -5.0132103 2.7707226 -0.44271842
-2.0946221 -0.4267772 1.0663387 -1.0408714 -3.047902 -0.38552788 -1.4731013 2.136668
1.5288433 -1.3759679 3.4518068 -5.8258514 -5.357573 -12.095808 -1.7625227 -2.9242675
-0.3745748 3.9207573 1.5717024 -0.7996871 2.0081296 3.656385 1.5059441 2.0030107
00000000: e128 103f 24ba eac0 7494 f4bf f697 8a40
00000010: 0ff4 adbe 2991 1abf ed09 44c0 d2dc aa40
00000020: 278e 393f ec64 1dbf 7362 c5be cdd8 b83f
00000030: 5bc3 10c0 e08f 8cc0 48a5 11bf 57f5 d63f
00000040: 894c a3c0 053c c4c0 fd1f 4bc0 53de db3e
00000050: 9956 9b40 c968 42c0 e345 8e40 42c4 9cbf
00000060: 42e3 803e 87bf 22bf 14fc fc3e 809d 933f
00000070: c2b3 3bc0 cbc0 08c0 9cf8 aebf c11c bfbe
00000080: 16ef 1c40 ea71 26be 570b 10c0 afaa be3f
00000090: 6f8a 0abf 6064 42c0 895c 8340 8e0e cfbf
000000a0: fcc2 38c0 62ca e2c0 29be 12c0 d77d bc3f
000000b0: e24c eac0 7380 06bf f5ba ea3f cce0 c63f
000000c0: 018d 2dc0 33f0 dac0 cbe2 00c0 394b 753e
000000d0: 396e 56c1 9bb0 50bf a6c6 10bf dc27 59c0
000000e0: 0c90 2e3f 7b9b 4940 2aec 7dbf 5160 6dbf
000000f0: c469 8d40 21af 72c0 ac71 b7c0 7914 8dc0
00000100: 8874 a9c0 f080 b9be 48f7 cebe aaf7 c33f
00000110: f3cc 2a40 59df 58c0 9335 12bf 38b9 6cc0
00000120: 9622 9dbe 2108 023d 1cca c1be 7797 32c1
00000130: 510a 51c0 c53d 4abf e959 6840 e9a4 4d40
00000140: cb4d 6fc0 83e6 0440 d68a 4fbf 41ba 51be
00000150: 3534 6a40 8249 a4c0 add3 c63f 538b d83f
00000160: baa4 d9c0 5312 18c0 2850 a9bf 797f 39be
00000170: c040 9d40 92af ad40 51d0 93c0 ebb6 22c0
00000180: daa6 2540 de4d 0dc0 8dc0 e63f 7d27 79c0
00000190: 35d5 2dc0 7c0b 003f beda 9b40 b16c bebe
000001a0: 8465 d1be c2ca 6dc0 7324 c0c0 f05c 2140
000001b0: c9e1 a9c0 57ef 2ac0 54f7 bbbe 33ac babf
000001c0: 8941 3bc0 94af ec3d 60df 2040 d5cc 1fbf
000001d0: 857e 9c40 79b7 3c40 afe9 7f3e fb44 0f40
000001e0: 7d99 4b40 fa9f 88c0 a8b4 27c0 f075 6ec0
000001f0: d60e 82c0 353f f6c0 58c6 2040 3b6d de3f
00000200: 149d 86c0 a0c1 b2bf 3d4b 3ec0 86f9 5c40
00000210: 8c3f c93f 4ad0 a8bf 53b2 5440 7add bfbf
00000220: 622b f740 9cba a7bf 46cd 92c0 36b7 dcbf
00000230: a098 43bf eeeb 833f 8e99 0d3f a9c7 c1be
00000240: a6b0 f03e d94d 34bf e9ab 873e 61b3 72c0
00000250: 9188 2f3f b019 6fbf 481b 0fc0 6674 af3b
00000260: d476 90bf 3a44 1abf 43c8 d8be 88c5 2d40
00000270: 112f 69c0 4ebb 29bf 7a21 7dc0 e4fc d0c0
00000280: 049d 85bf 27fd 41c0 512c 593f e374 13c0
00000290: 1397 c2c0 f47c 793c 69b8 1ac0 abee 813e
000002a0: 5cdf 3940 1c20 0040 02c2 0dc0 dc8f 3bbe
000002b0: b926 c8bf 386c a0c0 8553 3140 fdab e2be
000002c0: 4a0e 06c0 8b82 dabe c97d 883f 463b 85bf
000002d0: d410 43c0 e963 c5be 958e bcbf 2bbf 0840
000002e0: 23b1 c33f b71f b0bf 67ea 5c40 606d bac0
000002f0: 3d71 abc0 6e88 41c1 589a e1bf 3327 3bc0
00000300: 45c8 bfbe b0ed 7a40 8b2d c93f 4bb8 4cbf
00000310: 3285 0040 3602 6a40 c7c2 c03f 5431 0040

rcsl.backbone.model.8.weight f4 [6, 200]
-0.0005714967 0.010569509 -0.00054913264 -0.0061352686 0.012373025 0.035635203 -0.03018944 0.013184025
0.0023148037 -0.008674543 -0.11007517 -0.015578501 0.018882105 0.008865076 -0.041662358 0.21290182
0.0037336093 -0.04620418 0.0049675563 0.013865298 0.010743424 0.03142575 -0.040926512 -0.021425964
-0.05540216 0.0039478187 0.011940127 0.014976067 0.0015817476 -0.0008354357 -0.0017655436 0.0022396517
0.008392268 -0.0011489608 -0.005989547 -0.05495979 0.026197905 -0.0054099727 -0.01983943 -0.016453983
0.007939203 -0.012302945 0.012748542 -0.050511196 0.0013574265 -0.005224732 0.0021859095 -0.0007728755
0.055587526 0.0047444324 0.015426226 0.036849316 0.0008404355 0.006191808 0.056912813 0.0037460376
0.013041727 -0.0021788948 -0.001895613 -0.0037546814 0.0031437143 0.0023831518 0.005875622 0.0081470115
-0.04386461 -0.0260877 0.041392326 0.004434975 0.002823478 0.004447343 0.0028190124 0.004512828
-0.040283702 -0.08517338 0.18621174 -0.0010336065 0.030920586 -0.053214606 0.013996252 0.0058217477
-0.022470292 -0.041495346 8.675967e-05 0.008685091 0.021287918 -0.028182784 -0.04677886 -0.0032007701
-0.02692062 0.030798648 0.3122535 -0.048394185 -0.0017728746 -0.0052530547 0.0018488279 -0.003328133
0.038942188 -0.007325983 -0.0008470793 -0.004176168 0.019108124 -0.049398072 -0.024021974 0.016861932
0.0055619096 -0.001009903 -0.0008714284 0.0027736365 0.008280599 -0.057864897 -0.053373437 -0.013035207
-0.010660593 0.005715008 1.655086e-05 -0.0053649386 -0.030908855 -0.047045726 -0.004958316 0.0007185656
0.006189541 -0.0015434113 0.0054846234 0.0012881209 -0.0031368402 -0.007329916 -0.0016178996 -0.028686
0.006408883 -0.00052374444 0.036942694 0.0064164945 1.459038e-05 -0.01950326 0.0031637417 0.016556835
0.009798547 0.0048865597 -0.03673196 -0.0056520333 -0.0018475424 -0.0027509336 -0.031382404 -0.05477805
0.04009671 0.022511382 -0.0004559914 0.0015705269 0.0036938551 -0.1421258 -0.043242656 -0.027720189
0.097973324 -0.0060602594 -0.005501163 -0.001437057 0.0023701675 -0.17735827 0.001895748 -0.007493292
-0.20297033 0.019736066 -0.016702494 -0.0063941786 0.02000508 0.009586408 0.011449887 0.023234893
0.0036340042 0.0015577759 0.0037078627 -0.016509103 -0.009979981 0.036590595 0.014961065 -0.0051521836
-0.00563704 0.114525735 -0.002750648 0.001784198 0.009233013 -0.0065272097 -0.08786285 -0.058151655
0.0030794258 0.003938087 -0.059272926 -0.015855793 0.013857576 0.00097439 0.010118784 -0.019286238
0.07951662 -0.016975187 0.0012544907 0.07651568 0.0027908906 -0.026936231 0.009845068 -0.0006000227
0.0046200594 0.004419324 0.050536938 -0.06973593 0.13395962 0.12561479 -0.016726572 0.029843375
0.033681512 -0.0009299986 -0.014204337 -0.026098419 -0.06343162 0.01607024 0.019541401 -0.08031561
0.008808521 -0.041331343 0.02655267 -0.06387376 -0.0015785918 0.014558446 -0.038510244 -0.02846602
-0.003838832 -0.0027921242 -0.03029311 -0.0013474117 0.048870876 0.008299354 -0.013765252 0.0051098447
0.0029040067 0.032443058 -0.031589717 0.0030177222 0.19530423 -0.002329083 0.0003685997 -0.040230885
-0.021525793 -0.063515894 0.04510225 -0.010757068 -0.049805235 -0.028961675 0.000950185 -0.0024338476
0.03912015 0.0062054284 0.0279006 0.02039716 0.043492515 0.01222416 0.117048174 -0.0032948693
00000000: 7fd0 15ba bc2b 2d3c abf3 0fba 5d0a c9bb
00000010: 3ab8 4a3c 38f6 113d d84f f7bc cf01 583c
00000020: f6b3 173b ac1f 0ebc 176f e1bd f83c 7fbc
00000030: a5ae 9a3c d33e 113c 26a6 2abd ef02 5a3e
00000040: 92af 743b 9840 3dbd e2c6 a23b 462b 633c
00000050: 3005 303c 4ab8 003d 8fa2 27bd 8185 afbc
00000060: 60ed 62bd b45c 813b 86a0 433c 2d5e 753c
00000070: a452 cf3a 2401 5bba d069 e7ba 1fc7 123b
00000080: b97f 093c ba98 96ba f643 c4bb 841d 61bd
00000090: fd9c d63c 2446 b1bb 4d86 a2bc 81ca 86bc
000000a0: 6e13 023c 4b92 49bc 43df 503c d4e4 4ebd
000000b0: adeb b13a 3b34 abbb 7a41 0f3b cc9a 4aba
000000c0: bfaf 633d 2f77 9b3b 48be 7c3c 4fef 163d
000000d0: ac50 5c3a a6e4 ca3b 691d 693d 1580 753b
000000e0: f8ac 553c cacb 0ebb 3876 f8ba 1a11 76bb
000000f0: c606 4e3b a72e 1c3b 4a88 c03b 0b7b 053c
00000100: 61ab 33bd dfb5 d5bc 008b 293d 4453 913b
00000110: 1a0a 393b 04bb 913b 2ebf 383b 58e0 933b
00000120: 8600 25bd 626f aebd 4aae 3e3e 147a 87ba
00000130: 2b4d fd3c 8ff7 59bd 8950 653c 5cc4 be3b
00000140: 9e13 b8bc 06f7 29bd bef2 b538 e94b 0e3c
00000150: 0064 ae3c 95df e6bc 319b 3fbd 03c4 51bb
00000160: a288 dcbc 724d fc3c b1df 9f3e fb38 46bd
00000170: cd5f e8ba d121 acbb 5f54 f23a ce1c 5abb
00000180: d881 1f3d cd0e f0bb 880e 5eba 3cd8 88bb
00000190: a488 9c3c a255 4abd bbc9 c4bc 0922 8a3c
000001a0: ae40 b63b b95e 84ba 9270 64ba e6c5 353b
000001b0: 59ab 073c be03 6dbd 1b9e 5abd 9f91 55bc
000001c0: c5a9 2ebc f644 bb3b b4d6 8a37 5ecc afbb
000001d0: 9134 fdbc 05b3 40bd 5f79 a2bb 1f5e 3c3a
000001e0: a2d1 ca3b 4a4c caba 5bb8 b33b 2ad6 a83a
000001f0: 7293 4dbb cb2f f0bb b40f d4ba e7fe eabc
00000200: 9b01 d23b e54b 09ba 3951 173d 7541 d23b
00000210: 34c9 7437 4dc5 9fbc c756 4f3b 33a2 873c
00000220: 168a 203c 6f1f a03b 4074 16bd b134 b9bb
00000230: 3c29 f2ba 0249 34bb d68a 00bd f35e 60bd
00000240: 733c 243d ca69 b83c 2112 efb9 23da cd3a
00000250: 9b14 723b 6d89 11be 361f 31bd 7315 e3bc
00000260: 3da6 c83d 2495 c6bb 1a43 b4bb a25b bcba
00000270: d054 1b3b 689d 35be bf7a f83a 4a8a f5bb
00000280: 74d7 4fbe 88ad a13c abd3 88bc 4286 d1bb
00000290: b2e1 a33c 4f10 1d3c 4f98 3b3c 1a57 be3c
000002a0: 7928 6e3b 492e cc3a 9dff 723b 193e 87bc
000002b0: 1383 23bc 05e0 153d 411f 753c a6d3 a8bb
000002c0: ebb6 b8bb 788c ea3d 3744 34bb c0db e93a
000002d0: 1046 173c 34e2 d5bb 70f1 b3bd 6e30 6ebd
000002e0: 31d0 493b 110b 813b 2bc8 72bd 02e4 81bc
000002f0: e30a 633c 356e 7f3a 42c9 253c 2cfe 9dbc
00000300: 9cd9 a23d 8c0f 8bbc b96d a43a 41b4 9c3d
00000310: 60e7 363b 5fa9 dcbc 354d 213c d74a 1dba
00000320: de63 973b facf 903b d2ff 4e3d b6d1 8ebd
00000330: b62c 093e 2aa1 003e 2a06 89bc 187a f43c
00000340: a0f5 093d 26cb 73ba 4fb9 68bc 5acc d5bc
00000350: 70e8 81bd bca5 833c 4a15 a03c 837c a4bd
00000360: 9d51 103c 0e4b 29bd fc84 d93c 3fd0 82bd
00000370: c0e8 ceba 8c86 6e3c ebbc 1dbd 9231 e9bc
00000380: ea94 7bbb 12fc 36bb 4229 f8bc a29b b0ba
00000390: d42c 483d 04fa 073c a787 61bc 7c70 a73b
000003a0: 2651 3e3b 03e3 043d 3864 01bd fac4 453b
000003b0: d5fd 473e 87a3 18bb 9d40 c139 24c9 24bd
000003c0: dc56 b0bc 9f14 82bd 23bd 383d 6a3e 30bc
000003d0: 9300 4cbd 0941 edbc d615 793a 3081 1fbb
000003e0: 733c 203d e856 cb3b cd8f e43c f217 a73c
000003f0: 3525 323d d847 483c f4b6 ef3d bcee 57bb

rcsl.backbone.model.8.bias f4 [6]
0.626037 0.50328183 0.57787573 0.8772961 0.26865926 0.14998122
00000000: f643 203f 14d7 003f aaef 133f 7a96 603f
00000010: b58d 893e ad94 193e
