backup/linearq_newenv/rcsl_0.75expert/timestamp_23-0926-155815&64-[8]/model/policy.pth (torch, 1881 bytes, 3 tensors)

rcsl.backbone.model.0.weight f4 [8, 2]
00000000: 4392 883e 7f80 953e b1fc 14bf 1d38 05bf
00000010: 3cb1 acbd a0c3 923e b8b4 13be 0193 f33e
00000020: 8a4b 02be 5b96 0e3e 5dd3 5abe 1b54 0ebe
00000030: c2ef 2cbf 90c5 efbe c85a 87bd 6624 9b3d
0.2667409 0.29199597 -0.58198076 -0.5203875 -0.08432242 0.28664875 -0.14424407 0.47573093
-0.12724128 0.13924544 -0.21369691 -0.13899271 -0.6755334 -0.46830416 -0.06609112 0.07575302

rcsl.backbone.model.0.bias f4 [8]
00000000: b484 8b3e 403b d93e d114 10bf 0e81 8abe
00000010: a53d 0f3f f750 163f e703 15be de97 bd3d
0.27249682 0.42428017 -0.56281763 -0.27051586 0.5595344 0.5871729 -0.1455227 0.09257482

rcsl.backbone.model.2.weight f4 [1, 8]
00000000: 714b a83c 353c 193d be96 d23e 2a9d 7cbe
00000010: 1208 40be ac4f b7bd 661f 0dbe 7994 843e
0.020543786 0.037410934 0.41130632 -0.24669328 -0.18753079 -0.08950743 -0.13781509 0.25894526
