backup/halfcheetah-medium-v2/rcsl/rcsl/timestamp_23-0905-073922&2/checkpoint/policy.pth (torch, 505723 bytes, 10 tensors)

rcsl.backbone.model.0.weight f4 [200, 18]
0	0x3f100339	0.5625492
1	0xbf13b719	-0.5770126
2	0x3fea2f9e	1.8295782
3	0x3deb73fb	0.11496731
4	0x3f4cf3dd	0.80059606
5	0x4009a1c5	2.1504986
6	0x40c78c5d	6.235884
7	0x4025285b	2.580588
8	0xbfa65d6b	-1.2997259
9	0xc0260d43	-2.5945594
10	0x3fa6a4c8	1.3019037
11	0x3f9bbb34	1.2166505
12	0xbdcc9ae5	-0.09990481
13	0x3f056731	0.5211058
14	0x3ea58918	0.32331157
15	0x3f06f446	0.5271648
16	0x3f7d5529	0.9895807
17	0xbd39fc6d	-0.045406748
18	0xc1ecd2c4	-29.602913
19	0x3f2c6de4	0.6735518
20	0x4032a1f0	2.7911339
21	0xc0b46c97	-5.6382556
22	0x400cff2e	2.203075
23	0x407645b1	3.8480036
24	0xc0be994b	-5.9562125
25	0xc10c37e1	-8.763642
26	0xbfce9d35	-1.6141726
27	0xc08a705f	-4.326217
28	0xbd9439fd	-0.07237623
29	0xbf8e6891	-1.1125661
30	0xbf8069f3	-1.0032333
31	0xbf4ea280	-0.80716705
32	0x3f80ea18	1.007144
33	0x3f11e12e	0.5698422
34	0x3d62f428	0.055408627
35	0x3845614e	4.7059082e-05
36	0xbfa2d76b	-1.272199
37	0xc052afd3	-3.2919815
38	0xbf1f4f93	-0.62230796
39	0xbf28375b	-0.65709466
40	0xbe877430	-0.26455832
41	0xc07fec33	-3.9987915
42	0x3cbe03cc	0.02319517
43	0xc012157d	-2.2825615
44	0xbfd7b2dd	-1.685146
45	0x4006783b	2.1010883
46	0xc000eb34	-2.0143557
47	0x3faba30b	1.3409132
48	0x3dc351cd	0.09537087
49	0xbe3a6123	-0.18201117
50	0x3cbd731d	0.02312618
51	0x3f690e6b	0.91037625
52	0x3f692306	0.91069067
53	0xbd01192b	-0.031518143
54	0xc0da8fdc	-6.830061
55	0x3e2626e9	0.1622578
56	0x3f43172e	0.76207244
57	0x3febcdac	1.8422141
58	0x4094f99a	4.655469
59	0x3e5f5e20	0.2181325
60	0x40b42799	5.6298337
61	0xc0e21489	-7.0650067
62	0xbfec45b3	-1.845877
63	0x3fc8af60	1.567852
64	0x3f8fb4d3	1.1227058
65	0x3f492d25	0.7858451
66	0x3eec0cbf	0.46103474
67	0xbe1a20d7	-0.1505159
68	0xbdf03a83	-0.1172991
69	0x3de849cb	0.113422
70	0xbf408c64	-0.7521422
71	0xbcc59947	-0.02412094
72	0xc0882401	-4.254395
73	0x3e8c5035	0.27404943
74	0xbec9a830	-0.3938613
75	0xc0976dfa	-4.732175
76	0xc0c2e7e9	-6.0908093
77	0xbfcfee69	-1.6244632
78	0x3f8dd47e	1.1080472
79	0xc09d169e	-4.909011
80	0x3e94699f	0.28986832
81	0x3fe09365	1.7544981
82	0xbfddecef	-1.7337931
83	0x3ebb741e	0.36612028
84	0xbde0158c	-0.1094161
85	0xbdc4cc25	-0.0960925
86	0xbdee781b	-0.11644002
87	0xbdae5051	-0.08511413
88	0xbe349352	-0.17634323
89	0xbbea4dd9	-0.0071503934
90	0x401364f8	2.3030376
91	0xc09d7eb2	-4.9217157
92	0x3fb3172f	1.399145
93	0xbe03757e	-0.12837788
94	0xbfcfaf0a	-1.6225293
95	0xc0d87171	-6.763848
96	0x408bf7c7	4.3739963
97	0xc0a6a9c3	-5.208223
98	0xbfd36e1f	-1.6517981
99	0x3f2f7616	0.6853956
100	0x3f51a0a7	0.8188576
101	0x3f218594	0.6309445
102	0x3efcd195	0.49378648
103	0x3f4fb206	0.8113102
104	0x3ec19a6f	0.37813136
105	0xbf9374dc	-1.1520038
106	0x3f25b149	0.6472364
107	0xbd771a99	-0.0603281
108	0x4085fbb9	4.186978
109	0xc0ff6ca3	-7.9820113
110	0xc04e992e	-3.2280993
111	0x40d21cdd	6.5660233
112	0x3fe5874c	1.7931914
113	0x3d4b2013	0.049591135
114	0xbe92c6ff	-0.28667447
115	0x40e0fae8	7.030628
116	0xc00d7486	-2.210237
117	0x40c3badc	6.11656
118	0x403bfe18	2.9373837
119	0x3f613804	0.879761
120	0x3f884567	1.064618
121	0x3f5c2ae1	0.8600293
122	0xbfb9ebaf	-1.452505
123	0x3e8c3712	0.27385765
124	0x3fb6880a	1.4260266
125	0xb98a8794	-0.00026422425
126	0x40a67898	5.202221
127	0xc0aadc79	-5.339413
128	0xc09cf9e8	-4.905506
129	0xc0177933	-2.3667724
130	0x40102874	2.252469
131	0x4032743c	2.7883444
132	0x3fcbbc77	1.591689
133	0x3fb3fd17	1.4061612
134	0xbed7fda1	-0.4218569
135	0x40106a8e	2.2565036
136	0x3f247ecd	0.6425598
137	0xbf34e437	-0.7066073
138	0x3ecfb961	0.4057112
139	0x3e73fcfc	0.23826975
140	0xbeda07a1	-0.42583945
141	0x3f219d90	0.63131046
142	0xbe1e2005	-0.15441902
143	0xbd2adb13	-0.04171283
144	0x411736d8	9.45089
145	0x3e9a90bf	0.30188558
146	0x3f03a699	0.5142608
147	0x3fd6e5b2	1.6788847
148	0x4001b8ed	2.026912
149	0x3ed81291	0.42201665
150	0xc02c8fba	-2.6962724
151	0xc055694b	-3.3345516
152	0xc004c179	-2.0743086
153	0x41087ce0	8.530487
154	0xbfcbbe72	-1.5917494
155	0xbe997c6f	-0.29977748
156	0x3f3f1630	0.7464323
157	0x3ed80c86	0.42197055
158	0x3eaf24ab	0.34207663
159	0xbf6f5a2f	-0.93496984
160	0x3eb7541b	0.35806355
161	0xbccbb885	-0.02486826
162	0x4205fd03	33.49708
163	0xc12b8b91	-10.721574
164	0xc0c2e13e	-6.0899954
165	0xc0ba4d87	-5.821964
166	0xbf8a42c0	-1.080162
167	0xc033897d	-2.8052666
168	0xbf340960	-0.70326805
169	0xc0cd49ae	-6.415244
170	0x3eec80cd	0.46192017
171	0xc1046a24	-8.275913
172	0x40852888	4.1611977
173	0xbea6e774	-0.3259846
174	0xbe16e3d8	-0.14735353
175	0x3c93f9a6	0.018063378
176	0x3f259e6d	0.64694864
177	0xbec446bd	-0.3833522
178	0xbeaeadc4	-0.34116948
179	0xb7efd28e	-2.8589067e-05
180	0x419cbec2	19.593143
181	0xc13c675c	-11.775234
182	0x41a6a970	20.832733
183	0x4033d1fe	2.809692
184	0x4083ca8e	4.118476
185	0xbd690ea1	-0.056898717
186	0x3f8b9955	1.0906168
187	0x3b90cbe3	0.0044188364
188	0x3fd181ad	1.6367699
189	0x40dea809	6.958012
190	0x40990137	4.7813983
191	0xbf3b5295	-0.73172885
192	0x3f2479e0	0.64248466
193	0xbd821c51	-0.06353057
194	0x3e583c5c	0.21116775
195	0x3e8ac72a	0.27105075
196	0xbe36a2a0	-0.17835474
197	0x388c15b2	6.679761e-05
198	0x403e9a37	2.9781625
199	0x3fc2c2f3	1.5215744
200	0xc07ec92b	-3.9810283
201	0xbeab8751	-0.33501676
202	0x3f683c30	0.9071684
203	0x40b89575	5.7682443
204	0xbfff263c	-1.9933543
205	0xc1289e60	-10.538666
206	0xbe3edb50	-0.18638349
207	0x3fc52c7e	1.5404203
208	0xbeac58c3	-0.3366147
209	0xbdcb5587	-0.099284224
210	0xbdce6d1f	-0.10079407
211	0xbe1cb530	-0.15303493
212	0xbe4a9a8a	-0.19785514
213	0xbdee2797	-0.11628645
214	0xbef9fe51	-0.4882684
215	0xbd0c3472	-0.034229703
216	0xc13123ef	-11.071273
217	0xc18c7c99	-17.560839
218	0xc11181b0	-9.094162
219	0xbe86406d	-0.26221028
220	0xc0a5f5cd	-5.186255
221	0x40e437fc	7.131834
222	0xc08c2178	-4.3790855
223	0x403d9151	2.9619944
224	0xbf89424d	-1.0723358
225	0xc1207736	-10.029104
226	0x3d97f29c	0.07419321
227	0x3fabb11d	1.3413426
228	0x3e36d5e3	0.17855029
229	0xbf44232b	-0.7661616
230	0xbe1e0445	-0.15431316
231	0xbdc509a5	-0.0962098
232	0x3f1a5da9	0.60299164
233	0x386edf8f	5.6951827e-05
234	0x4150e36c	13.055523
235	0xc1641bc5	-14.25678
236	0xc0f037b2	-7.5067987
237	0xc0f8cf76	-7.775325
238	0xbf4a7d27	-0.7909722
239	0x3e425ff8	0.18981922
240	0xc04b5b79	-3.177458
241	0x40ae21c4	5.441622
242	0xbf42e680	-0.76132965
243	0x40c903a0	6.2816925
244	0x40579609	3.3685324
245	0x3ffaf6bf	1.9606551
246	0x3fc2cc04	1.5218511
247	0xbe1f87ba	-0.1557912
248	0xbe34bcd0	-0.17650151
249	0x3f471ec0	0.77781296
250	0xbe80e5f7	-0.2517545
251	0x3921c58a	0.00015427746
252	0x3fb2f3d6	1.3980663
253	0xc0818931	-4.047997
254	0x3f831d85	1.0243384
255	0xc0815fa7	-4.0429263

rcsl.backbone.model.0.bias f4 [200]
0	0xbf61cff1	-0.8820792
1	0xbfae31eb	-1.3608984
2	0xbea2977e	-0.31756204
3	0xc01c27ac	-2.4399214
4	0x405f3de6	3.488153
5	0xbf3f35e4	-0.74691606
6	0xc0353a7e	-2.831695
7	0xbfacfd59	-1.3514816
8	0xbf3fcca8	-0.74921656
9	0x40725443	3.786393
10	0xbfefbc4e	-1.8729341
11	0xc0216c80	-2.5222473
12	0xbf07b0a8	-0.5300393
13	0x3edfe136	0.4372651
14	0xbf67b900	-0.9051666
15	0xbe60b986	-0.21945772
16	0xc08f8389	-4.4848065
17	0xc03e7027	-2.9755952
18	0xbfb3e2fa	-1.4053643
19	0x3eef753c	0.4676913
20	0x3fcc8408	1.5977793
21	0xbf61b47d	-0.8816603
22	0xbe72c349	-0.23707308
23	0xbffa47fe	-1.955322
24	0xbfd4dab5	-1.6629244
25	0x3f56509b	0.83716744
26	0xbfa217ed	-1.2663552
27	0x3fcdc8c0	1.6076889
28	0xc00f692a	-2.2407937
29	0xbf2aac52	-0.6666919
30	0xbfd5fbd7	-1.671748
31	0xc0893223	-4.28737
32	0xbfe65b1e	-1.7996557
33	0xbfaf0efe	-1.367645
34	0xbf911209	-1.1333629
35	0xbfd63f46	-1.673806
36	0x3fdd57ef	1.729246
37	0xbf4cbd9a	-0.7997681
38	0xc00c05f5	-2.1878636
39	0x40d51c3a	6.6596956
40	0xbf7a19c7	-0.97695583
41	0x408101e3	4.0314803
42	0xbfb6551c	-1.4244723
43	0xbff649ea	-1.9241307
44	0xc009da4c	-2.1539488
45	0xbeacfc92	-0.33786446
46	0x3ffe84bb	1.9884256
47	0x40c88698	6.26643
48	0xbf2e7099	-0.6814056
49	0xbfb554ea	-1.4166539
50	0xbfbad50a	-1.4596264
51	0xbfac16a0	-1.3444405
52	0xbf6fc1d0	-0.9365511
53	0x4092ec16	4.591319
54	0xc0683386	-3.6281447
55	0x3f30508e	0.68872917
56	0x402b3caf	2.6755788
57	0xbfbc9f0c	-1.4736037
58	0xc0094c60	-2.1452866
59	0x3f979394	1.1841912
60	0xbfe483e4	-1.785275
61	0xc01f6cad	-2.491008
62	0xc069d270	-3.653469
63	0xc07872ef	-3.882015
64	0x3d5bd031	0.053665344
65	0xc000a8d9	-2.0103056
66	0xbf306c11	-0.68914896
67	0xc00d551e	-2.2083201
68	0x3f97609c	1.1826358
69	0xbf286387	-0.65776867
70	0x3e9c7a6e	0.30562156
71	0x4099abc7	4.802219
72	0xbfaad5b0	-1.3346462
73	0x3f18fd74	0.5976174
74	0x40000bb5	2.0007145
75	0x4009d640	2.1537018
76	0xc013d85d	-2.3100808
77	0xbf20655e	-0.62654674
78	0xc050dc7d	-3.2634575
79	0xbfd942d1	-1.6973516
80	0x4036b476	2.8547645
81	0xc037e66f	-2.8734396
82	0x3fe185ec	1.7618995
83	0x3e2adf3f	0.16686724
84	0xbe198b8c	-0.14994639
85	0x3f89db14	1.0769982
86	0xbf92d320	-1.147068
87	0x3ea12d89	0.31480053
88	0x3e32dcb9	0.17467012
89	0xc07a4d7e	-3.9109797
90	0x40618e62	3.5243154
91	0xc0411ef1	-3.0175135
92	0xbe509a3c	-0.20371336
93	0xc03d9fd4	-2.9628801
94	0xbecd08c6	-0.40045756
95	0xbf4f4dd3	-0.80978125
96	0xbfaced6d	-1.3509957
97	0xbd1dd672	-0.03853459
98	0x3f1f3321	0.6218739
99	0xbf3d6338	-0.7397952
100	0x3f01dbcb	0.50726
101	0xc047378c	-3.1127653
102	0xc03a7e02	-2.913941
103	0x40041bc8	2.0641956
104	0xbfa4eac5	-1.2884146
105	0xc0552a0a	-3.3306909
106	0xbe4d2027	-0.20031796
107	0xc0407d2a	-3.0076394
108	0xbf64eaaa	-0.8942057
109	0xbff1e899	-1.8899108
110	0xc00fa050	-2.2441597
111	0xbf4ae4cb	-0.7925536
112	0xbea07158	-0.31336474
113	0xc056c48b	-3.355746
114	0xc0228e7a	-2.539946
115	0x3e294736	0.16531071
116	0x3f847db1	1.0350858
117	0x3ff12ea8	1.8842363
118	0xbff1f074	-1.8901505
119	0x3ebacb18	0.36483073
120	0x3ffb501b	1.9633821
121	0xbfa1bc32	-1.2635558
122	0xc01d7b74	-2.46066
123	0x4083ad39	4.1148953
124	0x405bd56f	3.434902
125	0x3fe6f734	1.804419
126	0xc060d01d	-3.5127022
127	0x3e3c06b5	0.18361934
128	0xc0752481	-3.830353
129	0xbfc97e3b	-1.5741647
130	0xc0521384	-3.2824411
131	0xc06f45fa	-3.738646
132	0xc002d9a0	-2.0445328
133	0x3daaee45	0.083462276
134	0xbfeb4003	-1.837891
135	0xc03e5515	-2.973943
136	0xc02836e5	-2.6283505
137	0xbfc6d597	-1.5533932
138	0x3ed8f1cf	0.42371985
139	0xbe1c79fc	-0.15280908
140	0x3e086d5e	0.1332297
141	0x400e58a9	2.2241614
142	0xbe0c9c0e	-0.13731405
143	0x3e201cf1	0.1563604
144	0xbfe0e660	-1.7570305
145	0xc08f9864	-4.4873524
146	0xbf29499b	-0.6612794
147	0xc02a66bb	-2.6625202
148	0x3ce26d94	0.027640142
149	0xc087941b	-4.2368293
150	0xc002d458	-2.0442104
151	0x3fd5755a	1.6676438
152	0xbeb2778c	-0.34856832
153	0xc066532e	-3.598827
154	0xbf86a95f	-1.0520438
155	0xc0064b74	-2.0983553
156	0x3ee1483a	0.44000417
157	0xbfd32f5d	-1.6498829
158	0x3f1aa909	0.6041418
159	0xbfc82f82	-1.5639498
160	0xbefa730c	-0.489159
161	0x3f045144	0.516865
162	0x3fc1e65e	1.5148427
163	0x3e41d311	0.18928172
164	0xbd82ad17	-0.063806705
165	0x3ffb3df2	1.9628279
166	0xbf7529c8	-0.9576688
167	0xbfd768ea	-1.6828892
168	0xc050383b	-3.253432
169	0xc042c19d	-3.0430672
170	0x4086f33d	4.217192
171	0xbf4b734a	-0.7947279
172	0xc0008c23	-2.0085533
173	0xc00cf901	-2.202698
174	0xbfd450c5	-1.6587149
175	0xbfb9e255	-1.4522196
176	0xc0348c81	-2.8210757
177	0xc01f8fdb	-2.4931552
178	0xc0825d34	-4.0738773
179	0xbfcac4e1	-1.5841333
180	0xbf71113b	-0.94166917
181	0x3f01b818	0.5067153
182	0x40ccba6a	6.3977556
183	0xbfabb56f	-1.3414744
184	0x3e1fcfc6	0.15606603
185	0xbfb13392	-1.3843863
186	0x3f30095c	0.6876428
187	0x3ea4aa00	0.3216095
188	0xbf21f017	-0.63256973
189	0xbf6400ca	-0.89063704
190	0x3ec7e75c	0.390437
191	0x40a65470	5.1978073
192	0x3f15dd8f	0.58541197
193	0xbffe3b7d	-1.9861904
194	0xc030e3b1	-2.7638972
195	0xbf840200	-1.031311
196	0xc02637db	-2.5971591
197	0xc0277fdd	-2.6171792
198	0xbdbb91df	-0.09158682
199	0x40d838d0	6.756935

rcsl.backbone.model.2.weight f4 [200, 200]
0	0xc06edc69	-3.7322028
1	0xbe45c163	-0.19312052
2	0xc06b4aa7	-3.6764314
3	0xbf1b824b	-0.60745686
4	0xbcd847dd	-0.026401455
5	0x3e26bb62	0.16282418
6	0xbc03ef5e	-0.008052675
7	0x3f27ce24	0.6554892
8	0x3d3b6de4	0.045759097
9	0x3e09f7c7	0.13473426
10	0x3e5596aa	0.20858255
11	0x3f8bf6b4	1.0934663
12	0xbe64662a	-0.22304597
13	0xbdb0bb1e	-0.0862944
14	0x3e945b61	0.28975967
15	0x3df95bb7	0.12175696
16	0xbf09a44a	-0.5376631
17	0xbea547f8	-0.3228147
18	0x3e05d2ea	0.13068739
19	0x3eda3d54	0.42624915
20	0xbdc912d2	-0.09818043
21	0xbd900e4f	-0.07033979
22	0x3e75816d	0.23975153
23	0xbf19488a	-0.5987631
24	0x3f279366	0.6545929
25	0xbde190f7	-0.11013978
26	0xc001634c	-2.0216856
27	0x3dd1b3a4	0.10239342
28	0xbecbdbec	-0.39816225
29	0x3dd433f9	0.103614755
30	0xbd0f13a6	-0.034930848
31	0x3d304ec8	0.04304388
32	0x3d73c84b	0.059517186
33	0x3f23ed94	0.6403439
34	0x3ca2d608	0.019877449
35	0x3eafa843	0.3430806
36	0x3f167b7c	0.5878217
37	0x3dfb059d	0.1225693
38	0x3d2c5a73	0.042078447
39	0xbf2482af	-0.6426191
40	0xc03ac878	-2.9184856
41	0x3e101c1e	0.14073226
42	0x3ff6d5f2	1.9284041
43	0x3ecaaa40	0.39583015
44	0xbb6dc080	-0.003627807
45	0xbf5164bc	-0.81794333
46	0x3db49bfb	0.088188134
47	0x3ee1ab82	0.44076163
48	0xbe5bdd41	-0.2147112
49	0x3f8c81f5	1.097716
50	0xbfb0dbec	-1.3817115
51	0xbe0965dd	-0.13417764
52	0x3da3f241	0.08005191
53	0xbeb286ec	-0.34868562
54	0x3f0494c5	0.51789504
55	0xbee99695	-0.45622697
56	0xbd793c33	-0.060848426
57	0x3eef5cdd	0.46750537
58	0xbf86f5b8	-1.0543737
59	0xbc3c3cd1	-0.011489109
60	0x3df8afe3	0.12142923
61	0xbdd0d83f	-0.10197496
62	0x3db7600f	0.089538686
63	0xbfabff4a	-1.3437283
64	0x3e980da1	0.29697898
65	0xbd98f22d	-0.07468066
66	0x3fdb3a46	1.7127159
67	0xbd6bf3a6	-0.057605408
68	0xbeceacc3	-0.40366182
69	0xbe33afe1	-0.17547561
70	0x3c582f64	0.013194893
71	0x3d1f5a0b	0.03890423
72	0xbe75daca	-0.24009243
73	0xbda47e7c	-0.080319375
74	0xbd474815	-0.048652727
75	0xbee6842d	-0.45022717
76	0xbf235fd5	-0.63818103
77	0x3d7c9eae	0.061674766
78	0xbe232b0c	-0.1593439
79	0xbe9646fa	-0.29351026
80	0xbe19f9ba	-0.1503667
81	0x3f9948dc	1.197536
82	0x3e1ba636	0.15200123
83	0xbdcb6f97	-0.099333934
84	0xc0aa7ee0	-5.3279877
85	0x3e3d4cec	0.18486375
86	0xbcbba255	-0.022904554
87	0xbde0d595	-0.109782375
88	0x3d78ad9b	0.060712438
89	0xbf6f002b	-0.9335963
90	0xbe111264	-0.14167172
91	0x3f2ce529	0.6753717
92	0xbf947830	-1.1599178
93	0x3eae7b1b	0.34078297
94	0x3f3bc8d6	0.73353326
95	0xbe147bbf	-0.1450033
96	0xc019e67a	-2.4046922
97	0x3f444142	0.76662076
98	0xbda018d4	-0.078172356
99	0x40011439	2.0168593
100	0xbe802b89	-0.25033215
101	0xbf7dcbf8	-0.99139357
102	0xbebab11e	-0.36463255
103	0x3e02528c	0.12726802
104	0xbe392820	-0.18081713
105	0xc00f956f	-2.2434957
106	0x3e18d24d	0.14923973
107	0xbf078b9b	-0.52947396
108	0x3f1ec622	0.62021077
109	0xbd8c0c6c	-0.06838307
110	0xbf1b3c79	-0.6063915
111	0x3e3a77d3	0.18209772
112	0x3d351c1b	0.044216257
113	0x3dc7a205	0.097477
114	0xbef3ed61	-0.47642043
115	0x3eda722a	0.42665225
116	0x3dfbd0f2	0.122957125
117	0x3e04e149	0.12976564
118	0x3e021374	0.12702733
119	0x3c74c270	0.014938936
120	0x3e8ef110	0.2791829
121	0x3e2a0ff9	0.16607656
122	0xbf3cbd84	-0.7372668
123	0xbd0a7526	-0.033803128
124	0xbe3da28f	-0.18519042
125	0xbdc3b866	-0.095566556
126	0xbea5acb2	-0.3235832
127	0x3b0bf324	0.002135464
128	0xbf4bb698	-0.7957549
129	0xbeb19f98	-0.34692073
130	0xbd346961	-0.04404581
131	0xbf13ab64	-0.57683396
132	0x3d76b24c	0.06022863
133	0x3c8ab243	0.016930705
134	0xbf4944c6	-0.78620565
135	0x3faa481b	1.3303255
136	0xbe9d7a52	-0.30757385
137	0xbd95de94	-0.07317844
138	0x3e3a6680	0.18203163
139	0xbd214231	-0.039369766
140	0xbdb05dd6	-0.08611648
141	0xbd66da65	-0.05636062
142	0x3f4a7e80	0.79099274
143	0x3e560191	0.20899035
144	0xbe5a1482	-0.21296886
145	0xbe78e172	-0.2430475
146	0x3e0454c8	0.12922966
147	0x3e8c11b5	0.2735726
148	0x3f7f3214	0.9968579
149	0xbec1d9a6	-0.37861365
150	0xbf31b074	-0.6940987
151	0xbf8f97dd	-1.121822
152	0xbb6c026b	-0.0036012183
153	0xc003e7d0	-2.0610237
154	0xbf92f657	-1.1481427
155	0x3f39d4ce	0.7259034
156	0x3c927a70	0.017880648
157	0x3e0f759f	0.14009713
158	0xbe9375e2	-0.28800875
159	0x3e923225	0.28553882
160	0x3f8af3f6	1.0855701
161	0xbdc20bdc	-0.09474918
162	0x3db098db	0.08622905
163	0x3e22d00a	0.15899673
164	0x3cef0cd2	0.029180918
165	0xbe89a86b	-0.26886305
166	0x3d2af837	0.041740622
167	0xbea841d6	-0.3286273
168	0xbde91daa	-0.11382611
169	0xbfded9bd	-1.7410198
170	0xbbdd03b9	-0.0067448285
171	0x3f8771de	1.0581625
172	0x3e3949b5	0.18094523
173	0x3f27265f	0.65292925
174	0xbe17902f	-0.14801095
175	0xbf455ae3	-0.7709181
176	0xbe6f5b0b	-0.23374574
177	0x3e3bfa1f	0.18357132
178	0x3d48e76e	0.049048834
179	0x3e8ca990	0.27473116
180	0xbd78bafc	-0.060725197
181	0x3dc97588	0.098368704
182	0xbe9419c8	-0.2892592
183	0x3e4116c1	0.18856336
184	0xbebe15ce	-0.3712601
185	0xbecfd600	-0.40592957
186	0x3e133c68	0.14378512
187	0xbd443d64	-0.04791011
188	0xc014008f	-2.312534
189	0xbe229cf8	-0.15880191
190	0xbed0582a	-0.40692264
191	0xbd09c1ea	-0.033632196
192	0xbd98cfd5	-0.07461516
193	0xbe169fc7	-0.14709388
194	0x3ca82e5e	0.020529922
195	0xbf973390	-1.1812611
196	0x3e2b59a9	0.16733421
197	0xbd16c6a5	-0.036810536
198	0xbef988cb	-0.48737177
199	0x3e2df0b1	0.16986348
200	0xbf9517fc	-1.1647944
201	0x3d86010c	0.065431684
202	0xbe2dffad	-0.16992064
203	0x3f35ec63	0.7106382
204	0x3ea414ab	0.32047018
205	0x3e8bbabc	0.27290905
206	0xbfce070e	-1.6095903
207	0x3f9b4ba2	1.2132456
208	0xbff893fa	-1.9420159
209	0xbcdc2b62	-0.026876155
210	0x3e9c3736	0.30510873
211	0x3e7874f0	0.24263358
212	0xbfbd32db	-1.4781145
213	0xbeb4ff29	-0.35350922
214	0xbda69148	-0.08133179
215	0xbe67cfb8	-0.22637832
216	0x3e879e5b	0.26488003
217	0x3ecb1fc0	0.3967266
218	0xbf3c42bc	-0.7353933
219	0x3f7393f6	0.95147645
220	0xbd0caae9	-0.03434268
221	0xc01299cf	-2.2906377
222	0x3dd03998	0.10167235
223	0xbe71357b	-0.23555557
224	0x3f32aad3	0.6979191
225	0xc0af106b	-5.470754
226	0x3f7cc82b	0.9874293
227	0x3dcf2e0e	0.10116206
228	0xbf779aa0	-0.96720314
229	0xbf1f92d9	-0.62333447
230	0xbf08040f	-0.5313119
231	0xbef15552	-0.47135407
232	0xbdcf1a16	-0.101123974
233	0xbfa8e566	-1.3195007
234	0xbf52649b	-0.8218476
235	0xbf0f875c	-0.56065917
236	0xbf48f0ed	-0.78492624
237	0xbf074ccb	-0.5285155
238	0x3d6f3ae7	0.058405783
239	0xbf117de2	-0.56832707
240	0xbfdd0a20	-1.7268715
241	0xbfdaf68b	-1.7106489
242	0x3eee29fa	0.465164
243	0xbf18417b	-0.59474915
244	0xbf992926	-1.1965683
245	0xbfca6dfb	-1.5814813
246	0xbf8c480c	-1.0959487
247	0x3ca201e2	0.019776288
248	0x3f6068c6	0.8765987
249	0xbd8d9ead	-0.06915031
250	0x3f8685db	1.05096
251	0xbd15e8ff	-0.036599156
252	0x3e8c143d	0.2735919
253	0x3dfa5d98	0.12224883
254	0xbf4c74de	-0.79865825
255	0xbc38df7b	-0.011283751

rcsl.backbone.model.2.bias f4 [200]
0	0xbf760e69	-0.9611574
1	0xbdfa0f55	-0.122099556
2	0xbd9eb4d6	-0.077493355
3	0xbd53aa60	-0.051676154
4	0xbfe83e05	-1.8143927
5	0xbf2bb7af	-0.67077154
6	0xbf88baa9	-1.0681964
7	0xbe2f4024	-0.17114311
8	0xbdbca2d2	-0.09210743
9	0xbffe42d3	-1.9864143
10	0xbc043c9c	-0.008071091
11	0xbf9a7ebf	-1.206993
12	0xbf492ac7	-0.785809
13	0xbcbc71fe	-0.023003574
14	0xbfbc523b	-1.4712595
15	0x3c8dafcf	0.017295746
16	0x3c340799	0.01098814
17	0xbf9067a3	-1.1281627
18	0x3d041c5a	0.0322536
19	0x3d843194	0.06454769
20	0xbd4cc001	-0.049987797
21	0xbdff5a13	-0.12468352
22	0x3e558f37	0.20855413
23	0x3f190145	0.5976756
24	0x3befda7b	0.007319746
25	0xbf3f43a2	-0.74712574
26	0xbeb7a65c	-0.3586911
27	0xbd259e71	-0.040434305
28	0x3eb13623	0.34611616
29	0x3f7e253b	0.9927556
30	0xbf825344	-1.0181661
31	0xbdc95ba6	-0.09831934
32	0xbfc335d8	-1.5250807
33	0xbf6fdbfc	-0.93695045
34	0xbfe52df5	-1.790465
35	0xbe6e1a66	-0.23252258
36	0xbeda9848	-0.42694306
37	0xbf8a2b92	-1.0794547
38	0xbf2c3864	-0.67273545
39	0xbfbc6a91	-1.4720021
40	0xc00ce25c	-2.2013159
41	0xc053a8a9	-3.3071692
42	0xbf06a578	-0.52596235
43	0xbddc2ea5	-0.10751084
44	0x3e6a8467	0.2290207
45	0xbf2c18b9	-0.67225224
46	0x3e873dff	0.26414487
47	0x3f880c53	1.0628761
48	0xbd71be6e	-0.0590195
49	0x40395192	2.8956037
50	0xbe3599c1	-0.17734434
51	0x3fafea91	1.3743459
52	0xbe27cdab	-0.1638705
53	0xbef76573	-0.48319587
54	0x3c00b541	0.007855714
55	0xbf16dd27	-0.589312
56	0x3f3d9440	0.74054337
57	0xbf9231a0	-1.1421394
58	0xbe2ffbe3	-0.17185931
59	0xbf0ea536	-0.5572084
60	0x3dc22bcb	0.09481009
61	0x3ed74627	0.4204571
62	0xbea4e9ef	-0.32209727
63	0xbdeccc66	-0.115624234
64	0xbee3423e	-0.44386476
65	0xbd5338ae	-0.051567726
66	0xbf09f8f0	-0.53895473
67	0x3f09c3ab	0.5381419
68	0xbf93e3cd	-1.1553894
69	0xbeb4bb9e	-0.3529939
70	0xbe8f5a01	-0.27998355
71	0xbee06db6	-0.43833703
72	0x3f1c7c71	0.6112738
73	0x3f53480a	0.825318
74	0xbb95d963	-0.0045730337
75	0xbdba30e9	-0.0909136
76	0xbf5dd263	-0.8664915
77	0xbf231b64	-0.6371367
78	0xbfa02480	-1.2511139
79	0x3e333930	0.17502284
80	0x3eb25a02	0.34834296
81	0xbc0ed534	-0.008717824
82	0xbf5043ca	-0.8135344
83	0xbfb32f2b	-1.399877
84	0xbf10f2ef	-0.5662069
85	0x4006b9ea	2.1050973
86	0xbdb0f854	-0.08641115
87	0xbe093fbb	-0.13403217
88	0xbef3ef9f	-0.47643754
89	0xbf9c1563	-1.2194027
90	0x40001712	2.001408
91	0x3dff023a	0.124515966
92	0xbcc624b8	-0.02418743
93	0x3cb661a0	0.022263348
94	0xbef9c442	-0.48782545
95	0xc045679d	-3.084449
96	0x3e97335a	0.29531366
97	0x3eb7f5d6	0.35929745
98	0xbf54d6b1	-0.83140093
99	0x3f1d1dd2	0.6137363
100	0xbf7dd496	-0.99152505
101	0xc065006a	-3.5781503
102	0xc02c6ca8	-2.6941319
103	0xbf028068	-0.5097718
104	0xbe413d84	-0.18871123
105	0x3e8e8cfe	0.27841944
106	0xbe2084a7	-0.15675603
107	0xbec80c66	-0.3907196
108	0xbd9383ed	-0.07202897
109	0xc0222c30	-2.533947
110	0xbf06fe46	-0.5273174
111	0xbf3a3bbb	-0.7274739
112	0x3e295eae	0.16540024
113	0xbca5d6e7	-0.020244075
114	0xbe002562	-0.1251426
115	0xbf365422	-0.71222126
116	0xbdf1acd2	-0.11800541
117	0x3de3f0db	0.11129924
118	0xbf24cfa8	-0.6437936
119	0x3f504715	0.8135846
120	0x3e16da21	0.14731647
121	0xbf6280f4	-0.88478017
122	0x3edc66f4	0.43047297
123	0x3e89d3dd	0.2691945
124	0xbe1308c3	-0.14358811
125	0xbe96b26f	-0.2943301
126	0xbf7bf7db	-0.9842507
127	0x3e7b4a8a	0.24540153
128	0xbf72e0bb	-0.9487416
129	0xbf86b918	-1.0525236
130	0xbd380234	-0.044923976
131	0xbf88d479	-1.0689842
132	0xbf917cd5	-1.1366221
133	0xbdc5d543	-0.09659817
134	0xbdac132b	-0.084020935
135	0xbd5486d1	-0.051886383
136	0xbd3233ad	-0.043506313
137	0x3ea4ea8c	0.32210195
138	0xbafeed8a	-0.0019449454
139	0xbff4c2f1	-1.9121991
140	0xbd74fe3e	-0.059812777
141	0xbdbc4a67	-0.091938786
142	0x3cc8cec4	0.024512656
143	0xbe753bf9	-0.23948659
144	0xbe904cf8	-0.28183722
145	0x3e4f8666	0.20266113
146	0x3cb8dc6a	0.02256604
147	0xbd0820eb	-0.033234518
148	0x3dcd223f	0.100162975
149	0xbea91efb	-0.3303145
150	0x3e87fe59	0.2656124
151	0xbcbbcfb0	-0.022926182
152	0xbf71f3cb	-0.94512624
153	0xbecebba5	-0.40377536
154	0xc00fbba5	-2.245828
155	0xbc4d2f15	-0.012523432
156	0x3d10ddfa	0.035367943
157	0xbfeeccfb	-1.8656305
158	0xbe3604af	-0.17775224
159	0xbfb56a8d	-1.4173142
160	0xbf227b1d	-0.63469106
161	0x4006224a	2.0958428
162	0x3fa6ded4	1.3036752
163	0x3ea84887	0.32867834
164	0xc0240ab1	-2.5631526
165	0xbdf21efa	-0.118223146
166	0xbd43137c	-0.047626004
167	0xbdba0376	-0.09082691
168	0xbfba477a	-1.4553063
169	0x3ebb21d4	0.36549246
170	0xbf39a465	-0.7251647
171	0xbef229bd	-0.4729747
172	0xbd372616	-0.044714056
173	0xbe65ddfb	-0.2244796
174	0xbbb248f5	-0.005440826
175	0xbf6adc4b	-0.9174239
176	0x3ce229dd	0.027607853
177	0xbfa6e382	-1.303818
178	0xbdaa593a	-0.083178
179	0x402222ee	2.533382
180	0xbd5811b3	-0.052751254
181	0xbf4af3bd	-0.79278165
182	0xbe4fe731	-0.20303036
183	0xbdae82ca	-0.0852104
184	0xbf3a8e73	-0.7287361
185	0x3f850936	1.0393436
186	0xbeb350ce	-0.35022587
187	0xbdccbf25	-0.099973954
188	0xbf0e12b0	-0.55497265
189	0xbd50a641	-0.050939802
190	0xbdb0ae1a	-0.08626957
191	0xbf25f19a	-0.6482178
192	0x3f2ee3a8	0.68316126
193	0xbee25fd5	-0.4421374
194	0xbf72da64	-0.9486449
195	0xbe8678b1	-0.26263955
196	0x3e825bcc	0.2546066
197	0xc0103e6d	-2.2538102
198	0xbd3877e2	-0.045036204
199	0xbf533770	-0.82506466

rcsl.backbone.model.4.weight f4 [200, 200]
0	0xbd96ae6c	-0.07357487
1	0xbe2f4c8e	-0.17119047
2	0xbccaf788	-0.024776235
3	0xc00663c5	-2.0998394
4	0xbec399b3	-0.382032
5	0xbfa41406	-1.2818611
6	0x3da04af7	0.078267984
7	0xc035a404	-2.8381357
8	0xbd0a31b8	-0.03373882
9	0x3e474aa6	0.1946207
10	0xbdb91af8	-0.09038347
11	0xbdbcf95b	-0.09227248
12	0x3e7976d8	0.24361742
13	0xbd95db64	-0.07317236
14	0x3bb91362	0.0056480626
15	0x3da7d259	0.081944175
16	0x3bbfcb30	0.0058530793
17	0xbeb2d795	-0.349301
18	0xbfaf442c	-1.369268
19	0xbe5f5993	-0.21811514
20	0x39a523d0	0.00031497935
21	0xbc4ebeb8	-0.012618713
22	0x3e8ba9df	0.2727804
23	0x3e58a64f	0.21157192
24	0xc0248e7c	-2.5711966
25	0xbe22e240	-0.1590662
26	0xc0808318	-4.0160027
27	0x3df472ab	0.11935934
28	0xbe2394ea	-0.15974775
29	0x3ef31e66	0.4748413
30	0x3e55cdf5	0.20879348
31	0x3d9cba0a	0.07652672
32	0xbe8a9b80	-0.27071762
33	0x3e96261f	0.2932596
34	0x3e5899bb	0.21152394
35	0xbd8c0c7e	-0.0683832
36	0x3e994612	0.29936272
37	0xbe1e0bbb	-0.15434162
38	0x3e2c2973	0.16812687
39	0x3e2c013c	0.16797346
40	0xbe963e32	-0.29344326
41	0xbc702558	-0.014657341
42	0x3da043a9	0.07825405
43	0x3c871321	0.016488614
44	0x3df07fc2	0.11743118
45	0x3e3a3b56	0.18186697
46	0x3f363701	0.7117768
47	0x3ec847f3	0.39117393
48	0x3d5dcab3	0.054148387
49	0x3d9e9628	0.07743484
50	0x3dab236e	0.08356367
51	0x3d6ba40c	0.057529494
52	0x3db9de4f	0.09075605
53	0x3ed578d1	0.41693738
54	0xbd290c10	-0.04127127
55	0x3dcbda62	0.099537626
56	0xbd0846c4	-0.033270612
57	0xbdf1c81f	-0.11805748
58	0xbd27dd2a	-0.040982403
59	0xbf0eb205	-0.55740386
60	0xbeb675a3	-0.35636625
61	0xbdf2f1cf	-0.118625276
62	0xbd6019e6	-0.0547122
63	0x3c4aaabc	0.012369808
64	0xbe6e3164	-0.23261029
65	0x3da5dea4	0.08099106
66	0xbdd3cc3b	-0.10341688
67	0xbc833e41	-0.016020896
68	0x3a6e3e61	0.00090882747
69	0x3e8a63c0	0.27029228
70	0xbe4f17ae	-0.20223877
71	0xbd84045b	-0.06446143
72	0x3d048f9d	0.032363523
73	0xbd1f4a86	-0.03888943
74	0x3b948a82	0.004533113
75	0xbd95917a	-0.07303138
76	0x3e0f0ced	0.13969775
77	0xbf562451	-0.83649164
78	0xbdfadd40	-0.12249231
79	0xbeea4f6f	-0.45763728
80	0xbf9163c4	-1.1358571
81	0xbd8042a7	-0.06262713
82	0xbe784a71	-0.24247147
83	0xbe5b5645	-0.21419628
84	0xbe4fc344	-0.20289332
85	0xbe427ab3	-0.18992119
86	0x3e9c72ef	0.30556437
87	0xbd71917d	-0.05897664
88	0xbe246277	-0.16053186
89	0xbf2680d2	-0.65040314
90	0x3ebf53e9	0.37368706
91	0xbee6b65c	-0.45061004
92	0xbd5af8a8	-0.053459793
93	0x3ccb237b	0.024797192
94	0xbebb8b82	-0.36629874
95	0xbe69a81b	-0.22818033
96	0x3e4aa30a	0.19788757
97	0xbf9aa06e	-1.2080209
98	0xbcf78c5c	-0.030218296
99	0x3e6346c5	0.22194965
100	0x3e84c894	0.2593428
101	0x3e6c7c72	0.23094347
102	0xbf203399	-0.6257873
103	0xbf8eac5a	-1.1146348
104	0x3d0e55e0	0.034749866
105	0x3df2f843	0.118637584
106	0xbe5dc778	-0.21658123
107	0x3d9f2ed4	0.07772604
108	0xbdb45a26	-0.08806257
109	0xbd6e2380	-0.058139324
110	0xbf514ee7	-0.8176102
111	0xbece2c96	-0.4026839
112	0x3ec27715	0.37981477
113	0xbd1d4c7a	-0.03840301
114	0x3da94f2a	0.082670525
115	0x3e43b409	0.19111647
116	0x3ebf112b	0.37317786
117	0xbed45ee5	-0.4147865
118	0x3f0330fb	0.51246613
119	0x3efde9bb	0.49592385
120	0xbf1eb4c8	-0.619946
121	0x3e2d71b7	0.1693791
122	0xbe8f6ac5	-0.28011146
123	0xbe9dda88	-0.3083079
124	0x3e315af3	0.1731985
125	0x3c62feb2	0.013854669
126	0x3e504208	0.20337689
127	0x3e292ebc	0.16521734
128	0x3e14f7e8	0.14547694
129	0x3d09f7ff	0.033683773
130	0x3d2f9aa1	0.042872075
131	0x3f0269e2	0.50942814
132	0x3da8ab47	0.082357936
133	0xbd4d9d94	-0.050199106
134	0x3e9017ba	0.28143102
135	0xbfeb5208	-1.8384409
136	0x3d4aef64	0.049544707
137	0xbec75cb4	-0.38937914
138	0xbd0ee84a	-0.034889497
139	0xbe07ecbe	-0.13273904
140	0x3bde1deb	0.006778469
141	0xbc89b839	-0.016811477
142	0xbf391cfa	-0.7230984
143	0x3deb6afe	0.114950165
144	0xbcb3f433	-0.02196703
145	0xbe6d97f3	-0.23202495
146	0xbd496eae	-0.049177818
147	0x3e17ef43	0.14837365
148	0xbeba6622	-0.36406046
149	0x3df41020	0.11917138
150	0x3e2ac2a4	0.16675812
151	0xbd6b502d	-0.05744951
152	0xc00b9729	-2.181101
153	0x3d17789e	0.036980264
154	0xbe53004a	-0.20605579
155	0xbd174f28	-0.036940724
156	0xbce2e26c	-0.027695857
157	0x3ccdf998	0.02514343
158	0xbf7e36b8	-0.99302244
159	0xbdc40d70	-0.095728755
160	0xbf9c906e	-1.2231576
161	0xbe4c8bc6	-0.19975194
162	0x3e26dc5b	0.16294996
163	0xbed8f17a	-0.42371732
164	0xbe8ff33f	-0.2811527
165	0x3eaceb2c	0.33773172
166	0xbf66518a	-0.8996817
167	0x3d35a5be	0.044347517
168	0xbfcba4a5	-1.590962
169	0x3cc706f3	0.024295306
170	0xbd220a8d	-0.039560843
171	0xbcf8a13b	-0.030350318
172	0xbd1ea3c2	-0.03873039
173	0x3ec90c3e	0.39267153
174	0x3c0ba6e2	0.008523675
175	0xbf3d5adb	-0.7396676
176	0x3e80599e	0.25068372
177	0x3dd23c8b	0.10265454
178	0xbcc9ccc7	-0.024633778
179	0xbea94681	-0.33061603
180	0x3d0617c1	0.032737497
181	0xbfc28560	-1.5196953
182	0x3cb7c939	0.022434818
183	0x3d1361e6	0.035982035
184	0xbf23e0ed	-0.64015085
185	0x3e8013a5	0.25014988
186	0xbdbb654c	-0.0915018
187	0xbcefa0bc	-0.029251449
188	0x3e6beac0	0.23038769
189	0xbc9e1041	-0.01929486
190	0x3d847459	0.06467504
191	0x3f4bd363	0.79619426
192	0x3d02e263	0.03195418
193	0x3e99064e	0.29887623
194	0xc0573a45	-3.3629315
195	0x3d3d652b	0.04623906
196	0xbf3fe6ea	-0.7496172
197	0xbe91bdfa	-0.28465253
198	0xbd687611	-0.056753222
199	0xbf17e0bf	-0.5932731
200	0x3c305f7b	0.010764952
201	0xbe85651f	-0.26053712
202	0xbd27a3b7	-0.040927615
203	0xbe44ac1f	-0.19206284
204	0xbe37987a	-0.17929259
205	0xbda79151	-0.08182014
206	0xbcf2879f	-0.029605685
207	0x3d7e1f1e	0.062041394
208	0xbc377bb2	-0.011198925
209	0xbe86da52	-0.2633844
210	0x3d09b4de	0.033619754
211	0x3d6c7020	0.05772412
212	0xbde904a6	-0.1137784
213	0xbdbaf533	-0.09128799
214	0x3d2c1460	0.04201162
215	0x3e53d92f	0.20688318
216	0x3d2f6cfe	0.042828552
217	0xbf9cc810	-1.2248554
218	0x3dadcb4a	0.0848604
219	0xbf1499e0	-0.58047295
220	0xbda0c6fa	-0.07850452
221	0x3d736a9b	0.05942784
222	0x3b916954	0.004437605
223	0x3d1ce079	0.03830001
224	0x3e094347	0.1340457
225	0xbd46af29	-0.04850689
226	0xbcae25dd	-0.021258289
227	0x3b4a24f2	0.0030844775
228	0xbb7e4bed	-0.003880258
229	0xbccf8f64	-0.025336929
230	0xbdb1aa8e	-0.08675109
231	0xbcdc8e23	-0.026923245
232	0xbd9f6d5d	-0.07784531
233	0x3dbe2208	0.09283835
234	0x3d12c9dc	0.03583704
235	0xbc200b73	-0.009768355
236	0x3d16bfc5	0.03680398
237	0x3e12b04c	0.14325064
238	0xbe96ca5b	-0.2945126
239	0x3d2f731f	0.042834397
240	0xbd8fc7bc	-0.07020518
241	0xbe3fbf6e	-0.18725368
242	0xbf9b57f2	-1.2136214
243	0x3da891f4	0.08230963
244	0x3ce6bfdb	0.028167656
245	0xbd7eb011	-0.06217963
246	0x3da48f80	0.08035183
247	0xbc4febb0	-0.01269047
248	0x3d7dfa81	0.062006477
249	0x3d8061e4	0.06268671
250	0xbf2909af	-0.660304
251	0xbe247f90	-0.16064286
252	0x3d166681	0.03671885
253	0x3e659016	0.22418246
254	0xbcdce6de	-0.026965555
255	0xbf990fa3	-1.1957897

rcsl.backbone.model.4.bias f4 [200]
0	0x3dd4172b	0.103559814
1	0x3e8c6f72	0.27428776
2	0xbec3709f	-0.3817186
3	0xbd447867	-0.047966387
4	0x3ea38113	0.31934413
5	0x3fbdf018	1.4838896
6	0xbfc92c61	-1.5716668
7	0x3fc97a8c	1.5740523
8	0x3f7d5014	0.98950315
9	0xc00d8c34	-2.2116823
10	0xbdba93f7	-0.09110253
11	0xbf111978	-0.5667949
12	0x4060d3dd	3.512931
13	0xbfeeeb5d	-1.8665577
14	0xbfd8577e	-1.69017
15	0xbee03252	-0.4378839
16	0x4046eeb0	3.1083183
17	0x3e297c34	0.16551286
18	0xc0052640	-2.0804596
19	0xbf310eb5	-0.69163066
20	0xbf03d7e4	-0.515013
21	0x3e049ca0	0.12950373
22	0xc03abe7b	-2.917876
23	0x407e4a34	3.973279
24	0xbd16019b	-0.036622625
25	0xc033eced	-2.8113358
26	0xbf86d2f4	-1.0533128
27	0xbfc301f5	-1.5234972
28	0x400d67b4	2.2094545
29	0xbfe3f383	-1.7808689
30	0x3f5f3331	0.87187487
31	0xbfcc4fe7	-1.5961884
32	0xbfcbf3b1	-1.5933744
33	0xbed9db3f	-0.42550084
34	0x3dc54dc0	0.0963397
35	0xbee3475a	-0.44390374
36	0x4035aa73	2.8385284
37	0xbf964131	-1.1738645
38	0xbd38b4d2	-0.04509432
39	0xbee05e92	-0.4382215
40	0x3e9eab79	0.30990198
41	0xbf67c078	-0.9052806
42	0xc001c46f	-2.0276144
43	0xc050dbd1	-3.2634165
44	0xc0413919	-3.01911
45	0x3fc36a22	1.5266764
46	0x3f3cc08c	0.73731303
47	0xc00e4a4b	-2.2232845
48	0x3ffce3c2	1.9757006
49	0xbf8be3d3	-1.0928901
50	0x3f76d77f	0.9642257
51	0xbfe8812a	-1.8164418
52	0xbff5c22e	-1.9199884
53	0x3f349905	0.7054599
54	0xbef382ba	-0.47560674
55	0x3fa6d5f1	1.303404
56	0xc074a283	-3.822419
57	0x4080f18b	4.029485
58	0xc09a6ce4	-4.8257923
59	0x3e8d0440	0.27542305
60	0xbe05ef64	-0.13079602
61	0x3fe5e37e	1.796005
62	0xbf93c0ad	-1.1543175
63	0xc03004ff	-2.750305
64	0x3f6769a3	0.90395564
65	0x405d0ce5	3.453912
66	0xbf8fad8f	-1.1224841
67	0x406b6aa1	3.678383
68	0x3f81121b	1.008365
69	0x3fe69360	1.8013725
70	0x409c83ba	4.89108
71	0xbf60ba80	-0.87784576
72	0x3f872a96	1.0559871
73	0x3fba3fd5	1.455073
74	0xbed0f236	-0.40809792
75	0xc0865019	-4.1972775
76	0xbf3a570c	-0.72789073
77	0x3eba1cb8	0.36350036
78	0xc0787513	-3.8821456
79	0xbf573d8b	-0.8407828
80	0xbfaf246a	-1.3682988
81	0xc002c98c	-2.0435514
82	0xbfb5f2e7	-1.4214753
83	0xbee268ff	-0.4422073
84	0xbfcedb15	-1.6160609
85	0xbf78ea35	-0.9723237
86	0xbdf800ac	-0.12109503
87	0x3e7fb8de	0.24972865
88	0x3e95315a	0.29139215
89	0x3f3a0438	0.7266269
90	0xc03c1383	-2.938691
91	0xbeebe126	-0.46070212
92	0x3f197404	0.5994265
93	0x3fc0ac20	1.5052528
94	0xbfbff5a0	-1.4996834
95	0xbd647cd4	-0.055783108
96	0x406beea6	3.686441
97	0xbfe53420	-1.7906532
98	0x3e9604dd	0.29300585
99	0x40876d48	4.23209
100	0x40c3c363	6.117601
101	0xc002dc86	-2.0447097
102	0xc02c8612	-2.695683
103	0x401588f0	2.336483
104	0xc02a056e	-2.6565814
105	0xbf20037c	-0.62505317
106	0xc063b2de	-3.5577922
107	0xc03cfed7	-2.9530542
108	0xbf94d46c	-1.1627326
109	0xbfa3bb0e	-1.279146
110	0xc00f933e	-2.243362
111	0xbe21f2bf	-0.15815257
112	0xbef9182c	-0.48651254
113	0xc02eed6d	-2.7332413
114	0x3f19aebb	0.6003224
115	0x3eb3b30e	0.35097545
116	0xbebd7008	-0.36999536
117	0x4022d440	2.5442047
118	0x404e5813	3.2241256
119	0x3fc2e481	1.5225984
120	0x3ea570ef	0.32312724
121	0xbb50784f	-0.003180999
122	0xbf29634b	-0.66167134
123	0xbd830c50	-0.06398833
124	0x3f2689eb	0.65054196
125	0xbe2b68bb	-0.1673917
126	0xbf250010	-0.6445322
127	0x40c59cae	6.175376
128	0x3d9a4856	0.07533328
129	0xbfd596d2	-1.6686652
130	0x3f3d8c1e	0.74041927
131	0x40807028	4.013691
132	0xc00d87ab	-2.2114055
133	0x3ffe1160	1.9849052
134	0x3fda1abc	1.7039409
135	0xbfd344c0	-1.6505356
136	0xbf7c9443	-0.9866373
137	0x3f1ff2e0	0.6247997
138	0x3e8192d3	0.2530733
139	0xbf20d969	-0.6283174
140	0xbdeac9d5	-0.11464278
141	0xbf55d761	-0.8353177
142	0xc02527a7	-2.5805452
143	0x3f29e9df	0.66372484
144	0xbf62cea6	-0.8859657
145	0x3e09a76b	0.13442771
146	0xc02ec42f	-2.730724
147	0xc01cd8cc	-2.4507322
148	0xbf8fe305	-1.1241156
149	0x404ede9e	3.2323375
150	0x3fd2804b	1.6445402
151	0x3fb27718	1.3942595
152	0x408dfe4a	4.437291
153	0xbf75a73a	-0.9595829
154	0xbf089b3e	-0.5336188
155	0xbfd88445	-1.6915365
156	0x3e8a3eb4	0.27000964
157	0xbeea4865	-0.45758358
158	0xbf075e43	-0.52878207
159	0xbf7c439c	-0.98540664
160	0x3f09fe97	0.539041
161	0x3faedf56	1.3661907
162	0xbf7408b1	-0.9532576
163	0xbf5245d7	-0.8213782
164	0xbe3c2e50	-0.18377042
165	0xbf9af448	-1.2105799
166	0xbe38e06b	-0.18054359
167	0xbd9cf7ef	-0.07664477
168	0x3ee4a341	0.44655803
169	0xbdb8bc9c	-0.090203494
170	0x4043758b	3.0540493
171	0xbef4f17c	-0.47840488
172	0x3d8da4ee	0.069162235
173	0xbf429e2d	-0.7602261
174	0x3ec510dd	0.38489428
175	0xc060212c	-3.5020247
176	0x3ffaa067	1.9580201
177	0x3f3d0268	0.73831797
178	0xbf2d92e7	-0.6780228
179	0xc06fe15d	-3.74813
180	0x3f3d1990	0.7386713
181	0x3ef90aa2	0.48640925
182	0xc00bd389	-2.184786
183	0x3fb87b82	1.4412692
184	0x3f9c5270	1.2212658
185	0x3e7d4283	0.24732403
186	0xbf1403d5	-0.5781835
187	0xbd118b74	-0.035533383
188	0xbfa1e098	-1.2646666
189	0xc04aa1ef	-3.1661336
190	0xbed8455f	-0.42240426
191	0xbfc9db88	-1.5770121
192	0x400061dd	2.005973
193	0xbe6be71b	-0.23037378
194	0xbf6c24a2	-0.922434
195	0xc04720fa	-3.1113877
196	0x4041d748	3.0287647
197	0x4019782e	2.3979602
198	0x3fcd84bf	1.6056136
199	0xbd888f2c	-0.06667933

rcsl.backbone.model.6.weight f4 [200, 200]
0	0xbe038bf3	-0.12846355
1	0xbf286dbc	-0.6579244
2	0x3e09ac32	0.13444594
3	0x3d0f3f95	0.034972746
4	0x3eb9a667	0.36259767
5	0xbfb53145	-1.4155661
6	0x3e5aa955	0.21353658
7	0xbe4d4db5	-0.20049174
8	0xbf979ea2	-1.1845286
9	0xc082f57f	-4.092468
10	0x3c4bd058	0.01243981
11	0xbed292c8	-0.4112761
12	0x3d01a3d6	0.031650387
13	0xbdc3dfd7	-0.095641784
14	0xbcf319fd	-0.029675478
15	0xbb55a46e	-0.0032599228
16	0xbf313619	-0.6922317
17	0xbe91f0bc	-0.28503978
18	0x3ead44b0	0.33841467
19	0xbd51297b	-0.05106495
20	0xbd6f4721	-0.058417443
21	0x3e429b4d	0.19004555
22	0xbfde3595	-1.7360102
23	0x3dcdfc03	0.10057833
24	0xba91d99a	-0.0011127472
25	0xbee4c1e5	-0.4467918
26	0xbe1927a5	-0.1495653
27	0xbcf26715	-0.029590169
28	0xbf3e142a	-0.7424952
29	0x3e784d31	0.24248196
30	0xbe891224	-0.26771653
31	0xbc308d72	-0.010775911
32	0xbe911d77	-0.28342792
33	0xbe26bf59	-0.16283931
34	0xbf5b4b4e	-0.8566178
35	0xbdf1080c	-0.11769113
36	0x3ece5c9e	0.40305036
37	0xc0062b54	-2.0963945
38	0x3cb7c41f	0.022432385
39	0xbdbfe243	-0.09369328
40	0x3e5cfb3d	0.21580215
41	0xbe99d490	-0.30044985
42	0xbd2eec55	-0.042705853
43	0x3e7053c8	0.2346946
44	0x3eb5d51d	0.35514155
45	0x3e026162	0.12732461
46	0xbf05aa69	-0.5221315
47	0xbeaa4388	-0.33254647
48	0xbe9ddbec	-0.3083185
49	0xbe206bf1	-0.15666176
50	0x3eaabf38	0.33349013
51	0x3eb01121	0.34388068
52	0x3db00843	0.08595326
53	0x3a3d9564	0.0007232039
54	0x3ead4427	0.3384106
55	0x3e0a5c73	0.13511829
56	0x3da99849	0.08280999
57	0xbf7a4fcb	-0.97778004
58	0x3dcb16d6	0.09916465
59	0x3e4286a2	0.18996671
60	0x3cd937d7	0.026515884
61	0xbf2c1971	-0.6722632
62	0xbe247d36	-0.16063389
63	0x3d4f9b58	0.050685257
64	0xbe9409a4	-0.28913605
65	0xbf586923	-0.84535426
66	0x3e5b8912	0.21439007
67	0x3dae335c	0.0850589
68	0xbe63960b	-0.22225206
69	0xbe3ed37d	-0.18635364
70	0x3c586574	0.013207782
71	0xbea6ab1b	-0.32552418
72	0x3eb07213	0.34462032
73	0xbd1fb92a	-0.038994946
74	0xbddf6000	-0.109069824
75	0xbedef090	-0.4354291
76	0xbe46bfa2	-0.1940904
77	0x3e2ce724	0.16885048
78	0x3d12a478	0.03580138
79	0xbf533f1f	-0.8251819
80	0x3ebf80bb	0.374029
81	0xbcfb64f3	-0.030687785
82	0x3ddd4d50	0.10805762
83	0xbdec52c0	-0.11539221
84	0xbd53d574	-0.051717237
85	0xc092d6ce	-4.5887213
86	0x3c662f5f	0.01404938
87	0x3eb0b0d9	0.34509924
88	0xbe8587b8	-0.26080108
89	0x3e37d061	0.17950584
90	0xbd49cf99	-0.049270246
91	0x3e06fd75	0.13182624
92	0xbef348f0	-0.47516584
93	0xbe101464	-0.14070278
94	0xbc0dcee6	-0.008655285
95	0x3d4f34ea	0.050587572
96	0xbdb53342	-0.08847667
97	0xbeca8cf5	-0.39560667
98	0xbefd4e5c	-0.49473846
99	0x3f033bb9	0.51263005
100	0x3d84c042	0.06481983
101	0x3e433b85	0.19065674
102	0xbe700631	-0.23439862
103	0x3df796b7	0.120892935
104	0x3d896d12	0.06710257
105	0x3e0b6aa2	0.13614896
106	0xbd2afe73	-0.041746568
107	0x3cefe8c8	0.029285803
108	0x3cd64b59	0.026158975
109	0x3cfbcebd	0.030738229
110	0xbf48df9e	-0.7846621
111	0x3d26fb63	0.040767085
112	0xbe94aae0	-0.29036617
113	0xbe19bc10	-0.15013146
114	0x3d542ff7	0.051803555
115	0xbec56831	-0.38556054
116	0xbf43723a	-0.7634617
117	0xbe357761	-0.1772132
118	0xbe4bccde	-0.1990237
119	0xbe2181e4	-0.15772206
120	0x3d9f07db	0.0776517
121	0xbdfc6c9e	-0.123254046
122	0x3e3403b8	0.17579544
123	0x3d9b6519	0.07587642
124	0xbf1c9dd0	-0.611783
125	0x3d21de95	0.03951891
126	0xba066558	-0.0005126796
127	0xbdcd86a0	-0.10035443
128	0x3d07bef1	0.03314108
129	0x3c7dbda2	0.0154871065
130	0xbe9972a3	-0.29970273
131	0xbf671ebb	-0.90281266
132	0x3e3ddb65	0.18540724
133	0x3f6d3f67	0.9267487
134	0x3dd14213	0.10217681
135	0x3bcdb8db	0.00627814
136	0xbdbf7497	-0.093484096
137	0xbd3bd49c	-0.045857057
138	0x3f04ac45	0.5182536
139	0x3ebf4cba	0.37363225
140	0x3cb8ce8e	0.02255943
141	0xbdc75b44	-0.097342044
142	0x3e6a5554	0.22884113
143	0x3e47f5d8	0.19527376
144	0xbc84384d	-0.016140128
145	0x3e47c079	0.19507016
146	0xbe40433f	-0.18775652
147	0xbe893f82	-0.26806265
148	0xbec121da	-0.3772114
149	0xbe2acf27	-0.16680585
150	0xbe38a7c2	-0.18032745
151	0xbdc6ba70	-0.09703529
152	0xbdf88abf	-0.12135839
153	0xbf172726	-0.5904411
154	0xbcc9bdf0	-0.024626702
155	0xbe7db5b6	-0.24776348
156	0x3dcec81e	0.10096763
157	0xbe7b8b8d	-0.24564953
158	0x3dba2d81	0.090907104
159	0x3e9ccaa1	0.30623344
160	0xbe910e2a	-0.2833112
161	0x3e8704c5	0.26370826
162	0xbcf6803d	-0.030090446
163	0x3e7dc6e4	0.24782902
164	0xbf4a7077	-0.7907786
165	0xbdb8d3ad	-0.09024749
166	0xbe17ed1b	-0.14836542
167	0xbe05bcd4	-0.13060313
168	0xbe378229	-0.17920746
169	0x3b5423bc	0.0032369932
170	0x3dc21596	0.094767734
171	0x3d76e81d	0.060279954
172	0xbcca45a7	-0.024691416
173	0xbc97716b	-0.0184867
174	0x3b7c65a2	0.0038512726
175	0x3cd99aff	0.026563166
176	0xbe813e59	-0.2524288
177	0x3e426f17	0.1898769
178	0x3dea9f0c	0.11456117
179	0x3e6a9b17	0.22910725
180	0xbd2f0dca	-0.04273776
181	0xbf201c59	-0.62543255
182	0xbd21f113	-0.039536547
183	0x3f1d9329	0.61552674
184	0x3cf39637	0.029734714
185	0xbfa175c5	-1.2614065
186	0xbd3b7f76	-0.045775853
187	0x3b404d86	0.0029343083
188	0x3d93815e	0.07202409
189	0x3db3ee55	0.087856926
190	0x3cdf2e1d	0.027243668
191	0x3def74a8	0.11692172
192	0xbeb59533	-0.35465392
193	0xbcf58cb3	-0.029974317
194	0x3e4d4055	0.20044072
195	0x3f252e44	0.6452372
196	0xbe810919	-0.25202253
197	0x3e5c53cd	0.21516342
198	0xbe41333b	-0.18867199
199	0xbe643054	-0.2228406
200	0x3d79b072	0.060959287
201	0x3d98bf9b	0.07458421
202	0xbde15ccc	-0.11004028
203	0xb9a913fd	-0.00032249084
204	0x3ce36f7c	0.02776312
205	0x3e19077e	0.14944264
206	0xbb45b4eb	-0.003016765
207	0x3d67b7d3	0.056571793
208	0x3e15295d	0.1456656
209	0xbddd5cbd	-0.10808704
210	0xbc7ebfd8	-0.015548669
211	0x3acddfd5	0.0015706966
212	0xbcd9e67e	-0.026599165
213	0xbe358ac3	-0.17728715
214	0xbbb09b2f	-0.005389593
215	0x3ed50900	0.4160843
216	0xbd9e1c31	-0.07720221
217	0xbd19f095	-0.037582953
218	0xbddca763	-0.10774114
219	0x3dbf0244	0.09326604
220	0xbc34abc2	-0.011027278
221	0x3e182fbc	0.14861959
222	0x3e01ceec	0.1267659
223	0x3d4790b1	0.048721973
224	0x3cf53040	0.029930234
225	0xbbc84790	-0.0061120465
226	0xbdc05c57	-0.093926124
227	0xbdd7f0e7	-0.10543995
228	0xbce3404b	-0.027740618
229	0x3ddd6586	0.1081038
230	0x3dd9cb2a	0.106344536
231	0x3e3e08df	0.18558072
232	0x3c818095	0.015808383
233	0xbc784c24	-0.015154872
234	0xbf6d5371	-0.92705446
235	0x3d8fb853	0.07017579
236	0x3cd3a972	0.025837634
237	0xbd893fa8	-0.067015946
238	0xbd912ada	-0.070882514
239	0xbc85deca	-0.016341586
240	0xbd6be360	-0.05758989
241	0xbe001aa3	-0.12510161
242	0xbe41d7be	-0.18929955
243	0xbe3d6b80	-0.18498039
244	0xbe0dfaae	-0.13865158
245	0x3dd02b3d	0.10164497
246	0xbe32e1ff	-0.17469023
247	0x3df40e70	0.11916816
248	0x3cfd8b7b	0.030950299
249	0x3da8dd9e	0.08245395
250	0xbdb4c733	-0.08827057
251	0x3d7a1daf	0.061063465
252	0x3ccc86b6	0.024966579
253	0xbd538484	-0.05164005
254	0x3ca612f2	0.020272706
255	0xbba16640	-0.004925519

rcsl.backbone.model.6.bias f4 [200]
0	0xbea5eefc	-0.32408893
1	0x3fafa53a	1.3722298
2	0xbea3095c	-0.31843078
3	0x400da9eb	2.213496
4	0x3ff2bc48	1.8963709
5	0x3d0f08a9	0.03492037
6	0x3ee231fd	0.44178763
7	0x3f25d779	0.6478191
8	0x3e65cae2	0.22440675
9	0xbe6425b7	-0.22280012
10	0xbe0901a2	-0.13379529
11	0xbd9e5fa7	-0.07733088
12	0x3fa5d03e	1.2954175
13	0x3fe1e3f5	1.7647692
14	0x40005ecf	2.0057867
15	0xc01d15e9	-2.4544623
16	0xbf0cba9c	-0.54972243
17	0xbded9582	-0.11600782
18	0x4000a486	2.0100417
19	0x3f1751f3	0.5910942
20	0xbf1dc517	-0.6162886
21	0x40002648	2.0023365
22	0xc05fbfc1	-3.4960787
23	0xbe8f4e49	-0.27989414
24	0x3f77f53d	0.9685858
25	0x3ff2133c	1.891212
26	0x3f825b3d	1.0184094
27	0x3fe8fc8e	1.8202074
28	0x3f414250	0.7549181
29	0x3ec47191	0.38367894
30	0x3f7d3fef	0.9892568
31	0x3eac6149	0.33667973
32	0x401b9949	2.4312308
33	0x3fe75078	1.8071432
34	0xbf07c1e6	-0.5303024
35	0x3fa4543d	1.2838207
36	0x3e162bcf	0.14665149
37	0x3ff0d953	1.8816322
38	0x3e8a2e76	0.26988572
39	0xbd4ad6ad	-0.049521137
40	0xbfbad128	-1.459508
41	0xc001a02c	-2.025401
42	0x3fabdfe8	1.3427706
43	0x3db89ac2	0.09013893
44	0x3d6620be	0.05618357
45	0x3ea8f00e	0.32995647
46	0x3ef25b3d	0.47335234
47	0x3f648cab	0.8927714
48	0xbdc23f58	-0.09484738
49	0xbdfdf061	-0.12399364
50	0x3f51f54f	0.82014936
51	0x3eda18ec	0.4259714
52	0xbf08e035	-0.5346711
53	0x3fb063aa	1.3780415
54	0xc0a01ad2	-5.003274
55	0x3e1cbd74	0.15306646
56	0xbe1a2031	-0.15051343
57	0xbe3b4e88	-0.18291676
58	0x3fb17477	1.3863667
59	0xc03ab0ef	-2.9170492
60	0x3fa16eb3	1.2611908
61	0x3f924e6e	1.1430185
62	0xbe8750bf	-0.26428792
63	0xbece7076	-0.40320176
64	0xc04dccb9	-3.2156203
65	0xbff9603a	-1.9482491
66	0xbde61c19	-0.11235828
67	0xbddfe257	-0.10931843
68	0xbe28b137	-0.16473852
69	0x4009e97a	2.1548753
70	0x3f71f2b2	0.9451095
71	0x3f467985	0.77529174
72	0x3febac99	1.8412048
73	0xbeb0fa1e	-0.34565824
74	0x3f7ec638	0.9952121
75	0xbf13dc66	-0.57758176
76	0xbfa8063e	-1.3126905
77	0xbe23f432	-0.16011122
78	0xbf230177	-0.6367411
79	0xbeb9baa8	-0.3627522
80	0xbd902099	-0.070374675
81	0x3f1255bc	0.5716207
82	0x3fe1f554	1.7652993
83	0xbe0e8ad2	-0.13920143
84	0x3f4ea998	0.8072753
85	0xbf00c356	-0.5029806
86	0x40205dfd	2.5057366
87	0xbe1b2eb3	-0.15154533
88	0x400337c8	2.0502796
89	0xbe70fd58	-0.23534143
90	0x3f4b1048	0.7932172
91	0xbf21b2ff	-0.6316375
92	0x3f923ac6	1.1424186
93	0x3f90a7d9	1.1301223
94	0xbfe2c15e	-1.7715261
95	0x3efd71a8	0.49500775
96	0xbdc2f390	-0.09519112
97	0x3f428c5d	0.7599543
98	0x3f6b9c39	0.9203525
99	0x3fc766ea	1.5578282
100	0x402a5275	2.6612828
101	0x3f8aaa55	1.0833231
102	0x3c210db8	0.009829931
103	0xc01b5b3d	-2.4274437
104	0x3f25ab06	0.64714086
105	0xbf0f03d5	-0.5586522
106	0x3fadcf4d	1.3578888
107	0xbc9b362e	-0.018946733
108	0xbfd270bc	-1.6440654
109	0xc02e7fb4	-2.7265444
110	0x3f133577	0.57503456
111	0xbf8d0f14	-1.1020226
112	0xbd8c0674	-0.06837168
113	0xbf5db337	-0.86601585
114	0x402575ed	2.5853226
115	0x3ef26198	0.47340083
116	0xc0022ebc	-2.0341024
117	0x3f9bddde	1.2177083
118	0x3e0d612e	0.13806602
119	0xbdf4ddf4	-0.11956397
120	0xbf6bbe7e	-0.92087543
121	0x3f97a099	1.1845886
122	0x3ea13fd4	0.3149401
123	0xc059ea89	-3.40494
124	0x402242d8	2.5353298
125	0xbf37a79e	-0.7174014
126	0x3f9ef61d	1.2418858
127	0xbe0fd0e7	-0.14044534
128	0xbeb3385b	-0.35003933
129	0xbdd22e49	-0.102627344
130	0x3fa57491	1.2926198
131	0x3fdf3340	1.7437515
132	0xbe9e9d1b	-0.30979237
133	0xbd81b94b	-0.0633417
134	0xbe459e67	-0.19298707
135	0x3f0ade2d	0.54245263
136	0xbfdd9ea0	-1.7314034
137	0x3f72e65e	0.9488276
138	0xbe145a16	-0.1448749
139	0x3e46942b	0.19392459
140	0xbf12f27a	-0.5740124
141	0x3ea8974e	0.32927936
142	0xbe1039e7	-0.14084588
143	0xbf045a19	-0.5169998
144	0xbe04c6f4	-0.1296652
145	0xc08a5f71	-4.3241506
146	0x3f046298	0.5171294
147	0xbf5205b7	-0.8203997
148	0xbfac9121	-1.348179
149	0x3eddbb93	0.4330717
150	0xbf64a060	-0.8930721
151	0x3fff20a9	1.9931842
152	0xbf03e2be	-0.51517856
153	0xbeb3a6db	-0.35088238
154	0x3ca19586	0.019724619
155	0x3faad3bb	1.3345865
156	0x3f670f58	0.9025779
157	0xbf980576	-1.1876667
158	0xbd63eacb	-0.055643838
159	0xc07092e9	-3.7589667
160	0x3fcca8c6	1.5989006
161	0xbfdbab3b	-1.716163
162	0x4012cc48	2.2937183
163	0x3ec030b2	0.37537152
164	0xbeeacc0e	-0.45858806
165	0xbfa96ba8	-1.3235979
166	0x3f02526f	0.50907034
167	0x40142cee	2.3152423
168	0x3f85da08	1.0457163
169	0x3edc3484	0.43008816
170	0x3f62a245	0.88528854
171	0x40173842	2.3628087
172	0xbf407210	-0.75174046
173	0x3f387bba	0.7206379
174	0xbcb3e84e	-0.021961357
175	0xbd1f3428	-0.0388681
176	0xbd30ce10	-0.043165267
177	0xbf74b450	-0.95587635
178	0x3eb0d432	0.34536892
179	0x3fa232fa	1.2671807
180	0x3cba6dd6	0.022757452
181	0xbfa2f933	-1.27323
182	0xbdb7c6a7	-0.08973437
183	0xbf87a031	-1.0595762
184	0x3f745ed8	0.9545722
185	0xc04dc366	-3.2150512
186	0x3fb47acd	1.4099976
187	0xbfcabfc9	-1.5839778
188	0x3f22e3fc	0.63629127
189	0xbfb8efc7	-1.4448174
190	0xbe82c74b	-0.25542673
191	0x3fee2464	1.8604856
192	0x3fdf6e8a	1.7455609
193	0x3f8509a2	1.0393565
194	0xbf99b101	-1.2007142
195	0x3ec2a503	0.3801652
196	0xbd83e0b6	-0.064393446
197	0xbf730e53	-0.9494373
198	0x403bd8f9	2.935118
199	0x3ed50dcb	0.41612086
