backup/linearq_newenv/rcsl_0.75expert/timestamp_23-0926-142020&128-[16]/checkpoint/policy.pth (torch, 1945 bytes, 3 tensors)

rcsl.backbone.model.0.weight f4 [16, 2]
0	0x3adaa7bb	0.0016682068
1	0x3ec354d9	0.3815067
2	0xbf14fcb1	-0.58198076
3	0xbf05381d	-0.5203875
4	0xbe527cd8	-0.20555437
5	0x3de841f1	0.11340702
6	0x3d2944fd	0.041325558
7	0x3f0dbc48	0.5536542
8	0xbd8efc10	-0.06981671
9	0x3e38c64d	0.18044396
10	0xbe5ad35d	-0.21369691
11	0xbe0e541b	-0.13899271
12	0xbf2cefc2	-0.6755334
13	0xbeefc590	-0.46830416
14	0xbe88c78c	-0.26714742
15	0x3e0d5cdd	0.13804956
16	0x3e9c7973	0.30561408
17	0x3ed2b133	0.41150817
18	0xbef570de	-0.47937673
19	0xbe9da786	-0.30791873
20	0x3e6734fd	0.22578807
21	0x3f1749e3	0.5909712
22	0xbe4e9cb0	-0.20176959
23	0x3f023edf	0.50877184
24	0xbe917cbb	-0.28415474
25	0x3e0ba1f1	0.13635994
26	0x3f2b9365	0.6702178
27	0xbeb81ee0	-0.35961056
28	0xbee3eac5	-0.44515052
29	0xbe374fac	-0.17901486
30	0xbe7961ff	-0.24353789
31	0x3f1cdbb6	0.6127275

rcsl.backbone.model.0.bias f4 [16]
0	0xbf368944	-0.713032
1	0xbea6a886	-0.32550448
2	0xbf549187	-0.8303456
3	0xbed216f8	-0.4103315
4	0xbf3d1407	-0.73858684
5	0x3f1b9a97	0.6078276
6	0x3ea18c5e	0.31552404
7	0x3f54da6d	0.8314579
8	0x3e9392b2	0.28822857
9	0xbeb99c7b	-0.36252198
10	0xbdfe06ce	-0.12403642
11	0xbec7e15d	-0.39039126
12	0xbec17f42	-0.37792403
13	0x3f0dc7ab	0.55382794
14	0x3ee46c87	0.4461405
15	0x3dfd0c33	0.123558424

rcsl.backbone.model.2.weight f4 [1, 16]
0	0xbdebc498	-0.11512107
1	0xbc13cb20	-0.009020597
2	0x3d53ce22	0.051710255
3	0x3e77b364	0.24189526
4	0x3dcf7511	0.101297505
5	0x3d0a55c8	0.033773214
6	0x3e2ba4fe	0.16762158
7	0xbeb86e35	-0.3602158
8	0x3d4fd414	0.050739363
9	0xbe467a6c	-0.19382638
10	0xbe2f8aeb	-0.17142837
11	0xbdfe6cc5	-0.1242309
12	0x3e822175	0.2541615
13	0x3cb686b3	0.022281026
14	0xbe17a46a	-0.14808813
15	0x3d954a3c	0.0728955
