backup/linearq_newenv/rcsl_0.75expert/timestamp_23-0926-163702&144-[8]/model/policy.pth (torch, 1881 bytes, 3 tensors)

rcsl.backbone.model.0.weight f4 [8, 2]
00000000: 7f80 843e e525 963e b1fc 14bf 1d38 05bf
00000010: 6ac5 abbd 73ec 923e de4a 10be 3af4 f33e
00000020: 1527 fabd bd35 103e 5dd3 5abe 1b54 0ebe
00000030: c2ef 2cbf 90c5 efbe a827 8dbd 90cd a53d
0.25879285 0.29325786 -0.58198076 -0.5203875 -0.08387263 0.2869602 -0.1409106 0.47647268
-0.122144856 0.14083 -0.21369691 -0.13899271 -0.6755334 -0.46830416 -0.068923295 0.080958486

rcsl.backbone.model.0.bias f4 [8]
00000000: d8ab 903e 403b d93e 1af2 09bf 409d 95be
00000010: a9f8 fc3e f750 163f e703 15be 0af2 013e
0.28256106 0.42428017 -0.5388504 -0.29221535 0.49408463 0.5871729 -0.1455227 0.12689987

rcsl.backbone.model.2.weight f4 [1, 8]
00000000: e35e 183c 353c 193d ab5d d23e 1626 7dbe
00000010: ba98 3bbe ac4f b7bd 661f 0dbe 09a0 903e
0.0092999665 0.037410934 0.41087088 -0.2472156 -0.1831998 -0.08950743 -0.13781509 0.28247097
