backup/linearq_newenv/rcsl_0.75expert/timestamp_23-0926-165110&160-[8]/checkpoint/policy.pth (torch, 1881 bytes, 3 tensors)

rcsl.backbone.model.0.weight f4 [8, 2]
00000000: fca6 823e d995 963e b1fc 14bf 1d38 05bf
00000010: f929 acbd dfe9 923e 7c4f 10be 53f5 f33e
00000020: dc36 f7bd ca96 103e 5dd3 5abe 1b54 0ebe
00000030: c2ef 2cbf 90c5 efbe 3e4b 8cbd 5b3a a63d
0.25518024 0.294112 -0.58198076 -0.5203875 -0.08406443 0.28694054 -0.14092821 0.47648105
-0.120710105 0.14120021 -0.21369691 -0.13899271 -0.6755334 -0.46830416 -0.06850289 0.08116599

rcsl.backbone.model.0.bias f4 [8]
00000000: 1713 903e 403b d93e 09dc 04bf fe2c 9abe
00000010: 2836 ec3e f750 163f e703 15be d174 473e
0.28139564 0.42428017 -0.51898247 -0.3011245 0.46135068 0.5871729 -0.1455227 0.19478156

rcsl.backbone.model.2.weight f4 [1, 8]
00000000: 685c 0a3c 353c 193d 3d46 d23e 4b2e 7dbe
00000010: aef7 3abe ac4f b7bd 661f 0dbe 3bc9 913e
0.008444883 0.037410934 0.41069213 -0.2472469 -0.18258545 -0.08950743 -0.13781509 0.2847384
