backup/hopper-medium-v2/rcsl/rcsl/timestamp_23-0905-073442&3/model/policy.pth (torch, 498555 bytes, 10 tensors)

rcsl.backbone.model.0.weight f4 [200, 12]
000000 a6 7e ca be 31 a6 4e c0 2f 11 f6 be db 71 a5 3f
       -0.3954975 -3.2288935 -0.48059985 1.2925371
000010 77 40 1b c0 ac 61 df be f9 f2 f4 bf 85 b4 30 3e
       -2.4258096 -0.43629205 -1.9136649 0.17256363
000020 8c 6a 8e 3f f3 ee bb 3f df b0 22 bf 81 3e 99 bd
       1.1126266 1.4682297 -0.63551134 -0.07482625
000030 67 cd b5 3e 3a 7f 0f 3f 38 12 c8 bf 60 80 89 bf
       0.35508272 0.5605351 -1.563056 -1.0742302
000040 2e b4 92 bf 94 64 14 3f 9c ff 23 bf 14 28 88 3f
       -1.1461236 0.5796597 -0.64061904 1.0637231
000050 0c 0b 76 bf ae dc 85 be 4a e6 0f 3f df 6f ed bf
       -0.96110606 -0.26144928 0.5621077 -1.8549765
000060 0c b4 80 3e 27 be 0f c1 cc c4 a2 be 01 0e 83 bf
       0.25137365 -8.983924 -0.3179077 -1.0238649
000070 c9 84 ef bf 6e a4 37 bf 01 6e fe be 58 d5 3c 3e
       -1.8712398 -0.71735275 -0.496933 0.18440759
000080 fb 5e 78 bf 41 20 1b bf 9f 8a 08 bf da 79 40 be
       -0.9701993 -0.6059609 -0.5333652 -0.18796483
000090 de 46 e8 bf 53 a6 8c 40 d2 80 d9 be 70 36 ee be
       -1.8146627 4.3953032 -0.42481095 -0.46525908
0000a0 3c b0 05 41 f9 af 04 3f 48 b6 d9 3f b7 f8 9b c0
       8.355526 0.5183101 1.7008753 -4.8741107
0000b0 3c 69 18 40 f7 db 05 3f b2 82 7f bf aa 78 d4 39
       2.381423 0.52288765 -0.998088 0.00040525693
0000c0 c1 86 89 3e da 29 18 c0 f5 8d 57 3e 5a e3 ca bf
       0.26860622 -2.3775544 0.21050246 -1.5850632
0000d0 8e 70 71 bf cf 27 98 3f fd 6b 4b 3f df 4f 19 bd
       -0.9431237 1.1887149 0.7946165 -0.037429687
0000e0 4a 98 1c 3e 2b f7 ba 3e 9a 18 9b 3f 64 18 d2 be
       0.15292469 0.365167 1.2116883 -0.41034234
0000f0 f6 58 9e 3f 20 a0 ea 3f 76 ae 48 bd 80 c7 48 c0
       1.2370899 1.8330116 -0.048994504 -3.1371765
000100 1b fe f4 bc fb b5 d5 3d 29 1f 02 40 1a 1e fb 3f
       -0.029906323 0.10435101 2.0331519 1.9618561
000110 e9 85 49 3f 27 ea 0f 3e 82 66 7c bf 97 af e3 be
       0.78719956 0.14054166 -0.98593915 -0.44469902
000120 e7 d4 27 c0 27 ef 01 c0 25 83 a6 3f 81 89 55 3e
       -2.6223695 -2.0302217 1.3008772 0.20853235
000130 2f 97 dd 3f f3 15 f0 3f 9c e7 e0 be 4b 98 ff 3d
       1.7311763 1.8756698 -0.43926704 0.124802195
000140 58 22 61 bf 89 be a1 bf 74 4e b9 3d 2a 68 e1 bb
       -0.8794303 -1.2636272 0.09048167 -0.0068788724
000150 fb 60 87 bf 26 f5 80 40 00 a9 43 3f 78 36 6e bf
       -1.0576471 4.0299253 0.7642975 -0.9305186
000160 d2 fe a8 3e 37 15 89 bd 56 0f 30 be 9d 3d 53 40
       0.33006912 -0.066934995 -0.1719335 3.3006356
000170 c2 25 71 3f cd 66 0a 40 1a 03 b5 be d3 ff 78 be
       0.9419824 2.1625245 -0.3535393 -0.24316339
000180 24 f1 0e be 58 e1 5d 3f a7 eb 91 bf 22 46 dd 3e
       -0.13959175 0.8667197 -1.140004 0.4321757
000190 7e c5 92 bf e0 76 0a 3f 07 cd 1c be 41 19 f5 bf
       -1.146652 0.5408764 -0.15312587 -1.9148332
0001a0 71 20 ab 3f a5 c9 ef be 46 3b 36 bf 8e de 8e be
       1.3369275 -0.4683353 -0.71184194 -0.2790417
0001b0 73 fb 94 3f d0 3d 2a 40 f2 3c 20 40 91 f9 61 bf
       1.1639236 2.6600227 2.5037198 -0.88271433
0001c0 8e b3 90 40 81 3d 71 bf 58 13 ae bf e9 63 1c c0
       4.5219183 -0.9423447 -1.3599653 -2.443598
0001d0 e2 40 4a bf 80 54 3a 3f db 56 33 bf dc 0f ef bd
       -0.79005253 0.72785187 -0.70054406 -0.11672947
0001e0 cd a7 e8 3f 93 49 0a bf be 06 09 c0 44 54 61 3e
       1.8176209 -0.54018515 -2.1410365 0.22004801
0001f0 67 db 05 c1 56 01 c1 bf e3 9c a1 3f d3 31 25 c0
       -8.366065 -1.5078533 1.2626003 -2.581166
000200 71 bd 2c bf 26 f7 38 40 7f 08 71 3f 86 64 02 3c
       -0.67476565 2.8900847 0.9415359 0.007958537
000210 5f 06 18 c0 26 54 67 c1 fa e1 53 c0 96 38 8d c0
       -2.3753889 -14.458044 -3.3106675 -4.4131575
000220 78 65 ef 40 6d 36 7d 3f 17 af 6e 40 2b 2e 41 bf
       7.4811363 0.9891117 3.7294366 -0.7546107
000230 ed 3a 14 be 9b 72 c3 3e 8c 2b 56 3e 9c 2b 75 3a
       -0.14475603 0.38173375 0.2091505 0.00093525066
000240 9c 64 85 3f a8 9a a1 3f c4 36 48 bf 20 8a eb be
       1.0421329 1.2625322 -0.78208566 -0.4600382
000250 52 06 30 be c2 d6 a1 3f 7f fb 39 bf 0b a5 87 be
       -0.17189911 1.2643664 -0.7264938 -0.26493105
000260 39 2b d0 be 8b 9b 9d 3d b6 37 2a 3f b2 15 82 be
       -0.40657976 0.07695683 0.6649126 -0.25407177
000270 1e fb 13 3d b8 d7 3b 41 d9 14 2e c0 41 ee c2 40
       0.036128156 11.740166 -2.7200224 6.0915837
000280 e8 aa 77 3f 4e 34 f2 3f b3 5d 7c 40 45 4f 5d 40
       0.9674516 1.8922212 3.943219 3.4579632
000290 f5 16 46 c0 4c 51 08 c0 ca 02 dc 3f 9c 2e dd 3b
       -3.0951512 -2.129962 1.7188351 0.006749941
0002a0 c5 5d 56 3f a7 72 f1 3f 8f 37 5a bf 22 4c a4 3e
       0.8373683 1.8863114 -0.85241026 0.32089335
0002b0 7f 83 80 bf 63 e4 c1 3e 31 b9 f8 bd 6a de 1e 3f
       -1.004013 0.37869558 -0.121446975 0.62058127
0002c0 89 79 3a bf 27 72 28 40 ce 88 0c bf 10 6e 78 be
       -0.728417 2.6319673 -0.5489625 -0.24260736
0002d0 96 d8 e3 3e 0a 20 5f 40 f8 06 14 bf 51 1d bd 3f
       0.4450118 3.4863305 -0.57823133 1.4774572
0002e0 08 a9 2c bf 5a 76 9b 3e 70 7e a3 be b2 e8 51 3f
       -0.6744542 0.30363733 -0.31932402 0.8199569
0002f0 41 b8 50 bf d5 02 b8 be 15 51 a1 3f f6 ea 0b bf
       -0.8153115 -0.3593966 1.2602869 -0.54655397
000300 9a 5d 15 3f ed b7 ab bf eb 68 00 40 aa 53 08 3e
       0.5834595 -1.3415505 2.0064037 0.13313165
000310 42 32 10 c0 47 ba 51 bf 7e b5 e0 be fe 9c 36 40
       -2.2530675 -0.8192486 -0.43888468 2.853332
000320 02 d0 bb 3e a7 08 00 40 2d e4 07 3f 67 a5 1f be
       0.36682135 2.000528 0.53082544 -0.1559044
000330 f6 53 48 3f 6c 64 25 bf df b8 02 bf e7 18 ce bf
       0.78253114 -0.64606357 -0.5106334 -1.610135
000340 6c 82 dc 3e dd 41 44 be fd 29 72 bf c3 54 41 be
       0.43068254 -0.1916575 -0.9459532 -0.1887999
000350 0f fb 18 be 18 94 a4 be 88 08 1f bf 6a b2 a8 bf
       -0.14939521 -0.32144237 -0.6212239 -1.3179448
000360 dc ec 2d 40 34 71 f1 40 f4 42 a4 40 5b 03 5d c0
       2.7175817 7.5450687 5.133173 -3.4533298
000370 36 80 25 c0 7a ad 0d c0 48 24 cf bf 2f 06 1b bf
       -2.5859504 -2.2137132 -1.6182947 -0.6055631
000380 c0 0b ee 3f b9 df b3 3e 47 e5 90 3d 54 98 35 bc
       1.8597336 0.35131624 0.07074981 -0.011083681
000390 9c f2 e4 be 7f ce 39 c0 19 26 cd be 31 b9 59 3e
       -0.44716346 -2.9032285 -0.4006813 0.21262051
0003a0 f6 25 59 c0 eb 93 17 3f 6f 9c b1 3f 66 6d c9 3f
       -3.392942 0.5921008 1.3875865 1.5736511
0003b0 5d 80 4a 3f ef ee 68 bf dc 8a b6 3d 6a 62 73 bd
       0.79102117 -0.90989584 0.08913204 -0.059420027
0003c0 b1 cc c9 bf b1 39 a6 40 e1 2e 0e c0 8a cb b1 3f
       -1.5765592 5.1945424 -2.2216113 1.389024
0003d0 7e 56 19 c0 5c c2 2c bf a4 5f 56 3f db dd 10 40
       -2.395904 -0.6748407 0.83739686 2.263541
0003e0 a4 d5 4d 3f c5 b9 5e 40 fd ab af 3e fe 23 2e bc
       0.80404115 3.4800885 0.34310904 -0.010628698
0003f0 f6 a4 e1 3d 53 df 3e c0 ae 34 ba 3f 8f 22 8e be
       0.11017792 -2.9823806 1.4547327 -0.2776074

rcsl.backbone.model.0.bias f4 [200]
000000 60 54 08 be e4 bd 46 3f 66 70 72 3e 87 11 68 bf
       -0.13313437 0.776335 0.23675689 -0.90651745
000010 21 f7 04 3f 11 9a a4 3f 60 87 12 c0 4c 9d 43 bf
       0.5193959 1.2859517 -2.2895126 -0.7641189
000020 b1 f8 e8 3e c9 11 3e 3f 43 6f 18 40 3a 87 10 c0
       0.45502236 0.7424589 2.3817909 -2.2582536
000030 ec ce 0b 3f d8 2e 80 3f 71 a2 ab 3e 7b f1 ff 3d
       0.5461261 1.0014296 0.3352237 0.124972306
000040 71 63 f9 3d f8 49 51 3f fb 0c 1f 40 ba ec 18 bf
       0.1217717 0.8175349 2.4851673 -0.59736216
000050 46 24 dc be df 19 10 bf e9 ce 40 3e 30 27 b7 bf
       -0.42996424 -0.56289476 0.1882893 -1.4308834
000060 d1 52 14 40 09 92 b2 be 73 e2 2f 3e 3e 92 3d bf
       2.3175547 -0.3487704 0.17176227 -0.7405127
000070 6b d3 d7 be 0a bd 0e 3e df ae 36 bf c1 e4 4c 3d
       -0.42153487 0.139393 -0.7136058 0.050022844
000080 e4 18 18 c0 c0 4c db 3d 22 06 b9 3e 95 3c cf bc
       -2.3765192 0.10707998 0.3613749 -0.025297442
000090 5d 95 28 be 9d db 56 3c ff a8 3b bd 06 a9 e2 3f
       -0.16463228 0.013113883 -0.045815464 1.7707832
0000a0 08 05 83 3e bd 19 72 3f 0a 8a 0a 3e 00 ed f1 3e
       0.25589776 0.94570524 0.1352922 0.4725113
0000b0 83 df 55 bf ef 31 b7 3f 3c c6 17 c0 5a be 43 be
       -0.83544177 1.4312114 -2.3714743 -0.19115582
0000c0 a6 0c 15 bf 8e a0 9d be a8 75 52 3f 09 f4 9f 3f
       -0.58222425 -0.30786556 0.8221078 1.2496349
0000d0 96 b7 9e 3e fc b4 68 3d 68 8e 15 bf fd f4 28 be
       0.3099944 0.056813225 -0.5842042 -0.16499706
0000e0 91 a1 21 bf 30 11 0d bf 13 4e 81 3d b3 ae ec be
       -0.63137156 -0.5510435 0.063137196 -0.46227035
0000f0 69 93 dd 3e 4c b1 ef 3e 87 66 7a 3f fe 0c 04 be
       0.43276528 0.46814954 0.97812694 -0.12895581
000100 8c 41 4a 3e 9f 95 a5 3f 92 e7 28 40 64 26 52 3f
       0.19751567 1.2936286 2.639134 0.8208983
000110 ab a8 52 bf 06 8d 2f be ad 92 6e bf 81 78 eb 3f
       -0.82288617 -0.1714364 -0.9319256 1.839615
000120 26 fd e1 3d 9c 6a 7e bd ff 07 05 bf 5c 67 02 3e
       0.11034612 -0.06211339 -0.51965326 0.12734741
000130 80 cc fa 3f 5c 3b 7d 3c 8c e2 1b bf 71 d3 04 bf
       1.9593658 0.015456047 -0.6089256 -0.51885134
000140 f6 9b 2d bf c4 d1 8c bf 74 82 33 bf 43 a2 2c be
       -0.678161 -1.1001515 -0.7012093 -0.16858773
000150 4a 4e 82 3f 38 40 55 3e 42 26 e1 3f da 08 80 bf
       1.0180142 0.20825279 1.75898 -1.0002701
000160 c8 5d a6 3e 47 d0 40 3c 9a b1 bd bd ed 27 e6 3f
       0.32493424 0.011768407 -0.092623904 1.7980934
000170 a1 8d 91 bd 06 74 af bf 1f bb 8d bf b9 8b 92 be
       -0.07107092 -1.3707283 -1.107273 -0.28622225
000180 06 7f ab 3f 3b 39 ff 3f b9 df ab 3e 92 dd a6 bf
       1.339814 1.993934 0.33569124 -1.3036368
000190 b0 83 be 3c 76 85 50 bf 7a 01 61 40 50 91 5d be
       0.023256153 -0.81453645 3.5157151 -0.21637464
0001a0 af 53 82 3e b8 96 0f bf dc 16 17 3f 59 66 ce bf
       0.2545447 -0.56089354 0.59019256 -1.6124984
0001b0 8b fb 88 bf 1c 56 85 3e 8a 1f 3b bf d9 9e 4e c0
       -1.0701765 0.2604226 -0.73095 -3.2284453
0001c0 53 70 9b 3e 41 be 2f 3f f9 91 46 3e 55 12 d3 be
       0.30359134 0.6864968 0.19391622 -0.41224924
0001d0 85 67 27 bf 6b 2f cb be 35 62 1b 3e e3 7b 21 3f
       -0.65392333 -0.39684615 0.15174182 0.6307966
0001e0 ac c5 18 be 3a 03 42 bf c4 fc eb 3e 91 30 b6 3d
       -0.14919156 -0.75786173 0.46091282 0.08895982
0001f0 ed c8 74 bd 36 c2 91 3e 41 6c 7b 3e 3f 0a 65 be
       -0.05976193 0.28468484 0.24553014 -0.2236719
000200 7b ab 11 bf 34 f8 83 3f c6 39 af bf 1d 04 9a bb
       -0.56902283 1.031012 -1.3689506 -0.0047001974
000210 01 16 2c 3d 7d e2 3d be 4e 2e 0a bc 7e 50 91 bd
       0.042013172 -0.1854343 -0.008433891 -0.07095431
000220 5b a5 cf bd fd f7 b2 be cb d5 83 3e d5 95 97 be
       -0.10138961 -0.34954825 0.2574905 -0.296065
000230 1c fa 96 3f 0f e4 23 bf bd e4 71 bf d5 dc 51 3f
       1.1795077 -0.64019865 -0.9448965 0.8197759
000240 5b 67 75 3f 19 92 5b bd 2f 55 6f bd 14 1c 37 bf
       0.9586083 -0.053606126 -0.058430847 -0.7152722
000250 49 5d e1 bf d1 3d 16 3d ec 4c 14 3f 31 5d 85 be
       -1.7606593 0.036680046 0.57929873 -0.26047662
000260 28 9c c3 bf ba a6 28 3f 05 6e 13 bf b4 93 28 3f
       -1.528203 0.65879405 -0.5758975 0.6585038
000270 1f 57 ce 3e f9 7b 28 3e ef 4d b4 bf c2 cc 14 40
       0.40300843 0.16453542 -1.4086283 2.3249974
000280 1b fe 63 bf 90 b6 5c be 8c a7 ab bd b9 f3 36 bf
       -0.8905961 -0.21554017 -0.083815664 -0.7146564
000290 c6 6e c5 3e 81 6b 71 bf 22 6a b0 3e 6b e6 b7 3e
       0.38561076 -0.9430466 0.34455973 0.35917982
0002a0 10 9c 1e 3f a4 a3 ae 3e ce f3 58 bd 01 d1 38 be
       0.6195688 0.34109223 -0.052966885 -0.18048479
0002b0 e0 e1 06 3d e2 b6 57 3f 21 d8 b6 3e 09 28 1a 40
       0.032930255 0.8426343 0.35711768 2.4086936
0002c0 75 a8 13 3f b1 d4 a6 3f ef 74 e9 bd 7c 87 b4 be
       0.5767892 1.3033658 -0.113992564 -0.35259616
0002d0 12 d8 a7 3e 63 4d ce bf d5 5b 15 bc c0 1b a5 be
       0.32782036 -1.6117367 -0.009116133 -0.32247734
0002e0 aa ae 2d 3e 9f 15 ad 3f fd 38 f3 bc f6 a4 c1 3f
       0.1696116 1.3522223 -0.02969026 1.5128467
0002f0 96 27 58 3f 24 de 39 be 23 a3 23 be 3f 0c 17 3f
       0.84435403 -0.18151146 -0.159802 0.5900306
000300 fa ba d3 3e a5 8e f0 be 85 f0 18 3e 0d b0 92 be
       0.4135359 -0.4698383 0.14935501 -0.2864994
000310 fb ea 35 3f 7a 7d fb be e3 cc e3 bf 28 c0 9c 3d
       0.71061677 -0.4911917 -1.7796901 0.076538384

rcsl.backbone.model.2.weight f4 [200, 200]
000000 f8 45 05 3d 5b bb c4 bc fe 2a ee 3c 6f 31 10 bd
       0.03253743 -0.02401512 0.029073235 -0.035203394
000010 f8 ab 71 3c af 60 8d bd b0 4d 8b bd b4 47 12 bd
       0.014750473 -0.069032066 -0.06801927 -0.035712913
000020 cd d8 c1 3d b7 49 37 3d 23 4c a6 39 4f 5e 1b 3c
       0.094651796 0.044748034 0.00031718714 0.009482934
000030 58 aa 45 3d 07 c3 cd bc 68 3f f6 bc 6d 21 83 3d
       0.048258156 -0.02511741 -0.030059531 0.0640286
000040 13 d5 06 3d 5b 2f 53 3d 7e 9a 51 3d f3 07 ba bd
       0.032918047 0.051558834 0.051172726 -0.090835474
000050 83 2f 91 3c 8c 32 a6 bc e5 97 05 bd 2a 0b e2 bc
       0.01772285 -0.020287775 -0.03261556 -0.027593214
000060 01 a9 61 bd ef f5 ce bc e5 63 a8 3c 76 9b dd bd
       -0.055092815 -0.025263755 0.020555446 -0.108206674
000070 16 81 8c bd 06 6c 80 bd df 40 46 3d b3 5f ed bb
       -0.06860559 -0.06270604 0.04840171 -0.0072440743
000080 de 8e b2 3d 12 5a 2b 3d 29 f0 a4 bb a8 19 c7 bc
       0.08718656 0.041833945 -0.005033512 -0.024304226
000090 be 9a ed bc 1b e7 2f bc ec 06 0c bd d7 99 93 bb
       -0.02900445 -0.010736252 -0.03418629 -0.004504423
0000a0 58 33 8c bd 26 9b 5f bc 89 d0 66 bc bf 40 f2 3d
       -0.068457305 -0.01364783 -0.014087805 0.118287556
0000b0 da cc a5 bd 5e b1 e9 bc 31 8f 94 bd 30 39 bd 3c
       -0.08095713 -0.028526958 -0.07253874 0.023098558
0000c0 73 9d 28 bd c6 2a 92 bb 78 69 05 3d cd 75 4c ba
       -0.04116578 -0.0044606654 0.032571286 -0.0007799536
0000d0 4d ba 10 3d 09 43 43 3d 29 31 cd bd 8d 6c e4 3c
       0.03533392 0.04767135 -0.10019142 0.027883792
0000e0 c2 42 f4 bd b3 3b 9a bd 7f b6 53 bc c4 b1 ab bd
       -0.119267955 -0.07530918 -0.012921928 -0.083835155
0000f0 28 c4 0f be 5f 53 00 be 04 11 3c bc 49 80 be 3d
       -0.14039671 -0.12531804 -0.011478666 0.09301812
000100 85 c5 af bb 13 3a 88 bd b5 91 75 bc d7 fa 45 3d
       -0.0053641223 -0.06651702 -0.014988353 0.048334923
000110 0d b4 bb 3c a9 27 2c 3d 0a 03 08 bd 25 50 ec 3c
       0.022913003 0.04203001 -0.033206023 0.02884681
000120 f1 ac 81 3d f2 4b 4a 3d 09 7e c6 bc c8 a0 1e be
       0.06331814 0.049388833 -0.02423002 -0.1549102
000130 f3 62 02 be 48 dd a0 bd 7b 72 9c bd d9 89 85 3d
       -0.12733059 -0.07854706 -0.07639023 0.06520433
000140 5b 8a a5 3b 5f d8 5b 3d cb ae ea bc 65 e4 14 be
       0.0050518936 0.053673144 -0.0286478 -0.1454025
000150 22 3d f3 bc 3b f7 62 bd 5a 22 1a be bd 6b 24 3b
       -0.029692236 -0.05541156 -0.15052167 0.002508863
000160 67 26 a7 bd 5e 5f a8 3c 44 f0 50 bc 25 d5 88 3c
       -0.081616215 0.020553287 -0.012752596 0.016703198
000170 ea 86 a3 bc ad bd d4 bc c8 f3 30 bd e5 63 d5 3c
       -0.019961793 -0.02596935 -0.043201238 0.02604861
000180 cb d2 ca bd f8 94 48 bc da 65 0e bd 2e 92 a7 3c
       -0.09903487 -0.012242548 -0.034765102 0.020455446
000190 74 cf 17 3c fb 63 d0 bd c0 98 a0 bc f3 b1 68 bb
       0.009265769 -0.1017532 -0.019604087 -0.0035506457
0001a0 87 48 21 3c 27 ab d0 bd 6e 26 a6 3c 42 69 ba bd
       0.009843952 -0.10188895 0.020281997 -0.091021076
0001b0 02 ad a9 bd 31 11 47 bd a5 12 0c be 27 e8 4e bd
       -0.08284952 -0.04860038 -0.13678987 -0.050514366
0001c0 a9 eb 8c bd 66 0f c6 bd 4c 59 5c 3d 2b 14 15 3c
       -0.06880886 -0.09670906 0.053796098 0.009099047
0001d0 db e6 e2 3c 91 71 21 bd ec 9f 6c bd 4f 05 10 bd
       0.027697971 -0.039414946 -0.0577697 -0.035161313
0001e0 21 3a 89 bd 68 31 48 3c 7c 4d d7 bd f7 bd f6 ba
       -0.0670054 0.012218811 -0.10512826 -0.0018824924
0001f0 18 3b 39 bc e3 4a 1e 3d ba 10 e3 bd 69 ac 84 bc
       -0.011305593 0.038645636 -0.11087175 -0.016195493
000200 8d d8 9e bd 8d b5 51 bd 7a 22 0c bd 1c 0e 4a 3d
       -0.077561475 -0.05119853 -0.034212567 0.049329862
000210 75 62 19 bc 86 06 84 bd a4 52 41 3d 0c 4f 13 bd
       -0.009361853 -0.06446557 0.047197953 -0.035964057
000220 75 31 84 3c ff fc 62 bc 30 b7 1f bd e1 dc ee bd
       0.016136864 -0.013854264 -0.03899306 -0.11663223
000230 92 52 c3 3b 57 e8 d1 3d 29 77 46 bd 7f 8f d8 bc
       0.005960771 0.102493934 -0.048453484 -0.026435612
000240 85 58 34 bd b9 51 c9 3c 62 c7 27 3d b5 57 55 bd
       -0.04402973 0.024575101 0.04096163 -0.052085597
000250 72 a6 e4 bd 23 d3 51 3c 7b 4d a4 bd 04 e3 80 bd
       -0.111645594 0.012806687 -0.08022591 -0.062933
000260 6e 09 8c 3c 93 e7 ff 3c b0 90 e9 bd a1 11 b5 3c
       0.01709434 0.031238353 -0.1140455 0.022103133
000270 41 cc 37 bd 1c f4 b2 bd 81 9a 15 be 5b f2 d2 3c
       -0.044872526 -0.087379664 -0.1460972 0.02575033
000280 84 89 17 be a0 b6 84 bd 7b dc 8a bc 0b 11 91 bd
       -0.14798552 -0.064801455 -0.016950836 -0.07083329
000290 4d b1 ee bc 06 44 99 bd 90 7d bc 3c ed 5c eb bd
       -0.029137278 -0.074836776 0.023009092 -0.114923336
0002a0 ee 84 55 bd 32 6f 41 be fc f8 0d be 45 4f 40 bd
       -0.052128725 -0.18890074 -0.13864511 -0.046950597
0002b0 d4 18 8b 3c d9 ac 19 3d 24 0c 6c bd c7 06 4d bd
       0.016979612 0.037518356 -0.057628766 -0.05005529
0002c0 68 ce e7 bb 4a 82 a7 bd 5a 8e 8b 3d 4a dd 39 bd
       -0.007074166 -0.081791475 0.06814261 -0.045377053
0002d0 1d 9a d0 bc 68 d6 c8 bd ac 77 3a bd 23 37 03 bd
       -0.025464112 -0.0980652 -0.045524284 -0.032035004
0002e0 ba 89 cd 3b 04 47 05 be 50 13 db 3c f2 19 ee bd
       0.006272522 -0.13015372 0.026742607 -0.116260424
0002f0 91 d1 3c bb 4b 36 07 3c 93 21 49 3d 34 f8 96 3c
       -0.0028811435 0.008252691 0.049104284 0.0184289
000300 4d b7 96 3c 18 dd ed bb a9 d1 09 bc d1 85 dc 3c
       0.018397951 -0.0072590224 -0.008411803 0.026919277
000310 a9 4e 28 bd f7 41 83 bd 21 14 c4 bd c9 2c fa 3b
       -0.04109064 -0.06409066 -0.09574152 0.0076347333
000320 5d c1 0b bd 90 f0 5d 3c c3 6c 1a bd a3 28 f4 3c
       -0.034119952 0.013546124 -0.03770138 0.029804533
000330 f7 ce ad 3c f0 97 51 3d cd ed 0f bd 09 a3 c3 bc
       0.021216853 0.05117029 -0.035138894 -0.023881452
000340 a9 8d 38 3d 63 90 16 3d 0f db 35 bc bd e1 45 3d
       0.045056973 0.03675879 -0.011099591 0.048310984
000350 a2 b6 8d 3d 32 47 f6 bc c5 4a b1 3c de 14 4d 3d
       0.069196 -0.030063245 0.021642098 0.05006873
000360 e7 38 44 bc cb e9 bc 3c f9 b8 e6 3a af bd 90 3d
       -0.011976457 0.0230607 0.0017602734 0.07067429
000370 1c 0e 7a bd 24 cc 65 bd 07 4f 55 3d 4a 74 fb bc
       -0.061048612 -0.056102887 0.05207732 -0.0306951
000380 d9 f4 6e 3d e1 db 02 bd 2b fe 42 bd 70 0e 4f bc
       0.058338974 -0.031947974 -0.047605675 -0.0126377195
000390 2e f4 99 bd 26 e7 4a 3c 3e de 2a 3d d2 e0 a7 3a
       -0.07517277 0.012384212 0.041715853 0.001280809
0003a0 32 cd 4f 3d bf fb e3 bc 74 9b 36 bd 85 ef 08 bd
       0.0507328 -0.027830003 -0.044581845 -0.03343155
0003b0 36 1c cf bb 38 cd 08 3d 2f 89 85 3b 09 5e c1 bc
       -0.0063205017 0.033398837 0.0040751914 -0.02360441
0003c0 2f e1 b4 3b 38 3d 38 3d 7e 8d 61 3c 3e 35 d7 bc
       0.005520008 0.044980258 0.0137666445 -0.026270505
0003d0 6a f5 24 3d 33 2e 84 3d ce fd 0e bc a2 da 5f 3d
       0.040273108 0.06454124 -0.008727504 0.054651864
0003e0 f0 cf 05 bd 1f 2c 84 bd 03 86 50 3d 6d 24 70 bc
       -0.032669008 -0.06453728 0.050909054 -0.014657122
0003f0 56 8a f3 bc 6f d0 33 bd f3 02 24 bc 05 7e 12 3d
       -0.02972905 -0.04389995 -0.010010469 0.035764713

rcsl.backbone.model.2.bias f4 [200]
000000 7b 9c 8a bd ca 07 69 3b 7e a9 a5 3f eb 2e 2d bc
       -0.067681275 0.003555762 1.294235 -0.010570268
000010 21 5b 7c be 6b 30 b2 bd 5c 34 1f c0 56 89 db 3d
       -0.24644138 -0.08700641 -2.4875708 0.10719554
000020 8c 42 b9 3f 8b df 4a 3c 9b 1a e0 be 20 fc ac 3f
       1.4473433 0.012382398 -0.43770298 1.3514442
000030 81 35 48 be 72 2a e0 bd ad 05 04 be d9 4c ec 3e
       -0.1955166 -0.10945596 -0.1289279 0.4615238
000040 f6 a4 62 be d2 35 d8 bf 28 59 00 bd 91 f2 43 bc
       -0.2213324 -1.6891425 -0.031335026 -0.011959688
000050 2d c6 2e bd 48 bf 96 3d 1e 7b 04 c0 32 28 78 bf
       -0.042669464 0.07360703 -2.0700145 -0.96936333
000060 17 58 85 bd 69 72 97 bd f1 93 a6 bd 0e d7 a4 bd
       -0.065109424 -0.07394869 -0.08133686 -0.08048831
000070 63 f5 f6 bd c7 06 28 bd db e2 89 bd 55 11 00 c0
       -0.120585226 -0.04102209 -0.06732722 -2.0010579
000080 32 64 d3 bd 27 b7 aa 3f 83 0a 03 bd 4c ae b6 3c
       -0.10321845 1.3337144 -0.031992447 0.022299908
000090 85 74 fb bf f7 2c 2b 3f ea 91 35 3b 5c b6 00 bf
       -1.9644934 0.66865486 0.002770538 -0.5027826
0000a0 96 21 a9 3c bf e0 e4 bd 87 79 32 be 94 67 c6 bf
       0.020645898 -0.111756794 -0.17429172 -1.550036
0000b0 93 51 64 be 85 ff 98 bd 08 1c 3f bf 85 0d df bc
       -0.22296743 -0.074706115 -0.7465215 -0.027228126
0000c0 51 e6 3f 3f 1d d0 3a be 41 83 91 be 81 af b2 3e
       0.7496081 -0.18243451 -0.2842045 0.34899524
0000d0 99 ee bb be b6 9e 17 be 46 b2 d2 3e e4 b7 33 bf
       -0.36705473 -0.14806637 0.41151637 -0.7020247
0000e0 48 71 84 bb de fd 9a bf a5 2f 4a bf 31 6d 8b bd
       -0.0040418245 -1.2108724 -0.7897895 -0.06807936
0000f0 6a cb 80 3e de 56 48 be a3 1f d9 3e b9 3c c0 bf
       0.25155193 -0.19564387 0.4240695 -1.5018531
000100 38 fb 17 be 1f 27 7b bf 98 0e 61 3d 6f 5f 24 3c
       -0.14841926 -0.9810657 0.05494556 0.010032519
000110 1d 95 38 3c 22 5f a4 be 42 20 b8 3c c5 60 b9 be
       0.01126602 -0.3210383 0.02247632 -0.36206642
000120 fe cb 02 40 ae 71 d4 bc 6c e6 82 bc 77 bc 41 bd
       2.0437007 -0.025933113 -0.015979014 -0.047298875
000130 62 0d 29 40 cb bc be 3a 7a 06 e7 3c f9 c6 95 bd
       2.6414418 0.0014552114 0.02820133 -0.07313342
000140 35 a0 a0 bd c2 2d c3 bf de ba 57 3b ea 39 80 bd
       -0.07843057 -1.5248339 0.0032917778 -0.06261046
000150 b3 4a d3 be 35 f9 7a bd 55 68 86 3f b8 f6 72 bd
       -0.41267928 -0.06127282 1.050059 -0.05931732
000160 45 f9 c0 bc 8e e6 18 3d 45 0c c1 bb 0f b4 a4 be
       -0.023556361 0.03732925 -0.005891355 -0.32168624
000170 f9 9c 9c be 43 94 47 bf b4 0d e6 3c ba c8 fd 3f
       -0.3058851 -0.77960604 0.028082706 1.9826882
000180 b3 9f 32 3f 34 fd 01 c0 f3 ad c8 3c 42 86 e5 be
       0.6977493 -2.0310793 0.024497008 -0.44828993
000190 9d 08 81 3b bb 9b 29 c0 4b 65 40 3f ba 53 9e bb
       0.0039377944 -2.65013 0.7515456 -0.0048317583
0001a0 8e 26 92 bf e8 f8 a9 bd ae bc b1 3c 1c 92 bd bf
       -1.1418016 -0.08299428 0.021696415 -1.4810214
0001b0 72 fa 1f bd 75 1f 69 bf 2e 4f 66 bf 15 8b 3f 3e
       -0.039057203 -0.91063625 -0.8996457 0.187054
0001c0 d6 37 af be f8 cf 18 bc 5d b0 9d 3c 01 8d e7 be
       -0.34222287 -0.009326927 0.019249136 -0.45224765
0001d0 b5 01 44 3b 1c f1 74 bd 7b a9 11 3e bd 8a 5d bd
       0.0029908244 -0.059800252 0.14224808 -0.05408739
0001e0 ec b9 08 bd 51 04 56 bf 72 81 1e bd 6f 98 09 3c
       -0.033380434 -0.83600336 -0.038697667 0.008398159
0001f0 9c 1e 0f bd 39 55 ad bd 96 ee 90 3e 63 cf 22 bc
       -0.0349413 -0.084635206 0.28307027 -0.00993714
000200 04 18 71 be d1 26 59 bd 5a 72 22 bf 58 37 1c be
       -0.23544317 -0.053015534 -0.63455737 -0.15255487
000210 6f 17 ff bd a0 c2 6e 3c 7c e4 70 3c df 36 55 c0
       -0.124556415 0.014572769 0.014702912 -3.331474
000220 9d 52 9d 3f 09 1e 58 bd b8 cd 7b 40 20 b0 da be
       1.2290837 -0.05276302 3.934431 -0.42712498
000230 81 0b f1 bc 4d f5 7c 3c 17 7c 69 3b 15 b2 09 be
       -0.02942443 0.015439344 0.0035626942 -0.13446839
000240 5a ed 2d c0 91 24 86 be e4 2a ac bd ff 39 0a bf
       -2.7176118 -0.26199773 -0.08406618 -0.53994745
000250 48 35 9d 3f 17 d6 14 bc 1a 89 aa bd 91 98 1a 3e
       1.2281885 -0.009084246 -0.08326931 0.15097262
000260 1f c5 f8 be d8 23 e1 bd f8 c7 5f bd 38 57 40 bd
       -0.4858789 -0.10993165 -0.054634064 -0.04695818
000270 ce d6 9e 3c 1a 7d 6f be 34 26 e4 3e cd 87 35 bb
       0.019389536 -0.23387566 0.44560397 -0.0027699352
000280 79 8b b9 bb 5c 82 e7 3d c1 5f 05 bd 46 b0 0f bf
       -0.0056623784 0.11304161 -0.03256202 -0.56128347
000290 c5 18 c8 3c 6f 7e 8f bd 6a b8 18 bd 1e 77 b4 be
       0.024425874 -0.07006537 -0.037285246 -0.3524713
0002a0 c0 80 33 c0 12 d2 17 3e 31 a2 a0 3d e4 80 39 3f
       -2.8047333 0.14826229 0.078434356 0.72462296
0002b0 78 60 18 bc bf 29 22 3f db 61 9a 3c 49 38 d7 bc
       -0.009300344 0.6334495 0.01884549 -0.026271956
0002c0 da e7 a9 bd 63 8e 82 bf f5 36 7e bc 65 d4 d4 3e
       -0.08296175 -1.0199703 -0.015516032 0.41568294
0002d0 18 4d 21 40 5c 1f 5a bc 2c 30 07 bd f3 af a7 3c
       2.5203304 -0.013313141 -0.033004925 0.020469641
0002e0 49 f4 b6 3e d8 c4 b2 bd c1 fe d8 3f 85 14 34 3d
       0.3573325 -0.08728951 1.6952745 0.04396488
0002f0 3c ea c1 bf 49 7f 8b 3f 04 a2 2f be e6 5c 33 3f
       -1.5149608 1.0898219 -0.17151648 0.70063627
000300 83 58 dd be 6c 98 e9 be 50 19 15 3d 61 40 a8 bd
       -0.43231592 -0.456241 0.036401093 -0.08215404
000310 3b 62 13 40 c0 ee 4a bf 86 ce a7 bf 24 91 1e bd
       2.3028705 -0.79270554 -1.3109901 -0.038712636

rcsl.backbone.model.4.weight f4 [200, 200]
000000 49 f9 3d bd 87 c6 7c 3d 21 a2 78 3c 41 63 20 bc
       -0.046380315 0.061712768 0.015175373 -0.009789289
000010 85 31 1d bc b2 32 f2 3c 7d 1a 94 bd 7d a6 49 3d
       -0.009594326 0.029565189 -0.07231615 0.04923104
000020 73 7e 86 bd 32 e2 87 3d 27 e2 94 bd 21 14 c0 bd
       -0.06567087 0.0663494 -0.07269698 -0.09378839
000030 66 de 32 bb 6e 14 58 bd e4 32 d5 bd fc 01 32 3d
       -0.0027293204 -0.05275386 -0.10410097 0.043458924
000040 e0 24 27 bd 89 c7 7f bd a8 55 5b bd c5 f1 36 3d
       -0.04080665 -0.06244615 -0.053548485 0.044664163
000050 07 ab 87 bd 37 de 6f 3c 9d fb 94 bd 9f 4a 83 bd
       -0.06624418 0.0146403825 -0.07274554 -0.06410717
000060 67 e6 f6 bc 48 35 b5 bc 82 c7 7a 3d 9a a2 41 bd
       -0.030139161 -0.022120133 0.06122542 -0.04727421
000070 62 e8 01 bd 35 8a 16 3d 91 11 53 bd 3d c0 9e bd
       -0.03171576 0.0367529 -0.051530425 -0.0775151
000080 d2 ff d9 3c fe 32 97 bd 7c 75 28 bd af e9 ec bc
       0.026611242 -0.07382773 -0.041127667 -0.028920023
000090 d0 90 26 bd b7 8d 87 bd a8 11 b2 bc 14 50 30 3c
       -0.040665448 -0.06618827 -0.021736935 0.01076128
0000a0 6c 4a 58 bc d5 a6 6d bd 70 1b 86 3c f4 fe 24 3d
       -0.013201337 -0.05802043 0.016370505 0.040282205
0000b0 80 09 2f 3c 59 9d 8d bc 43 a5 a6 bc e3 d5 df 3c
       0.010683417 -0.017286943 -0.020342475 0.027323669
0000c0 53 99 f5 bd f3 14 8d bd c2 25 8a bd 1f ff 8b bd
       -0.11992135 -0.06888761 -0.06745483 -0.0683577
0000d0 14 b8 b3 3c 9e c1 6b 3c a1 76 b3 bc 48 cd 56 bd
       0.021938361 0.014389424 -0.021907153 -0.052441865
0000e0 72 59 12 bd 2b e7 dc bd 6f 4d 91 bd 37 9b b3 bc
       -0.035729833 -0.10786279 -0.070948474 -0.021924598
0000f0 a5 56 d2 3c 77 13 20 3d 0c cb 5a 3d b7 e5 b6 bd
       0.025676081 0.039081063 0.053416297 -0.089305334
000100 4f 51 19 bc 79 51 9f bd 87 4e 38 ba 34 2e 4a ba
       -0.009357764 -0.077792116 -0.00070307445 -0.0007712573
000110 3e 1d 49 bd 5c 0b 8b 3d a8 d4 61 bd 45 ca b1 bc
       -0.049100153 0.06789276 -0.055134445 -0.021702895
000120 c3 45 e2 bd a9 39 73 3d d5 40 36 3d 88 0d db ba
       -0.11048462 0.05938116 0.044495422 -0.0016712407
000130 1e 4f 17 3d af 7f 59 3d 18 82 8c 3d 65 45 2e 3d
       0.036940686 0.053100284 0.06860751 0.04254665
000140 3a b2 2b bd ac 88 9d bb ce 9f fb bc 9e 84 64 3d
       -0.041918017 -0.0048075523 -0.03071585 0.055790536
000150 ce ca 26 bc 91 78 6a bc d0 70 ba 3c 4c 4f 89 3d
       -0.010180188 -0.014310972 0.022758871 0.06704578
000160 42 bc 83 3b 34 62 7e 3b 57 90 9f bd 34 95 d7 bc
       0.004020245 0.0038815858 -0.077912025 -0.026316263
000170 e3 b1 33 3d f6 74 5f bd 6b 00 e2 3c 3c e1 86 bd
       0.043870818 -0.054554902 0.02758809 -0.06585929
000180 58 c5 ec bc 9f f8 c6 bd 1d a0 7d 3d e8 b8 68 bd
       -0.028902695 -0.097153895 0.061920274 -0.056816965
000190 55 9f dd 3c c9 11 de bc a4 db 00 3d 6f ff af ba
       0.027053514 -0.02710809 0.031459466 -0.0013427566
0001a0 e7 99 0c bd 0a 7e bb 3c 64 1a 89 3d 44 e5 07 bd
       -0.03432646 0.022887249 0.06694487 -0.03317763
0001b0 af 08 d2 bb 0d c6 35 bc 2b d4 a4 bd 57 07 8a bd
       -0.0064097266 -0.011094582 -0.0804828 -0.06739681
0001c0 c5 51 c5 bc f4 12 4b bd 08 fa 44 bd f3 a3 82 bd
       -0.024086842 -0.049578622 -0.04809001 -0.06378927
0001d0 0a dd 0f bd 2b 4a 4b bd b2 22 af bd 26 e4 bd 3c
       -0.03512291 -0.04963128 -0.085515395 0.023180079
0001e0 f3 74 d5 3c 8f 85 7b bd 05 96 6d bd a9 6f 78 bc
       0.026056742 -0.06140667 -0.058004398 -0.015163341
0001f0 99 44 17 bd 20 1d a0 3c f4 ba 15 3d 04 0d 3e 3c
       -0.036930654 0.019545138 0.036555246 0.011599783
000200 9b ac 83 bd 47 94 94 bd 13 3e e3 bd 09 f8 a4 bd
       -0.06429406 -0.07254844 -0.11095824 -0.080551215
000210 a9 c3 98 bd 23 46 64 3b 00 b9 5c 3d 33 14 9a bc
       -0.07459194 0.0034831844 0.053887367 -0.01880846
000220 8c 5a 78 3c fa 33 5c 3d 0c 36 e1 bc b2 16 50 3d
       0.015158307 0.053760506 -0.027491592 0.050802894
000230 16 c5 cf 3c b7 bd 52 3d 4c 3c 8c bb fa 53 39 3d
       0.025362533 0.051450457 -0.004279649 0.045246102
000240 71 a5 9b bd 5c 2b 7c bd 98 8d 01 bd 13 22 4d bd
       -0.07599915 -0.06156479 -0.031629175 -0.050081324
000250 74 94 07 bd a7 ae cf bb 7f 6f 76 3d 03 d5 67 3d
       -0.03310056 -0.006337959 0.060164925 0.05659963
000260 4f e9 29 3c 12 dc 8b 3b 3e cc 3e bd fd b9 aa ba
       0.0103705665 0.004268178 -0.0465815 -0.00130254
000270 4d b6 87 bd b1 b8 44 3d 9b 76 7e bd 0c 05 42 bd
       -0.06626568 0.048027698 -0.06212483 -0.047368094
000280 58 e7 8b bd e2 68 4a bd aa 56 1a bd bd 24 81 bc
       -0.06831235 -0.04941643 -0.037680306 -0.015764588
000290 9c 61 94 3c d5 c1 8c bd 48 48 06 bd 81 1d 95 bd
       0.01811295 -0.06872908 -0.032783777 -0.07281018
0002a0 89 13 e7 bd 3b 81 20 bc 57 92 ea bb 79 47 a1 bd
       -0.11283023 -0.009796436 -0.0071585584 -0.078749605
0002b0 b7 9d 15 bb a1 61 08 38 db cd d1 bb 76 55 11 3d
       -0.00228296 3.251585e-05 -0.0064027137 0.035481893
0002c0 12 61 80 bc d5 ef 96 bd 8f 1b f9 3c e0 76 c0 bc
       -0.015671287 -0.07369963 0.030408649 -0.023494184
0002d0 a8 7c 2a bd b8 70 23 bc 52 a7 4b bd dc f9 64 bd
       -0.041622788 -0.009975605 -0.049720116 -0.055902347
0002e0 b9 31 87 bd 99 bf 43 3c b4 6c 60 bc da db 61 3d
       -0.06601281 0.011947536 -0.013697792 0.055141307
0002f0 2c 3c aa bc 87 f8 0e bd bb a6 b2 bc 37 b7 a5 3c
       -0.020780645 -0.034904983 -0.021808019 0.020228965
000300 d5 54 15 3d 41 2c 39 bc f4 78 80 bd ea b1 51 bd
       0.036457855 -0.011302055 -0.0627307 -0.051195063
000310 55 50 01 3d 41 72 f8 bc 2b e8 77 bd 68 84 0b bd
       0.03157075 -0.030327918 -0.060524147 -0.03406182
000320 3c a6 8b bd 4b ac 82 3d 49 45 e1 be 6a a3 83 3d
       -0.06818816 0.063805185 -0.43998173 0.06427653
000330 62 9a 9f bf 56 39 b0 3c dc 5f 80 bf 62 9e 20 3e
       -1.2468989 0.021511715 -1.0029254 0.15685418
000340 e2 68 31 3e f8 f0 29 bd 1d 05 60 3d 12 b1 9e bd
       0.17325166 -0.04148957 0.054692376 -0.07748617
000350 60 d1 75 3e f7 11 07 be d5 54 2f 3e 59 df 24 3e
       0.24005651 -0.13190447 0.17122205 0.16100825
000360 dc 35 a9 3e 10 c0 5f 3e f0 11 e1 3c a5 96 46 3d
       0.33048904 0.2185061 0.027474374 0.04848351
000370 05 e0 f1 3c 42 af 85 bc f6 a1 21 3e 7a 02 40 3e
       0.029525766 -0.016318921 0.1578444 0.18750945
000380 d0 39 51 bc 7c 52 c2 bc 9a 75 0c bd 67 1c 9f bc
       -0.012770131 -0.023720972 -0.03429184 -0.019422723
000390 7f 56 77 3d 22 67 c2 3b da 63 2b bd 34 33 da 3c
       0.060385223 0.0059327045 -0.041843273 0.026635744
0003a0 a5 e1 27 3d fa 14 7d bc 84 c3 2a be 5d 76 e9 bc
       0.040986676 -0.015446896 -0.16676146 -0.028498823
0003b0 36 79 0b 3f ae 79 db 3d f3 2a 22 3d a4 72 14 bf
       0.5448183 0.10716568 0.03959174 -0.5798743
0003c0 d6 f5 ae bd c3 e0 8f 3d 28 6a b6 3e 25 04 cb 3e
       -0.08542983 0.07025292 0.35627866 0.396516
0003d0 67 7b 85 3e 91 e2 2f 3d 6c ff 45 bf 7f 1d 5b bd
       0.2607071 0.04294068 -0.7734287 -0.053494927
0003e0 67 d1 d1 be 4c 97 97 bd 8f ba 6c bd e1 ed aa be
       -0.40980074 -0.074019045 -0.057795104 -0.33384612
0003f0 9a 50 c7 3d 0f c6 ac bd 2a 9c a6 3e 3d 7e 1f be
       0.097321704 -0.08436214 0.3254102 -0.155755

rcsl.backbone.model.4.bias f4 [200]
000000 64 79 ed bd 72 20 a5 bf a6 8b 7a bf 55 22 81 bf
       -0.11595419 -1.2900527 -0.97869337 -1.0088602
000010 88 fd 0c bc 31 a6 b9 be 66 d6 76 bd 9a c4 1a bf
       -0.008605368 -0.36259606 -0.06026306 -0.6045624
000020 3f 7f 46 3f ad 75 bd 3f bb bf d8 bd 40 1d 4f bd
       0.7753791 1.4801537 -0.10583445 -0.050565004
000030 93 9f 08 bf 52 d7 57 3e 31 b7 aa bf e0 60 bc bd
       -0.5336849 0.21078232 -1.3337156 -0.09198165
000040 f1 54 15 bf 79 4a 24 bf 46 3e 71 3f 88 18 18 bd
       -0.58332735 -0.64176136 0.94235647 -0.03713277
000050 a2 de 02 bc 4f 9e a3 be 25 e7 58 bd 27 77 7c 3f
       -0.00798765 -0.31956717 -0.05295481 0.9861931
000060 ce 8f ad bf d8 7b 22 be 09 51 01 be 4e 41 75 bf
       -1.3559511 -0.15867555 -0.12628569 -0.9580277
000070 23 6a 31 c0 a0 88 8d 3e e0 20 1a 3f e5 8e 17 bf
       -2.772103 0.276433 0.60206413 -0.59202415
000080 43 0b f9 bf e7 dd fb bd 0f fc 96 3f 04 3c ee bd
       -1.9456562 -0.12298184 1.1795672 -0.11632541
000090 af 3f 1f 3d 8d 7b 5c 3c db e5 97 3f fd 80 28 bd
       0.038879093 0.013457191 1.1867021 -0.041138638
0000a0 00 b6 13 c0 33 30 4b bd e2 5a 85 bd 4f ec 28 bf
       -2.3079834 -0.049606513 -0.06511475 -0.6598558
0000b0 52 b3 60 be 82 e7 4a 40 a9 bb e0 bc c8 3e d7 bd
       -0.21943405 3.17038 -0.027433233 -0.105100214
0000c0 b3 23 c2 bc a1 89 91 bd 09 2a 1b 40 8b ee 83 3f
       -0.023698663 -0.07106329 2.4244406 1.0307173
0000d0 76 26 ee be 4f f8 3e bf 76 5a b5 bd 4a d4 5e 40
       -0.46513718 -0.7459764 -0.08855145 3.481707
0000e0 15 83 0c bf 97 79 26 3e ef 1d 1a 3f d8 17 87 bf
       -0.54887515 0.1625732 0.60201925 -1.0554152
0000f0 0d 22 1f be 1b c4 cd bd c7 6c 0e bd f3 63 34 ba
       -0.15540333 -0.1004717 -0.034771707 -0.00068813487
000100 66 98 19 be 66 2d 11 40 4a 68 9a bf 4a 5f 89 bd
       -0.14999542 2.268396 -1.2063076 -0.06707628
000110 9c 13 6d bf dc 55 29 be 80 67 97 3e 23 78 52 bd
       -0.92608047 -0.16536659 0.29571152 -0.051384103
000120 bb 13 53 3e e7 e7 cc 3c 1e f5 af bd 06 31 5a bd
       0.20612995 0.025012923 -0.08591674 -0.05326941
000130 b3 61 20 bf 61 b5 fb bf 95 6e 80 bd 0f 4b 6b bd
       -0.6264908 -1.9664727 -0.06271092 -0.05744463
000140 2f b9 21 c0 f9 40 f2 bc 29 fe 7d bd b9 46 30 40
       -2.5269277 -0.029571997 -0.062009964 2.7543166
000150 19 eb 4e 3e c0 32 28 3e 48 b7 ee bd 55 0d 51 bf
       0.2020687 0.1642561 -0.11656052 -0.8166097
000160 5d 79 d0 bf b3 90 f3 bd 87 fd f0 be e0 49 20 3c
       -1.6287037 -0.118928336 -0.47068426 0.009783238
000170 fb 57 cb 3f db 7b 15 40 a9 8c 05 40 5f f5 cd bd
       1.5886225 2.3356845 2.0867102 -0.100565664
000180 01 fb 90 bf bd 33 a2 3f 8a 64 e2 be 43 08 54 40
       -1.13266 1.2672039 -0.4421733 3.3130043
000190 23 7f ef 3f 9c d6 f9 3f 67 99 85 bd 43 97 bb 3f
       1.8710674 1.9518619 -0.065234 1.4655536
0001a0 01 ed e4 3f 03 26 85 bd 11 78 39 be 0a 40 c0 be
       1.7884828 -0.06501391 -0.18112208 -0.37548858
0001b0 51 ae 40 bd 05 68 91 bd de 79 6d bd 7f 36 2b bf
       -0.04704124 -0.07099918 -0.05797755 -0.6688003
0001c0 75 7a bc bf 98 51 cf bd c1 49 ad 3d 38 d1 14 40
       -1.4724871 -0.10122985 0.08461333 2.3252697
0001d0 e2 71 5b 3f fb 74 ff bd e1 d6 1a bf 99 b0 6a bf
       0.85720646 -0.12473484 -0.6048413 -0.91675717
0001e0 b6 72 b5 bc f2 55 82 bf 85 e8 29 bd f7 58 54 be
       -0.022149425 -1.0182478 -0.041481514 -0.20737062
0001f0 44 5c 10 c0 29 a8 49 bf d8 7f 98 bc a3 c9 43 3f
       -2.2556314 -0.7877222 -0.018615648 0.7647955
000200 a1 94 a0 3f e4 f7 c4 bf 3b 2d 61 bf 6b 90 7c be
       1.2545358 -1.538815 -0.8795964 -0.24664466
000210 7f 70 21 bb 4c 3a a5 3c f3 c6 7f 3e bd 13 ba be
       -0.0024633703 0.0201694 0.24978237 -0.36343184
000220 d3 0b 0e be d8 c9 d3 bf ae 3d 16 3f 3b 9e f7 3f
       -0.13871698 -1.6545973 0.58687866 1.9345163
000230 5d 71 44 3e d7 37 b4 bd 6f 6b 13 be d8 5c 0b 3c
       0.1918387 -0.08799713 -0.14396451 0.008506022
000240 06 90 a7 3b 11 cb 88 bf d6 88 6b 3f 8b 6b c0 ba
       0.0051136045 -1.0686971 0.9200567 -0.0014680488
000250 39 4e 17 40 f1 e4 e5 3e 87 65 a1 3d 96 6c 72 3f
       2.3641493 0.4490123 0.07880693 0.9469694
000260 23 57 31 c0 27 54 a9 bb 63 c4 da be 0d 2c ab bf
       -2.7709434 -0.0051675024 -0.42727956 -1.3372818
000270 62 09 2d bd e7 1e 1b 3d bd 3f 9c 3f 16 77 bb bf
       -0.042245276 0.037871268 1.2206951 -1.4645717
000280 4d 5c dc 3e 60 3d 0f bf ce 9e 9c be cb 5c 3d bd
       0.4303917 -0.55953026 -0.30589908 -0.046231072
000290 e1 8f d2 bd e4 19 ed 3e 93 25 8b 3f 51 75 b0 bd
       -0.10281349 0.46308815 1.0870842 -0.08616126
0002a0 be db 76 bf 65 c4 4f bd fd be c1 bd 2f 69 cd 3e
       -0.9642905 -0.050724406 -0.09460256 0.4011931
0002b0 f3 f0 ff be cf 2e 0d bd 56 85 00 bf e5 65 06 40
       -0.49988517 -0.03446847 -0.50203454 2.0999691
0002c0 38 80 5c 40 16 af b6 bd 3d df dc bf 00 33 3d bf
       3.4453259 -0.08920114 -1.7255627 -0.73905945
0002d0 79 84 4a bc d2 54 98 be 31 91 df 3e fc 5d bd 3c
       -0.0123606855 -0.29752213 0.4366546 0.023116104
0002e0 5b 19 8c 3f 47 c0 a5 3f ac 45 6b 3f e5 4e 6c 3f
       1.0945238 1.2949303 0.91903186 0.92307884
0002f0 57 06 29 40 2a e7 4a bd ac 03 48 bd 07 65 88 bd
       2.641012 -0.04953686 -0.048831627 -0.066598944
000300 55 d0 09 40 4a 5c 40 bd c8 fe 18 be ba 26 2a 3f
       2.1533406 -0.046963014 -0.14940941 0.6646534
000310 8c 8b ad 3e 8d d0 eb 3e 77 61 92 bd 83 61 bd bd
       0.33895528 0.4605755 -0.07147496 -0.092471145

rcsl.backbone.model.6.weight f4 [200, 200]
000000 9f 3d a2 bd 9d 72 50 3e e2 a5 14 be 0e c6 3f 3d
       -0.079219095 0.20356221 -0.14516404 0.04681974
000010 b8 70 ce 3d 36 2d a3 be 35 26 54 bd 0a 27 97 3d
       0.10080093 -0.3187043 -0.05179425 0.07380493
000020 65 94 89 bd 5d 51 68 be 0f f8 1a bd 95 d7 76 3c
       -0.06717757 -0.22687288 -0.037834223 0.015066047
000030 f2 48 0a 3e ac c9 aa bd fb 81 95 bc 3c eb 30 bd
       0.13504389 -0.08339247 -0.018250456 -0.043193087
000040 03 50 11 bf 25 50 4a bd 46 e1 58 bd 87 a9 23 3d
       -0.56762713 -0.049392838 -0.052949212 0.039956596
000050 29 a7 dd bb 96 fc ac 3d 86 23 37 3d 23 a5 30 be
       -0.006764312 0.084466144 0.044711612 -0.17250495
000060 40 fc 1a be 0f dd 52 3d 88 ee fa bc 79 b0 2a be
       -0.15135288 0.05148035 -0.030631319 -0.16668881
000070 4c df e9 be 09 0b 21 be 7e ea ba bd 82 aa 03 be
       -0.45678174 -0.15726866 -0.09126757 -0.12858012
000080 fc 73 60 be 65 91 2f bc 57 ee 53 3d ca d1 06 3c
       -0.21919245 -0.010715817 0.05174097 0.008228729
000090 2e 24 51 bd bb 3d 42 3c 9f 0b ae bd a1 8f 30 bb
       -0.051059894 0.011855538 -0.0849831 -0.0026941078
0000a0 a3 65 9c 3b 75 66 39 3d 9c cd 56 bd 6f 7a e0 be
       0.004772858 0.045263726 -0.052442178 -0.4384341
0000b0 3d 3e e2 3d f8 df 92 3d db b9 c4 3c 93 56 e4 3c
       0.11047027 0.07171625 0.024014404 0.027873313
0000c0 60 18 5f bd ca 2d e6 3c 45 6b 05 be d1 50 3d be
       -0.054466605 0.028098006 -0.13029201 -0.1848786
0000d0 3e b9 0d 3d 62 84 ea bd 6a 74 f9 3d 58 35 71 3d
       0.03460049 -0.11451031 0.12180407 0.058888763
0000e0 f9 99 3c bf 2c 4f 8d 3e 8a cc 2d bd 48 2c ce 3d
       -0.73672444 0.27599466 -0.04243139 0.1006704
0000f0 61 c7 93 bd bf 91 43 bd 47 96 b2 bc ae 6f f4 bc
       -0.07215763 -0.047746416 -0.021800173 -0.02983841
000100 54 e0 29 3a 20 37 e5 3d 57 c1 fd be a9 12 83 3e
       0.0006480266 0.11192155 -0.4956157 0.25600174
000110 fa 98 ca 3c 52 51 eb bb 34 7b 43 be dd ee 1c 3a
       0.024731148 -0.007181325 -0.19089967 0.0005986521
000120 c6 cb f1 3d 9c 42 3d bd 44 d2 a2 bd 74 de a2 3d
       0.11806445 -0.0462061 -0.07950261 0.07952586
000130 05 b7 80 bd be 22 bb 3d 8d 48 c5 bd b8 e1 dd bd
       -0.06284908 0.09137486 -0.096329786 -0.10834068
000140 f5 3d 9f 3d 13 03 51 3e 9e de 8a be 7b 16 1a 3e
       0.07775489 0.20411329 -0.27122968 0.15047638
000150 d5 5e 86 3e 49 23 ce bd 3c c9 16 3d 59 bb ec 3d
       0.26244226 -0.10065324 0.036813006 0.11559171
000160 4b 68 cd 3d cb 24 0e be 81 df 63 3d eb c5 9f bc
       0.10029658 -0.13881223 0.05563307 -0.019503554
000170 8c cb 71 3d 2f 28 16 3e e5 5d 9a 3d 95 9f fa 3c
       0.059032008 0.14663766 0.0753744 0.030593673
000180 c3 48 a6 3d 93 6b f7 3d eb f3 a1 bd a0 0b 06 3e
       0.08119347 0.12081065 -0.07907852 0.13090372
000190 0d fd 86 be e1 e4 c2 bc fd 5c 11 bc a8 2e 06 be
       -0.26364937 -0.023790779 -0.008872268 -0.13103735
0001a0 26 71 d5 3c 50 4b 35 bb 78 5f 8c 3d 23 8c e4 bd
       0.02605493 -0.0027663298 0.06854147 -0.111595415
0001b0 e3 4a 6e 3c fb f4 35 3d d5 76 a4 3d c8 42 31 bf
       0.014544222 0.044423085 0.08030478 -0.69242525
0001c0 25 d0 0e bd 35 68 24 bd d8 d2 16 3d ac 92 6f 3d
       -0.03486647 -0.040138442 0.03682217 0.058489487
0001d0 46 2b 56 bf 54 a2 d1 bd d8 a0 86 bd 99 42 4d bd
       -0.8365978 -0.1023604 -0.06573647 -0.05011234
0001e0 34 6a 6b 3d 5e aa 9b be 82 8d 05 bc 85 65 38 3d
       0.05747433 -0.30403417 -0.008151414 0.04501869
0001f0 76 47 a7 bc 06 01 b1 3d 91 75 ef 3b 37 d3 05 be
       -0.020419817 0.08642773 0.007307716 -0.13068853
000200 2b 8e f2 3d 23 cd 4b 3d 4f c7 57 bd f0 8e a2 be
       0.11843523 0.04975618 -0.05268031 -0.31749678
000210 59 cd 50 bd 8d 70 3d bd 86 0e 4f 3e e5 2d e5 3d
       -0.050977085 -0.046249915 0.20220384 0.11190394
000220 f4 6d 3b be fb 83 1c 3e 38 dc ce 3d 11 9d 6b 3e
       -0.18303663 0.15284722 0.10100597 0.23009135
000230 b5 ba 57 bd 51 e4 26 bd eb d8 90 bc 18 c2 3b 3d
       -0.052668292 -0.040745083 -0.01768156 0.0458394
000240 a6 45 79 bc 8d 01 91 3d ab c8 ef bd ed 4a 00 bd
       -0.015214359 0.07080374 -0.11708196 -0.031321455
000250 1a a9 ef 3d 74 2e 9c bd 02 a0 17 be 7f 08 1d 3e
       0.117021754 -0.07626048 -0.14807132 0.15335272
000260 34 30 1c be fc fc 82 bd 27 06 4c bd 7e 29 94 3c
       -0.15252763 -0.06395909 -0.049810555 0.018086191
000270 cf 3e 08 be 21 b2 bc 3d ec 1c 78 3e 85 47 2a 3d
       -0.1330521 0.09213663 0.24229783 0.041572113
000280 c2 e3 3c 3e a5 71 a2 bd 9d f0 68 bd 04 d5 40 3d
       0.18446258 -0.07931832 -0.05687009 0.047078148
000290 dd 8f d8 3b 57 74 f1 bd 77 a4 9e bd cc 53 1b 3d
       0.0066089467 -0.11789768 -0.07746213 0.03792171
0002a0 2b b8 72 be 11 e5 7d bc e0 ce aa bd 1a 8e 8e be
       -0.23703067 -0.015496508 -0.083402395 -0.2784279
0002b0 8e 5c 75 bd 31 19 41 bc 9e 32 92 bd cd 66 84 be
       -0.05990272 -0.011785791 -0.07138561 -0.2585968
0002c0 d4 c7 ab bd 3a d0 82 3d 48 00 cb bc 43 8e f7 3d
       -0.083877236 0.06387372 -0.024780408 0.12087681
0002d0 70 9f 8d 3d 94 73 dd bc 97 aa b9 bc d1 88 30 bc
       0.06915176 -0.027032651 -0.022664351 -0.010774807
0002e0 30 77 b4 bd 44 d6 f3 bd b6 31 ad bc 30 9b ff 3a
       -0.08811796 -0.11906102 -0.021141868 0.0019501206
0002f0 25 c0 dd 3d d4 c2 72 be ab 1d d3 3c 19 1d b5 bd
       0.10827664 -0.23707134 0.025770983 -0.088434406
000300 c1 83 c6 bd ca e9 05 bd 69 93 b1 bd 86 b9 d2 be
       -0.09693099 -0.03269366 -0.086706944 -0.41157168
000310 e3 08 ae bd 28 e6 04 be 4d 60 0f bb 60 cf 90 bd
       -0.08497789 -0.12978423 -0.0021877468 -0.07070804
000320 0c 37 83 bd 6d 8a 37 be 44 95 aa be 4d 6c 9b 3e
       -0.06406984 -0.17923899 -0.33317006 0.30356064
000330 27 5c b9 3d f7 5c 2b 3e 63 3f 51 bb 18 13 32 3e
       0.0905078 0.16734682 -0.003192865 0.17390096
000340 7e 37 e5 3d 46 79 8c 3e 46 dc d9 3d ab f1 16 3c
       0.11192225 0.27436274 0.10637717 0.009212892
000350 b8 66 72 be de 02 82 bb ce 7e 57 bd 42 68 29 3d
       -0.23671997 -0.003967627 -0.052611165 0.041359194
000360 4d c5 ad bd 62 40 ad 3c 1d 6d 73 be 54 74 81 bd
       -0.08484898 0.021148864 -0.23772092 -0.06321016
000370 72 7d 31 bd c0 8e 8e 3e 83 9a f1 3b cd c1 8e be
       -0.043332525 0.27843285 0.0073731556 -0.27882233
000380 22 43 68 3e c3 25 07 bd ef 05 03 3e c2 4e d4 bd
       0.22681859 -0.032994997 0.12795232 -0.10366584
000390 10 45 82 be 8e 1c 87 3e fb dc e6 3d b3 ba d3 bc
       -0.25443316 0.26388973 0.112726174 -0.025845861
0003a0 59 bb ad bd 5b 5b 40 bd f2 61 2d bd dd 23 b9 bd
       -0.08482999 -0.046962123 -0.042329736 -0.090400435
0003b0 1f 58 39 3c 44 42 6d bc c3 23 9c bd ba 97 20 bc
       0.011312514 -0.014481131 -0.076240085 -0.009801799
0003c0 57 b8 9e 3d 17 b5 ee bc 1b 18 e3 3c f4 d9 96 be
       0.07750004 -0.029139085 0.027721455 -0.2946316
0003d0 f4 60 1b bf 65 d8 d5 be dc 91 a7 3c 62 98 54 bd
       -0.60694814 -0.41766658 0.020455293 -0.051903136
0003e0 c8 d7 03 bd 57 9e b2 3b 08 32 ca bd 96 cd 8c 3d
       -0.032188207 0.0054510045 -0.09872824 0.0687515
0003f0 fe 71 b6 bd 61 3b f7 3d f8 e8 bd bc 0b 05 3d 3e
       -0.08908461 0.120718725 -0.023182377 0.18458955

rcsl.backbone.model.6.bias f4 [200]
000000 b8 09 2f 3f d6 0d 88 3f 3c 12 69 3f a0 7f 03 40
       0.68374205 1.0629222 0.9104345 2.0546646
000010 c5 fe 65 bd 84 28 f8 bc b7 3e 1b 3e 9b cd ec bf
       -0.05615117 -0.030292757 0.15160643 -1.8500246
000020 a8 9b 2d 3f 34 f4 bb bf f7 6a 1c bd 2d ef b8 3f
       0.6781564 -1.46839 -0.038187947 1.4447991
000030 28 36 19 be 9e c9 09 bf 2a 17 e8 3e 8e 03 2b 3f
       -0.14962065 -0.5382327 0.45330173 0.668023
000040 6e a7 64 3f 06 24 b4 be 7e d8 ee bd 2a d9 b9 bd
       0.8931798 -0.35183734 -0.11662386 -0.09074624
000050 b3 93 29 3f 67 0d a0 bd 92 1f 2c c0 e8 2f 60 bf
       0.66240996 -0.07815056 -2.689427 -0.875731
000060 11 c4 90 3e f9 64 d5 bd a0 04 dd bf 20 fb 54 3f
       0.28274587 -0.1041965 -1.7267036 0.83195686
000070 64 1c 95 be 3e 60 1b 3f ab 51 9e 3d e4 ff bd 3f
       -0.29123223 0.6069373 0.07730421 1.4843717
000080 90 14 29 be 0c e7 0a 40 74 ab 15 be 3b f1 10 be
       -0.1651175 2.170352 -0.14616185 -0.14154522
000090 6a b4 32 bf 17 88 9c 3e 75 e0 e3 3e 70 98 54 be
       -0.6980654 0.30572578 0.44507185 -0.20761275
0000a0 c0 87 a4 3f f5 7a 83 3d ae 16 76 3f c5 d1 09 40
       1.2853928 0.064199366 0.96128356 2.1534283
0000b0 a8 59 9b bf e7 df 75 c0 e7 e2 04 be 49 bc 7b be
       -1.2136736 -3.841791 -0.12977181 -0.24583544
0000c0 d7 dc 00 bd 0c 7b d1 bf a8 2e 56 3e c5 f4 43 3f
       -0.03146061 -1.6365676 0.20916235 0.76545364
0000d0 9b c4 a9 bf 2a 3f c7 3f 80 ab 15 be ea 36 a6 bd
       -1.3263124 1.5566151 -0.14616203 -0.08115943
0000e0 7c 75 b8 3e 9f 7b 0b 3f 59 d1 60 3f 02 63 a8 bd
       0.36027133 0.54485506 0.8781944 -0.08222009
0000f0 e3 b4 6a 3f 3f 0d 51 bd b1 f9 64 3f a4 54 fa 3f
       0.9168226 -0.051038023 0.894435 1.955708
000100 13 b3 a4 bd c0 e5 f0 bd 75 16 6d 3c af ae fa 3e
       -0.08041968 -0.11762571 0.014470686 0.48961398
000110 5b 4e cf 3f 02 66 08 c0 d4 6d d5 bd 4b 18 ff bc
       1.6195787 -2.131226 -0.10421339 -0.031139513
000120 9b 74 02 40 ff 38 2b 3f d9 6a c9 3f f9 f9 73 bf
       2.038367 0.66883844 1.5735732 -0.95303303
000130 b0 9d c5 bd 31 6a 9a bd 7a 66 c8 bd 35 1e 03 be
       -0.09649217 -0.07539786 -0.09785171 -0.12804492
000140 a9 23 40 3f 7d a8 9c bd d1 21 9e 3f 5a 57 ef 3e
       0.75054413 -0.07649324 1.235407 0.4674633
000150 92 41 af 3f 37 4a e9 be 0e 63 8f 3f 26 05 6e 3f
       1.3691885 -0.45564434 1.1202104 0.92976606
000160 80 00 aa 3f 68 c1 15 bf ca 95 1f be 87 62 7a be
       1.3281403 -0.5849824 -0.15584484 -0.24451648
000170 0f 99 dd 3e 02 4b 12 bd ac 40 91 be 22 f5 1a be
       0.43280837 -0.035716064 -0.28369653 -0.15132573
000180 c3 d6 b6 3f ab 4a 11 be a5 73 c1 3e 17 bc 9e 3f
       1.428429 -0.1418864 0.37783542 1.240115
000190 a4 21 fd 3e e9 f4 5f bf 20 dd ea 3f 76 1d b5 bf
       0.49439728 -0.8748308 1.8348732 -1.4149616
0001a0 94 5b ac 3d 5c 9e c5 3e 84 41 59 3f e4 5c 35 bf
       0.08415905 0.3859738 0.84865594 -0.70844865
0001b0 44 a1 c4 be 1d bb 4a be 90 d1 8e 3e 28 34 0f 3f
       -0.38404286 -0.1979794 0.27894258 0.5593896
0001c0 7f 6c 53 3f 7d 6c 0a bf 71 da b0 3e a0 aa a5 be
       0.82587427 -0.5407179 0.34541658 -0.3235674
0001d0 e6 77 c4 3b 14 8b 4e 3f b3 a2 50 3f 96 86 16 3f
       0.0059957383 0.80680966 0.8149826 0.5879911
0001e0 a0 00 57 be cd a1 36 bf 84 fe cd bd d3 84 39 bf
       -0.20996332 -0.7134064 -0.10058311 -0.724683
0001f0 e7 f2 5b 3d 70 37 70 bf 91 56 f5 be 84 e4 e4 3f
       0.053698447 -0.9383459 -0.47917607 1.7882237
000200 24 f4 3b bf df 5e 9b 3c 7f f8 c4 3f 97 25 22 be
       -0.73419404 0.018966137 1.5388335 -0.15834652
000210 c0 8e b6 bd bd 53 e0 bf a8 a9 5a c0 db 4c 0a 3f
       -0.08913946 -1.7525555 -3.416605 0.5402352
000220 81 f4 f5 3e b9 6d 0d c0 46 40 01 bf 4a 4e c1 be
       0.48038104 -2.209822 -0.504887 -0.37755042
000230 ef d3 63 3f 71 5c 58 3f a0 88 c3 bf b5 59 7f bd
       0.8899526 0.84516054 -1.527607 -0.06234141
000240 33 d9 ed 3e ba 08 08 bf 2b a7 50 bf 7d 34 2a be
       0.46454772 -0.53138316 -0.8150508 -0.16621585
000250 6a 84 87 bd b3 d9 10 bf 59 be 1d be 37 05 1b bf
       -0.06617053 -0.5658218 -0.15404643 -0.6055483
000260 6c ac f1 bd 73 3f 52 40 5c ca 2f 3f c4 73 a2 3f
       -0.11800465 3.2851226 0.6866815 1.2691579
000270 11 f9 f1 bc 5b 38 14 be c9 d3 1a bf c4 fc 4f bf
       -0.02953771 -0.14474623 -0.6047941 -0.81245065
000280 eb bd 05 3f 3a 74 f1 bd 4f 39 39 3f a2 72 2b 3f
       0.52242917 -0.117897466 0.7235307 0.6697179
000290 24 cb 0a c0 3f 18 52 3f 92 eb b9 bf 3f 5b 5d bd
       -2.1686487 0.82068247 -1.4525015 -0.054042097
0002a0 47 b8 47 be ba c9 55 3f f0 45 39 3f 83 e4 23 bd
       -0.1950389 0.83510935 0.7237234 -0.040012848
0002b0 ea 9f b8 3f 12 db 13 be 2f 6c a7 3f 6e 2b 53 3f
       1.4423802 -0.14439037 1.307989 0.82488143
0002c0 0a 1a 00 40 10 e2 0a 3f 98 fc 75 3f 66 61 fa bd
       2.0015893 0.54251194 0.9608855 -0.122256085
0002d0 25 c3 9d 3f 79 5a d5 bd 9e d0 38 bf 35 15 4a 3f
       1.2325178 -0.10417647 -0.72193325 0.7893861
0002e0 0a 21 46 3e 35 9f 60 bf 8f 18 b0 3e ea dd 02 3f
       0.19348541 -0.8774293 0.34393737 0.51119864
0002f0 3d d4 1a bf 79 5f 7b 3f 2d 3f 09 be 92 5a 0f bf
       -0.604801 0.98192555 -0.13403006 -0.55997574
000300 2f 1e ea 3e 27 4d 0b c0 9b c5 59 3f c8 04 40 bd
       0.45726153 -2.176584 0.85067147 -0.04687956
000310 91 82 b1 3f 21 7e a2 3f 43 ab 2c c0 57 45 0a 3e
       1.3867971 1.2694741 -2.697953 0.13503014
