backup/linearq_newenv/rcsl_0.75expert/timestamp_23-0926-112406&64-[16]/checkpoint/policy.pth (torch, 1945 bytes, 3 tensors)

rcsl.backbone.model.0.weight f4 [16, 2]
000000 0b 72 18 3b e6 1c c5 3e b1 fc 14 bf 1d 38 05 bf
       0.0023261334 0.3849861 -0.58198076 -0.5203875
000010 a4 da ae be 52 88 1e 3e c5 73 40 3d 7e 94 0d 3f
       -0.34151185 0.1548169 0.046985406 0.55304706
000020 31 ba 92 bd f1 cd 39 3e 5d d3 5a be 1b 54 0e be
       -0.071644194 0.18144967 -0.21369691 -0.13899271
000030 c2 ef 2c bf 90 c5 ef be 65 88 63 be 85 2a f9 3d
       -0.6755334 -0.46830416 -0.22219999 0.12166313
000040 b8 47 ac 3e 92 df d3 3e de 70 f5 be 86 a7 9d be
       0.33648467 0.41381508 -0.47937673 -0.30791873
000050 11 4b 55 3e 55 0b 18 3f 89 af 4e be a6 2a 02 3f
       0.20829417 0.5939229 -0.20184149 0.50846326
000060 ca 21 0a be 5a 2f 82 3d bd ab 30 3f 7e a6 d3 be
       -0.13489452 0.06356688 0.6901205 -0.4133796
000070 c5 ea e3 be ac 4f 37 be cd 14 80 be 30 50 1d 3f
       -0.44515052 -0.17901486 -0.2501587 0.6145048

rcsl.backbone.model.0.bias f4 [16]
000000 db 48 0c bf 86 a8 a6 be 2c 6d 05 bf 97 4b 0a bf
       -0.5479867 -0.32550448 -0.5211971 -0.5402159
000010 3b 68 df be 97 9a 1b 3f 5e 8c a1 3e 76 2d 1b 3f
       -0.4363421 0.6078276 0.31552404 0.6061624
000020 ec e1 33 3e 7b 9c b9 be 83 b6 2a 3b 59 26 31 bf
       0.17566651 -0.36252198 0.0026048727 -0.6919914
000030 e7 69 01 bf 34 ac 98 3d 87 6c e4 3e 8f e3 d5 3e
       -0.5055222 0.0745472 0.4461405 0.41775176

rcsl.backbone.model.2.weight f4 [1, 16]
000000 30 0f ef bd 20 cb 13 bc 78 bd 12 3e bc e9 76 3e
       -0.11672819 -0.009020597 0.14330089 0.241126
000010 54 09 cc 3d c8 55 0a 3d fe a4 2b 3e 90 64 9f be
       0.09962717 0.033773214 0.16762158 -0.3113141
000020 39 fc 63 3d 6c 7a 46 be 6e 90 2e be 45 66 01 be
       0.05566046 -0.19382638 -0.17047283 -0.12636669
000030 8f 52 d6 3d 71 99 6a 3c 6a a4 17 be 26 8c 96 3d
       0.104649656 0.01431881 -0.14808813 0.0735095
