backup/linearq_newenv/rcsl_0.75expert/timestamp_23-0926-160231&80-[8]/model/policy.pth (torch, 1881 bytes, 3 tensors)

rcsl.backbone.model.0.weight f4 [8, 2]
00000000: f7f9 873e 80bf 943e b1fc 14bf 1d38 05bf
00000010: 4a37 adbd ffd0 923e 8223 13be 09a3 f33e
00000020: 3cc5 00be 7520 0f3e 5dd3 5abe 1b54 0ebe
00000030: c2ef 2cbf 90c5 efbe 4012 8abd 2510 9f3d
0.26557896 0.29052353 -0.58198076 -0.5203875 -0.08457811 0.28675076 -0.14369014 0.47585323
-0.12575239 0.13977225 -0.21369691 -0.13899271 -0.6755334 -0.46830416 -0.06741762 0.07766751

rcsl.backbone.model.0.bias f4 [8]
00000000: ae85 8d3e 403b d93e 96e3 0dbf 3922 8dbe
00000010: 71a6 0b3f f750 163f e703 15be 5476 d43d
0.27641052 0.42428017 -0.55425394 -0.27565172 0.54550844 0.5871729 -0.1455227 0.10374132

rcsl.backbone.model.2.weight f4 [1, 8]
00000000: 2f43 873c 353c 193d 257d d23e 97cb 7cbe
00000010: 3c79 3ebe ac4f b7bd 661f 0dbe edef 883e
0.016511528 0.037410934 0.41111103 -0.24687038 -0.18600935 -0.08950743 -0.13781509 0.2674555
