backup/halfcheetah-medium-v2/rcsl/rcsl/timestamp_23-0905-073801&0/checkpoint/policy.pth (torch, 505723 bytes, 10 tensors)

rcsl.backbone.model.0.weight f4 [200, 18]
0	0xc0af4b8a	-5.477971
1	0xbf3f8629	-0.7481409
2	0xc09e81de	-4.953353
3	0x3f9d61fd	1.2295529
4	0xc0631dac	-3.548686
5	0xc0b77bac	-5.7338467
6	0xc08d7eed	-4.421744
7	0xbecf8c34	-0.40536654
8	0xc064b10a	-3.5733056
9	0xc0ccba36	-6.397731
10	0xbf4505ab	-0.76961774
11	0x3ee09599	0.43864134
12	0xbee9d27d	-0.45668402
13	0xbf9a5da4	-1.2059827
14	0xbeb7039d	-0.35744944
15	0xbf41df4f	-0.75731367
16	0x3f27ee7a	0.6559826
17	0xbca24747	-0.019809378
18	0xc01b7a7f	-2.4293516
19	0xbe944dec	-0.289657
20	0xc073c082	-3.8086247
21	0x3f8013ca	1.0006039
22	0x3d3403db	0.04394899
23	0x40736ced	3.8035233
24	0xc04d86c1	-3.2113497
25	0xc0d81553	-6.752603
26	0x3f5317a6	0.8245796
27	0xbfe12dee	-1.7592142
28	0xbf4639a0	-0.7743168
29	0xbdb67f2d	-0.089109756
30	0xbe5affe6	-0.2138668
31	0x3d816a02	0.063190475
32	0xbde2d077	-0.11074918
33	0xbe9b2eaf	-0.30309054
34	0xbdbd54f5	-0.0924472
35	0xbd06f586	-0.032948993
36	0x4078e970	3.889248
37	0x40bf05c9	5.969456
38	0x3f82a907	1.0207833
39	0x3efe0e48	0.4962027
40	0x38234cfb	3.8933922e-05
41	0x40c03816	6.0068464
42	0x40b61ada	5.690778
43	0x3f8bc1ea	1.0918553
44	0xbf1972eb	-0.59940976
45	0xbffd49b7	-1.9788121
46	0x3fa9e7fc	1.3273921
47	0x3f715445	0.9426921
48	0x3ef9274b	0.4866279
49	0xbefca54c	-0.49344862
50	0x3e702d86	0.23454866
51	0x3e79ada2	0.24382642
52	0x3ef788dd	0.48346606
53	0xbc3257aa	-0.010885159
54	0x41899403	17.197271
55	0x4144f540	12.3098755
56	0xbf72158b	-0.9456412
57	0xbfde76cf	-1.7380008
58	0xbf952c79	-1.1654197
59	0x411d3b5b	9.826991
60	0x41649f19	14.288842
61	0x401aeb69	2.4206183
62	0x3e94cedb	0.29064068
63	0x409a62bf	4.824554
64	0xbfc0cfb1	-1.5063382
65	0xbf93516d	-1.1509224
66	0xbf3c4263	-0.735388
67	0x3cf48f80	0.029853582
68	0x3ed02135	0.40650335
69	0x3f0cbf10	0.5497904
70	0xbe405a37	-0.18784414
71	0x39cdc308	0.00039245957
72	0x418f314c	17.89907
73	0xc13d71f5	-11.840322
74	0x41ce85d3	25.815344
75	0xc120bd74	-10.046253
76	0x400de14f	2.2168767
77	0xbf93db33	-1.1551269
78	0x3f40d86f	0.7533025
79	0x407443dd	3.816642
80	0x3edc82eb	0.43068632
81	0x40fef819	7.9677854
82	0x40491135	3.1416752
83	0xbe55ab2b	-0.20866077
84	0x3f2779ce	0.65420234
85	0xbe887324	-0.26650345
86	0x3c7fb817	0.015607855
87	0xba31227e	-0.0006757154
88	0xbe9c4ffe	-0.3052978
89	0xb6fad801	-7.4757268e-06
90	0x40505d65	3.2557003
91	0xbf0d4ed3	-0.551984
92	0x40628c61	3.539818
93	0x40537cde	3.3044963
94	0x40a16c26	5.0444517
95	0xc001a291	-2.0255473
96	0x402fa5ac	2.7444868
97	0xc082e0cd	-4.0899415
98	0xbfb26b68	-1.3939028
99	0x3ea3d4f9	0.31998423
100	0x3fd373bd	1.6519696
101	0x3f541384	0.8284228
102	0xbd23fc40	-0.040035486
103	0x3e081e83	0.1329289
104	0xbe1bb2cd	-0.15204926
105	0x3fc4ecc2	1.5384753
106	0xbef5f20d	-0.48036233
107	0xbd561a8e	-0.05227142
108	0x4057b570	3.370449
109	0x40afa8f8	5.489376
110	0x3f46b106	0.77613866
111	0x3ffa83b5	1.9571444
112	0xc0a2b719	-5.084851
113	0x412948b1	10.580247
114	0x4135345c	11.325283
115	0xc122b3fd	-10.168942
116	0xbfcaa97d	-1.5832974
117	0xbf7db0ab	-0.990977
118	0xc0478205	-3.1173108
119	0xbe1e05be	-0.15431878
120	0x3e9a9bd4	0.30197012
121	0x3f22f7f5	0.636596
122	0xbf762043	-0.9614298
123	0x3f885878	1.0651999
124	0xbf9bcdad	-1.2172142
125	0x390bcf3f	0.00013333278
126	0x3fd839a7	1.6892594
127	0xc0b06f8a	-5.5136156
128	0xc0041470	-2.0637474
129	0xc09d430b	-4.914434
130	0xc031bfa3	-2.7773216
131	0xbf745543	-0.954426
132	0xc0b5a1c8	-5.6759987
133	0x3fae86ad	1.363485
134	0xbeb92929	-0.36164215
135	0x3fc9eefc	1.5776057
136	0x3fe6ad5c	1.8021655
137	0xbeb07b12	-0.34468895
138	0x3eeb0b3a	0.45907003
139	0x3e8d3be1	0.27584746
140	0x3d9955db	0.07487079
141	0xbca47874	-0.020076968
142	0x3d02bd79	0.031918976
143	0xbcedcca5	-0.029028246
144	0xc1ef395a	-29.903004
145	0x4163331f	14.199981
146	0x40b3cf65	5.6190667
147	0x406a9427	3.6652925
148	0x3fd274ea	1.6441929
149	0xc0fd0701	-7.907105
150	0xc0c3c6bd	-6.11801
151	0xc0d2d37b	-6.5883155
152	0x3f576e7e	0.8415297
153	0xc0b83484	-5.7564106
154	0x4006b809	2.1049826
155	0xbf115f42	-0.56785977
156	0xbc91a49b	-0.017778685
157	0x3d37bd3f	0.044858214
158	0xbe80272e	-0.25029892
159	0x3e53cffd	0.2068481
160	0xbd8cca58	-0.068745315
161	0x3985b3db	0.0002550174
162	0x3ff530e7	1.9155549
163	0xbeba9487	-0.36441442
164	0x40597064	3.3974848
165	0x40ad67ff	5.418945
166	0xbcf1b44b	-0.029504916
167	0xbe20b6ca	-0.15694728
168	0x40389709	2.8842185
169	0x3fa8e0f5	1.3193651
170	0xbf105188	-0.56374407
171	0xc007a451	-2.119404
172	0x403d9e16	2.9627738
173	0x3ef676cf	0.4813752
174	0xbf7dcdfa	-0.9914242
175	0xbeaeb92e	-0.34125656
176	0x3e6c019f	0.23047493
177	0xbeb31826	-0.3497936
178	0x3e234358	0.15943658
179	0xbd4dac60	-0.050213218
180	0x410b51ae	8.707441
181	0x40442234	3.0645876
182	0x40b518f3	5.6592956
183	0x3fa5d5b5	1.2955843
184	0x3f3fbd73	0.7489845
185	0x4032eae9	2.7955878
186	0xbf038918	-0.51381063
187	0xc08f2b83	-4.4740615
188	0xbf472508	-0.7779088
189	0x409c9b83	4.8939834
190	0xbeb7102d	-0.3575453
191	0x3ea9f436	0.3319413
192	0xbed0a58c	-0.40751302
193	0xbe0f1e52	-0.1397641
194	0x3eb01631	0.3439193
195	0x3ef44426	0.47708243
196	0x3ea3b409	0.31973293
197	0xbccc0c29	-0.024908142
198	0xc0ed64b0	-7.418541
199	0xbea11420	-0.31460667
200	0x3e9d3811	0.30706838
201	0xbf45c52d	-0.7725399
202	0x408257a3	4.073198
203	0xbff06dab	-1.8783468
204	0xc0af4131	-5.476708
205	0x414d0095	12.812642
206	0x3f14c4ba	0.5811268
207	0x408cfbe2	4.4057474
208	0xbf3db898	-0.7410979
209	0x3dc87da8	0.09789592
210	0xbda137bc	-0.078719586
211	0xbe8fd3db	-0.2809132
212	0x3e04fda5	0.12987383
213	0xbef30b69	-0.47469643
214	0x3ed74293	0.4204298
215	0xbcd4d335	-0.025979618
216	0xc036c09d	-2.8555062
217	0xbf0deaff	-0.554367
218	0x403bebe5	2.9362729
219	0xbfd0d46b	-1.6314825
220	0x40a8db4f	5.276771
221	0xc064115c	-3.5635595
222	0xc0c1491b	-6.040174
223	0xc1191b0d	-9.569104
224	0xc04529b0	-3.0806694
225	0xbf97a732	-1.1847899
226	0x3f7e73cb	0.99395436
227	0xbf4b046f	-0.7930364
228	0xbef5c70d	-0.48003426
229	0x3f67144e	0.9026536
230	0x3eee09c7	0.46491835
231	0xbe8fb7ba	-0.2806986
232	0x3e856d6e	0.2606005
233	0xbd03fa5e	-0.03222119
234	0x409160d3	4.5430694
235	0xc0b184db	-5.5474677
236	0xbfe0f77e	-1.7575529
237	0xbfaef569	-1.3668643
238	0xc048e78f	-3.1391332
239	0x3ff06b64	1.8782773
240	0x40223118	2.5342464
241	0x40d12c5c	6.536665
242	0xbf9da6fd	-1.2316586
243	0x3f598b02	0.84977734
244	0xbfa4f56d	-1.2887398
245	0xbf232a9e	-0.63736904
246	0x3f019d0c	0.5063026
247	0xbe968c1f	-0.2940378
248	0x3de9ab27	0.11409598
249	0x3f05df08	0.52293444
250	0xbe5bb0f3	-0.2145422
251	0xbcd3b917	-0.025845094
252	0x41b4d0cd	22.601954
253	0xc0ee0e8c	-7.4392757
254	0x402c4caa	2.6921792
255	0x41868271	16.813692

rcsl.backbone.model.0.bias f4 [200]
0	0xbfd16bdc	-1.6361041
1	0xbfbe76c0	-1.487999
2	0xbffaadfd	-1.9584347
3	0x4053839f	3.3049085
4	0xbf093737	-0.53599876
5	0xc065b272	-3.5890164
6	0x409f8449	4.984898
7	0xbed8a9a3	-0.42316923
8	0xbf4cc956	-0.79994714
9	0xbfa3021d	-1.273502
10	0xbfc34daf	-1.5258082
11	0xc063d9d9	-3.5601714
12	0xc063a759	-3.557089
13	0xbdafc7df	-0.08583044
14	0xbfb9cc22	-1.4515421
15	0xbfbb6683	-1.4640659
16	0xc00c5892	-2.192906
17	0x40ecbfd2	7.3984156
18	0x402017c8	2.5014515
19	0xbf1df9db	-0.61709374
20	0xc0596325	-3.3966763
21	0xc091941f	-4.549331
22	0xbf1a384b	-0.60242146
23	0xbf8e10b5	-1.1098849
24	0xbf5f22a6	-0.87162244
25	0xbf875bd0	-1.0574894
26	0xbfe7d59a	-1.8112061
27	0xc04a150c	-3.1575346
28	0xc007466a	-2.1136727
29	0xc03ac9d1	-2.918568
30	0xbf70e220	-0.9409504
31	0xbf3fe883	-0.7496416
32	0xbf6263bd	-0.8843344
33	0xbf4ac86a	-0.7921206
34	0x4065e4ac	3.592082
35	0xc0100875	-2.2505162
36	0xc0094af5	-2.1452
37	0xbfeb749c	-1.8394961
38	0xbfee0ca0	-1.8597603
39	0x4082b897	4.085033
40	0x3f8de498	1.1085386
41	0xc020d600	-2.5130615
42	0xc03d143b	-2.9543598
43	0xc029bd39	-2.6521742
44	0xc04c594f	-3.192951
45	0x403be4dd	2.9358437
46	0x3f18219f	0.594263
47	0x3f81d8af	1.0144252
48	0xbf680a11	-0.9064036
49	0xbde65e0f	-0.11248409
50	0xbf0c5aef	-0.54826254
51	0xc018cbc4	-2.3874369
52	0x404423b5	3.0646794
53	0xbfab5d89	-1.338792
54	0xc0687364	-3.632043
55	0xbffc655d	-1.9718434
56	0xc01fc05f	-2.4961164
57	0x3f650083	0.89453906
58	0xbfe40ae4	-1.7815824
59	0x40349099	2.8213255
60	0xbfca433f	-1.5801772
61	0xc015d04d	-2.3408387
62	0xc08528bd	-4.161223
63	0xbfcc71a5	-1.5972182
64	0x40d724ae	6.7232275
65	0xbffd3f57	-1.9784955
66	0x409bdb66	4.870532
67	0xbffc708f	-1.972185
68	0xbfeb60ac	-1.8388877
69	0xbfd4f7c9	-1.6638118
70	0xc0175a0f	-2.3648717
71	0xbefc4bca	-0.49276572
72	0xc021f23d	-2.53041
73	0xbfd4a7a2	-1.6613657
74	0xc001fd89	-2.0310996
75	0x40193c9e	2.3943248
76	0xbff700c5	-1.929711
77	0xbf39315b	-0.72340935
78	0xbe38a56b	-0.18031852
79	0xc00852d2	-2.130055
80	0x401fb223	2.4952476
81	0x401692a1	2.3526995
82	0xbf74576f	-0.95445913
83	0x406c742a	3.69459
84	0xc0185f80	-2.3808289
85	0xc02593f0	-2.5871544
86	0x3fbec477	1.4903706
87	0xbfddcc7c	-1.7328029
88	0xc016f4a5	-2.358682
89	0xbda9e96e	-0.08296476
90	0xbfa42429	-1.2823535
91	0xc05d01ab	-3.4532268
92	0x3f45399a	0.7704102
93	0xbfdb38da	-1.7126725
94	0xbfa65064	-1.2993283
95	0x3fe20fd3	1.7661079
96	0xc01119f7	-2.2672098
97	0xbe44ab92	-0.19206074
98	0xc0920494	-4.563059
99	0x40356321	2.8341753
100	0x3d9c720a	0.07638939
101	0xc0540317	-3.3126886
102	0x3feb9412	1.8404562
103	0x3fd1a437	1.6378239
104	0x3fcfea04	1.6243291
105	0xbfaea188	-1.3643045
106	0xc091795b	-4.546064
107	0x3f468df8	0.7756038
108	0xc0c7fba0	-6.249466
109	0x3f00cc4f	0.5031175
110	0xbf8b2f63	-1.0873836
111	0x3fe9113f	1.8208388
112	0xbea2aaec	-0.31771028
113	0xc0537e6d	-3.3045914
114	0xbe9f0564	-0.310588
115	0xbfc4e4b3	-1.5382293
116	0xbf119497	-0.56867355
117	0x401b3cb0	2.425579
118	0xbff466f5	-1.909392
119	0xc04c27e5	-3.189935
120	0x4066d7ef	3.6069295
121	0xbfd482d2	-1.6602423
122	0x3fa09b39	1.254737
123	0xbe73676a	-0.23769918
124	0xbea3fe04	-0.32029736
125	0x3ec74d09	0.3892596
126	0xbf88e5f4	-1.0695176
127	0xbfdb98eb	-1.7156042
128	0xbff30ff8	-1.8989248
129	0xc0170609	-2.3597434
130	0xbfdaca7e	-1.7093046
131	0xbfd871cb	-1.6909727
132	0xbf9cf06a	-1.2260869
133	0xbf4629c9	-0.7740751
134	0xbffd6219	-1.9795562
135	0x3f93c00f	1.1542987
136	0xbed44027	-0.41455194
137	0xc02492d8	-2.5714626
138	0xc078fdc2	-3.8904881
139	0xc048dbf4	-3.1384249
140	0xc017d627	-2.3724458
141	0xbf164e40	-0.5871315
142	0xbfc20737	-1.5158452
143	0xc00dab0e	-2.2135653
144	0xbccf77cb	-0.025325676
145	0xc0283cc3	-2.6287086
146	0xbf74770b	-0.95494145
147	0x3f837366	1.0269592
148	0xbfc1147a	-1.5084374
149	0xbfba2a6f	-1.45442
150	0xbead50ed	-0.33850804
151	0xbff7db94	-1.9363885
152	0xbfe955bb	-1.8229288
153	0x3cd689a0	0.026188672
154	0x3f5fea24	0.87466645
155	0xbf4eda7c	-0.8080213
156	0xbe244fac	-0.16046017
157	0xbee2d9c5	-0.4430677
158	0x3fa344cc	1.275537
159	0xbfab9c64	-1.3407102
160	0xc0392ad1	-2.8932383
161	0xbf8bf812	-1.093508
162	0xbebff88b	-0.3749431
163	0xbed5ce85	-0.41759124
164	0xbff3cb09	-1.9046336
165	0x40689aa3	3.6344383
166	0xc0276e0a	-2.6160913
167	0xc0044065	-2.0664303
168	0x3f95e05f	1.1709098
169	0xc073125a	-3.797995
170	0x3f89f96d	1.0779244
171	0xc052f76b	-3.2963512
172	0x3f939b97	1.1531857
173	0xbfebbe9f	-1.8417548
174	0xbf4396ee	-0.76402175
175	0x40586174	3.380948
176	0xc0142671	-2.3148463
177	0xbedddd64	-0.4333297
178	0xbf185df7	-0.5951838
179	0xc01067c4	-2.2563334
180	0xc0117ed8	-2.273367
181	0xbfcd537d	-1.6041104
182	0xbf9bff48	-1.2187281
183	0xc029ae51	-2.6512644
184	0x3fe128aa	1.7590535
185	0xbfd2468b	-1.6427778
186	0xbffc103f	-1.9692458
187	0xc009a22a	-2.1505227
188	0x3dabcf24	0.08389118
189	0xc019ea05	-2.4049084
190	0xbfb8a2db	-1.44247
191	0xbfdf2f41	-1.7436296
192	0x40a55d50	5.1676407
193	0xc00834f6	-2.1282325
194	0xc019318b	-2.3936489
195	0xc026ed63	-2.608239
196	0xc06221ee	-3.533321
197	0xbf812729	-1.0090076
198	0xbf303644	-0.688328
199	0x4109b304	8.606205

rcsl.backbone.model.2.weight f4 [200, 200]
0	0xbd2aad3d	-0.04166912
1	0xbba4e517	-0.0050321925
2	0xbda70b5a	-0.08156462
3	0xbda52bbe	-0.08064984
4	0xbda7a8c6	-0.08186488
5	0x3b8e5983	0.0043441667
6	0xbda186e6	-0.07887058
7	0x3c884e62	0.016638938
8	0xbc69c2ae	-0.014267607
9	0x3d943055	0.07235781
10	0xbd00bb32	-0.031428523
11	0xbd06a939	-0.032876227
12	0xbd4c6490	-0.04990059
13	0xbd9430c4	-0.07235864
14	0x3d4d0668	0.050054938
15	0xbd31817c	-0.043336377
16	0xbd57a752	-0.052649803
17	0xbddd38c7	-0.10801845
18	0xbc36de6f	-0.011161431
19	0xbd9a3ae7	-0.07530766
20	0xbbbe3467	-0.0058045867
21	0x3c3c27bf	0.011484086
22	0xbd22a7f4	-0.039710954
23	0x3b9ecb51	0.0048460145
24	0xbd1e5b03	-0.038661014
25	0xbdb74567	-0.08948784
26	0xbdb72d63	-0.08944204
27	0x3c587ef7	0.0132138645
28	0xbdac8adf	-0.08424925
29	0x3ac2427c	0.0014820839
30	0xbd0b955f	-0.034078
31	0x3c3dea61	0.011591525
32	0xbd903621	-0.07041574
33	0x3c96e4a2	0.018419567
34	0xbdc416a9	-0.095746346
35	0xbd7605f4	-0.06006427
36	0x3c2d8085	0.0105897235
37	0xb9776113	-0.00023591919
38	0xbd7760f2	-0.06039519
39	0xbd67aa33	-0.0565588
40	0xbdb163e6	-0.08661632
41	0xbda5836c	-0.08081707
42	0xbd0a8833	-0.033821296
43	0x3d2705f4	0.04077716
44	0xbbed79b5	-0.0072471746
45	0xbc9ff1be	-0.019524451
46	0xbd800ab1	-0.06252039
47	0x3d442d5d	0.047894824
48	0xbb1a9b2c	-0.0023591025
49	0x3c841d35	0.016127208
50	0xbd0b552a	-0.034016766
51	0x3adf79de	0.0017049869
52	0xbbd8ad47	-0.006612453
53	0x3c9118df	0.017712055
54	0x3d0e1d82	0.03469611
55	0xbd08a2ff	-0.03335857
56	0xbc69e6d8	-0.014276229
57	0xbd6c06c0	-0.057623625
58	0x3c9794e2	0.01850361
59	0xbbded9b1	-0.006800853
60	0x3c727fb6	0.0148009565
61	0xbd627ad0	-0.055292904
62	0xbdc16961	-0.094439276
63	0xbc597894	-0.013273377
64	0xba5f5c44	-0.00085205236
65	0x3cc9ab7e	0.024617907
66	0xbc03ff93	-0.008056539
67	0x3cbc8fea	0.023017842
68	0x3d0dd5b3	0.034627628
69	0xbd612a73	-0.054972123
70	0x3d02709e	0.03184568
71	0xbc02627d	-0.007958052
72	0x3c334b9a	0.010943318
73	0x3c744e7d	0.014911291
74	0xbd989e0d	-0.07452021
75	0x3c64143c	0.01392084
76	0x3d14973f	0.036277052
77	0xbd73a5a7	-0.05948415
78	0xbce548b6	-0.027988773
79	0xbd784bb1	-0.06061906
80	0xbd63c852	-0.055610962
81	0xbc542503	-0.012948277
82	0x3c02747b	0.007962341
83	0xbd765789	-0.060142074
84	0xbdc682ab	-0.09692892
85	0x3db08dc5	0.086207904
86	0x3c3e25e3	0.011605713
87	0xbca9307c	-0.020653002
88	0x3d0e89b2	0.034799285
89	0x3cab7485	0.020929584
90	0xbd0cc98c	-0.034371898
91	0xbc9d1edb	-0.019179752
92	0xbd0ec3c9	-0.034854684
93	0xbd124ace	-0.03571587
94	0xbd07f375	-0.033191163
95	0xbd857cf0	-0.065179706
96	0xbd884f64	-0.066557676
97	0x3d1dec26	0.038555287
98	0xbd4d4142	-0.050111063
99	0xbd5c5248	-0.053789407
100	0x3cb0fec8	0.021605864
101	0xbb6fecf4	-0.003660974
102	0x3d09bd69	0.0336279
103	0x3d3066ec	0.043066904
104	0xbd4056ab	-0.046957653
105	0xbb85567f	-0.004069149
106	0x3d26c8b8	0.040718764
107	0xbda4f855	-0.08055178
108	0xbd57fbe2	-0.05273045
109	0xbc821771	-0.015880318
110	0xbd1916ef	-0.037375387
111	0xbc8d5dc1	-0.01725662
112	0x3b484fca	0.0030565136
113	0xbd6463d6	-0.055759273
114	0xbd0ffcf1	-0.035153333
115	0x3d3f9514	0.04677303
116	0xbd4c2a1c	-0.049844846
117	0xbda367bd	-0.07978771
118	0xbdc28986	-0.09498887
119	0x3cb678bc	0.022274368
120	0xbde65e3d	-0.11248443
121	0xbd85d12c	-0.06534037
122	0x3c881561	0.016611757
123	0xbd5a6281	-0.053316597
124	0x3c248113	0.010040539
125	0xbd8ca8ce	-0.068681344
126	0xbbb59c9f	-0.0055423523
127	0x3b22432b	0.0024759274
128	0xbd0ed524	-0.034871235
129	0xbaad56e5	-0.0013224749
130	0x3ce81fd3	0.028335487
131	0xbd861915	-0.06547753
132	0x3cbc09d4	0.022953905
133	0xbc8b9df7	-0.017043097
134	0xbd0629df	-0.032754775
135	0xbd802ac7	-0.06258159
136	0xbae8df79	-0.0017766795
137	0x3c6e6c27	0.014552153
138	0xbdaf4e16	-0.085598156
139	0xbdbfc41f	-0.09363579
140	0xbdadc40f	-0.08484661
141	0x3ba37c78	0.004989203
142	0xbd473fe1	-0.048644904
143	0xbcec9f65	-0.028884599
144	0x3d24bba1	0.040218
145	0xbd844bf6	-0.06459801
146	0xbd9a1cde	-0.07525037
147	0xbcbd1415	-0.023080865
148	0xbcd15ef9	-0.025557982
149	0xbd40ff57	-0.04711851
150	0xbbe918e0	-0.007113561
151	0x3b7a6e0e	0.003821257
152	0xbd51df6b	-0.05123846
153	0x3d707c5d	0.058712352
154	0x3d8ef8f2	0.06981076
155	0xbda0ca8a	-0.07851131
156	0xbb666437	-0.0035154948
157	0x3c03dc4c	0.008048128
158	0xbda4dd78	-0.08050054
159	0xbdc5cab0	-0.096578
160	0xbda992d9	-0.08279962
161	0x3b537586	0.0032266094
162	0xbc95d03c	-0.01828777
163	0xba58656f	-0.0008254861
164	0xbd1057bb	-0.035239916
165	0x3c624355	0.0138099985
166	0xbc909800	-0.017650604
167	0xbc1b98da	-0.009496892
168	0xbd832700	-0.06403923
169	0x3d1aecef	0.037823614
170	0x3d0d90dd	0.03456198
171	0xbd3cd3bf	-0.046100374
172	0xbda4a150	-0.080385804
173	0xbd9ea185	-0.07745651
174	0x3ce6ad9b	0.028158953
175	0xbce526c6	-0.02797259
176	0x3d003ceb	0.031308096
177	0xbd8729f9	-0.065998025
178	0xbb1c6dbe	-0.0023869122
179	0xbdb23c55	-0.08702914
180	0xbd8bdcac	-0.06829199
181	0x3d416069	0.047211085
182	0xbdcd53a2	-0.10025717
183	0x3cc7854e	0.024355557
184	0xbde5740d	-0.112037756
185	0xbcb5c798	-0.0221899
186	0xbdd3f82a	-0.10350068
187	0xbda9c6aa	-0.08289845
188	0xbdc5799b	-0.09642335
189	0xbd08dc9d	-0.03341352
190	0xbca41530	-0.020029634
191	0xbd6d0911	-0.057869975
192	0xbc9e725a	-0.019341636
193	0x3c2517d9	0.0100764865
194	0x3d0ad59e	0.033895127
195	0x3d5a49ce	0.053293042
196	0x3c9cccf1	0.019140692
197	0xbd69fb66	-0.057124518
198	0xbd3a596a	-0.04549543
199	0x3d0aa17f	0.03384542
200	0xbec66e69	-0.3875611
201	0xbf326a7a	-0.6969372
202	0x3d2532b4	0.040331557
203	0xbed353bc	-0.41274822
204	0xbf19a03f	-0.6001014
205	0x3ea2adbf	0.31773183
206	0x3c714156	0.01472505
207	0xbfb82de5	-1.4389006
208	0x3e649986	0.2232419
209	0x3e4ec9eb	0.20194213
210	0x3f6aff99	0.9179626
211	0xc0546872	-3.3188748
212	0xbf20552f	-0.6262998
213	0x3d5f6c33	0.054546546
214	0xbe292b5e	-0.1652045
215	0x3faf8726	1.3713119
216	0x3e82851b	0.25492176
217	0x3d1a5202	0.037675865
218	0xbeb813f5	-0.35952726
219	0x3df31efb	0.118711434
220	0xbf25ac59	-0.64716107
221	0x3e83de89	0.25755718
222	0xbf3a64d9	-0.7281013
223	0x3e41f0f4	0.18939573
224	0x3f54bf08	0.8310399
225	0xbf17d006	-0.59301794
226	0xbedcd273	-0.4312931
227	0xbf92ab71	-1.145857
228	0xbe4dbd08	-0.20091641
229	0xbea8213f	-0.32837865
230	0xbe455422	-0.19270375
231	0x3f5f49c5	0.8722194
232	0x3ebff82e	0.37494034
233	0xbf09217b	-0.5356671
234	0xbeeaff57	-0.45897934
235	0xbfffcdfe	-1.9984739
236	0xc04c0f26	-3.1884246
237	0x3f57fcd5	0.84370166
238	0xbe882cc1	-0.26596645
239	0xbe2b4b6e	-0.16727993
240	0xbe04f60b	-0.12984483
241	0xbddf5acc	-0.1090599
242	0x3fa00ba8	1.2503557
243	0xbfcd1a2b	-1.6023611
244	0xc040ecba	-3.0144486
245	0x3c6750ac	0.014118355
246	0x3dc1514d	0.09439335
247	0xbe11e44d	-0.14247246
248	0xc0352067	-2.8301027
249	0xbf11d762	-0.56969273
250	0xbf84325d	-1.032787
251	0xbf61b25e	-0.8816279
252	0x3d1a82ab	0.03772227
253	0x3f211755	0.62926227
254	0xc08cf0e5	-4.404406
255	0xbf1996c0	-0.5999565

rcsl.backbone.model.2.bias f4 [200]
0	0xbce27d51	-0.027647646
1	0xbe858e21	-0.26084998
2	0x3cf37810	0.029720336
3	0x3e23570a	0.15951172
4	0xbfd0367c	-1.6266627
5	0xbd989cbb	-0.07451769
6	0xbd50f4ee	-0.051014833
7	0xbfb1e96b	-1.3899359
8	0xbd298e7e	-0.041395657
9	0xbd3f2bc8	-0.046672612
10	0xbfd8951c	-1.6920505
11	0xbfa36d62	-1.2767756
12	0xbf987061	-1.1909295
13	0xbfb87976	-1.4412067
14	0xbf84699d	-1.0344731
15	0x40dcbc8a	6.898015
16	0xc01782f6	-2.3673682
17	0x3eb531d1	0.3538957
18	0x402b690b	2.6782863
19	0xbd8a6abc	-0.06758639
20	0xc00afe47	-2.1717699
21	0x3ea759c0	0.3268566
22	0x4023128e	2.5480075
23	0xbd980470	-0.074227214
24	0x4022a949	2.5415823
25	0xbf585266	-0.8450073
26	0xc000b55c	-2.0110693
27	0xc056c563	-3.3557975
28	0xbf9b6a9b	-1.2141908
29	0x3e219986	0.15781221
30	0xbae6d21b	-0.0017610224
31	0xbc31c879	-0.010851019
32	0xbf9b7752	-1.2145789
33	0xbf1b7563	-0.6072599
34	0xc0465f14	-3.099553
35	0xbd9e293d	-0.07722709
36	0x3fcf89d7	1.621394
37	0x3f723dfb	0.94625825
38	0x3ebd76d7	0.3700473
39	0xbf66a1b9	-0.9009052
40	0xbfcbba55	-1.5916239
41	0xc015c7ad	-2.3403122
42	0x3c585fc3	0.013206425
43	0x3f5ec10f	0.87013334
44	0xbd93a4d4	-0.07209173
45	0xbd71f95b	-0.059075695
46	0xbef4ba9c	-0.47798622
47	0xbd7510a2	-0.059830315
48	0xbfefda73	-1.873854
49	0xbf1e545b	-0.61847466
50	0x402031b8	2.5030346
51	0x3fd0ff8b	1.6327986
52	0xbe38de0c	-0.18053454
53	0xbe1e152b	-0.15437762
54	0xbff67d73	-1.9257034
55	0xbf8dded3	-1.1083626
56	0xbf2d8c90	-0.67792606
57	0xbec9daf9	-0.39424875
58	0xbd5e42c5	-0.054262895
59	0x3f7cec72	0.98798287
60	0xbf5c7446	-0.8611492
61	0x3e1e09f2	0.15433481
62	0xbe88e8c6	-0.26740092
63	0xbfe73187	-1.806199
64	0xbf53750c	-0.82600474
65	0xbfcacac4	-1.5843129
66	0xbf991bb5	-1.196158
67	0x3ec8ce5b	0.39219937
68	0xc06a2ae7	-3.6588686
69	0x3f0bfc10	0.5468149
70	0x3d1ba6a6	0.038000725
71	0x3fb88033	1.4414123
72	0x3ea32d44	0.31870472
73	0xbfe97f88	-1.8242044
74	0x3e8e47ae	0.27789062
75	0xbc07ab83	-0.008280638
76	0xbd6fac3b	-0.05851386
77	0xbf9304b2	-1.1485808
78	0xbf56e030	-0.8393583
79	0xbe8cfd52	-0.27537018
80	0x4008c214	2.1368456
81	0xc03aaf4e	-2.9169497
82	0xbe1d7e7a	-0.15380278
83	0xbf914f8c	-1.1352401
84	0xbf909cf4	-1.1297898
85	0xbf919b9d	-1.1375614
86	0xbea530ef	-0.32263896
87	0xbf94c7c1	-1.162346
88	0x400605be	2.0941005
89	0xbd9aac8f	-0.07552444
90	0x3d929014	0.07156387
91	0xc012268a	-2.2836022
92	0x40023632	2.0345578
93	0x3f8f5064	1.1196408
94	0x3ebe843b	0.3721026
95	0xbe99a824	-0.30011094
96	0xbe53cce3	-0.20683627
97	0x4033d164	2.8096552
98	0xbf59d75f	-0.85094255
99	0xbf6135cf	-0.8797273
100	0x3c8d4823	0.017246312
101	0x3fef5d7f	1.8700408
102	0xbf049a86	-0.51798284
103	0xbf3e8408	-0.74420214
104	0x3f3c1c89	0.7348104
105	0x3f6b90fc	0.92018104
106	0x401bc8f7	2.434141
107	0xc03a6cd3	-2.912892
108	0x3f0df1b3	0.5544693
109	0xc04665d3	-3.0999649
110	0xbf4c8682	-0.7989274
111	0xbd5025cf	-0.050817307
112	0xbd23d5a8	-0.03999868
113	0xbedb1505	-0.42789474
114	0x3e95ff87	0.29296514
115	0xbfdef2bf	-1.741783
116	0xbfedb0e7	-1.8569611
117	0x3fb15e60	1.3856926
118	0xbf0041f2	-0.50100625
119	0xbda71b6b	-0.081595264
120	0xbf0b7661	-0.54477507
121	0x4023052d	2.547191
122	0xbd39b979	-0.045342896
123	0xbd2f2f9d	-0.042770017
124	0xbff5ab2d	-1.9192864
125	0x3c433961	0.011915536
126	0xbf9d284c	-1.2277923
127	0x3e853baf	0.26022097
128	0x3ea10869	0.3145173
129	0x3ffefaf0	1.992033
130	0x3ea4ea8e	0.322102
131	0xbfacaf3f	-1.3490981
132	0xbebeeb90	-0.37289095
133	0x407b5f72	3.9277005
134	0x3ff07ae8	1.8787508
135	0xbf5adc2c	-0.85492206
136	0xbf7fbc05	-0.9989627
137	0xbd8fb088	-0.070160925
138	0x3faebf8a	1.3652203
139	0xbdbc4b9a	-0.09194107
140	0xbc0ba295	-0.008522649
141	0xbf2090a7	-0.6272072
142	0xbda88bd2	-0.082297936
143	0x409223e6	4.566882
144	0xbf7e6860	-0.99378014
145	0xbf7d0aaf	-0.98844427
146	0xbef44ff8	-0.4771726
147	0xbebb7229	-0.36610535
148	0x3c32b674	0.010907758
149	0xbca6b0cb	-0.020347973
150	0x4025116d	2.5791886
151	0xbf481f49	-0.7817274
152	0xbfa2adf2	-1.2709334
153	0xbb925638	-0.0044658445
154	0xbf74aa0d	-0.95571977
155	0xbe50f750	-0.20406842
156	0xbe1dc842	-0.15408424
157	0xbf50a288	-0.81498003
158	0xbd0e12be	-0.034685843
159	0x3cd0a720	0.025470316
160	0xbfb1aa5c	-1.3880115
161	0xbf25c85d	-0.64758855
162	0xbdd04a94	-0.10170475
163	0xbfa8350f	-1.3141192
164	0xbed5aac5	-0.4173185
165	0xc03a2421	-2.9084551
166	0x3fbb7372	1.4644606
167	0xc0440364	-3.062707
168	0xc0168703	-2.3519905
169	0xbf7621cc	-0.9614532
170	0xbf6e6957	-0.93129486
171	0x3d1149f3	0.035470914
172	0xc0234f62	-2.5517201
173	0xc0a84476	-5.258357
174	0xbebe348d	-0.37149468
175	0xbd8fb5f0	-0.07017124
176	0x3e1e2cee	0.15446827
177	0xbf32f6bb	-0.6990773
178	0xbf86ef96	-1.0541866
179	0xbf31c066	-0.694342
180	0x3e97d943	0.29657945
181	0xbd1132c4	-0.035448804
182	0xbac204e8	-0.0014802488
183	0xbfb33287	-1.3999795
184	0xbd54c452	-0.05194504
185	0xbf1764f4	-0.5913842
186	0xbdb41e73	-0.0879487
187	0x3f0276dd	0.5096262
188	0x3f2717f5	0.6527093
189	0xbb1be5e6	-0.0023788153
190	0xbefbe73e	-0.4919986
191	0xbf89128f	-1.0708789
192	0xbe20a10b	-0.15686433
193	0x3e3bc23f	0.18335818
194	0xbfd6d0eb	-1.6782507
195	0xbf1eef85	-0.6208423
196	0xbf5465f1	-0.8296805
197	0xbdd1d633	-0.102459334
198	0xbf9549eb	-1.1663183
199	0xbe8bf25b	-0.2733334

rcsl.backbone.model.4.weight f4 [200, 200]
0	0xbd0c9fef	-0.034332212
1	0xbe2295d1	-0.15877463
2	0x3be6ae7e	0.007039844
3	0x3e2ef6be	0.17086312
4	0xbeabec60	-0.33578777
5	0x3dd32aaa	0.10310872
6	0x3d847f19	0.064695545
7	0xbf18d8b1	-0.59705645
8	0x3d89e597	0.06733244
9	0xbe6a9632	-0.22908857
10	0x3d53d9cf	0.05172139
11	0x3ee430a2	0.44568354
12	0xbe410ee4	-0.18853337
13	0x3dc430b0	0.09579599
14	0x3e95978e	0.2921719
15	0xbe391c4c	-0.180772
16	0xbdcc8309	-0.099859305
17	0x3e20beae	0.15697739
18	0xbdd7a9b1	-0.10530413
19	0x3cd8fa1f	0.026486455
20	0xbf3d76ed	-0.7400959
21	0xbceaeddf	-0.028677879
22	0xbe2ee04f	-0.17077754
23	0x3bdf09aa	0.006806572
24	0x3dd1ee09	0.1025048
25	0xbfc5ff5c	-1.5468554
26	0xbc729edf	-0.014808386
27	0xbca6e07e	-0.020370718
28	0x3ebe97fb	0.37225327
29	0x3d9616fe	0.07328604
30	0x3d377be9	0.044795904
31	0x3e947beb	0.29000792
32	0xbd96ac33	-0.07357063
33	0xbe1300c5	-0.14355762
34	0xbd03a85c	-0.032142982
35	0xbcec1232	-0.02881727
36	0x3e037d28	0.12840712
37	0x3deeb5fa	0.11655803
38	0x3bed9e87	0.007251564
39	0xbdfed6ce	-0.124433145
40	0xc0468191	-3.101658
41	0x3cee72cb	0.029107472
42	0xbdf0c094	-0.11755481
43	0xbad249e1	-0.0016043746
44	0xbe591f4b	-0.21203344
45	0x3cacde61	0.021102132
46	0xbe140d2b	-0.14458148
47	0xbb4f0acf	-0.0031592136
48	0x3ce38875	0.027775029
49	0xbfde20a0	-1.7353706
50	0xbd348a6f	-0.044077333
51	0x3db6676b	0.08906444
52	0xbe5a2229	-0.21302094
53	0x3e7a54c8	0.24446404
54	0x3e02ae65	0.12761839
55	0xbee86e19	-0.45396498
56	0xbe8f1ed0	-0.27953196
57	0x3e4f6221	0.20252277
58	0xbcc021c4	-0.0234536
59	0x3dff0d60	0.12453723
60	0x3ed8a584	0.42313778
61	0x3e875135	0.26429144
62	0xbe80f57d	-0.25187293
63	0x3e4e13c5	0.20124729
64	0xbd07b4e9	-0.033131514
65	0x3e214632	0.15749434
66	0x3c61880c	0.013765346
67	0xbe99eee3	-0.3006507
68	0x3ded9141	0.115999706
69	0x3f120f09	0.5705419
70	0xbcdea0ca	-0.02717628
71	0x3e3961b1	0.18103673
72	0x3e32adb9	0.17449082
73	0xbd331ecd	-0.043730546
74	0xbe009bde	-0.12559459
75	0xbd173d06	-0.03692343
76	0xbda4c559	-0.080454536
77	0xbf95eb4c	-1.1712432
78	0x3e1d46a8	0.15358984
79	0x3ea4232d	0.32058087
80	0xbe7577e4	-0.23971516
81	0x3e3a3f24	0.18188149
82	0x3e095ef9	0.13415135
83	0xbcbe7551	-0.0232493
84	0xbe502414	-0.20326263
85	0x3e309d86	0.1724759
86	0x3e2df5b0	0.16988254
87	0xbc72bc54	-0.014815409
88	0xbc278211	-0.010223881
89	0xbc23b2f7	-0.009991399
90	0xbdac7b3c	-0.084219426
91	0x3e1799d2	0.14804772
92	0xbe942e1e	-0.28941435
93	0xbe0d1f3b	-0.13781445
94	0xbdbfe406	-0.09369664
95	0xbd050d7c	-0.032483563
96	0x3ea6410e	0.32471508
97	0xbd5a0529	-0.053227577
98	0xbe2ada5c	-0.1668486
99	0xbf257cf8	-0.6464381
100	0x3d266228	0.040620953
101	0xbb626578	-0.0034545343
102	0x3e212164	0.15735394
103	0xbda1b985	-0.07896713
104	0x3dfa36ae	0.122174606
105	0xbf65d205	-0.8977359
106	0xbd8cd1f1	-0.06875981
107	0xbe04f805	-0.12985237
108	0xbdfd9d67	-0.12383538
109	0xbd53c584	-0.051702037
110	0x3d797940	0.06090665
111	0x3d4ed430	0.050495327
112	0x3d1d62b4	0.03842421
113	0xbb8efd1d	-0.0043636695
114	0x3e13f218	0.1444782
115	0x3b4749b5	0.0030408923
116	0xbde8a9bc	-0.11360499
117	0xbcdaa1ac	-0.02668842
118	0xbdc66062	-0.09686352
119	0x3d4d1a36	0.050073825
120	0xbe7cd1a1	-0.24689342
121	0x3cec1069	0.028816419
122	0x3dd9082f	0.10597264
123	0xbd2e379b	-0.0425335
124	0x3ce7cd4d	0.028296137
125	0xbf31ce82	-0.6945573
126	0x3d71e41d	0.059055436
127	0xbd46c07c	-0.04852341
128	0xbe0cd16f	-0.13751768
129	0xbdbc1536	-0.09183733
130	0xbe6bd14f	-0.23029064
131	0xbf04d454	-0.51886487
132	0xbf325c65	-0.6967223
133	0x3d971de2	0.073787466
134	0x3d2fbf35	0.04290696
135	0xbdf93820	-0.12168908
136	0xbec6daa1	-0.38838676
137	0x3b8e2dbe	0.004338949
138	0x3e0ecba8	0.13944876
139	0xbe0150c9	-0.12628473
140	0xbd54f3c5	-0.05199029
141	0xbd2e1bdb	-0.042507034
142	0x3ce0b6be	0.027430888
143	0xb8934199	-7.021725e-05
144	0xbdab7d55	-0.083735146
145	0xbfe6ecf7	-1.8041066
146	0x3e5a9b53	0.21348314
147	0xbf83f1a5	-1.0308119
148	0xbc8a700a	-0.016899128
149	0x3c4b3858	0.01240357
150	0xbda03bb2	-0.07823886
151	0x3e5bb79f	0.21456765
152	0xbce64c94	-0.028112687
153	0x3d5fc35a	0.05462966
154	0xbd58a20b	-0.05288891
155	0x3d806d68	0.062708676
156	0xbf1329a0	-0.5748539
157	0x3e13403d	0.14379974
158	0xbd5ff606	-0.054677986
159	0xbe5444ba	-0.20729342
160	0x3e75a8ac	0.23990124
161	0x3ea8a275	0.32936445
162	0x3e0b55e6	0.13606986
163	0x3e1664af	0.14686845
164	0x3d4e4ed3	0.05036814
165	0xbe074684	-0.13210493
166	0x3d2aee00	0.04173088
167	0x3ddf2fe0	0.10897803
168	0x3e8225d3	0.25419483
169	0xbdde87ac	-0.10865721
170	0xbe3d7fd8	-0.185058
171	0xbdfd6e93	-0.12374606
172	0x3da6ec37	0.08150523
173	0xbf473441	-0.7781411
174	0x3d01b9d2	0.031671353
175	0x3c532417	0.012887022
176	0x3c59f047	0.0133019155
177	0x3dd6eab7	0.10493987
178	0x3e830ba8	0.2559483
179	0x3e03fdad	0.12889738
180	0x3f1354fe	0.5755156
181	0xbbb9f586	-0.0056750206
182	0x3a8a67dd	0.0010559518
183	0x3d93d5a1	0.07218481
184	0x3c956308	0.018235698
185	0x3e44a3cd	0.1920311
186	0xbc12fe83	-0.008971813
187	0x3e8248a3	0.25446042
188	0xbdbcca41	-0.09218264
189	0xbd610f63	-0.054946315
190	0xbf64cb76	-0.89372957
191	0xc0185a6c	-2.380519
192	0x3c0b61b3	0.00850718
193	0x3d1031e2	0.035203822
194	0xbe914cf8	-0.28379035
195	0xbd3e797b	-0.04650257
196	0xbead7b61	-0.33883193
197	0x3d0fcdfd	0.035108555
198	0xbd57f59a	-0.05272446
199	0xbd70da7d	-0.058802117
200	0xbc848631	-0.016177269
201	0x3d2cf631	0.042226974
202	0x3d78aadd	0.060709823
203	0x3df07a1e	0.11742042
204	0x3db0b7ae	0.08628784
205	0xbc6aafab	-0.014324109
206	0x3d20e071	0.039276544
207	0xbdbf3921	-0.09337068
208	0x3ce8119e	0.028328713
209	0x3dcc85d5	0.09986464
210	0xbbc64656	-0.006050865
211	0xbe8b7d44	-0.27244008
212	0xbd46bd9f	-0.04852068
213	0x3d6f6086	0.05844166
214	0xbd02a802	-0.031898506
215	0x3aee9b57	0.0018204254
216	0xbd32b8e4	-0.043633357
217	0x3ca83dfb	0.020537367
218	0x3af49818	0.001866105
219	0x3ad0e55f	0.0015937499
220	0x3d5bb2b6	0.05363723
221	0x3d4c4bf4	0.049877122
222	0x3d4fa257	0.05069193
223	0x3c87d001	0.016578676
224	0x3dddbd1f	0.108270876
225	0x3e8b21bf	0.27174184
226	0xbc3dcda1	-0.01158467
227	0xbd0399ef	-0.032129224
228	0xbcc15973	-0.023602223
229	0x3d20799b	0.039178472
230	0x3d682639	0.056677077
231	0xbf1392b9	-0.57645756
232	0xbe0d33dc	-0.13789314
233	0x3e5165d5	0.20449002
234	0xbe895aea	-0.26827174
235	0x3d0ecad1	0.03486139
236	0xbd2faf0f	-0.04289156
237	0x3de19953	0.110155724
238	0xbd57c75f	-0.05268037
239	0xbca02be2	-0.019552175
240	0xbd994129	-0.074831314
241	0xbdc94673	-0.0982789
242	0xbbad3b53	-0.005286613
243	0xbe053a05	-0.13010414
244	0xbde61f4f	-0.112364404
245	0xbc00d1a5	-0.007862483
246	0xbd56b824	-0.052421704
247	0xbca22be6	-0.019796323
248	0xbd031aa9	-0.032007847
249	0xbbab56c5	-0.0052288496
250	0x3d9e68cb	0.077348314
251	0x3dbd98a7	0.09257632
252	0xbf91a274	-1.1377702
253	0x3e33eea9	0.1757151
254	0xbd4390f0	-0.047745645
255	0xbe681544	-0.22664362

rcsl.backbone.model.4.bias f4 [200]
0	0xc0848fa0	-4.1425323
1	0x3f3d9809	0.7406011
2	0xbe9a437e	-0.30129617
3	0xbe871483	-0.26382837
4	0xbf0ce181	-0.5503159
5	0x3fc09dbc	1.5048137
6	0x3de229b1	0.11043108
7	0xc00725c5	-2.1116803
8	0xbfdb345c	-1.7125354
9	0xbfa46036	-1.2841861
10	0x3e9e08a1	0.30865958
11	0x3cc2d4c1	0.02378309
12	0x3fd22dc6	1.6420219
13	0xbfa1a007	-1.2626961
14	0xbd9e0d24	-0.0771735
15	0x401c2596	2.439794
16	0xc0532198	-3.2989254
17	0x400fefda	2.2490144
18	0xbe34b760	-0.17648077
19	0x3e887516	0.2665183
20	0xc01ce3c4	-2.4514017
21	0xc01b553c	-2.4270773
22	0xbe2ca9f4	-0.16861707
23	0xbe77e429	-0.2420813
24	0xbfd35234	-1.6509461
25	0xbe9b88ea	-0.30377895
26	0x40991997	4.7843738
27	0xbf011845	-0.5042766
28	0xc01f00d8	-2.4844265
29	0x3eb018fc	0.34394062
30	0xbe8790f4	-0.26477778
31	0xc0093d44	-2.1443644
32	0x3f4737f3	0.77819747
33	0xbd67dc51	-0.056606594
34	0x4091ee5f	4.560348
35	0x3f3500f6	0.7070459
36	0x3da792e9	0.08182318
37	0x409c8e29	4.8923535
38	0x3f26576b	0.6497714
39	0xbf531194	-0.824487
40	0xc05acff5	-3.4189427
41	0xbfa2116d	-1.2661568
42	0x3f5239b8	0.8211932
43	0xc00e5666	-2.2240233
44	0xbffa3593	-1.95476
45	0xbf5114d9	-0.81672436
46	0xbde12d65	-0.109949864
47	0x408fa69a	4.489087
48	0x400d1973	2.2046783
49	0x4016a145	2.353593
50	0x3f78057f	0.96883386
51	0xbf9ee8fa	-1.2414849
52	0x3f06060a	0.52352965
53	0xbfac44f5	-1.3458544
54	0x400904aa	2.1409097
55	0x3f883eeb	1.0644201
56	0xbf8215b3	-1.0162872
57	0xbe878356	-0.2646739
58	0xbf8f57fb	-1.1198725
59	0x40835a3d	4.1047654
60	0xbdad8e77	-0.08474439
61	0xbdea82ee	-0.11450754
62	0x3fcbbaca	1.5916378
63	0x406ae429	3.6701758
64	0x3f8c1098	1.0942564
65	0xbfce6b11	-1.6126424
66	0xbf65fd03	-0.8983919
67	0xbf7ab357	-0.979299
68	0xbdc0b0ef	-0.094087474
69	0x3fd678d4	1.6755624
70	0xbf804a81	-1.0022737
71	0x3ff5320b	1.9155897
72	0xc03194eb	-2.7747142
73	0x4087b1a3	4.240434
74	0x404957f1	3.1459925
75	0xc0243389	-2.5656455
76	0x3d8e28ac	0.06941351
77	0xbca73fba	-0.02041613
78	0xc0826191	-4.07441
79	0xbfa386b2	-1.2775481
80	0xc022454e	-2.53548
81	0xbda5313e	-0.08066033
82	0xc0bfde1c	-5.995863
83	0xbda81a38	-0.08208126
84	0x3f595c4e	0.8490647
85	0x3f6c51c9	0.92312294
86	0xbf195341	-0.5989266
87	0xbdfce709	-0.12348754
88	0xbfdce087	-1.725602
89	0xbf2f35b0	-0.68441296
90	0xbd991398	-0.0747444
91	0xbe856270	-0.26051664
92	0x3f95eb18	1.171237
93	0x3f25e45b	0.6480157
94	0xbddf2167	-0.10895043
95	0xc0968ce5	-4.704699
96	0xbfd32068	-1.6494265
97	0x406c2742	3.689896
98	0x3f509ca5	0.8148902
99	0x3f20220a	0.6255194
100	0x3faea956	1.3645427
101	0x3ebc68aa	0.36798602
102	0x403c5e9a	2.943274
103	0xbf4b3eba	-0.7939259
104	0x3f90abf9	1.1302482
105	0x4098ffb7	4.781215
106	0xbfc5bad1	-1.5447637
107	0x3f408edb	0.7521798
108	0xc01b3063	-2.4248283
109	0x401c2448	2.4397144
110	0x401c413a	2.441481
111	0xbfd73c4b	-1.6815275
112	0xc07629d9	-3.8463042
113	0xc030c42a	-2.761973
114	0xbfa2a993	-1.2708
115	0x3ee4e2d0	0.44704294
116	0x3f954e6a	1.1664555
117	0x3fb3f18a	1.4058087
118	0x404cfcae	3.2029223
119	0x3f17b7e0	0.59264946
120	0xc001f9fa	-2.0308824
121	0xbec0df25	-0.37670246
122	0x40ab9ccc	5.3628902
123	0xbe2ffb2e	-0.17185661
124	0xc0b26a43	-5.5754714
125	0xbff1f715	-1.8903528
126	0xbe0629e2	-0.13101915
127	0xbde8277a	-0.113356546
128	0xc0758650	-3.8363228
129	0xbfdb4546	-1.7130516
130	0x3f9cebed	1.2259499
131	0x40299d2c	2.650218
132	0x404f4334	3.2384768
133	0xc088ce83	-4.275209
134	0x4022931d	2.540229
135	0x3fed62f9	1.8545829
136	0xbbcf3d50	-0.0063244477
137	0xbefa9626	-0.4894268
138	0x4012cd59	2.2937834
139	0xbf849696	-1.0358455
140	0x3fca2b67	1.5794495
141	0xbffc8231	-1.9727231
142	0xc0c7b616	-6.2409773
143	0x3fb5f604	1.4215703
144	0x400587d7	2.086416
145	0xbb9d7d25	-0.004806178
146	0xc04ae629	-3.1702979
147	0x3ef047cc	0.46929777
148	0xbfc8c6f9	-1.5685722
149	0x403ef571	2.9837306
150	0xbf83827f	-1.0274199
151	0x3fa5d3f4	1.2955308
152	0x400c9728	2.1967258
153	0xbc81ddec	-0.01585289
154	0xbfec96dc	-1.8483539
155	0xbd58af7e	-0.052901737
156	0xc01a3729	-2.4096167
157	0xc0129dc2	-2.2908788
158	0xc003b90a	-2.058169
159	0x400e313b	2.2217548
160	0x400275e4	2.0384455
161	0xbe7ed561	-0.24886085
162	0x3f814d20	1.0101662
163	0x3f465bc5	0.7748378
164	0x3f8b54ea	1.0885289
165	0xbfb5fb09	-1.4217235
166	0x3e24c2b8	0.16089904
167	0xbfd637f9	-1.6735831
168	0xbfb7557f	-1.4322966
169	0xbf784a59	-0.96988446
170	0xbfdebbfe	-1.7401121
171	0xbf364796	-0.7120298
172	0x409b595a	4.854657
173	0xbfc0c99a	-1.5061524
174	0x3e10f331	0.1415527
175	0xbefbccee	-0.49179786
176	0xc008168f	-2.1263769
177	0x3fd6caf0	1.6780682
178	0xbe16632b	-0.14686267
179	0xbc8eee2a	-0.01744755
180	0xc0129b98	-2.2907467
181	0x3ffe140d	1.9849869
182	0x3ea99184	0.33118832
183	0xbdb254bb	-0.08707567
184	0x3f0a6bfc	0.5407102
185	0xbf45ff2f	-0.77342504
186	0xc01db976	-2.4644446
187	0xbf56d1f6	-0.83914125
188	0x406af327	3.6710908
189	0x3fd8efa5	1.6948134
190	0xbf93b3de	-1.1539266
191	0xbdeddb7f	-0.11614131
192	0x40a841c3	5.2580276
193	0xc0ab7055	-5.3574624
194	0xc06cdac4	-3.7008524
195	0xbd2356a4	-0.03987755
196	0xbdf9bc28	-0.12194091
197	0x3f8ef06d	1.1167122
198	0x3f1d0540	0.61336136
199	0xbeab7247	-0.33485624

rcsl.backbone.model.6.weight f4 [200, 200]
0	0xbc6d65eb	-0.014489631
1	0xbee98926	-0.45612448
2	0xbf90a2cd	-1.1299683
3	0xbc8ec473	-0.017427659
4	0x3e14323c	0.14472288
5	0x3d8c785b	0.068588935
6	0xbf2bda1e	-0.67129695
7	0xbed0ba83	-0.40767297
8	0xbe86c455	-0.26321664
9	0x3e2f2019	0.17102088
10	0xbf229576	-0.6350931
11	0xbdccce1a	-0.10000248
12	0x3d6f700a	0.05845646
13	0xc014aea7	-2.32316
14	0x3c805f53	0.015670454
15	0x3d107754	0.03527005
16	0x3d849124	0.06472996
17	0x3d8f6ddf	0.07003378
18	0xbe04cf26	-0.12969646
19	0xbe8a8f7f	-0.27062604
20	0x3d937e73	0.07201853
21	0x3d35ca39	0.044382308
22	0x3c3ce801	0.011529923
23	0x3e00de3e	0.12584779
24	0xbe0b205c	-0.13586563
25	0xbe85f22a	-0.2616132
26	0xbf26c412	-0.6514293
27	0x3e0327c0	0.12808132
28	0xbda7ff0f	-0.082029454
29	0x3e4bee67	0.19915162
30	0xbec9ffcb	-0.39452967
31	0xbd804dbb	-0.06264826
32	0x3e078e2a	0.13237825
33	0xbd9444cf	-0.07239687
34	0xbe1da3e2	-0.15394548
35	0xbe289bd8	-0.164657
36	0x3d8ea61b	0.06965276
37	0xbe60ad43	-0.21941094
38	0x3d5693ce	0.05238705
39	0xbf10f8e2	-0.56629765
40	0x3ecb68e0	0.3972845
41	0x3ea903ef	0.33010814
42	0x3dea8f85	0.114531554
43	0xbe497320	-0.19672823
44	0x3e25a368	0.16175616
45	0xbc511d64	-0.012763355
46	0x3ec576d1	0.38567212
47	0xbdc75205	-0.09732441
48	0xbf270ce1	-0.65254027
49	0xbe4ef908	-0.20212185
50	0xbe328092	-0.17431858
51	0x3d88941a	0.06668873
52	0x3ebf5524	0.37369645
53	0x3e5499e7	0.20761834
54	0xbdf6ebd2	-0.12056698
55	0xbdc7b2f1	-0.09750927
56	0xbe154e15	-0.14580567
57	0x3d964595	0.073374905
58	0xbcff0137	-0.031128509
59	0xbdb22889	-0.08699138
60	0xbd9454d4	-0.07242742
61	0xbd5969b5	-0.053079326
62	0xbe0bc355	-0.13648732
63	0xbdd39ba9	-0.10332424
64	0x3d43aed9	0.04777417
65	0x3d242c34	0.040081218
66	0xba383e41	-0.00070283195
67	0xbd75d829	-0.0600206
68	0xbd4633ee	-0.048389368
69	0x3cb56203	0.022141462
70	0xbd98af99	-0.074553676
71	0xbdc91646	-0.098187014
72	0xbd7bef49	-0.061507497
73	0xbc6da3c7	-0.01450438
74	0x3de8635b	0.113470756
75	0xbde830e2	-0.11337449
76	0xbf2b2527	-0.66853565
77	0x3c89a5c6	0.01680268
78	0xbd853a13	-0.065052174
79	0x3e67d052	0.22638062
80	0x3e217483	0.15767102
81	0xbe10aa28	-0.1412741
82	0xbd6ea334	-0.05826111
83	0xbbca4c38	-0.0061736368
84	0x3f0a33c3	0.5398523
85	0xbcd5e33d	-0.026109332
86	0x3cfdefd7	0.030998154
87	0xbd9b0fbc	-0.075713605
88	0x3d594b96	0.0530506
89	0xbd772425	-0.060337204
90	0xbd8bb5e6	-0.06821804
91	0xbebb1f1d	-0.36547175
92	0xbe177624	-0.14791161
93	0x3ceb3c39	0.02871524
94	0x3d986352	0.07440819
95	0xbdaa1e45	-0.08306555
96	0xbda77caf	-0.081780784
97	0x3e1815cb	0.14852063
98	0x3df75616	0.120769665
99	0xbe1c100b	-0.15240495
100	0xbe0b47db	-0.1360163
101	0xbd00a0d1	-0.031403366
102	0x3d386ca1	0.04502547
103	0xbf11daf4	-0.5697472
104	0x3e0f0fb0	0.13970828
105	0xbe900128	-0.28125882
106	0x3ed6358d	0.4183773
107	0xbe80954a	-0.251139
108	0xbdb55f04	-0.088560134
109	0xbe92e263	-0.28688344
110	0xbe4759de	-0.19467875
111	0x3bae0779	0.0053109494
112	0x3dd09ce9	0.10186178
113	0xbde28be7	-0.110618405
114	0x3e2b3509	0.1671945
115	0xbf13a094	-0.576669
116	0x3d471161	0.04860056
117	0x3d61b7b8	0.05510685
118	0x3e85c6ec	0.26128328
119	0xbdb6bc5a	-0.08922644
120	0xbd8c327b	-0.06845566
121	0xbd8f764d	-0.07004986
122	0x3bc256f0	0.005930774
123	0x3da7862b	0.081798874
124	0x3dc4d986	0.09611802
125	0x3e6a0e8d	0.22857113
126	0x3c145acf	0.009054854
127	0x3d4a13ac	0.049335167
128	0xbee9a3c2	-0.4563275
129	0xbd3bfdba	-0.04589627
130	0xbaf15042	-0.001841076
131	0x3e7fa1d0	0.2496407
132	0xbdb3e45a	-0.08783789
133	0xbdfd3514	-0.123636395
134	0x3e022ad5	0.12711652
135	0x3e80e581	0.25175098
136	0xbc465deb	-0.012107353
137	0xbd8eece2	-0.069787756
138	0x3da02505	0.07819561
139	0x39b15a5e	0.000338274
140	0xbe3d0316	-0.18458208
141	0xbe2909f8	-0.16507709
142	0xbedff029	-0.43737915
143	0x3e06b0f6	0.13153443
144	0xbdba1ba2	-0.09087302
145	0x3e99146f	0.29898402
146	0x3caaaeb5	0.02083526
147	0xbe2e725d	-0.17035814
148	0x3e169eca	0.1470901
149	0x3e0656ff	0.13119124
150	0xbcf96b5c	-0.0304467
151	0x3dee618a	0.11639698
152	0x3dd77476	0.1052026
153	0x3d03a37f	0.032138344
154	0xc01ab52e	-2.4173083
155	0xbd0054a9	-0.03133074
156	0x3e5af7d5	0.21383603
157	0xbd68f79b	-0.05687676
158	0xbe421001	-0.18951418
159	0x3d0a8ed7	0.03382763
160	0xbc81c91b	-0.015842965
161	0xbb497b14	-0.0030743526
162	0xbcf18b36	-0.029485326
163	0xbbce822e	-0.0063021397
164	0xbcf8d812	-0.030376468
165	0x3d3b05bc	0.045659766
166	0xbe90ba01	-0.2826691
167	0x3c225bae	0.009909553
168	0x3d03d88d	0.03218894
169	0xbda99d37	-0.082819395
170	0xbdb70818	-0.08937091
171	0x3e8c3dc3	0.2739087
172	0x3e98c45b	0.29837307
173	0x3ceeec0f	0.029165296
174	0x3dc022ba	0.093816236
175	0xbd306f69	-0.043075
176	0xbdfdb8e9	-0.123887844
177	0xbd978668	-0.07398683
178	0x3aa05f32	0.0012235402
179	0x3d39dc38	0.045376033
180	0xbe72146d	-0.23640604
181	0x3d3bc246	0.04583957
182	0x3d8545f2	0.06507482
183	0xbd0fb0ff	-0.035080906
184	0x3dca75cc	0.09885749
185	0x3c864080	0.016388178
186	0x3da242e2	0.07922913
187	0xbe1dba62	-0.1540313
188	0x3e0a669d	0.13515706
189	0x3e8dd52b	0.27701697
190	0x3dcfedf9	0.101528116
191	0xbd693aef	-0.05694097
192	0xbe9b328a	-0.30311996
193	0xbdc84cca	-0.09780271
194	0xbd086628	-0.03330055
195	0xbd89693c	-0.06709525
196	0xbda67089	-0.08126933
197	0xbef0817d	-0.46973792
198	0xbc9e037e	-0.019288775
199	0xbed0e39e	-0.40798658
200	0xbe6f2918	-0.2335552
201	0xbe06cce1	-0.13164093
202	0x3e1a5653	0.15071993
203	0x3e8386f1	0.2568889
204	0x3d7327bc	0.059364066
205	0xbecffd98	-0.40623164
206	0xbde9c42e	-0.114143714
207	0xbf88d7f9	-1.069091
208	0xbdc95477	-0.098305635
209	0xbe3c6d16	-0.18400988
210	0x3e80b646	0.25139064
211	0xbe3864dd	-0.18007226
212	0x3d77c45c	0.060489997
213	0x3ca055da	0.019572187
214	0x3d5561eb	0.052095335
215	0x3e3bbfe2	0.18334916
216	0x3d031bb9	0.03200886
217	0xbdc808f1	-0.097673304
218	0xbf155ec9	-0.58347756
219	0xbe8353f5	-0.25649992
220	0x3dc11cd0	0.09429324
221	0xbf0eb759	-0.55748516
222	0xbc7c7142	-0.015407862
223	0xbdd7058a	-0.10499103
224	0xbf02148a	-0.5081259
225	0xbd4c3689	-0.049856696
226	0x3e2d30dd	0.16913171
227	0x3d4fa734	0.050696567
228	0x3d0169ff	0.031595226
229	0xbe37bad3	-0.17942362
230	0xbd270b3a	-0.04078219
231	0x3e1419f5	0.14463027
232	0xbdb49287	-0.088170104
233	0x3c854913	0.016270196
234	0xbd98388b	-0.0743266
235	0x3e2c223e	0.16809937
236	0xbe08060e	-0.1328356
237	0x3e06c988	0.13162816
238	0x3e369dd9	0.17833652
239	0x3d69c7c7	0.05707529
240	0xbe37567e	-0.17904088
241	0xbd71d7a5	-0.059043545
242	0xbab6a930	-0.001393592
243	0x3d4cec18	0.050029844
244	0x3c2ffe29	0.010741749
245	0x3d074a54	0.03302987
246	0xbeb2e9a9	-0.34943894
247	0x3db8af0f	0.09017765
248	0x3e933624	0.28752244
249	0xbdbe145e	-0.092812285
250	0xbd183c82	-0.03716708
251	0xbd860ad9	-0.06545038
252	0x3a06b4d0	0.00051386375
253	0xbda240d2	-0.0792252
254	0xbdb296b9	-0.08720154
255	0xbdd66757	-0.10468929

rcsl.backbone.model.6.bias f4 [200]
0	0xc02b175c	-2.6733007
1	0x3fc53f0e	1.5409868
2	0xc027536c	-2.6144667
3	0xbe192e23	-0.14959006
4	0x3f9f5636	1.2448184
5	0x40015300	2.020691
6	0x3ee031db	0.43788037
7	0xbd9bb7e6	-0.07603435
8	0x3e217319	0.15766563
9	0xbffdb8b6	-1.9821994
10	0x4046b6f3	3.1049163
11	0xbe4ca25f	-0.19983815
12	0x3ee7c5f0	0.45268202
13	0x4010f187	2.2647417
14	0xc0058325	-2.0861294
15	0x4009ef5e	2.1552348
16	0x3e48bb4f	0.19602703
17	0xbf89b2a7	-1.0757645
18	0xbf0e2cbe	-0.5553702
19	0x4016b09e	2.3545299
20	0x3fabb716	1.3415248
21	0xbf876003	-1.0576175
22	0xbf02177d	-0.5081709
23	0x400730f9	2.112364
24	0xbeae15dc	-0.34001052
25	0x4014f32b	2.3273418
26	0x40431c5d	3.0486062
27	0xbe0c3eb9	-0.13695802
28	0xbfdd3fe6	-1.7285125
29	0x4030d56b	2.763026
30	0x3f54b7fd	0.83093244
31	0xbea513fe	-0.32241815
32	0xbf2d40be	-0.67676914
33	0xbf78d888	-0.972054
34	0xbe57eeb6	-0.21087155
35	0x3fb7e205	1.4365851
36	0x3e53aefe	0.20672223
37	0x402b6d84	2.6785593
38	0xbe0f15f3	-0.13973217
39	0x401da2fe	2.4630733
40	0x400a9f35	2.1659672
41	0x3f5f707e	0.87281024
42	0xbfa3cfec	-1.2797828
43	0x4027c25d	2.621238
44	0x3fff1e9b	1.9931215
45	0x3f9d1b1e	1.22739
46	0xbf0c6494	-0.5484097
47	0x401f0254	2.484517
48	0x3f2bc3bf	0.6709556
49	0xbfd963ea	-1.6983616
50	0xbdf91fed	-0.121642925
51	0xc0546bf5	-3.3190892
52	0xbf3227ab	-0.6959178
53	0xbe267973	-0.16257267
54	0x403668fa	2.8501573
55	0x3f7032bc	0.93827415
56	0x3f78a124	0.9712088
57	0xbe41f1b5	-0.1893986
58	0xc00535ab	-2.0814006
59	0xbde7ecdf	-0.113244765
60	0xbec0aed3	-0.3763338
61	0xbf4519b7	-0.7699236
62	0xbe26a5b6	-0.16274151
63	0x40566d10	3.3504066
64	0x3f971c96	1.1805599
65	0xbf89b44a	-1.0758145
66	0x3f400e48	0.7502179
67	0xc02bb7a0	-2.6830826
68	0xbeea9477	-0.45816395
69	0x3f1cd027	0.61255115
70	0x40039d9b	2.0564945
71	0xbeecea2b	-0.46272406
72	0x40030a28	2.047495
73	0x3fb460d7	1.4092053
74	0xbe328227	-0.17432462
75	0xbdfebfbb	-0.124389134
76	0xc011fd5e	-2.2810893
77	0x3ffd8da8	1.9808855
78	0xc033b653	-2.8080032
79	0x3fde9247	1.738839
80	0x3f1f7c43	0.62298983
81	0xbfa36510	-1.2765217
82	0xbda9c006	-0.08288579
83	0x3f2aca61	0.66715056
84	0xbf25a2a4	-0.64701295
85	0x3f845b09	1.0340282
86	0x3f8ac05d	1.0839955
87	0x3f50e501	0.8159943
88	0x3ed8e4d3	0.4236208
89	0x3efe6eaf	0.4969382
90	0xbe30da02	-0.17270663
91	0x3f761333	0.96123046
92	0x3fb1ce43	1.3891071
93	0xc02cbda7	-2.6990755
94	0x4043e167	3.0606325
95	0xbe2390e2	-0.15973237
96	0xc040ee99	-3.0145628
97	0x40577951	3.3667796
98	0xbfdb9280	-1.7154083
99	0xbee14bf7	-0.4400327
100	0xbf573240	-0.8406105
101	0x40014ff3	2.0205047
102	0x40192d05	2.3933728
103	0xbfa6e006	-1.3037117
104	0xbfc2490b	-1.5178541
105	0xbe1cf9cc	-0.15329665
106	0xbf93e414	-1.1553979
107	0x40139319	2.3058531
108	0x4019189c	2.392127
109	0xbf26137b	-0.64873475
110	0xc0155130	-2.3330803
111	0x3fcc5a1a	1.5964997
112	0xbdd13d81	-0.10216809
113	0xbe0a7fae	-0.13525268
114	0x3f1fabb4	0.62371373
115	0x3f65a437	0.89703697
116	0xc00607ab	-2.094218
117	0xbf1df1c7	-0.6169705
118	0xbf4bb7f5	-0.7957757
119	0x3fc3e694	1.5304742
120	0x4010eb8a	2.2643762
121	0xbfdd1a91	-1.7273732
122	0x3fec101d	1.8442417
123	0x40142f26	2.3153777
124	0x3f9adc93	1.2098564
125	0xc058c836	-3.38722
126	0x3f10ed0e	0.56611717
127	0xbd8d0045	-0.06884817
128	0x4013d259	2.3097136
129	0x3f51e665	0.8199218
130	0x3f83136a	1.02403
131	0xc0a5d29f	-5.1819606
132	0x3f5d2022	0.86377156
133	0x400488d7	2.070852
134	0x3ffa36d4	1.9547982
135	0xbe834c73	-0.25644264
136	0x3f9f7f93	1.2460808
137	0xbf866ddf	-1.050228
138	0xc0b863cd	-5.7621827
139	0x4011f235	2.2804081
140	0x3fce57cb	1.6120542
141	0xc0310510	-2.765934
142	0xbf03e3ee	-0.5151967
143	0xbe0df5db	-0.13863318
144	0x3ff958a8	1.9480181
145	0x404ceea8	3.2020664
146	0xc01ad737	-2.4193857
147	0x3fce995c	1.6140552
148	0x3f067eba	0.5253712
149	0x40582317	3.3771417
150	0x40023ae2	2.034844
151	0xc03f4f0d	-2.9891999
152	0x402b49a3	2.6763694
153	0x3fb8e1b1	1.4443876
154	0x3f9be57a	1.2179406
155	0x4032184b	2.7827327
156	0xbc2d85f1	-0.010591016
157	0xbe06830a	-0.13135925
158	0xc012500d	-2.286136
159	0xc0283d80	-2.6287537
160	0x3f8d76ad	1.1051842
161	0x3fd5d348	1.6705103
162	0xbe7721ac	-0.24133939
163	0x3ffdc4f1	1.9825727
164	0xc0119605	-2.2747815
165	0x3fc199ac	1.5125022
166	0xc073bc0c	-3.8083525
167	0x4023c0ab	2.5586345
168	0x3fa54a57	1.2913312
169	0x4022a988	2.5415974
170	0x4018828c	2.382968
171	0xbe246c61	-0.16056968
172	0xbf894e2a	-1.0726979
173	0x402e8444	2.7268229
174	0x3fc5712d	1.5425164
175	0x4038d216	2.8878226
176	0x3fb359b8	1.4011755
177	0xbbefd46c	-0.007319024
178	0xbdd9d8ad	-0.10637031
179	0x403e03e7	2.9689882
180	0x3fe80d5f	1.812908
181	0xbeb7709f	-0.3582811
182	0xbe0def85	-0.138609
183	0xc0bf5a71	-5.97979
184	0xc078d390	-3.8879128
185	0xc00f532a	-2.239451
186	0xbeb662e9	-0.35622337
187	0x40099501	2.1497195
188	0x3f072bc1	0.5280114
189	0x4048c85e	3.1372294
190	0xbfc417c4	-1.5319753
191	0x40178184	2.36728
192	0xc06f68dd	-3.7407753
193	0x3fb4caba	1.4124367
194	0x402fc201	2.746216
195	0xbe572896	-0.21011576
196	0x3fb1b421	1.3883096
197	0xbf58cba8	-0.84685755
198	0x4015e513	2.3421066
199	0x400cc310	2.1994057
