backup/linearq_newenv/rcsl_0.75expert/timestamp_23-0926-112202&48-[16]/checkpoint/policy.pth (torch, 1945 bytes, 3 tensors)

rcsl.backbone.model.0.weight f4 [16, 2]
00000000: 1e9c 4a3b ab57 c83e b1fc 14bf 1d38 05bf
00000010: 7282 c1be 9ae1 303e 5d7c 893d 19e1 0b3f
00000020: c8da 94bd f4f5 383e 5dd3 5abe 1b54 0ebe
00000030: c2ef 2cbf 90c5 efbe db4c 78be c882 033e
00000040: 2de3 bf3e fa8f cf3e de70 f5be 86a7 9dbe
00000050: 3df2 353e 65ae 193f 693e 51be 5a8a 013f
00000060: 0788 34be db66 ac3d c90a 273f d180 03bf
00000070: c5ea e3be ac4f 37be d248 83be 04a3 1c3f
0.0030915807 0.39129385 -0.58198076 -0.5203875 -0.37794834 0.1727356 0.067131735 0.54640347
-0.07268292 0.18062574 -0.21369691 -0.13899271 -0.6755334 -0.46830416 -0.24248068 0.12842858
0.3747801 0.40539533 -0.47937673 -0.30791873 0.17768188 0.6003173 -0.20433964 0.5060173
-0.17630015 0.084180556 0.6525083 -0.51368433 -0.44515052 -0.17901486 -0.25641495 0.6118624

rcsl.backbone.model.0.bias f4 [16]
00000000: e5e2 0cbf 86a8 a6be 77bb fdbe 5dad 08bf
00000010: 4731 e3be 979a 1b3f 5e8c a13e 9bad 193f
00000020: 4f0c 403e 7b9c b9be 2a49 adbb e047 30bf
00000030: 5754 f4be 3568 01be 876c e43e 973a d03e
-0.55033714 -0.32550448 -0.49557087 -0.5338953 -0.44373533 0.6078276 0.31552404 0.60030526
0.18754695 -0.36252198 -0.005288263 -0.6885967 -0.47720596 -0.12637408 0.4461405 0.406697

rcsl.backbone.model.2.weight f4 [1, 16]
00000000: 7892 fcbd 20cb 13bc 26ac 2e3e 335f 713e
00000010: 51f3 cb3d c855 0a3d fea4 2b3e 0906 acbe
00000020: cb21 7f3d 6c7a 46be d508 2fbe 8219 01be
00000030: 03ca 0d3e 0c93 97bb 6aa4 17be ad8b 963d
-0.12332624 -0.009020597 0.17057857 0.23571472 0.09958518 0.033773214 0.16762158 -0.33598354
0.062288087 -0.19382638 -0.17093213 -0.12607387 0.13846593 -0.0046256837 -0.14808813 0.0735086
