backup/halfcheetah-medium-v2/rcsl/rcsl/timestamp_23-0905-074003&3/checkpoint/policy.pth (torch, 505723 bytes, 10 tensors)

rcsl.backbone.model.0.weight f4 [200, 18]
000000 0f b2 59 40 c4 4d f8 3f 91 8f 53 c0 52 87 f1 bf
       3.4014928 1.9398732 -3.3056376 -1.8869421
000010 62 d1 dd bf 93 28 75 c0 ee d0 b1 c0 2b f0 94 c0
       -1.7329524 -3.8306015 -5.556754 -4.6543174
000020 02 81 fe bf f4 87 16 40 0e 01 1c 3f 0f 1d 34 3d
       -1.988312 2.352048 0.6093911 0.043973025
000030 d5 3e 56 bd 5d 0a c7 be 01 be 2f bf 42 8b 30 be
       -0.052306015 -0.38875094 -0.686493 -0.17240623
000040 a1 e5 bb be f5 b0 12 bd 92 a5 5f c1 1a ab 41 c1
       -0.3669863 -0.03581329 -13.977922 -12.104273
000050 84 5d 3a be 58 1a 03 41 10 6b 2a c0 ed 37 13 c1
       -0.18199736 8.193932 -2.6627846 -9.201154
000060 e6 ab ed 40 2c 6e 4e 41 36 f2 03 be 8f 31 12 3f
       7.4272337 12.901897 -0.12885365 0.5710687
000070 1c 7c 94 c0 fa 7e e2 be 1a 24 93 bf 6d d7 99 3e
       -4.64015 -0.442375 -1.1495392 0.3004717
000080 06 56 93 bf 7f 92 1e bf 8e 67 8b bf d1 3b 3c b9
       -1.1510627 -0.61942285 -1.0890977 -0.0001795136
000090 6a fe ab c0 e7 95 e0 be 92 86 92 3f 26 3e 76 be
       -5.3748064 -0.43864366 1.1447318 -0.24047145
0000a0 16 06 b0 40 6a 0f ba c0 da 22 89 c0 19 73 44 40
       5.500743 -5.8143816 -4.2855043 3.069525
0000b0 b1 dc 05 bf 7a 2d 4b c0 24 11 c8 bf 88 c7 1a bf
       -0.52289873 -3.1746507 -1.5630231 -0.6046071
0000c0 fe 98 a4 3d 0f 15 04 3e 20 5c 50 3e da 58 03 3d
       0.080369934 0.12898658 0.20347643 0.032067157
0000d0 72 f4 f2 bd 1a a9 1d bd 9b 86 32 40 69 de ac 3f
       -0.118630305 -0.038491346 2.7894657 1.3505374
0000e0 ba 93 a6 bf 45 d0 90 3f 3d b4 60 40 4b cd da 3f
       -1.3013833 1.1313559 3.5110009 1.70939
0000f0 c2 04 5a c0 ea 65 1a 40 dd 51 55 bf 02 17 81 3f
       -3.4065404 2.4124703 -0.8332804 1.0085146
000100 a3 60 81 be 4f e3 cd 3e a7 36 83 3e 7e b0 02 3e
       -0.2526904 0.40212485 0.25627634 0.12762639
000110 19 41 25 be fc 38 99 3f 62 dd c7 bd eb 36 22 bd
       -0.16138114 1.1970515 -0.09759022 -0.039603155
000120 cb 96 14 41 b1 31 81 40 12 66 0f 3e ee 4d 38 41
       9.286815 4.037316 0.1400378 11.519026
000130 b8 04 2b 40 02 56 08 41 80 ec 7e c0 f8 1b 1c 3f
       2.672163 8.520998 -3.9831848 0.60980177
000140 1c 28 2c c0 51 0e a1 be 93 ba 92 bf ab 47 28 3f
       -2.689948 -0.31456235 -1.1463188 0.65734357
000150 24 d7 99 3e 6f d3 f9 be 1a 27 08 3e c7 a7 07 be
       0.30046952 -0.48794124 0.13296166 -0.13247596
000160 a7 0b 22 3e 55 bf 2b bc 3a 05 2a 40 81 55 46 be
       0.15824758 -0.010482629 2.656569 -0.19368555
000170 58 b5 35 c0 05 3c 14 40 7d 20 4d c0 9d 0e 18 40
       -2.8391933 2.3161633 -3.205108 2.375892
000180 e8 88 32 c0 0c 46 ab 40 04 2b 11 bf 26 81 31 c0
       -2.789606 5.3523006 -0.5670626 -2.7735076
000190 7a 41 a9 3c c8 4d 74 3f e1 a9 4f bd 5a 64 2b bf
       0.020661104 0.95431185 -0.05069912 -0.6695
0001a0 49 b0 5a 3e 1b 05 a2 be 8c 15 94 3c 2d 13 47 bd
       0.2135631 -0.3164452 0.01807668 -0.04860227
0001b0 c2 7d 86 40 20 b4 c1 c1 6b 29 aa bf 1b 04 3a 3f
       4.2028513 -24.212952 -1.329389 0.72662514
0001c0 29 7f 94 bf c7 4f db c0 25 91 1e c1 dd 75 64 3d
       -1.1601306 -6.8534884 -9.910436 0.055776466
0001d0 e8 a0 19 40 12 20 8d 40 3a f9 3c 40 dd 05 2f 3f
       2.400446 4.410165 2.9527116 0.6836832
0001e0 fc 75 7b 3f 9d c1 ad bc 73 e8 a6 be 48 2c 10 3f
       0.98226905 -0.021210486 -0.3259922 0.5631757
0001f0 37 9f ee 3c 44 ff b3 b8 49 07 20 40 72 bb 71 be
       0.029128654 -8.582932e-05 2.5004447 -0.23606661
000200 1e cf 32 3f 10 63 78 c0 fc 60 76 bf ca d9 73 c0
       0.69847286 -3.8810463 -0.96241736 -3.8101678
000210 08 95 b9 40 67 fe a4 40 76 95 fd bf 21 bc b0 40
       5.7994423 5.156055 -1.9811237 5.522965
000220 15 0e e3 3e 10 10 c4 3d cc de 62 bf 31 69 0f 3f
       0.4434668 0.09573376 -0.8862121 0.56019884
000230 46 ee 01 bf 1c 8c 18 3e d5 f8 5a 3d ae b2 5e bd
       -0.507542 0.14897197 0.05345996 -0.05436962
000240 b4 e7 cf 40 a5 fc 84 c0 b5 dc a3 3f 33 33 86 c0
       6.497034 -4.1558404 1.280173 -4.19375
000250 2c 7d 26 c0 50 08 5f 40 f8 d9 d2 c0 2c e4 27 40
       -2.60139 3.4848824 -6.5891075 2.6233015
000260 2e 36 61 bf c9 96 2b 40 88 f3 86 be 4e 45 db 3e
       -0.87973297 2.6810782 -0.26357675 0.42826313
000270 69 ac 6b 3e 22 7c 67 3e 4f 06 b1 bd 85 23 5e bf
       0.23014988 0.22605947 -0.086437814 -0.8677295
000280 e5 d1 bc 3e 07 d0 20 bd 36 c6 4f c1 f7 57 3d c1
       0.36878887 -0.03926089 -12.985891 -11.833976
000290 e4 82 05 3d 9a 5f 84 40 32 6c d6 bf 5f 9b c7 bf
       0.03259553 4.13667 -1.6751769 -1.559429
0002a0 eb 33 91 c0 88 2f 1a 41 26 f6 2f bf cb 9a fd c0
       -4.5375876 9.636604 -0.6873497 -7.9251456
0002b0 b0 12 86 bf 7a 86 4a 3f 79 9a ae 3e 75 bc a9 3f
       -1.0474453 0.79111445 0.34102228 1.3260638
0002c0 9f 44 5f bf 97 45 ac 3f b9 f2 96 3f f3 4f 81 39
       -0.8721408 1.3458737 1.1792823 0.00024664364
0002d0 2a c6 64 c0 ed 53 43 3f c5 b9 f5 40 e3 f8 07 40
       -3.574595 0.76299936 7.678927 2.1245658
0002e0 a6 6f 8f 40 71 12 00 c1 4c 5f f4 3d 25 60 1d 40
       4.482379 -8.004502 0.11932239 2.4589932
0002f0 96 ff fa bf ea db f6 3f f5 8c 35 40 cf 30 04 3e
       -1.9609249 1.9285862 2.8367283 0.12909244
000300 c9 dd 15 be 91 a0 fd 3d bd cd 60 3f eb 69 c7 3e
       -0.14635386 0.12384141 0.8781393 0.38947996
000310 5e 35 31 bf 6b 55 05 bd 96 93 1a c0 7f 56 e0 3e
       -0.69222057 -0.032552164 -2.415258 0.4381599
000320 00 21 40 c0 41 1e b1 40 df 8a 31 40 0c 31 c1 be
       -3.0020142 5.534943 2.774101 -0.37732732
000330 c3 d8 e7 3f 41 7f b7 c0 2e d7 16 c0 6b ca f1 3f
       1.8113025 -5.734284 -2.3568835 1.8889898
000340 e1 dc 68 bf d2 0c bf be 1d e0 42 bf 2b 87 24 be
       -0.90962034 -0.3731447 -0.7612322 -0.16067187
000350 00 4f 8a 3d 6e 63 9e be 89 78 6a bf 75 ab 8f bd
       0.06753349 -0.30935234 -0.9159017 -0.07015125
000360 c6 4c ab 40 d2 65 8e c0 64 8c ee 3e 99 6c 5d be
       5.3531218 -4.449929 0.46591485 -0.21623458
000370 26 ee 47 40 e0 9b 60 40 e8 bc e7 3f 2a c2 a2 c0
       3.1239104 3.5095139 1.8104525 -5.0862017
000380 e3 fc 17 bf 2a 33 d0 bf 3e 64 17 c0 d5 90 0e be
       -0.5937025 -1.6265614 -2.3654933 -0.13922437
000390 56 35 9a 3e f5 b5 5d bf 7b 88 ed 3d 25 e4 55 be
       0.30118817 -0.8660577 0.11598297 -0.20887811
0003a0 e4 36 22 3e e8 17 ed bc ec 21 dd c0 8e 78 de 3f
       0.15841252 -0.028942063 -6.910391 1.738054
0003b0 71 38 15 40 b3 16 12 40 41 72 24 3f 78 a0 dd 3f
       2.33157 2.2826355 0.6423684 1.7314596
0003c0 a7 8e 0a 3f 64 88 54 40 e7 0a 2f c0 5a 96 ed 3f
       0.5412392 3.3208246 -2.7350404 1.8561509
0003d0 5f 1e fd 3e f5 5b 51 3c 00 6e 8a 3f 08 97 35 3e
       0.49437234 0.012778272 1.0814819 0.17733395
0003e0 0c 64 5a bd 1f dc 30 bf db d5 2f 3f 6c 36 f5 bc
       -0.05331807 -0.6908588 0.6868569 -0.029933177
0003f0 18 6a bb 40 59 e6 d1 be 76 c5 d9 bf 97 0a eb bf
       5.856701 -0.40996054 -1.7013385 -1.8362607

rcsl.backbone.model.0.bias f4 [200]
000000 02 88 26 bf 75 2d b6 bf 7a 7c cc bf fe e9 2b c0
       -0.6505128 -1.4232622 -1.5975487 -2.6861567
000010 54 2b 71 3f b1 82 c4 bf b1 80 aa 3d 11 cb 0d c0
       0.9420674 -1.5352384 0.08325327 -2.2155192
000020 51 a1 ee bf 89 0d 19 c0 b4 8c d2 bf bc 74 6f bf
       -1.864298 -2.3914511 -1.6449189 -0.935375
000030 3f 5a f6 bf e4 c6 1a c0 ef ec 33 c0 62 0c e0 bf
       -1.9246291 -2.4183893 -2.8113363 -1.7503779
000040 a6 76 23 40 7a ed 22 c0 19 03 6b 40 ff 24 3a c0
       2.5541167 -2.5457444 3.672064 -2.908508
000050 af b5 3f 40 c7 1d 6b 3e 84 33 09 3e 34 3b 62 c0
       2.995464 0.22960578 0.13398558 -3.5348635
000060 2a f0 72 bf 19 43 24 c0 34 39 0a c0 ce 70 11 c0
       -0.9489771 -2.5665953 -2.1597414 -2.27251
000070 6b e1 86 bf ce 5f b6 bf 10 2e 47 40 8d 9f 2c c0
       -1.0537542 -1.4247987 3.1121864 -2.6972382
000080 9d e7 fa bf 5d 85 2b 3f 3e e4 87 c0 0d d4 fa bf
       -1.9601933 0.6700037 -4.2466116 -1.9595963
000090 95 b9 13 40 8f af 96 3d b2 1d de bf 5f 0e 99 3f
       2.308202 0.07357704 -1.7352812 1.1957511
0000a0 39 32 c2 bf c1 75 32 3f 0d 26 ea 3e 01 41 64 bf
       -1.5171577 0.6971093 0.45732155 -0.8916169
0000b0 79 cb 17 bf ea 21 61 c0 3b 5b 02 c0 bf 1a 9f bf
       -0.5929485 -3.517695 -2.0368183 -1.2430037
0000c0 2c 6a 88 bf 1e 83 0f c0 29 3b e7 bf db 62 9e bf
       -1.0657401 -2.2423778 -1.8064929 -1.2373918
0000d0 2f 08 ed bf 2c af 48 c0 60 65 1e 3f 71 e0 05 c0
       -1.8518122 -3.1356916 0.61873436 -2.0918238
0000e0 54 54 1e c0 02 88 f0 3e 6f 19 70 c0 92 f5 d3 3e
       -2.473897 0.46978766 -3.7515523 0.41398293
0000f0 e9 8b 37 bf 33 ce 5b bf 5d 53 75 40 8d c2 6e c0
       -0.7169786 -0.8586151 3.833213 -3.7306244
000100 55 1a eb be 76 d0 01 c0 01 43 a0 bf 8d 0b 24 3f
       -0.45918527 -2.0283484 -1.2520448 0.64080125
000110 8b 50 41 bf bf df 52 3f a6 c1 58 bf f2 da 81 c0
       -0.75513524 0.8237266 -0.84670484 -4.0579767
000120 9d cb 1c bd 2a 75 40 40 a1 f9 98 bf 13 33 8b 3e
       -0.03828012 3.0071511 -1.1951181 0.27187404
000130 94 c1 ee bf af 34 2d c0 1e 0b 71 be b9 9d d4 bd
       -1.8652825 -2.7063406 -0.23539397 -0.10381646
000140 b0 4f 25 c0 8f 9c 12 c0 c2 b9 3f bf cb 79 34 40
       -2.5829887 -2.2908056 -0.7489282 2.8199337
000150 0c eb 10 c0 f0 38 64 c0 19 4e 40 c0 8d cc de bf
       -2.2643461 -3.5659752 -3.0047667 -1.7406174
000160 55 b4 5e c0 21 ed 20 3f 1f d3 c4 3d 46 d7 c3 bf
       -3.4797566 0.6286183 0.09610581 -1.5300071
000170 e9 42 8e be 4a ef 60 c0 9e c6 c8 bf 41 32 77 3f
       -0.27785423 -3.514605 -1.5685613 0.96561056
000180 7b 39 43 c0 fc 89 18 c0 10 07 d0 3e 95 26 32 c0
       -3.0503833 -2.383422 0.40630388 -2.7836049
000190 ff b9 06 40 a6 50 23 c0 a6 51 60 c0 d0 d5 4b 40
       2.1051023 -2.5517974 -3.5049834 3.184925
0001a0 57 41 e0 bf 42 66 df 3f 39 a1 3b bf cb b7 1c 40
       -1.751994 1.7453082 -0.7329288 2.4487178
0001b0 c6 63 f3 bf 05 34 8b be 6e ef ea 3f e0 53 52 c0
       -1.9014823 -0.27188125 1.8354318 -3.2863693
0001c0 3c 88 c7 3e 9f 13 ea be f6 e0 1d bf 7e 02 ec 3f
       0.38971126 -0.45718095 -0.6167139 1.843826
0001d0 b9 46 cc bf e1 ae b2 40 dd ee 39 c0 79 d6 8c bf
       -1.5959083 5.5838475 -2.905204 -1.1002952
0001e0 38 59 b6 40 bd 51 a5 bf 1a d2 14 c0 30 b7 23 bf
       5.698391 -1.291557 -2.3253236 -0.63951397
0001f0 11 d2 d5 bf f7 cc 8f 40 da 69 87 bf e1 a9 77 40
       -1.6704732 4.49377 -1.0579178 3.8697436
000200 60 c7 a1 bf 5b 65 15 c0 5e 31 4c bf 30 ce de be
       -1.263897 -2.3343112 -0.7976283 -0.43516684
000210 77 0f 35 c0 2e 20 e1 40 73 df e4 bf b5 11 8c bf
       -2.829069 7.035178 -1.7880691 -1.0942904
000220 a4 17 37 c0 50 59 e8 be 10 1d d3 be 0c 73 0d c0
       -2.860818 -0.4538064 -0.4123311 -2.210147
000230 0e 9e 86 40 fc 37 9b 40 fe 23 be 40 e5 1c 19 c0
       4.206794 4.850584 5.9418936 -2.3923886
000240 61 4c da bf f1 5c ec bf dd db 15 40 81 e5 11 c0
       -1.7054559 -1.8465863 2.3415444 -2.2796328
000250 a0 e3 1e c0 23 69 aa bf fd cd f6 3f a7 70 28 c0
       -2.4826431 -1.3313335 1.9281613 -2.6318758
000260 09 28 b2 bf 9f d6 3b c0 73 62 8b c0 c0 0b 2c 40
       -1.3918468 -2.9349744 -4.3557677 2.6882172
000270 64 ee a9 40 49 b0 08 c0 7a 35 f7 be 36 db df be
       5.3103504 -2.1357596 -0.48282987 -0.43721932
000280 23 00 14 bf 36 db 4c c0 ff d6 61 be 16 7c c7 bf
       -0.5781271 -3.2008796 -0.22054671 -1.5584743
000290 0d a5 3c c0 a7 4e f7 3f 97 7d e2 bf 36 b0 1b c0
       -2.947574 1.9320878 -1.7694577 -2.43263
0002a0 82 2d b3 3f 25 3e f4 bf 40 14 5f be fb 8e c0 40
       1.3998263 -1.9081465 -0.21785069 6.0174537
0002b0 3f 1c 8b c0 54 44 fa bf 39 69 97 bf 8b 3d 81 40
       -4.347198 -1.9552102 -1.1828986 4.0387626
0002c0 61 fc 12 c0 3f c5 8f bf a1 09 16 bf a7 8a 06 c0
       -2.296654 -1.123207 -0.5860844 -2.1022127
0002d0 0e b8 86 bf e8 b0 5b bf a8 bb 9d bf 0f 3a 3d bf
       -1.0524919 -0.8581681 -1.2322893 -0.73916715
0002e0 56 c2 03 bf 8c 8d 36 c0 62 be 6c c0 4f 25 a8 3f
       -0.5146841 -2.8523893 -3.69912 1.3136386
0002f0 0b 7a 11 c0 28 19 9e bf 05 f7 0f c0 b5 40 28 c0
       -2.273074 -1.2351427 -2.2494519 -2.6289494
000300 cc 74 31 c0 d0 ec 78 40 b0 90 cc bf 96 ca 37 c0
       -2.7727537 3.889454 -1.5981655 -2.8717399
000310 77 ed 02 c0 af 48 0c c0 60 5a 8a 3f b5 ab ab bf
       -2.0457437 -2.1919363 1.080883 -1.3411776

rcsl.backbone.model.2.weight f4 [200, 200]
000000 43 7b 97 bc 00 c2 3c bf 5b f6 04 bf 56 c6 cc 3e
       -0.018491393 -0.7373352 -0.5193841 0.39995068
000010 c1 ba 28 3e 8d 6e 15 3f 8f c7 ef be 7e 6a a4 3e
       0.16477491 0.5837181 -0.4683194 0.32112497
000020 12 ec d5 3d cf a0 84 3b 6c e5 3b bf 45 b8 bc bf
       0.104454175 0.00404749 -0.73396945 -1.4743735
000030 a8 33 59 3f 4b b1 ab bc c8 50 8e bd 67 62 5b bf
       0.84844446 -0.020958563 -0.069490016 -0.85697025
000040 d2 43 ea 3d 60 2c 1a 3f f2 86 24 be 4f e4 47 3f
       0.11438717 0.6022396 -0.16067103 0.78082746
000050 65 4d c7 bf b8 91 a4 be 57 7f 8a 3f f5 fa 5f 3f
       -1.5570494 -0.32142425 1.0820111 0.87492305
000060 e6 30 ce bd 02 f0 27 bf 77 fa 19 bf b2 04 b7 be
       -0.100679204 -0.656006 -0.60147804 -0.3574577
000070 9e 9d 92 3f f0 59 08 3f 9d 1a a6 be ec f6 20 bf
       1.1454351 0.53262234 -0.3244218 -0.6287677
000080 97 d1 03 bf 7a 1e 15 3e c0 2e 80 3e 60 f2 87 bd
       -0.51491684 0.14562407 0.25035667 -0.06638026
000090 6d 96 db bd 4c 66 46 be 86 3e f4 3e 66 7f 1f 3f
       -0.10722051 -0.1937496 0.47703952 0.6230377
0000a0 83 06 bb bc 6c 8c 9e be c2 6b 0d 40 34 02 47 bd
       -0.022830253 -0.30966508 2.209702 -0.048586085
0000b0 bf 1d 9a bf 34 3b 4d 3e 38 ce f3 be a4 e0 a3 3e
       -1.2040328 0.20042115 -0.4761827 0.32007325
0000c0 57 37 d7 3e a8 31 a0 3e af f3 32 3e 30 93 6f 3f
       0.42034408 0.31287885 0.1747577 0.93583965
0000d0 e0 b8 24 be 08 27 5b 3e cc 3a bd 3c de b8 86 3d
       -0.16086149 0.21401608 0.023099326 0.06578229
0000e0 b8 33 2e bf a8 74 b9 be ad b2 ce bf 34 1a 38 be
       -0.68047667 -0.36221814 -1.6148278 -0.17978746
0000f0 6a d8 0f c0 76 bc 81 3f 8d 01 b3 bd 7a cb d0 3e
       -2.2475839 1.0135639 -0.0874053 0.4078024
000100 dd 1d d0 be d9 2a a9 bf e9 a9 25 3f bc 65 95 3d
       -0.40647784 -1.3216201 0.6471239 0.07294795
000110 bc 5d 6b 3e 42 dc c8 be 7c 17 88 be 95 38 ff bc
       0.22984976 -0.39230543 -0.26580417 -0.03115491
000120 57 09 88 3f d5 db 07 3f 71 8a 2b 3f 4c 97 8f be
       1.062785 0.5306981 0.6700812 -0.28045118
000130 90 18 06 c0 76 e0 0b 3f ff 1e 40 bd 2c 89 07 3f
       -2.0952492 0.54639375 -0.04690456 0.5294368
000140 45 81 be bc a1 ab ac bf 0e 87 3f 3f 3c 9c cd be
       -0.023255 -1.3489877 0.7481545 -0.4015826
000150 75 a4 9b bf d6 3d 9d be b7 f7 0c bf 50 1d 64 bf
       -1.2159563 -0.3071124 -0.5506548 -0.8910723
000160 ef 02 8c 3f b2 40 35 bf a8 62 86 3f ae 07 b2 3f
       1.0938395 -0.7080184 1.0498857 1.3908594
000170 65 a8 d0 be 8c b1 13 3f 96 53 84 3f c6 e9 44 3f
       -0.40753475 0.5769279 1.0338008 0.7691921
000180 8f f2 d5 3e b3 fb 31 c0 a7 f5 21 3f ce c2 9f be
       0.4178662 -2.7809875 0.6326546 -0.31203312
000190 00 5b 06 bf b5 1e 0b bd 1d 21 87 3f fb eb 86 be
       -0.52482605 -0.03396483 1.055698 -0.26351914
0001a0 9a 3a 4e bf cd 1b a0 bf 04 50 da bd 41 bc c0 bd
       -0.8055817 -1.2508484 -0.10659793 -0.094109066
0001b0 e2 7f 4d bf f8 c8 59 3f 25 d9 b9 3d 5d 69 68 3e
       -0.8027326 0.8507228 0.0907462 0.22696443
0001c0 92 50 3c be bb 77 3f 3f 8d ad 18 3e 1c fb 31 3d
       -0.1839011 0.7479207 0.14909954 0.043452367
0001d0 f6 e3 5d be 74 01 08 be d2 c0 9b 3d 55 e3 4f bf
       -0.21668991 -0.13281804 0.07605137 -0.81206256
0001e0 04 01 a2 3d bb 18 85 3e 8d d9 2b 3c b1 5f 96 3d
       0.0791035 0.2599543 0.01048888 0.073424704
0001f0 cc fe 51 be 86 00 ba 3e 71 60 8a bf 1b 7e b3 bd
       -0.20507354 0.36328524 -1.0810682 -0.08764287
000200 a5 6c b8 3e 9a f0 1d bd b3 a7 b8 bd 61 6e f3 3e
       0.3602039 -0.038559534 -0.09016361 0.4754515
000210 5f 8f 11 c0 e4 32 94 3d 01 b6 de be 87 5f 6e 3e
       -2.2743757 0.07236269 -0.43498233 0.23278628
000220 48 16 8d be 35 ab cc 3e 84 1f 8e 3e ff 7e dd 3e
       -0.27556062 0.3997437 0.2775842 0.43260953
000230 13 cb e0 be c7 31 5e 3e 6e e8 e6 be 79 16 7c bf
       -0.43904933 0.21698676 -0.45099205 -0.9847179
000240 5a c1 8e be a7 af a4 3e 46 5f 45 3e 0e 60 e1 3e
       -0.2788189 0.32165262 0.19274625 0.44018596
000250 21 e4 9c bf c2 6e 2a bf 8d f4 28 bf 12 c3 99 3e
       -1.225712 -0.66575253 -0.65998155 0.3003164
000260 df 5f 36 3e 42 e8 17 3f 82 e6 1f 3e 54 26 34 bf
       0.1781001 0.5933877 0.15615276 -0.70370984
000270 d3 e3 83 be 13 34 0b c0 37 55 b7 3e 6f 5d 3c be
       -0.25759754 -2.1750534 0.358072 -0.18395017
000280 01 24 27 bf 59 58 97 3d 1c 0c e0 3e 24 b9 8d 3e
       -0.6528931 0.07389898 0.4375924 0.27680314
000290 c0 e3 35 3f 20 32 64 3f b0 39 65 c0 d1 3b 1b c0
       0.71050644 0.89138985 -3.581646 -2.425526
0002a0 91 52 95 bd 0e c8 88 bf e9 d1 bf bf ec ee b1 bc
       -0.07291139 -1.0686052 -1.4985934 -0.021720372
0002b0 d5 d9 c6 3e 06 27 be be c1 8f 4a 3f 22 5e 3a 3f
       0.38838068 -0.37139148 0.791256 0.72799885
0002c0 f9 dc 06 bf 6f c2 c5 be 3c 4e 80 be 5e 05 13 be
       -0.5268093 -0.38624904 -0.25059688 -0.14357516
0002d0 f7 d3 08 c0 d0 f6 b3 be d1 86 35 bf 38 8a 31 3e
       -2.1379373 -0.3514924 -0.7090884 0.17337883
0002e0 9b 2d d2 3c 7c 16 3f be 8a d5 a1 bd f4 84 16 be
       0.025656512 -0.18660921 -0.079020575 -0.14699155
0002f0 ea 79 0e 3e 7d d7 b4 be 83 68 69 bf 68 46 bb bf
       0.13913694 -0.35320655 -0.911751 -1.4630861
000300 53 ed 19 be 50 5f 1e 3e 16 1e 6c be a1 da 00 3f
       -0.15031938 0.15466046 -0.23058352 0.503336
000310 72 7d 3e bf e6 c5 4f 3d 6e 55 5e bd 82 e8 e6 3e
       -0.74410164 0.05072584 -0.05428069 0.45099264
000320 dd 51 f5 3e 2b b9 27 bd b0 f8 88 be 05 b6 8a 3e
       0.4791402 -0.040948074 -0.26752234 0.27091995
000330 bc 2d 84 bc b5 33 67 3e 86 a8 1b 3e 98 ba da 3e
       -0.01613509 0.22578318 0.15201005 0.42720485
000340 b2 a3 8d bf f4 2b 20 be 05 23 86 3e 35 bb 8d 3e
       -1.1065581 -0.15641767 0.26198593 0.2768189
000350 3e ed bf be a4 f5 e4 3e 10 52 5e be 2f 33 9f 3e
       -0.3748569 0.4471866 -0.21710992 0.31093737
000360 38 87 97 bc 57 6a 3c 3f 92 37 97 3e 81 38 ad be
       -0.018497095 0.7359976 0.29534584 -0.33832172
000370 92 1b a7 3e dd 85 af 3d aa 55 8b be 8b cc 73 3e
       0.32638222 0.08570454 -0.27213794 0.23808496
000380 de 37 00 bf 98 70 06 bf cd 99 c2 bd 30 87 f0 3c
       -0.50085247 -0.52515554 -0.095019914 0.029361337
000390 20 9c da be 85 98 41 3e 8b 30 92 bd ca d3 99 bd
       -0.4269724 0.18905838 -0.07138165 -0.07511099
0003a0 9a fa 3e be af 11 75 be f7 2c 48 3f 70 6e 85 3e
       -0.18650284 -0.23932527 0.7819361 0.2606082
0003b0 5d fc 1b 3d 3f e0 b7 bc 79 75 06 bd 1a 11 fe bd
       0.03808247 -0.022445796 -0.032826874 -0.124056056
0003c0 aa ba 21 3d ed 33 5c bd e5 85 62 bf 39 9e 8a bf
       0.039484657 -0.053760458 -0.88485557 -1.0829536
0003d0 73 08 3e 3d 24 63 4a bf 0c a1 29 3e a6 f8 40 be
       0.046394777 -0.79057527 0.16565341 -0.18844852
0003e0 4f b7 80 3f 5b ae 93 3d 1a de d9 be 36 8c a1 3d
       1.0055941 0.0721099 -0.42552263 0.07888071
0003f0 f6 e0 23 bf 48 18 88 3d f8 c6 23 3f 04 e9 4c 3e
       -0.6401514 0.06645256 0.6397548 0.20010763

rcsl.backbone.model.2.bias f4 [200]
000000 e5 2d 2a 3e 78 da 39 40 47 b2 ac 3b 4b bc 20 be
       0.1661907 2.9039593 0.0052702758 -0.15696828
000010 a6 74 8b 3f 97 93 7d bf 70 39 de be e8 be ce bd
       1.0894973 -0.9905333 -0.43403196 -0.10095006
000020 25 ce 22 c0 e2 6e f8 bc fb c3 51 be c5 78 e7 bd
       -2.543832 -0.03032631 -0.20484917 -0.11302332
000030 17 92 91 bf 74 39 80 3e 79 37 59 c0 bf 3b d6 bf
       -1.1372708 0.25043833 -3.3940108 -1.6736983
000040 46 78 d0 bb 1a f7 0d 40 d3 70 de bf e7 48 48 bf
       -0.006361994 2.218207 -1.7378181 -0.7823624
000050 ee af ed bf 9e 8a d7 3f af d4 08 3e 7a 5f 9b 3f
       -1.8569314 1.6839178 0.13362382 1.2138512
000060 a7 17 49 c0 e6 17 3c bf 6d c0 f1 bf 1f 97 65 be
       -3.1420686 -0.73473966 -1.8886849 -0.2242093
000070 fb ca 46 bb 5d 05 b8 3d b2 1d 33 3f 29 46 2e bf
       -0.0030333388 0.08985398 0.69967186 -0.68075806
000080 f9 72 8c 3d d4 27 9c c0 0a ca 3d 3f 9b 1d 94 bd
       0.06857867 -4.879862 0.7413641 -0.07232209
000090 47 84 df bf c5 84 02 bf ee 4a d2 bf bd e8 80 bd
       -1.7462243 -0.5098384 -1.6429117 -0.06294391
0000a0 39 b5 e5 bd 76 cc ee bf 7d 1f 17 bd 1c ea 90 bd
       -0.11216206 -1.8656147 -0.036895264 -0.07075903
0000b0 64 2b 2a 3e d8 9e 8d bf ff c2 57 bd d7 c2 f8 be
       0.16618115 -1.10641 -0.052676197 -0.4858615
0000c0 11 47 6a 3f ea 03 12 3f 52 5a 04 bf e9 86 fb 3e
       0.9151469 0.5703722 -0.5170032 0.49126366
0000d0 96 63 df 3e 5f 4f 0b c0 ea 24 01 c0 5d 30 1b c0
       0.43630666 -2.1767194 -2.017878 -2.4248269
0000e0 ec 81 bc 3f ab c2 3a 3e 9c 2c e5 3e 29 f0 7c be
       1.4727149 0.18238322 0.44760597 -0.24700989
0000f0 6c b5 1b bf 0f 3a 4b bd 55 b3 f7 be 6b b2 4b c0
       -0.608237 -0.049615916 -0.48379007 -3.1827648
000100 7d d1 16 bd e3 77 8c bf 92 89 70 c0 93 4b c5 3c
       -0.036820877 -1.0974087 -3.7583966 0.024083888
000110 55 05 9f bf 9e b5 98 bf 36 d7 e0 be d4 79 06 40
       -1.2423502 -1.1930425 -0.43914193 2.1011858
000120 75 5a 5f bf 28 cc 95 bf b1 f9 2a c0 7a 2a 80 40
       -0.872474 -1.1702929 -2.67149 4.005185
000130 bc 6d 01 bf e9 25 04 bf 8e 16 31 3f 43 23 26 bf
       -0.50558066 -0.51620346 0.6917504 -0.64897555
000140 72 ce 22 40 c1 3b df 3f e4 33 1c be aa da 3b c0
       2.5438504 1.744011 -0.1525417 -2.9352212
000150 46 1f 81 c0 56 fd 59 bf 24 e1 35 3f 0f f4 11 3f
       -4.0350676 -0.85152185 0.7104666 0.5701303
000160 00 77 31 c0 ec 5e 62 3f cb c9 90 3e fa 87 e7 bf
       -2.7728882 0.8842609 0.28278956 -1.8088372
000170 0e 06 4e bf 81 c9 5b bf 6b 33 f6 bf 10 ae ed be
       -0.8047799 -0.85854346 -1.9234442 -0.46421862
000180 fb ea 7c be 8e 2b 4b bf 06 c5 69 c0 fb 5f 80 3f
       -0.24699013 -0.79363334 -3.6526504 1.0029291
000190 6a 9a 62 bd ba e1 c2 bf dd 11 a0 bf ae b9 2c 3c
       -0.055323042 -1.5225136 -1.2505451 0.010542316
0001a0 dc db 44 bf 05 6e aa bc 72 d5 c1 bf 59 63 f6 bc
       -0.7689798 -0.020804415 -1.5143263 -0.03007667
0001b0 97 8e 4f c0 c2 ab 4e c0 34 a7 8d bf 65 12 1e 3f
       -3.243078 -3.2292333 -1.1066651 0.6174682
0001c0 62 2c 9e 3f d7 dd 02 be d5 89 f1 bd cf 7e 01 40
       1.2357295 -0.12779938 -0.117938675 2.0233648
0001d0 41 65 09 bf da fd 20 bf 25 12 05 3d d8 62 50 bf
       -0.53670126 -0.62887347 0.032488007 -0.81400824
0001e0 20 8e 1c c0 bd b1 17 c0 74 d7 1e c0 61 10 d1 bf
       -2.4461746 -2.3702233 -2.4819002 -1.6333123
0001f0 f1 56 50 bf 2e bc 3c 3e e8 7d 36 bf e5 4b 33 bf
       -0.8138266 0.1843116 -0.7128587 -0.7003768
000200 6d 47 68 be a7 f6 ae bf 99 ae 8d bf 21 ea 15 38
       -0.22683497 -1.3669022 -1.1068908 3.5742418e-05
000210 e6 23 4e 3d 67 6a 59 40 2c b3 44 40 83 51 6d 3b
       0.050327204 3.3971193 3.0734358 0.0036211915
000220 09 7c 2e bf c1 0c 05 bf 12 e0 ec 3f 87 3c 3a bd
       -0.6815801 -0.51972586 1.8505881 -0.04546788
000230 23 38 81 40 8f 08 66 be 1b c4 2e ba 41 59 25 3e
       4.0381026 -0.22464202 -0.0006666795 0.16147329
000240 6a b1 59 bf a7 07 91 bf 7b 44 bc 3e c6 dd b7 be
       -0.8503634 -1.133046 0.36770996 -0.35911387
000250 1f 7b 5c bf ed 7f 0b c0 17 d5 55 bd aa 04 fb bd
       -0.8612537 -2.179683 -0.05220517 -0.12256749
000260 17 c7 3c 40 93 f9 1e 3f 9a 25 42 3e 05 60 ca 3c
       2.9496515 0.6209957 0.18959656 0.024703989
000270 ac a1 65 bf 29 69 8e 3e a6 53 90 bf be 78 a0 bc
       -0.89699817 0.27814606 -1.1275527 -0.019588824
000280 dc 0e 28 c0 6f 7b 81 bf 33 63 99 be fc 85 ab 3e
       -2.625907 -1.0115794 -0.29958495 0.3350066
000290 a3 43 3d bd 78 5c ad bf 38 e5 f7 bf ad 8c 00 40
       -0.04620708 -1.3543844 -1.9366827 2.0085862
0002a0 71 13 1c bd 54 f8 c4 bf b7 b5 94 bf 83 f8 f3 3e
       -0.03810448 -1.5388284 -1.1617955 0.47650537
0002b0 4b e4 ac be fa 6a 9a bf 70 d1 98 bf 4b 37 61 3d
       -0.33767924 -1.2063897 -1.1938915 0.054984372
0002c0 96 95 1b 3f 95 e3 ca bf ed b4 d1 3f 3a 22 4e bd
       0.60775125 -1.5850703 1.6383339 -0.05032561
0002d0 b3 78 e5 bd 7d 01 1f c0 2f 88 0e 3f ce 45 26 3f
       -0.11204662 -2.4844658 0.5567655 0.64950264
0002e0 76 ed 9f 40 d6 b3 e1 3d 12 36 89 bf 0d 8f cf bc
       4.997737 0.11020629 -1.0719626 -0.025336767
0002f0 18 b2 54 3d a1 68 c4 3f 2d 01 e3 3f 75 b5 41 3f
       0.051927656 1.534443 1.7734734 0.75667506
000300 a8 9b b6 bf d4 a1 49 c0 24 d8 a9 bc 4f dd 58 c0
       -1.4266253 -3.1505022 -0.020732947 -3.3885076
000310 9e e1 98 bf e5 40 c2 bc 89 ce 04 c0 8d 5a 24 c0
       -1.1943853 -0.023712585 -2.075106 -2.5680268

rcsl.backbone.model.4.weight f4 [200, 200]
000000 ed 32 35 be c4 df 38 bf 4a 78 94 bc 72 0a 20 3e
       -0.17695208 -0.7221644 -0.018123765 0.15628985
000010 19 3f e2 bd c6 17 01 bd 68 8a 9c 3e 72 f4 15 bd
       -0.11047191 -0.031516813 0.30574346 -0.036610074
000020 5e d1 60 3e ff 2b 25 3d 40 4a 86 3e f1 2a 06 3f
       0.21954867 0.04032516 0.26228523 0.52409273
000030 cd e0 ac be 14 d2 13 bf 07 cb db bf d1 2d d9 be
       -0.3376526 -0.5774243 -1.7171334 -0.42417768
000040 ce 0b 62 3c 1b 64 54 be dc bb 08 be 7f b3 8d bd
       0.01379676 -0.20741312 -0.13352913 -0.06919002
000050 7c dc a8 bc 9d 60 01 bd eb a3 ca 3c 9e 5b 52 bb
       -0.020612948 -0.03158628 0.024736365 -0.0032098065
000060 58 53 80 3d d8 44 78 3d 51 b3 10 3d 88 2d b1 3c
       0.062658966 0.06061253 0.03532726 0.021628156
000070 b2 7f 89 bd 9c a8 af bd cb 96 04 3d 9f 2b 0d be
       -0.06713809 -0.085770816 0.03237037 -0.13786171
000080 ed ba 28 be 02 16 a2 be 09 85 53 bd d9 02 40 bc
       -0.16477557 -0.31657416 -0.051640544 -0.011719429
000090 bc ae 49 3e d9 f4 63 3e f7 09 5e 3c c2 29 85 bc
       0.19695562 0.2226137 0.0135521805 -0.016255263
0000a0 78 af 18 be a2 fb 24 3e ac 5a 7e 3e d3 4c b1 be
       -0.14910686 0.16111615 0.24839276 -0.34628925
0000b0 1b 51 80 be 1b 18 ab 3e a4 36 72 3d 90 fe b4 3d
       -0.2506188 0.3341683 0.05913414 0.088376164
0000c0 67 ce 26 3e a2 b7 69 3d f4 b5 17 bd 0d 0d 57 bd
       0.16289674 0.05705989 -0.03703876 -0.05250268
0000d0 39 5a 94 bf b5 2e 76 3e a6 13 7c be ad 35 47 be
       -1.1590034 0.24041255 -0.2461687 -0.1945407
0000e0 c6 d5 c4 be a4 50 99 bd 6f 70 9b bf f5 c2 ec bc
       -0.38444346 -0.07486084 -1.2143687 -0.028901557
0000f0 1a 79 26 3e 03 34 83 ba ec fb 3b 3d 0e 1f fc be
       0.16257134 -0.0010010008 0.04589455 -0.49242443
000100 8d ec b2 3b 67 8a 3b be 27 56 af be 26 a0 64 3c
       0.005460328 -0.18314515 -0.34245417 0.013954198
000110 ad f6 54 be e9 24 57 bf 5b 0e 66 3d 33 c6 08 3d
       -0.20797224 -0.84040695 0.056166034 0.033392143
000120 92 52 dd bd 61 25 5f bd cc 89 b6 3e 3d de fc 3c
       -0.10806765 -0.054479007 0.35652006 0.03086769
000130 25 00 d0 3c 53 bf 42 be 16 ec 9a be f2 3f 98 be
       0.025390694 -0.19018297 -0.30258244 -0.29736286
000140 4c 8a 87 3e 7f 1b 8c bf 96 71 05 3e a5 b1 e0 3e
       0.264727 -1.0945891 0.13031611 0.43885532
000150 ef da d2 be 7b ba ab bd c3 47 18 be 36 35 8b 3e
       -0.41182658 -0.08385178 -0.14871125 0.27189034
000160 28 97 80 3f da 3f ac 3c 34 ef bc 3d 32 a5 32 be
       1.0046129 0.02102654 0.09225312 -0.1744583
000170 c2 9e f0 bd 7d dd 08 c0 28 1e 9f bf 37 df 1c 3e
       -0.11749031 -2.1385186 -1.2431078 0.15319525
000180 15 ce 16 be dd b1 14 3e 56 3e bb be a6 52 2a bd
       -0.14727052 0.14520974 -0.36570996 -0.041582726
000190 df 91 f2 3c e1 3d dc be 21 27 4f bd e3 48 c1 3b
       0.029610572 -0.4301596 -0.050574426 0.0058985814
0001a0 99 50 67 be bc 9e 6f 3c 61 b1 2e 3e bf 90 8a 3c
       -0.2258934 0.014625248 0.17059852 0.016914723
0001b0 d8 06 4e be 4f ad 5e 3b 97 48 eb bf 03 4f c9 bc
       -0.20119798 0.0033977812 -1.8381528 -0.024573809
0001c0 69 4f b4 3b 9d 2d 8b bd f1 de 15 bf 05 b7 7c bf
       0.0055026305 -0.067958094 -0.58543307 -0.98716766
0001d0 2f b5 26 bf 53 be 01 bf 2f ef f1 3c 2a 79 08 3a
       -0.65120214 -0.50681037 0.029532997 0.0005206043
0001e0 c5 cb 07 bd c6 f6 85 3b ea c1 42 3e e4 83 d2 bd
       -0.033153314 0.0040882556 0.19019285 -0.102790624
0001f0 6d 26 7f bf a1 72 0b be 9c bf af 3f 1e 0c 7a be
       -0.9966801 -0.13617946 1.373035 -0.24418685
000200 00 fc 9f bc a9 97 e5 bf d3 99 28 bf 21 b1 ea 3c
       -0.019529343 -1.7936908 -0.6585972 0.028648915
000210 c1 99 4e 3e b1 e9 54 bd 46 5d 54 bf a8 e4 8f bd
       0.2017584 -0.051980678 -0.82954824 -0.070260346
000220 bf d3 37 be 62 ed bd be 18 77 1e 3e 49 f9 5e 3d
       -0.17951868 -0.3709517 0.15475118 0.054436956
000230 ac b3 fd 3d e5 82 a9 3e 86 82 bc 3c 69 47 95 bc
       0.12387785 0.33107677 0.023011457 -0.018222528
000240 35 c8 4b bf f5 0a 1f 3d d1 6e 9a bf 7d eb bb bd
       -0.79602367 0.03882881 -1.2065068 -0.09175775
000250 e2 45 56 3e ff 0e ee 3c 1e d4 ea 3d 9d 3e 13 3d
       0.20925096 0.029059885 0.114662394 0.035948385
000260 be 48 b0 be 66 f6 37 3e 00 50 24 be dd 5a 52 bd
       -0.34430498 0.17965087 -0.16046143 -0.051356185
000270 ba 30 be 3d 7d ba ad 3e 8e 3b b2 be 83 ca 36 3d
       0.092866376 0.33931342 -0.34811062 0.044626724
000280 9e fb 1d 3d 1a 0f fd 3d d9 39 81 bd d6 ac 5d 3d
       0.03857004 0.12356396 -0.06309862 0.054119907
000290 d7 9b 8f bc 66 f7 b1 bd d0 4c 01 3e 8c 87 81 be
       -0.017530365 -0.08689766 0.12626958 -0.25298727
0002a0 e0 8e a6 bd 3c 3e 6b be e8 93 10 bf 33 c5 ea 3d
       -0.0813272 -0.2297296 -0.5647569 0.11463394
0002b0 40 ea c7 bd ef 46 a5 be 3e 95 34 bd 01 75 54 3f
       -0.097614765 -0.3228068 -0.04408764 0.82991034
0002c0 31 50 82 3f 1d 85 cc be ff c3 a4 3b fd 62 59 3d
       1.0180722 -0.39945307 0.0050282474 0.05307292
0002d0 c0 81 7c 3d 9c 28 8d 3e 3b bc bb 3c 27 81 0e bf
       0.061647177 0.27570045 0.022916904 -0.5566582
0002e0 0f 23 71 bf b1 be 4e 3f 45 ce 9e be 7f fc fe bb
       -0.9419412 0.8075972 -0.31016746 -0.0077815647
0002f0 a1 7b 0b 3e 51 3d 87 be f1 98 8e bf 29 0b 95 bf
       0.1362138 -0.26413968 -1.1140424 -1.1644031
000300 ee 2d 03 bf c1 22 ae bd 85 fb 53 bc 5a ed 9a 3e
       -0.5124196 -0.085027225 -0.012938385 0.3025921
000310 0a 5e d3 bd 1c 33 92 3d d7 90 42 bf f0 8a fc bd
       -0.10320671 0.071386546 -0.7600226 -0.12331188
000320 a7 f6 68 3e 04 95 81 bd 84 0d f6 bc b4 0d ca bf
       0.2275034 -0.063272506 -0.030035742 -1.5785432
000330 21 4d 3b 3e 02 8c 24 be b7 ae 4c bd 35 7e 11 3b
       0.18291141 -0.16069034 -0.04997131 0.002220047
000340 94 9a 6b 3e 66 e6 95 bc 8b 7c 5e be 66 a0 fb bd
       0.23008186 -0.01829834 -0.21727197 -0.12286453
000350 f3 43 9e bd 16 2f 06 3d c5 9e a4 3d fc 4e 70 3d
       -0.07727804 0.03275975 0.080380954 0.058669075
000360 ef 89 05 bc a8 29 2a bd 13 a8 07 3e 40 2b 79 be
       -0.008150562 -0.041543633 0.13247709 -0.24332905
000370 ea 34 ec 3c 6f bd ef bd 83 1d 46 3e 01 f8 94 3d
       0.028833825 -0.117060535 0.19347195 0.072738655
000380 30 4a 12 be 81 06 af bd 56 f5 fa 3c 9e 64 14 bf
       -0.14286113 -0.085461624 0.030634563 -0.5796603
000390 cc 37 37 3d bd 1b 79 bd 34 3f a3 bd d5 fd 83 3c
       0.044730946 -0.06081747 -0.079710394 0.016112247
0003a0 a3 0c 14 bf 38 ca 1b 3e 50 39 33 3d 88 c8 29 3d
       -0.5783178 0.15213859 0.04375583 0.041451007
0003b0 71 97 44 3e 4e 00 9e bd a2 16 c7 be 03 86 08 3d
       0.19198395 -0.07714902 -0.38884455 0.03333093
0003c0 44 16 ef bc 3a a5 83 bd 33 95 30 bd 12 68 b9 bd
       -0.029185422 -0.06427999 -0.043111037 -0.09053053
0003d0 b1 e0 fc bd 28 a6 98 be 9f 1f 11 bd 63 85 73 bf
       -0.12347544 -0.29814267 -0.035430547 -0.95125407
0003e0 bf 83 6a 3e ba c8 f8 be 04 f6 df bc a8 38 49 be
       0.2290182 -0.48590642 -0.02733899 -0.19650519
0003f0 38 c5 72 be 24 32 17 3e 50 6d 2b bd 21 75 a5 be
       -0.23708045 0.14765221 -0.041852295 -0.32315925

rcsl.backbone.model.4.bias f4 [200]
000000 2d d9 2c bf f8 de fc bf 6b 1b 55 bf 5e 47 a0 be
       -0.67518884 -1.9755545 -0.8324496 -0.3130445
000010 84 37 2c 40 3e 8a 39 40 33 39 af bf 14 98 b6 3e
       2.6908884 2.8990626 -1.3689331 0.356629
000020 d2 b3 fc 3f e9 fc 8c bd 1e a5 a0 3c 71 f4 82 c0
       1.9742377 -0.06884176 0.019609984 -4.092339
000030 b2 6d 73 3e 03 fa 8a 40 42 cb 86 40 5a ba a4 40
       0.23772314 4.343019 4.2123117 5.147748
000040 e0 c4 93 40 e8 80 ac 3e a1 93 16 3c f2 57 32 c0
       4.6177826 0.33692098 0.009190471 -2.7866178
000050 dc 45 f5 3f 9a de ca bf f1 42 82 bf 98 87 19 40
       1.9161944 -1.5849183 -1.0176679 2.398901
000060 05 17 ca 40 33 a0 5c bf 90 35 1a bd 2e 20 93 3f
       6.31531 -0.86181945 -0.037648737 1.1494195
000070 49 e8 10 40 a2 34 cb c0 7c 4b 3e 40 fd 96 61 be
       2.2641776 -6.350175 2.9733572 -0.22030254
000080 80 b5 8d 40 45 8e b3 3f 70 b8 7f bf 7f 95 1b bf
       4.428406 1.4027792 -0.99890804 -0.6077499
000090 45 78 84 40 c0 b1 65 40 fa a7 a9 3f 7b b2 8b c0
       4.1396813 3.588974 1.3254387 -4.365537
0000a0 b3 32 07 40 42 8c 41 c0 42 0a e5 3d ca bd b9 3d
       2.1124694 -3.0241857 0.11183597 0.090694025
0000b0 a1 ed 2c c0 a1 d7 86 c0 3c d1 9e 3e 27 c2 90 c0
       -2.7020037 -4.213822 0.31019008 -4.5237
0000c0 c1 2a 9c bf 8d fe 0c be 9f a8 54 be 1a 70 4d 3f
       -1.2200547 -0.13768978 -0.20767449 0.8024918
0000d0 3d 5c 6a bf e7 6b d4 be 06 dc 88 40 33 16 18 be
       -0.91546994 -0.41488573 4.2768583 -0.14852218
0000e0 f5 e8 0f c0 f3 52 99 c0 7d 49 f3 3e 06 f2 3c 40
       -2.2485936 -4.7913756 0.47517005 2.952272
0000f0 67 e4 67 c0 73 1e a4 bf dd cb b6 bf 6f 69 fe bf
       -3.6233156 -1.2821792 -1.4280964 -1.9875926
000100 38 d5 26 c0 9f 51 0c 40 5c dc b3 3f e1 4e 16 40
       -2.6067638 2.1924818 1.4051623 2.3485644
000110 f6 ba 88 c0 cf 58 2c c0 97 4a ee 3f 65 8c c0 bf
       -4.2728224 -2.6929204 1.8616513 -1.5042845
000120 c6 91 86 be 37 f0 51 40 e7 46 02 40 92 fd c9 3f
       -0.2628309 3.2802866 2.0355775 1.5780509
000130 e4 ab 74 3f c4 23 41 40 6f 5a a2 bd e6 1b 41 3f
       0.95574784 3.017808 -0.07927405 0.75433195
000140 03 08 d8 3e 06 4c cc 3f 31 91 86 3f aa 80 93 c0
       0.42193612 1.59607 1.0513059 -4.609456
000150 d4 35 7a bf e5 ed f9 3f a3 3a 58 be b4 8f bb c0
       -0.97738385 1.9525725 -0.21116118 -5.861292
000160 cf d4 f7 bd 16 91 66 bc ad 17 d2 3f 7b aa f7 bf
       -0.12101137 -0.014072677 1.6413475 -1.9348902
000170 e1 94 e2 3e fb e4 85 be a8 9e 63 40 26 57 9f bd
       0.4425421 -0.2615126 3.5565586 -0.07780294
000180 b6 af fb bf 1b 9c c1 bd 79 e8 f4 bd 5d 21 ce be
       -1.9662998 -0.09453603 -0.11958403 -0.4025983
000190 f6 a9 7f c0 14 64 d1 be 42 93 0d be 30 ee 70 c0
       -3.9947486 -0.40896666 -0.13825706 -3.7645378
0001a0 17 73 01 3f 0b 65 10 c0 c9 bf fd 3f 46 27 d4 bf
       0.5056624 -2.2561672 1.9824153 -1.6574485
0001b0 e0 a9 7f bf 4b a3 87 bf 01 12 97 bf 98 2a 00 be
       -0.99868584 -1.0596708 -1.1802369 -0.12516248
0001c0 01 0a 19 be cd a9 12 be a8 f5 f6 bd 74 6d 07 bf
       -0.14945222 -0.14322586 -0.12058574 -0.5290139
0001d0 57 5a 46 c0 8c 2a 18 c0 d2 bc 82 40 06 5d 70 c0
       -3.099264 -2.3775969 4.0855494 -3.7556777
0001e0 60 c4 83 be b4 bf b1 3f 55 a0 0e be 70 79 26 be
       -0.2573576 1.3886628 -0.1392835 -0.16257262
0001f0 d5 b5 92 40 69 6a 8e 40 8e 55 13 c0 38 0b 46 40
       4.5846963 4.4504895 -2.3020968 3.0944347
000200 02 31 39 c0 ab 48 ba bf eb 0b ce 3e 65 78 a7 bf
       -2.8936162 -1.4553427 0.40243468 -1.3083616
000210 da 5e 1c c0 db 33 6e 3f 12 f1 1c 40 4a 5c 15 bd
       -2.4432893 0.93047875 2.4522138 -0.036464967
000220 f6 2a 65 3f 14 fc 33 c0 d8 e3 16 be 6d 69 56 3f
       0.8951868 -2.8122606 -0.14735353 0.83754617
000230 42 53 a9 3e 14 29 0f be 70 5b 36 40 e4 10 e8 3f
       0.33071333 -0.13980514 2.849331 1.8130155
000240 d4 c1 94 bd ad c0 55 3e a0 c3 0b c0 7d 83 9e 3f
       -0.07263532 0.20874281 -2.183815 1.2383877
000250 a7 9a af bf a2 59 53 bf 23 a8 10 bf c7 63 09 3c
       -1.3719071 -0.82558644 -0.56506556 0.008385605
000260 ac fc 18 c0 82 dc 0f bf 8d 7d ea 3e cc b8 fb bf
       -2.3904219 -0.56195843 0.45798913 -1.966577
000270 79 4f 2f 3f 76 89 e2 bd 37 b4 8a bf bb d1 46 bf
       0.6848064 -0.11061375 -1.0836247 -0.77663773
000280 b0 47 2a 3f dd 49 c8 be ee ed 20 40 f8 80 27 40
       0.66515636 -0.39118853 2.514522 2.6172466
000290 44 fc 6b be 09 ec 34 3d 49 76 6a bf b1 74 08 c0
       -0.2304545 0.044170413 -0.9158674 -2.1321223
0002a0 b4 fa 16 c0 35 fc 6e c0 fe 25 68 c0 3b 1d cf bc
       -2.3590517 -3.7341435 -3.6273189 -0.025282493
0002b0 36 75 25 40 2f a9 29 be 13 39 30 40 54 7c 5d 40
       2.585279 -0.16568445 2.7534835 3.4607134
0002c0 70 98 fa bf d5 0f 24 40 70 2f 44 c0 d4 64 2f 3f
       -1.957777 2.5634663 -3.0653954 0.68513227
0002d0 9b 6c 91 3f 89 12 0f 40 f7 24 2e c0 27 27 d6 bd
       1.1361269 2.2355063 -2.7210062 -0.104566865
0002e0 4d be b4 3f b7 6f 3a 3f 10 1c be bd 34 8c e6 3f
       1.4120575 0.72826713 -0.09282696 1.8011537
0002f0 30 a6 29 be 06 48 0f 3d 63 6e 89 40 34 c2 8f 3e
       -0.16567302 0.034980796 4.294725 0.28077853
000300 54 93 93 bf c4 1b 89 40 e6 8a 0c bf a0 2c a5 bf
       -1.1529336 4.2846394 -0.5489944 -1.2904243
000310 f3 73 8d 40 d2 be fc 3e 4d c7 0f be 0b e2 a7 be
       4.420404 0.49364334 -0.14040871 -0.32789645

rcsl.backbone.model.6.weight f4 [200, 200]
000000 f1 59 8f 3d 68 63 69 3c 38 72 05 c0 89 18 23 be
       0.06999577 0.014244892 -2.0850964 -0.15927328
000010 00 e7 ba bd af f2 a8 bd e3 99 ed 3d d6 82 02 3e
       -0.09126091 -0.08249413 0.11601617 0.12745222
000020 b9 f3 34 bf 17 48 73 3d db a3 a8 bf df 07 b1 be
       -0.7068439 0.059394922 -1.3175005 -0.34576318
000030 00 2d 25 bd 2b f9 8b be 6e 9c 17 bd d9 79 b3 bd
       -0.04032612 -0.27338538 -0.037014417 -0.08763475
000040 ff c3 50 bd 20 71 86 be 70 66 00 3c f6 2a 17 be
       -0.050968166 -0.26258183 0.007836923 -0.14762482
000050 34 d8 09 be 35 1f 4c be 03 27 9d 3c b7 d5 de be
       -0.13461381 -0.1993378 0.019183641 -0.43522426
000060 63 02 fa be 14 f7 1b 3d d8 ca bb 3c 0a 38 fc bd
       -0.48829946 0.03807743 0.022923872 -0.12315376
000070 09 a9 93 3e f2 ff 63 bf e1 a7 04 3d ae 8e 99 bd
       0.288399 -0.89062417 0.032386664 -0.07497917
000080 c0 d4 8e be 28 9b 86 be ba 1e 58 bd ce 7b 01 3e
       -0.2789669 -0.2629025 -0.052763678 0.12644884
000090 1e 4e 1c 3e 6d 2a 70 3d 94 91 54 3e 24 09 12 bd
       0.15264174 0.05863421 0.20758659 -0.03565325
0000a0 cc 62 81 ba 16 df 13 be e6 be 98 bc e5 85 78 bf
       -0.0009871363 -0.1444057 -0.018645715 -0.97079307
0000b0 a7 de b2 be e9 70 af 3d 0a b9 c4 3d 44 82 04 3e
       -0.34935495 0.08566458 0.09605606 0.12940317
0000c0 91 0c 9f bb 5c 70 33 bb 8f ee 97 bd 00 72 99 3d
       -0.004853793 -0.0027380204 -0.07418548 0.07492447
0000d0 2e e8 ad 3d 90 c3 09 bf e1 e2 63 bc 1c c8 2a bd
       0.084915504 -0.5381403 -0.013909073 -0.041694745
0000e0 44 c2 58 3e 09 64 44 3e e2 35 b6 bd 92 d2 e8 3d
       0.21167856 0.19178785 -0.08896996 0.11368288
0000f0 65 b9 62 be 83 95 44 bf 67 d3 e3 be fd e6 ee 3d
       -0.22141035 -0.76790637 -0.44497225 0.11665151
000100 8d 66 42 bd 10 ab ee 3d 3b 5f f7 ba 07 47 5f be
       -0.04746108 0.11653721 -0.0018872985 -0.21804439
000110 c1 c5 c6 be dd 53 5a bf d2 81 5f bd 69 ee 5c bf
       -0.3882275 -0.85284215 -0.054567166 -0.86301285
000120 8a 6c 10 bf 89 30 4b 3d 36 0f 4c 3e c9 8c f7 3b
       -0.5641562 0.049606834 0.19927678 0.0075546247
000130 e4 f3 1c be ff 8c 5f 3e 40 41 98 bd 95 22 29 bd
       -0.15327412 0.2183113 -0.074343204 -0.041292746
000140 fc 5c b6 bb 10 a4 79 be fe 1f ab 3d f6 ad 4b 3e
       -0.005565284 -0.24378991 0.083557114 0.1989058
000150 af 8a c0 bc b1 d0 4c be cc a8 04 3f f0 ce 3d be
       -0.02350363 -0.20001484 0.51820064 -0.18535972
000160 ed 5d 81 3e 08 e0 07 bd 2b b5 e9 bd c4 21 2a 3e
       0.25266972 -0.033172637 -0.11411508 0.16614443
000170 5b 9c de 3d 4b 6f b0 bb 55 1b 4d be 92 d0 63 3d
       0.10869666 -0.005384361 -0.20029958 0.05561883
000180 0e a8 e6 3d 36 cd 84 3d 5e fa 5a 3d 86 f5 ad 3d
       0.11262523 0.064844534 0.053461425 0.084940955
000190 e2 e6 d5 bd e6 26 f0 bd c1 2d e7 bc a1 32 cb 3e
       -0.10444428 -0.11726169 -0.02822006 0.39687064
0001a0 2d 5a 64 3c be de 60 3e 30 67 3a 3e ee 8a 1d bd
       0.013937515 0.2195997 0.18203425 -0.03846257
0001b0 0d 22 70 be b8 20 a0 bc 4a a4 3e be bd f9 47 bd
       -0.2345049 -0.019546852 -0.18617359 -0.048822153
0001c0 c6 3b 73 3d 74 f8 a5 3d 7b 2f a5 3d 2f f0 e3 bc
       0.059383176 0.08104029 0.08065697 -0.02782449
0001d0 aa 20 3c be 86 c8 91 bd 27 60 e4 3b 9d 1d bb bd
       -0.18371835 -0.07118325 0.00696947 -0.09136508
0001e0 94 ef fc 3d 66 3f 26 bd 2c e0 3c 3e 1b 4e 5f 3d
       0.123503834 -0.040587805 0.1844489 0.054517847
0001f0 db cb 1e be 57 c7 a0 bc 6c 1b c5 3d 04 df 3f bd
       -0.15507452 -0.019626303 0.09624371 -0.046843544
000200 96 05 3d 3e 21 30 8b 3e 90 c3 79 be 23 ca da be
       0.18459162 0.27185157 -0.24391007 -0.42732343
000210 87 2f d9 3d bf 78 48 3e 6e 78 1f 3e 79 e0 8d 3d
       0.10604768 0.19577311 0.15573284 0.069275804
000220 dc 4e 16 bc 7e 77 8e 3d 42 20 d2 bd 4d 13 d8 bc
       -0.009174075 0.06956385 -0.10260059 -0.02637639
000230 a4 c1 a5 bf 9f 88 c9 bc 5d 67 f8 bd 46 b3 cf be
       -1.294972 -0.024601279 -0.1212909 -0.40566462
000240 f7 6f b4 3d 0b eb 3f 3e f4 d6 27 be 7e 1b 31 3a
       0.08810418 0.18742006 -0.16390592 0.0006756111
000250 b7 72 8b 3e e5 11 9e bf 90 10 7e be 54 7c 81 3e
       0.27235958 -1.2349211 -0.24811006 0.25290167
000260 4c f9 9b bd 7e c7 3a be ab 2b b2 3a e2 54 d7 be
       -0.07615909 -0.18240163 0.0013593336 -0.42056948
000270 82 86 a4 3d ae 48 6f 3d 30 96 c5 be f1 68 6c be
       0.08033468 0.058418922 -0.38591146 -0.23086907
000280 69 3d 1a 3e 8b 26 79 3e 4e 84 30 be 1f 7e 50 be
       0.15062489 0.24331109 -0.1723797 -0.20360611
000290 5b 22 ea 3c 39 5c 88 be a9 4c f2 3c 95 d4 bc 3d
       0.028580835 -0.2663286 0.02957757 0.09220234
0002a0 e0 56 10 be f6 16 9f 3d cc b6 81 3c 59 02 70 3d
       -0.1409564 0.07768051 0.015834235 0.05859599
0002b0 54 c0 39 3d 35 35 91 bd 29 fd 42 3d 76 e6 37 bd
       0.045349434 -0.070902266 0.047604714 -0.04489752
0002c0 73 24 7c be 4c 3f 49 3c d9 72 d9 bd 73 46 8a 3e
       -0.2462328 0.012283158 -0.106176086 0.27006873
0002d0 a8 8b 14 be f2 d7 66 3e 7e 43 8b 3d 70 b7 51 3d
       -0.145064 0.22543314 0.067999825 0.05120033
0002e0 a8 ae 12 3d 32 08 61 3e 5e 88 84 bc 3b ee 75 bf
       0.035811096 0.21975783 -0.016178306 -0.96066636
0002f0 13 f2 47 be 83 92 1a c0 64 2e a3 3e 87 3e 37 bf
       -0.19525938 -2.4151924 0.3187133 -0.71579784
000300 55 c7 11 3b 1d a5 43 3e 4a 03 72 3c 11 de 57 be
       0.0022244055 0.19105954 0.014771292 -0.21080805
000310 07 70 ae bd 16 02 05 3f 73 0c 12 bf 89 79 31 c0
       -0.08517461 0.5195631 -0.57050246 -2.773043
000320 dd e5 1d bf 1c cc d2 be a8 40 7d 3c 7e f5 05 bf
       -0.6167887 -0.41171348 0.01545731 -0.52327716
000330 f4 3c 03 be 54 f5 21 bf ee 9a 04 3e cf 4d 53 3d
       -0.1281622 -0.63264966 0.12949726 0.051587876
000340 b2 d4 d9 bf 4b d8 43 3d 88 d4 02 3f 83 34 b6 be
       -1.7018034 0.047813695 0.51105547 -0.35586938
000350 51 d6 15 bf 9f eb 0c c0 b6 db a5 be 2f 94 aa 3e
       -0.58530146 -2.2018812 -0.3239419 0.3331618
000360 a2 75 02 3e 49 a4 16 bd ec 67 25 bd 86 bb 8e 3d
       0.12740186 -0.03677777 -0.04038231 0.06969361
000370 e5 63 a4 bd 01 d4 1a be 49 35 8e be c6 0a 03 bf
       -0.08026866 -0.15119936 -0.27775028 -0.51188314
000380 72 10 4c bf c0 55 56 bf 65 3d b6 3d fd 70 85 3e
       -0.79712594 -0.83724594 0.08898429 0.26062766
000390 f5 fe 81 be 59 70 a6 be 86 aa e8 3c 40 a8 d4 3e
       -0.2538983 -0.3250759 0.028401624 0.41534615
0003a0 a0 7a 05 be 04 32 b8 be f2 31 5a bd af df 86 be
       -0.13035059 -0.3597566 -0.053270288 -0.26342532
0003b0 d6 15 9a 3e c8 8f 61 bd b1 6b 2a bd 02 d3 ea be
       0.30094784 -0.05506876 -0.04160661 -0.4586411
0003c0 79 38 2a be 7e e2 fc bd fb 1e b4 3e 8a 9b 85 bf
       -0.16623105 -0.123478875 0.35179886 -1.0438092
0003d0 7d 62 b2 3e 68 4d 18 3e d5 ef 09 3e fd af dd be
       0.34840766 0.14873278 0.13470395 -0.4329833
0003e0 98 05 8e 3c d8 c9 71 3d 1a ed ca 3b 88 ac 1d bf
       0.017336652 0.059030384 0.0061928155 -0.61591387
0003f0 9f da 76 3e 32 13 30 be d5 9d e0 3e ff a8 eb bc
       0.24106835 -0.17194822 0.43870416 -0.028767107

rcsl.backbone.model.6.bias f4 [200]
000000 09 d9 cd 3f f1 ed 75 bb 3a 2b 13 40 93 06 6d c0
       1.6081859 -0.0037525857 2.2995133 -3.7035263
000010 ac f8 68 c0 f8 5e ed 3f 80 85 3e be 2b 1a 66 3f
       -3.6401777 1.8544607 -0.18605614 0.8988368
000020 26 90 20 40 e5 82 96 3f 72 b7 41 40 b3 2d d6 bf
       2.5087981 1.1758696 3.0268216 -1.6732696
000030 ec 18 85 be e7 a2 c7 be 78 67 59 bf c1 62 6e 3f
       -0.25995576 -0.38991472 -0.84923506 0.93119437
000040 b5 dd 2c 40 40 36 c2 3f 1f 69 02 bf db f4 1c bf
       2.701032 1.5172806 -0.5094165 -0.6131112
000050 64 35 38 40 b7 b9 c2 3f b0 6e bf 3f 0b d8 58 bf
       2.8782587 1.5212926 1.4955654 -0.84704655
000060 cc 0c 2d be b4 d4 09 be 28 4f 2d 40 52 04 17 c0
       -0.16899413 -0.13460046 2.7079563 -2.3596387
000070 87 c1 67 be 4f fe 0e 40 f2 01 c5 bf 91 2c f7 bf
       -0.22632419 2.2342718 -1.5391219 -1.9310476
000080 ae a9 2b be 4f 3f 15 bf b7 8b c7 3f 70 95 c6 3f
       -0.16763946 -0.58299726 1.5589513 1.5514355
000090 cd 3a 20 bf 4e 3b 18 40 a1 d7 6f c0 88 56 3a 40
       -0.6258972 2.3786197 -3.747536 2.9115314
0000a0 f7 02 c8 3e 0d e8 ae 3f 4d ad 4f 40 9d 03 fd 3f
       0.39064762 1.3664566 3.2449524 1.9766728
0000b0 bb 13 39 c0 d2 3b 1b c0 c0 05 91 c0 aa cc 33 40
       -2.8918293 -2.4255261 -4.531952 2.8093667
0000c0 9b e8 f3 3e 16 af 8a 3f 32 28 14 bf 4c c3 c2 3f
       0.476384 1.0834682 -0.57873833 1.521585
0000d0 b7 5d 45 40 b1 2f 1c 40 e6 e2 bd 3f e6 37 12 40
       3.083845 2.4404109 1.4834869 2.2846618
0000e0 6e 9b b5 c0 70 00 ba 3f e5 4a 99 be 7e d2 d9 bf
       -5.6752234 1.4531384 -0.29939952 -1.7017362
0000f0 aa 21 5e bf 82 62 24 40 51 ae 32 be b4 a0 95 3e
       -0.8677012 2.5685124 -0.17449309 0.2922417
000100 b5 b8 3e be b5 52 63 c0 50 75 e9 bd 24 38 f2 3e
       -0.18625148 -3.551923 -0.11399329 0.47308457
000110 d3 57 51 40 cb b6 01 40 d7 a8 6b 3f 9b 4a bf 3f
       3.2709854 2.0267818 0.92054504 1.4944643
000120 22 25 9b 3e 63 70 a3 be ef bb 03 be 55 2b 18 40
       0.30301768 -0.31921682 -0.1286466 2.3776448
000130 52 84 94 bf 75 a4 68 be 84 b6 17 c0 07 92 9a 3e
       -1.1602881 -0.22718985 -2.3705149 0.30189535
000140 91 68 41 bf 1c 87 aa 3f ca c0 1f c0 20 9b 32 bf
       -0.7555018 1.3322482 -2.496142 -0.6976795
000150 a4 b7 2e be db 7f ef 3f 1c 11 1e 3f 7d bf 73 be
       -0.17062241 1.8710893 0.61744857 -0.23803516
000160 81 b2 c1 3f 5a 78 2d be 7d c0 bb bf 11 86 58 be
       1.51326 -0.16940442 -1.4668118 -0.21144892
000170 48 ab 61 3f 44 36 e3 bf da 58 a9 bd 3d e2 35 be
       0.8815198 -1.7750936 -0.082689 -0.17762084
000180 a6 7d d1 be 87 71 f1 be fb ed aa c0 8e 3c 48 bf
       -0.40916175 -0.47156927 -5.3415504 -0.782174
000190 ca a0 94 3e 1a d0 4f 40 cd 79 72 3f b8 b0 fd 3e
       0.29028922 3.2470765 0.94717103 0.49548888
0001a0 c8 85 dc bf a6 49 23 c0 a9 5a 99 bf 95 8b f9 3f
       -1.7228327 -2.5513701 -1.1980792 1.9495722
0001b0 7a 6e 8b bf 19 69 27 40 d6 7a 9d 3f f6 1c 9f be
       -1.089309 2.6157897 1.2303112 -0.31076783
0001c0 4f 0c df 3a 66 de c3 3f 93 a6 fd 3e 78 1f d7 be
       0.0017017218 1.5302246 0.4954115 -0.42016196
0001d0 bf 54 40 40 62 a3 8d c0 ca 7b c6 3f 15 9f 15 40
       3.0051725 -4.426194 1.5506527 2.3378346
0001e0 68 ff b6 bf dd be a0 3f b6 42 65 3f 4d d6 12 be
       -1.4296694 1.2558247 0.8955492 -0.14339562
0001f0 c2 e3 b7 bd 5e ff 99 c0 38 ec a7 bf f3 43 2e 40
       -0.08978988 -4.8124228 -1.3118963 2.7228973
000200 b2 81 0a be 4f ea 82 3f 16 97 9e c0 d5 ac 83 3f
       -0.13526037 1.0227755 -4.955943 1.0287119
000210 b6 d0 96 bf 46 89 a2 3f 79 68 43 c0 34 bf b7 be
       -1.1782444 1.2698143 -3.0532515 -0.35888064
000220 37 6b 56 c0 71 37 52 bc ca 40 71 3f 9b 7e e8 3e
       -3.3502939 -0.012830601 0.94239485 0.45409092
000230 b6 05 cc 3f 1f 9c 2b c0 48 cb 1c 40 97 c9 07 c0
       1.5939243 -2.6814039 2.4499073 -2.121679
000240 58 85 cc bf 1e 63 a0 bf 9a b8 04 40 e9 61 18 be
       -1.5978193 -1.2530248 2.0737672 -0.148811
000250 1b 9a 44 c0 c4 4a 35 3f 0c b0 75 c0 ff 52 d8 be
       -3.0719059 0.7081721 -3.83887 -0.4225082
000260 9f a0 bf 3d 50 76 0f 40 67 32 11 c0 34 e6 b6 3f
       0.09356808 2.2415962 -2.2687013 1.4289002
000270 54 2a 87 3f 74 af 37 40 f9 57 45 40 71 8f b7 bf
       1.0559793 2.8700838 3.0834944 -1.434065
000280 71 6f 73 bf 37 73 86 3f 2a 40 97 3f e5 08 68 3f
       -0.9509192 1.0503911 1.1816456 0.9063857
000290 4b 6e 9b 3f 5d df 16 be 1c 49 0b 40 70 46 db bf
       1.2143034 -0.14733644 2.1763372 -1.7130871
0002a0 63 dd e3 3f ec 5a 00 3f 05 d6 4d bd 55 d9 25 40
       1.7801937 0.50138736 -0.050252933 2.59139
0002b0 39 fd 44 40 43 3d 88 c0 3c 4e c0 bf 7d 6c 9f 3f
       3.0779555 -4.257478 -1.5023875 1.2454983
0002c0 77 4f 45 be e6 8d 88 bf c0 5a 32 3d 63 de d3 3f
       -0.19268595 -1.0668304 0.043543577 1.6552242
0002d0 2c 6f d1 bf c0 0a 47 40 2a 56 2b bf 8c 09 68 3f
       -1.6362052 3.1100311 -0.6692835 0.9063957
0002e0 1f 86 16 c0 41 d7 bf be b3 84 5d 3f 7f 81 f3 bd
       -2.351936 -0.37468913 0.8653061 -0.11889934
0002f0 f5 1e da 3e 30 0f 18 be 84 23 26 3f 0d 4e 9c 3f
       0.42601743 -0.14849544 0.6489794 1.2211319
000300 ee c8 98 3f 42 c3 10 be 98 7e ac 3f d8 39 c2 3f
       1.1936319 -0.14136985 1.3476133 1.5173903
000310 fe 80 51 be 24 5d 39 3f 31 fe 0b 3f 42 0b 87 3c
       -0.20459363 0.72407746 0.5468474 0.01648486
