backup/hopper-medium-v2/rcsl/rcsl/timestamp_23-0905-073429&0/model/policy.pth (torch, 498555 bytes, 10 tensors)

rcsl.backbone.model.0.weight f4 [200, 12]
-1.4571458 15.642944 -1.7370894 -0.9859535 0.31806567 2.719185 3.3967617 2.588416
-1.324075 -1.6847204 0.47883463 0.0029280686 -0.71519357 -3.7768826 1.0765412 -0.13253742
-0.13898373 -0.4935281 -2.7380402 -2.4816232 0.77019656 1.2799628 0.4441593 -0.36854914
0.80776465 0.47812387 -1.0017099 -1.6192465 -1.1758329 0.21812008 -0.96257126 1.2657253
-0.64380985 -0.35168886 -0.298933 -1.6867921 -1.9268904 -0.5829359 -1.9844387 0.82411855
0.39666396 0.4755801 -0.20067057 -3.732324 -1.4388772 1.7543341 -0.5536581 -0.050102383
-0.105781175 -0.5655396 -0.06946018 0.6915358 1.2684213 0.10199811 0.376411 -2.47759
0.084337026 -0.8744516 -0.41734293 -0.9972402 0.3246157 -0.56270945 -1.3249909 1.3716029
0.9785066 0.9594524 -0.09728318 1.7886862 1.0150673 0.4403395 -1.1706858 -0.19245532
0.09560145 0.23044434 0.2702211 0.2706561 0.039472178 -0.2714207 0.04705109 -0.19987594
-0.24941985 0.23646621 0.1985991 -0.308518 -0.0134524545 -0.012342561 0.02152868 -0.0665645
0.20984952 -0.23703457 0.16742532 0.19705878 0.1660995 0.16803724 -0.21696281 -0.25192776
0.40960392 5.219568 -1.2770674 0.04167748 0.45754012 0.6693176 -0.059390694 -0.23501319
-1.2183229 0.30341908 -0.9348874 -0.08398512 -0.3445047 -1.5519965 -2.380512 0.61476594
-5.572372 -0.048764393 0.33837458 0.36375907 -0.010613821 0.5829444 -0.430879 -0.08140026
0.42980862 -8.78898 0.7549291 -0.024975616 -0.28656387 0.3184799 1.277322 -0.28533727
-2.1681638 -0.6138526 -0.8235336 -0.026004545 2.3066168 -0.8861138 2.3871887 2.1556647
-1.6507787 -0.06278702 -0.79510504 0.7698144 0.97004485 -0.15759958 0.32942304 -0.04082649
-0.27576783 -0.1511376 0.21318583 0.014078515 -0.15974958 -0.23800756 -0.2533515 -0.26034957
-0.041958727 0.14161764 0.13921507 -0.29522052 -1.3010808 -1.1165057 -1.4754585 -1.3194782
-0.21071422 -0.38755286 -2.0507865 -4.680672 -0.7043803 1.4621067 0.215379 -0.010066257
0.034018528 1.7428045 -0.90592545 0.49387404 0.5704935 0.5859577 -0.62966645 1.7013663
-0.2760483 -0.25340506 0.73630834 -1.488365 2.156923 -22.64164 1.726864 -1.1194973
3.3298016 -0.33104748 -0.09432512 0.7984381 -0.9566109 -0.50364363 -0.1880798 0.0010362207
-0.2598275 -3.209654 -0.2353694 -1.4333286 -0.8353954 0.64140755 -0.63515645 1.6442295
0.77619404 0.75874484 -1.1047108 -1.0508132 -2.1783721 -3.818365 2.7644355 -0.943986
-1.0302292 -0.22543782 -2.5270433 -2.130864 0.096601024 -0.8067993 0.51832926 -0.008150273
-1.8530042 2.2330775 -0.9704604 -3.8981469 -1.2104001 0.65453017 5.8197227 2.4796948
-3.4901142 1.8851845 0.24916357 0.0014716729 0.006216268 -0.73624885 -0.21777941 2.6492238
-1.4002453 0.7993763 -0.64804024 2.3332262 1.1343331 0.3030236 -0.10106524 -0.45651066
0.95206463 2.133698 2.518133 -1.1671338 1.1857942 -0.5067199 4.8804193 -2.1982255
0.6235133 -1.7653463 0.101518095 -0.01832723 0.71643335 -3.35313 2.1725905 1.0710036
00000000: c183 babf 8049 7a41 f258 debf 7367 7cbf
00000010: 81d9 a23e 2107 2e40 8b64 5940 9ca8 2540
00000020: 4a7b a9bf eba4 d7bf d029 f53e d7e4 3f3b
00000030: ed16 37bf 72b8 71c0 1acc 893f e4b7 07be
00000040: c051 0ebe b7af fcbe 0d3c 2fc0 ead2 1ec0
00000050: 9a2b 453f d2d5 a33f d968 e33e 79b2 bcbe
00000060: aac9 4e3f a7cc f43e 0838 80bf 7843 cfbf
00000070: b181 96bf df5a 5f3e 126b 76bf 4903 a23f
00000080: b9d0 24bf 9010 b4be bf0d 99be cee8 d7bf
00000090: 58a4 f6bf 4a3b 15bf 1602 febf 6ff9 523f
000000a0: 8a17 cb3e 3c7f f33e 967c 4dbe 65de 6ec0
000000b0: 212d b8bf 058e e03f 8abc 0dbf 2838 4dbd
000000c0: cda3 d8bd 34c7 10bf 2441 8ebd 7d08 313f
000000d0: a15b a23f 63e4 d03d f1b8 c03e d690 1ec0
000000e0: e4b8 ac3d 0fdc 5fbf f9ad d5be 224b 7fbf
000000f0: 0734 a63e ba0d 10bf 4d99 a9bf af90 af3f
00000100: 697f 7a3f ac9e 753f 673c c7bd abf3 e43f
00000110: baed 813f 2e74 e13e 08d9 95bf 0213 45be
00000120: b1ca c33d 9af9 6b3e 6c5a 8a3e 7093 8a3e
00000130: 94ad 213d a7f7 8abe a5b8 403d 47ac 4cbe
00000140: eb67 7fbe 3324 723e 905d 4b3e 12f6 9dbe
00000150: af67 5cbc 7438 4abc ea5c b03c f852 88bd
00000160: cbe2 563e 31b9 72be 8b71 2b3e c7c9 493e
00000170: fd15 2a3e f411 2c3e 802b 5ebe adfc 80be
00000180: 9bb7 d13e b306 a740 f276 a3bf 01b6 2a3d
00000190: b342 ea3e 6658 2b3f a843 73bd 4ca7 70be
000001a0: 01f2 9bbf bf59 9b3e c854 6fbf 6400 acbd
000001b0: ec62 b0be d2a7 c6bf 4f5a 18c0 4d61 1d3f
000001c0: df50 b2c0 2cbd 47bd 6f3f ad3e a13e ba3e
000001d0: 98e5 2dbc d83b 153f 2c9c dcbe 2eb5 a6bd
000001e0: e00f dc3e a99f 0cc1 0943 413f aa99 ccbc
000001f0: 80b8 92be cc0f a33e 4a7f a33f ba17 92be
00000200: 32c3 0ac0 7225 1dbf 19d3 52bf 7c07 d5bc
00000210: 9c9f 1340 5bd8 62bf b3c7 1840 69f6 0940
00000220: b74c d3bf 7b96 80bd 018c 4bbf 8e12 453f
00000230: dc54 783f c961 21be 23aa a83e ad39 27bd
00000240: 7131 8dbe d1c3 1abe 634d 5a3e 92a9 663c
00000250: 6595 23be 41b8 73be 4ab7 81be 8a4c 85be
00000260: eadc 2bbd 3704 113e 658e 0e3e 2527 97be
00000270: d189 a6bf a9e9 8ebf d3db bcbf a9e4 a8bf
00000280: 78c5 57be 546d c6be 1640 03c0 11c8 95c0
00000290: 4452 34bf 5026 bb3f 508c 5c3e f1ec 24bc
000002a0: 0357 0b3d 3814 df3f bbea 67bf 0fdd fc3e
000002b0: dd0b 123f 5301 163f d231 21bf 5fc6 d93f
000002c0: 3456 8dbe 4fbe 81be b47e 3c3f bf82 bebf
000002d0: 070b 0a40 1422 b5c1 e109 dd3f b04b 8fbf
000002e0: 781b 5540 0e7f a9be 872d c1bd 7066 4c3f
000002f0: 74e4 74bf caee 00bf fe97 40be ccd1 873a
00000300: 1c08 85be f96a 4dc0 ad04 71be 5077 b7bf
00000310: 79dc 55bf 4933 243f 9d99 22bf 1d76 d23f
00000320: a7b4 463f 1a3d 423f 2a67 8dbf 0c81 86bf
00000330: 736a 0bc0 1860 74c0 83ec 3040 11a9 71bf
00000340: 8dde 83bf 2cd9 66be 14bb 21c0 1360 08c0
00000350: c2d6 c53d 668a 4ebf 3ab1 043f b988 05bc
00000360: 3e2f edbf beea 0e40 1870 78bf 3d7b 79c0
00000370: 64ee 9abf 4a8f 273f 2b3b ba40 52b3 1e40
00000380: 085e 5fc0 ba4d f13f bc24 7f3e 26e5 c03a
00000390: d6b1 cb3b ce7a 3cbf 9101 5fbe e28c 2940
000003a0: 3d3b b3bf eda3 4c3f f7e5 25bf 9453 1540
000003b0: d431 913f e925 9b3e 4bfb cebd c4bb e9be
000003c0: 82ba 733f 828e 0840 1729 2140 a464 95bf
000003d0: 1bc8 973f 65b8 01bf 652c 9c40 baaf 0cc0
000003e0: 919e 1f3f def6 e1bf b8e8 cf3d fd22 96bc
000003f0: 2d68 373f af99 56c0 b90b 0b40 a516 893f

rcsl.backbone.model.0.bias f4 [200]
-0.09877507 -0.44919646 0.6168087 -0.85130066 0.05574153 0.46489644 -0.16910897 -0.31309074
-0.09482566 -0.37721166 -0.50220716 1.1359248 -0.013448335 -0.8159122 0.52473336 0.04716979
0.036840927 -2.115621 -0.5937364 0.12824194 0.9080851 -0.28885794 0.33703855 -0.45004463
0.47552603 0.06368538 0.5841518 -0.8892329 -0.773968 0.54079455 0.0791128 0.5381971
-0.32744482 0.1452497 -0.28191033 1.6105397 -0.7037866 -0.68432206 -0.09852909 -0.5709359
0.43464187 -0.45929843 -0.16613121 1.2311662 -1.2561704 0.24439451 1.2910436 -0.7023787
0.4538717 -0.6938777 0.06340451 0.121586055 -0.114120066 -1.1476103 0.1836125 -0.9627928
-0.7424194 -0.045037832 0.1505164 -0.8790755 0.53063446 1.2487701 -0.33855206 0.4635885
0.45744962 -0.6819757 0.67666805 -3.1078546 -0.17803323 -0.36768153 0.637721 -0.22577786
0.38175836 -0.04079507 -1.0902773 -1.062729 3.8008673 0.031194506 0.10384134 3.7057118
-0.073603876 -0.8263658 -1.5704916 -0.049987517 -0.28706652 0.75786895 1.8045205 0.5343096
-0.21549673 -1.3268918 -1.8529963 -0.84698886 0.3834569 0.47899818 0.30132404 0.3494892
-0.24222419 3.0180385 -0.6332595 -0.10620233 0.1670233 -1.4384884 -0.1990173 1.9457171
-0.8525586 0.4577353 2.0290582 0.20905787 0.033370566 1.0573739 0.1373892 1.9938456
0.15058464 0.9643581 -1.5660907 -0.09758634 -0.933214 2.1991374 1.1170171 -1.2190456
-0.009629537 0.5685539 -0.23233142 -0.20799777 2.633533 0.15379255 0.48355007 -0.23561117
-0.0046482 0.9504848 0.23003615 2.2839172 0.6554175 -0.9488305 -1.2588959 0.76651895
0.05124547 0.46287328 -0.474788 0.17119963 -0.047736615 -0.018464427 -1.4119496 1.789788
-0.0658951 -1.2394456 -0.7748698 2.2103522 -0.20179419 0.0001914515 -0.73910385 2.0287771
0.7425523 0.50688624 1.2799281 0.24170196 -0.12625363 -1.0974671 -0.43326214 0.06777325
0.14977981 -1.774218 0.5775206 -2.5740263 -0.01857745 0.20245332 0.28115544 -0.258154
0.107002154 -1.4559861 -0.18889016 0.02663549 0.7012639 -0.6778315 1.6214184 -0.15030278
1.176474 -1.2330854 -0.17087127 1.7553052 0.23594378 0.73548955 -1.3216007 -0.46819964
-0.15213434 0.44182947 0.95291096 2.6938972 1.3199035 1.5806398 -0.67004484 -1.9172328
0.082549214 0.78515977 -0.28561133 -1.6564584 0.50611633 0.087570265 0.7432544 0.3928714
00000000: 954a cabd 14fd e5be 2de7 1d3f d7ee 59bf
00000010: 3b51 643d e806 ee3e e72a 2dbe 6e4d a0be
00000020: f533 c2bd e321 c1be a690 00bf fc65 913f
00000030: 6856 5cbc 9fdf 50bf ed54 063f 1c35 413d
00000040: 83e6 163d 5666 07c0 1cff 17bf db51 033e
00000050: 4478 683f 30e5 93be 5190 ac3e 406c e6be
00000060: 2678 f33e 7b6d 823d f98a 153f c4a4 63bf
00000070: c422 46bf 8371 0a3f e405 a23d 49c7 093f
00000080: d9a6 a7be 56bc 143e 8d56 90be 2a26 ce3f
00000090: 5c2b 34bf bb2f 2fbf 9fc9 c9bd db28 12bf
000000a0: 6189 de3e 2a29 ebbe 4d1e 2abe db96 9d3f
000000b0: 31ca a0bf 8e42 7a3e eb40 a53f 17cf 33bf
000000c0: df61 e83e f8a1 31bf 39da 813d 1c02 f93d
000000d0: c8b7 e9bd e5e4 92bf ea04 3c3e 9779 76bf
000000e0: 330f 3ebf 9779 38bd f920 1a3e 180b 61bf
000000f0: a9d7 073f b3d7 9f3f b256 adbe 795b ed3e
00000100: d636 ea3e f695 2ebf 1e3a 2d3f 17e7 46c0
00000110: 584e 36be c140 bcbe af41 233f 5032 67be
00000120: d575 c33e bb18 27bd 358e 8bbf 8107 88bf
00000130: 6941 7340 9f8b ff3c c5aa d43d 622a 6d40
00000140: a1bd 96bd b68c 53bf de05 c9bf b6bf 4cbd
00000150: 62fa 92be b303 423f 87fa e63f 84c8 083f
00000160: 2dab 5cbe 97d7 a9bf fc2e edbf 43d4 58bf
00000170: 7654 c43e 403f f53e 2547 9a3e 40f0 b23e
00000180: 9e09 78be 8b27 4140 4b1d 22bf 9b80 d9bd
00000190: 2808 2b3e 6320 b8bf 31cb 4bbe 420d f93f
000001a0: 4841 5abf 485c ea3e 17dc 0140 4413 563e
000001b0: 93af 083d 0758 873f c1af 0c3e 5536 ff3f
000001c0: dc32 1a3e 2ce0 763f a975 c8bf 59db c7bd
000001d0: 1de7 6ebf abbe 0c40 6bfa 8e3f b009 9cbf
000001e0: 35c5 1dbc c08c 113f 4ae8 6dbe 5efd 54be
000001f0: ce8b 2840 cb7b 1d3e e093 f73e 0e44 71be
00000200: ed4f 98bb f952 733f 998e 6b3e b32b 1240
00000210: 71c9 273f 8ee6 72bf 8023 a1bf 963a 443f
00000220: c5e6 513d bafd ec3e 6a17 f3be f54e 2f3e
00000230: 7887 43bd b642 97bc c4ba b4bf c617 e53f
00000240: 03f4 86bd 27a6 9ebf de5d 46bf 6976 0d40
00000250: 23a3 4ebe 5fc0 4839 e935 3dbf 7cd7 0140
00000260: e817 3e3f 4cc3 013f afd4 a33f b880 773e
00000270: a248 01be cd79 8cbf 89d4 ddbe b4cc 8a3d
00000280: e15f 193e 9319 e3bf 64d8 133f d9bc 24c0
00000290: bd2f 98bc ec4f 4f3e 9bf3 8f3e c32c 84be
000002a0: f223 db3d c15d babf 6c6c 41be ac32 da3c
000002b0: 0886 333f 5d86 2dbf a38a cf3f f9e8 19be
000002c0: b396 963f bed5 9dbf e1f8 2ebe d7ad e03f
000002d0: 3f9b 713e 0b49 3c3f 362a a9bf ddb7 efbe
000002e0: 1bc9 1bbe 7937 e23e f9f1 733f d068 2c40
000002f0: 99f2 a83f 6852 ca3f 0f88 2bbf e267 f5bf
00000300: 900f a93d 3b00 493f a63b 92be d406 d4bf
00000310: d790 013f 0a58 b33d ec45 3e3f 7126 c93e

rcsl.backbone.model.2.weight f4 [200, 200]
0.050505105 -0.03584883 -0.023739373 -0.06348959 -0.007002025 0.0048504365 0.019356346 -0.049192302
-0.008182592 -0.058265667 -0.057518877 -0.010979489 -0.06902439 0.018828709 -0.08286108 -0.0786465
-0.014672187 -0.06747788 0.05710823 0.040871937 -0.036934238 -0.0016279181 0.036173817 0.022469953
-0.0264343 -0.06669511 0.051416487 -0.06202011 -0.0130956 0.00438629 -0.023287999 -0.044006027
-0.061113153 -0.0146582965 -0.026361646 0.04286302 -0.02327945 0.043851256 0.0033474462 -0.03176905
-0.03901532 -0.00802433 -0.017253207 -0.029386505 0.020985026 0.058231387 0.0111145545 0.008902918
0.0053459904 -0.0025099043 0.032595556 0.037091337 0.06618613 -0.06453437 0.0032041436 -0.005912969
-0.012698956 -0.02726194 0.030128187 0.06468524 -0.074075945 0.03459165 0.03260883 -0.0061754244
-0.015063666 0.048586525 -0.014268632 -0.035021383 -0.005221599 0.007492316 0.017701652 -0.0038150654
0.0051956023 0.003601605 -0.07560047 -0.00024117432 0.03957398 -0.008371736 -0.0064542424 0.023290426
-0.061778594 -0.06558804 -0.059468664 0.06109772 -0.0813982 -0.01130876 -0.088363245 -0.0063389586
0.026356516 -0.032349147 0.05299095 -0.01761491 -0.036050435 0.018233865 0.019807346 -0.0031136181
0.043554228 -0.07095267 0.0125523 0.0038157532 0.021329183 -0.01832125 0.020185366 -0.0731935
-0.07344418 -0.021903982 -0.027476147 0.0525045 0.05134492 0.03013973 -0.032387823 -0.06360847
-0.08413665 -0.016505664 -0.06371614 -0.081116185 -0.049078852 -0.08704245 -0.04411759 -0.061216984
-0.054522075 0.067226365 -0.013325199 0.05865724 -0.03282366 -0.041734196 -0.020702828 -0.050545916
-0.056812353 0.048961617 -0.021790175 -0.07712658 0.031953383 -0.015537477 -0.07339201 -0.05558238
-0.059381776 -0.07915449 0.0639876 0.048754558 -0.031817902 -0.09159363 -0.024341684 -0.08312749
0.00627101 -0.018775074 -0.028438902 -0.032350156 0.033152804 0.007846224 0.015489853 -0.028711414
-0.010756468 -0.032977473 -0.069657736 0.052281495 -0.03049628 0.041139953 -0.06297987 -0.016978541
0.0242062 -0.064925164 0.032434978 -0.073722415 0.009867412 -0.014021878 0.022113886 0.05152823
0.0018274382 -0.03384241 -0.035033237 0.0080126 -0.045964938 0.011412263 -0.03064796 0.04796405
0.034962513 0.043358725 -0.025476392 0.018087633 -0.06443388 0.041353814 -0.036192264 0.025778042
-0.011974047 -0.03885063 -0.03320612 0.02692097 -0.052473236 -0.029698284 0.03567001 -0.007293061
-0.059495926 -0.08184904 -0.034377627 0.037437983 -0.0656381 0.021135543 0.050615814 -0.029309392
-0.055162195 -0.09055333 -0.019392036 -0.04972208 -0.020727288 0.0057301987 0.029687162 -0.046067983
-0.020557253 -0.023056393 -0.037776686 -0.02671423 -0.02864417 0.018101089 -0.010345196 -0.04690945
-0.088482015 -0.088823 -0.036542036 0.011818148 -0.07169196 -0.0005946444 -0.006330423 0.046843443
0.055090588 -0.027208623 -0.07462566 -0.050518103 -0.04281445 -0.074963175 -0.053657636 -0.03763545
-0.0047965543 0.090701774 0.015917676 -0.02437135 -0.043405753 -0.019078285 -0.0028865281 -0.049114052
-0.015534413 -0.06064709 -0.09942352 -0.04089585 -0.05968265 -0.034730524 -0.10477715 0.01052874
-0.039386302 -0.07477302 -0.02880358 0.018590057 -0.05128185 -0.03526584 -0.04075151 -0.012433913
00000000: 71de 4e3d 39d6 12bd 1379 c2bc d506 82bd
00000010: 3e71 e5bb 69f0 9e3b 3391 9e3c de7d 49bd
00000020: 4710 06bc fba7 6ebd ea98 6bbd 51e3 33bc
00000030: a95c 8dbd aa3e 9a3c 12b3 a9bd 6b11 a1bd
00000040: 9d63 70bc d831 8abd 52ea 693d 5569 273d
00000050: 5b48 17bd de5f d5ba ff2a 143d e812 b83c
00000060: bf8c d8bc 7297 88bd 189a 523d cd08 7ebd
00000070: ed8e 56bc deba 8f3b 79c6 bebc aa3f 34bd
00000080: c951 7abd 5a29 70bc 61f4 d7bc 2291 2f3d
00000090: 8cb4 bebc 609d 333d d460 5b3b 4320 02bd
000000a0: 87ce 1fbd 7b78 03bc 9956 8dbc f8bb f0bc
000000b0: cae8 ab3c 0984 6e3d d219 363c 8bdd 113c
000000c0: 6b2d af3b 357d 24bb eb82 053d 16ed 173d
000000d0: 988c 873d 992a 84bd 9cfc 513b 94c1 c1bb
000000e0: 480f 50bc 6f54 dfbc 63cf f63c b279 843d
000000f0: 21b5 97bd f9af 0d3d d690 053d 375b cabb
00000100: 98cd 76bc aa02 473d fbc6 69bc 9572 0fbd
00000110: f219 abbb 1a82 f53b 0e03 913c 2d06 7abb
00000120: df3f aa3b e808 6c3b 6bd4 9abd bde3 7cb9
00000130: 5318 223d 9b29 09bc 1c7e d3bb 90cb be3c
00000140: 8d0b 7dbd 0653 86bd 6a95 73bd 9a41 7a3d
00000150: 19b4 a6bd 6148 39bc caf7 b4bd 0ab7 cfbb
00000160: 9fe9 d73c 8a80 04bd 0a0d 593d 254d 90bc
00000170: 9fa9 13bd 305f 953c 0443 a23c d80d 4cbb
00000180: eb65 323d a24f 91bd 29a8 4d3c b711 7a3b
00000190: 8aba ae3c 7216 96bc c85b a53c 79e6 95bd
000001a0: e769 96bd fb6f b3bc a815 e1bc f50e 573d
000001b0: 0d4f 523d 98e7 f63c 18a9 04bd 2845 82bd
000001c0: d64f acbd e336 87bc 9c7d 82bd 3e20 a6bd
000001d0: e806 49bd 5043 b2bd a5b4 34bd a9be 7abd
000001e0: 8a52 5fbd faad 893d ef51 5abc 9342 703d
000001f0: 1a72 06bd 7af1 2abd fa98 a9bc 3c09 4fbd
00000200: 12b4 68bd fa8b 483d 4f81 b2bc 8af4 9dbd
00000210: 8de1 023d e790 7ebc 8d4e 96bd 5aaa 63bd
00000220: 4e3a 73bd c01b a2bd ee0b 833d dcb2 473d
00000230: 7d53 02bd 7195 bbbd 3668 c7bc bf3e aabd
00000240: 0b7d cd3b 2fce 99bc b3f8 e8bc 9981 04bd
00000250: 3ccb 073d 738d 003c 27c9 7d3c 3334 ebbc
00000260: e63b 30bc 6313 07bd b7a8 8ebd 1f25 563d
00000270: 56d3 f9bc 5e82 283d 97fb 80bd 9516 8bbc
00000280: 154c c63c 7cf7 84bd 8ada 043d c7fb 96bd
00000290: edaa 213c 05bc 65bc 2e28 b53c 440f 533d
000002a0: a786 ef3a 579e 0abd 037f 0fbd 4847 033c
000002b0: bb45 3cbd 80fa 3a3c 6e11 fbbc f475 443d
000002c0: da34 0f3d eb98 313d deb3 d0bc 842c 943c
000002d0: e9f5 83bd 9e62 293d 573e 14bd 792c d33c
000002e0: cb2e 44bc d721 1fbd 2403 08bd 5e89 dc3c
000002f0: 2dee 56bd d149 f3bc b71a 123d a1fa eebb
00000300: 00b2 73bd 78a0 a7bd 8ecf 0cbd 9258 193d
00000310: 456d 86bd 7224 ad3c 8752 4f3d 401a f0bc
00000320: c1f1 61bd 0674 b9bd 0cdc 9ebc 61a9 4bbd
00000330: 46cc a9bc 64c4 bb3b 7e32 f33c c8b1 3cbd
00000340: af67 a8bc c3e0 bcbc babb 1abd cdd7 dabc
00000350: 2ea7 eabc bc48 943c e67e 29bc 2024 40bd
00000360: 0f36 b5bd d5e8 b5bd 1aad 15bd e8a0 413c
00000370: 3cd3 92bd e9e1 1bba 706f cfbb e9de 3f3d
00000380: aba6 613d 9ee4 debc 57d5 98bd 12ec 4ebd
00000390: 345e 2fbd 4b86 99bd 1cc8 5bbd a127 1abd
000003a0: 6a2c 9dbb dac1 b93d c965 823c 6da6 c7bc
000003b0: 3bca 31bd 104a 9cbc e82b 3dbb d12b 49bd
000003c0: 0d84 7ebc 1569 78bd 8f9e cbbd 6882 27bd
000003d0: cb75 74bd 9841 0ebd 6795 d6bd bc80 2c3c
000003e0: 8853 21bd 9922 99bd 7cf5 ebbc 2d4a 983c
000003f0: eb0c 52bd ea72 10bd 0eeb 26bd 9cb7 4bbc

rcsl.backbone.model.2.bias f4 [200]
0.01864001 -0.07298945 -0.0060282326 1.7428826 -0.020112231 1.0249829 0.21988513 -0.06932372
0.050036874 -0.008120877 0.00020135507 -0.08479387 -0.08838076 0.39522952 -0.3668403 0.13496996
-0.582082 -1.7453257 -0.031756133 -0.18037622 0.4391393 0.010331887 0.41507024 -1.3371485
-0.004094971 -0.53599006 0.98778915 0.037186038 -0.15952416 -2.0363426 0.2700348 -0.10418361
-3.9076505 0.18710305 0.0013402591 0.14363635 -0.04878991 -0.01876174 0.019478662 -0.90512836
-0.51527804 -0.06286637 -1.5662341 -1.051321 -0.086621664 -0.26926622 -0.061259426 -0.047872383
-0.28091335 -0.34607854 1.8787266 -0.5715837 -0.025949538 -0.07008066 -0.22098055 -0.060137257
-0.48291123 -0.5442991 1.6244147 0.08079577 -0.05536731 -0.06888754 -0.04503236 1.1161605
-0.06724017 -0.03564828 0.023277171 -0.3017482 -0.12609883 0.037504617 -0.013351437 -0.09210387
-0.16548213 -0.0781142 -0.2202339 -1.3836427 -0.33533606 0.008650153 -3.2619514 -0.08558073
-0.08983876 0.033057466 0.043403093 -0.0022769473 0.50892675 -0.08064818 -0.075318076 -0.12933561
0.0547591 -0.021271668 1.5788264 -0.004853891 0.022117114 1.146091 -0.40471098 -0.11156329
0.042064726 -0.2908864 -0.07567259 0.15721494 0.03210604 -0.1916153 -0.040272567 -0.16339453
-0.06329922 0.5761537 0.026859937 -0.050152894 0.031188674 -0.93636435 0.030150173 -0.034283992
0.03043543 -0.48180658 -0.008683628 -0.01636112 2.6862025 -0.02631317 -0.7826837 -0.1223996
-0.085910045 1.2439971 -0.00023265353 -0.08086577 0.0007234594 -0.6030647 -0.45143685 1.179316
0.012997038 -0.010125556 0.012570951 1.086387 -0.012432107 -0.044991594 -0.0962931 -1.0882514
0.14690596 -0.062038597 0.0115831755 -0.10603854 0.021774137 0.020108357 -0.09042627 -0.11154986
-1.5968646 -0.018473111 -0.029733863 -0.39442077 -0.011719254 -0.020237383 -0.08889166 0.19307522
1.2341138 -0.039834417 -0.068205096 -0.09889659 -0.07106872 -2.5814989 0.24475966 0.020147666
0.026322449 -0.034831077 -0.0460487 -0.030886607 -0.04650617 -0.30835932 0.41042447 -0.012843372
-0.010482695 -0.0802192 -0.09101539 -0.07539631 -0.049823746 -0.0071907667 0.12263152 1.216338
-0.03334981 -2.393855 0.055695567 -0.02640488 -0.7368846 0.04991732 -0.18439493 -0.89434177
0.015143223 1.3299264 -0.06909455 1.4236238 -0.10304898 -1.9701496 -0.037424784 0.15109885
0.037535194 -0.006515818 0.029006599 1.2720311 -0.03690747 -1.3671654 -1.2880505 -0.0060427124
00000000: efb2 983c 7e7b 95bd 7b88 c5bb c716 df3f
00000010: 68c2 a4bc a432 833f 9129 613e 98f9 8dbd
00000020: 77f3 4c3d 6d0d 05bc d722 5339 69a8 adbd
00000030: f900 b5bd 865b ca3e 7ed2 bbbe 9135 0a3e
00000040: 5303 15bf d566 dfbf b812 02bd 8bb4 38be
00000050: ded6 e03e 1347 293c 1684 d43e af27 abbf
00000060: 1b2f 86bb a536 09bf c0df 7c3f 6350 183d
00000070: 4d5a 23be 7053 02c0 0042 8a3e 375e d5bd
00000080: f216 7ac0 f197 3f3e a2ab af3a 6815 133e
00000090: eed7 47bd 38b2 99bc b791 9f3c 7eb6 67bf
000000a0: 43e9 03bf 15c0 80bd 5c7a c8bf b091 86bf
000000b0: b366 b1bd 43dd 89be 2aeb 7abd d515 44bd
000000c0: e0d3 8fbe 3531 b1be 1d7a f03f 4f53 12bf
000000d0: 2094 d4bc 7386 8fbd ba48 62be 7c52 76bd
000000e0: 2440 f7be 3057 0bbf d2ec cf3f 4178 a53d
000000f0: d5c8 62bd e914 8dbd da73 38bd 59de 8e3f
00000100: 37b5 89bd ee03 12bd c4af be3c bd7e 9abe
00000110: 0d20 01be 719e 193d fcbf 5abc f4a0 bcbd
00000120: 2674 29be 56fa 9fbd ff84 61be 341b b1bf
00000130: 2bb1 abbe 5fb9 0d3c d0c3 50c0 f344 afbd
00000140: 62fd b7bd 4467 073d 71c7 313d d638 15bb
00000150: 0649 023f df2a a5bd 5d40 9abd 8e70 04be
00000160: 144b 603d ec41 aebc fc16 ca3f 640d 9fbb
00000170: f32e b53c 1cb3 923f 4736 cfbe 4b7b e4bd
00000180: 104c 2c3d 10ef 94be 3bfa 9abd f4fc 203e
00000190: 9f81 033d cd36 44be d9f4 24bd e550 27be
000001a0: 05a3 81bd cf7e 133f 5f09 dc3c 1f6d 4dbd
000001b0: 647f ff3c 93b5 6fbf 7ffd f63c 5f6d 0cbd
000001c0: b953 f93c 5aaf f6be c745 0ebc c107 86bc
000001d0: beea 2b40 b88e d7bc f55d 48bf a4ac fabd
000001e0: 9bf1 afbd 4c3b 9f3f 75f4 73b9 f49c a5bd
000001f0: 8aa6 3d3a 7362 1abf bb22 e7be d4f3 963f
00000200: 87f1 543c a9e5 25bc 64f6 4d3c bb0e 8b3f
00000210: 09b0 4bbc 1b49 38bd 5135 c5bd d24b 8bbf
00000220: 846e 163e 2f1c 7ebd 5cc7 3d3c bc2a d9bd
00000230: ad5f b23c 48ba a43c 6931 b9bd 4174 e4bd
00000240: 0f66 ccbf ec54 97bc 6e94 f3bc 85f1 c9be
00000250: 1d02 40bc dec8 a5bc d50c b6bd 83b5 453e
00000260: 71f7 9d3f 6a29 23bd 1daf 8bbd 4c8a cabd
00000270: 7a8c 91bd 4737 25c0 47a2 7a3e b80c a53c
00000280: 2da2 d73c 08ab 0ebd 909d 3cbd e905 fdbc
00000290: 417d 3ebd 46e1 9dbe 2823 d23e 026d 52bc
000002a0: 9cbf 2bbc f749 a4bd 4766 babd 6169 9abd
000002b0: fc13 4cbd 86a0 ebbb 3c26 fb3d f7b0 9b3f
000002c0: cf99 08bd ec34 19c0 0921 643d 0c4f d8bc
000002d0: 78a4 3cbf 1b76 4c3d 06d2 3cbe 95f3 64bf
000002e0: 481b 783c 073b aa3f 7281 8dbd 4e39 b63f
000002f0: 580b d3bd dd2d fcbf bb4a 19bd a8b9 1a3e
00000300: 81be 193d a582 d5bb 3f9f ed3c ead1 a23f
00000310: 4a2c 17bd 47ff aebf d7de a4bf f201 c6bb

rcsl.backbone.model.4.weight f4 [200, 200]
0.05476025 0.06408532 -0.022104481 0.045269173 -0.028501712 0.18852404 -0.06751765 0.33421823
-0.068473324 0.03732198 0.03297938 -0.042975746 -0.010858285 -0.5945616 -0.45015126 0.1655391
-0.22927672 -0.22002532 -0.5233451 0.022376683 0.22638923 -0.05202454 0.113331914 0.12584041
0.019901183 -0.092953555 -0.06150325 -0.014701547 -0.9361918 -0.3252059 -0.5064087 -0.025660036
0.30683303 -0.17986245 0.6021481 -0.2421605 0.04065533 0.030186374 -0.063996546 0.29817075
-1.1054671 0.000876856 0.1793125 0.28906417 0.010622823 0.0642131 -0.0029460082 0.06944663
-0.4366928 0.5882899 -0.017348256 -0.013054936 0.0035609896 0.055124544 0.038083352 0.2311345
-0.6919019 0.48061842 0.11856857 -0.3726382 0.044228338 0.04743729 0.064022146 0.14848194
0.041918874 0.046435222 0.02970498 -0.023258155 0.34608462 0.012294974 -0.311381 -0.024104003
0.21448702 -0.023665521 0.12872013 -0.11401917 0.8623868 -0.0054823156 -0.19721816 -0.074778065
0.031639077 0.014889983 -0.0023224787 -0.7166924 0.04516871 -0.062139496 0.46003953 -0.19279677
-0.22942308 -0.004259386 0.13079368 0.083255656 -0.02174228 0.11876435 0.0481156 0.043944843
-0.037132878 -0.64370716 -0.18459569 -0.0051033325 -0.041127402 0.09153317 0.0335365 0.6050169
-0.36696127 -0.0024200596 -0.0074469936 0.049101662 0.03159568 0.31774643 -0.015085972 -0.04427404
-0.065258116 0.15428272 -0.4162465 0.05028715 0.3967406 0.65004706 -0.0445728 -0.12175246
0.061880175 -0.20090345 0.09355343 0.08222456 -0.054402165 -0.40818933 -0.008137353 -0.07241815
0.0024953021 -0.009241603 0.016085166 -0.13908699 0.015462316 -0.062785916 0.08722612 -0.06901879
0.02468847 0.047143914 0.050795157 0.029878408 -0.03136567 -0.059011392 0.0899158 -0.037759032
0.13247736 -0.017424846 -0.065066636 -0.0140917 0.046242975 -0.1856192 -0.06352674 -0.033599287
0.026615549 -0.056127198 0.51415795 -0.0743116 0.06878772 -4.4132595 -0.48506403 -0.039677914
-0.027640918 -0.013917387 -0.0061342516 -0.010805089 0.030181022 0.021135515 -0.0069092885 0.008475094
-1.1187897 0.0488439 0.02531618 -0.00642891 0.02831862 0.016417017 0.38725471 0.053733017
-0.8833921 -0.46143955 0.009903138 0.01563224 -0.120165564 0.26405346 0.35571483 -0.14791086
0.037229385 -0.1886346 -0.039016582 0.35604143 0.03714078 -0.12304651 -0.038476612 -3.5763264
0.04906346 -0.046611115 0.0013309893 0.046060834 0.046800677 -0.72569245 -0.31540358 -0.056463744
-0.045556936 0.03507697 0.03210204 -0.045434646 0.021205902 -0.06585175 0.028340675 -0.070964165
-0.06606484 -0.051964708 -0.0327641 -0.05570256 -0.02470849 -0.06202748 -0.049322627 0.057135135
-0.05122257 -0.060670316 -0.039809935 -0.010408647 -0.033300053 0.061704386 0.0484146 -0.060691543
-0.020664938 0.02821664 0.033801652 0.028930329 0.020687263 -0.075797655 -0.026781928 0.031046376
0.0019206089 -0.087596625 0.063168615 -0.046851978 -0.019303443 0.040128235 0.060533714 -0.077442445
-0.06905945 0.04560709 -0.06907887 0.012953345 0.02240295 0.032221474 -0.07492244 0.038822904
0.0018433268 -0.10292735 0.026374564 0.021020578 0.02186442 -0.025583973 0.034103815 0.06423703
00000000: 494c 603d 2a3f 833d 7514 b5bc 2b6c 393d
00000010: 6c7c e9bc 720c 413e b246 8abd a71e ab3e
00000020: be3b 8cbd efde 183d 6315 073d 5607 30bd
00000030: f3e6 31bc 3035 18bf 3a7a e6be 1583 293e
00000040: 84c7 6abe 514e 61be f2f9 05bf 4e4f b73c
00000050: 94d2 673e af17 55bd 901a e83d 4fdc 003e
00000060: ce07 a33c 6f5e bebd d5ea 7bbd c2de 70bc
00000070: 44aa 6fbf 6381 a6be 00a4 01bf ff34 d2bc
00000080: 3819 9d3e dd2d 38be 6126 1a3f ecf8 77be
00000090: 3486 263d 6a49 f73c 9f10 83bd d6a9 983e
000000a0: f27f 8dbf cfdc 653a b29d 373e 3800 943e
000000b0: 590b 2e3c 2882 833d d111 41bb 093a 8e3d
000000c0: 3396 dfbe 2b9a 163f ee1d 8ebc 5fe4 55bc
000000d0: 7e5f 693b 46ca 613d 4afd 1b3d 86ae 6c3e
000000e0: 7c20 31bf 9e13 f63e 14d4 f23d 6fca bebe
000000f0: c628 353d 9b4d 423d 0b1e 833d a60b 183e
00000100: 20b3 2b3d dc32 3e3d dc57 f33c e387 bebc
00000110: 0132 b13e dc70 493c 556d 9fbe c275 c5bc
00000120: 7ca2 5b3e 32de c1bc 36cf 033e e282 e9bd
00000130: 62c5 5c3f ffa4 b3bb 8ff3 49be 3e25 99bd
00000140: fa97 013d 1ef5 733c ba34 18bb 2779 37bf
00000150: d302 393d fc85 7ebd 4d8a eb3e 846c 45be
00000160: e2ed 6abe 5292 8bbb c7ee 053e f181 aa3d
00000170: de1c b2bc b93a f33d dd14 453d 82ff 333d
00000180: a518 18bd fec9 24bf a706 3dbe db39 a7bb
00000190: 3575 28bd be75 bb3d 925d 093d 63e2 1a3f
000001a0: 59e2 bbbe dd99 1ebb e905 f4bb d31e 493d
000001b0: 796a 013d a9af a23e 272b 77bc b258 35bd
000001c0: 0ca6 85bd 4afc 1d3e 431e d5be e6f9 4d3d
000001d0: 9521 cb3e 7c69 263f f891 36bd 5b59 f9bd
000001e0: 1176 7d3d a2b9 4dbe f198 bf3d 5a65 a83d
000001f0: ced4 5ebd 31fe d0be 8852 05bc f84f 94bd
00000200: 3988 233b 186a 17bc 0ac5 833c d26c 0ebe
00000210: a755 7d3c e795 80bd 9ca3 b23d b959 8dbd
00000220: 793f ca3c fa19 413d 950e 503d 90c3 f43c
00000230: 4a79 00bd eeb5 71bd c625 b83d 37a9 1abd
00000240: 25a8 073e 8dbe 8ebc a841 85bd e0e0 66bc
00000250: 4669 3d3d f612 3ebe 4f1a 82bd 689f 09bd
00000260: da08 da3c a2e5 65bd db9f 033f ae30 98bd
00000270: 93e0 8c3d 6c39 8dc0 505a f8be 4f85 22bd
00000280: 356f e2bc c105 64bc d501 c9bb d407 31bc
00000290: 313e f73c 6324 ad3c 5067 e2bb 1fdb 0a3c
000002a0: 8034 8fbf 8b10 483d e163 cf3c 9ba9 d2bb
000002b0: 73fc e73c fb7c 863c 4046 c63e 2717 5c3d
000002c0: fc25 62bf ce41 ecbe c540 223c 2f0f 803c
000002d0: 5d19 f6bd 0432 873e 4120 b63e f275 17be
000002e0: d77d 183d 6e29 41be dacf 1fbd 104b b63e
000002f0: ee20 183d cfff fbbd a799 1dbd 88e2 64c0
00000300: c4f6 483d 4ceb 3ebd 9774 ae3a 49aa 3c3d
00000310: 11b2 3f3d fbc6 39bf 947c a1be 8746 67bd
00000320: e999 3abd deac 0f3d 6e7d 033d ae19 3abd
00000330: 00b8 ad3c 48dd 86bd b42a e83c a955 91bd
00000340: 014d 87bd f2d8 54bd a633 06bd 5e28 64bd
00000350: 7669 cabc 8710 7ebd 8606 4abd 8806 6a3d
00000360: c2ce 51bd 7081 78bd be0f 23bd 0889 2abc
00000370: a365 08bd bdbd 7c3d 634e 463d b297 78bd
00000380: 8449 a9bc 9526 e73c 9a73 0a3d 4cff ec3c
00000390: 5678 a93c cd3b 9bbd c665 dbbc f854 fe3c
000003a0: f1bc fb3a dc65 b3bd 8c5e 813d dce7 3fbd
000003b0: 4122 9ebc 815d 243d 33f2 773d 259a 9ebd
000003c0: 0a6f 8dbd 80ce 3a3d 3979 8dbd 443a 543c
000003d0: 6486 b73c aafa 033d f070 99bd c404 1f3d
000003e0: c99b f13a 93cb d2bd 780f d83c 5933 ac3c
000003f0: 031d b33c 7b95 d1bc 71b0 0b3d b48e 833d

rcsl.backbone.model.4.bias f4 [200]
3.3035123 -0.05560158 0.20831068 -0.9069095 -0.015476326 -0.015205309 -0.01174364 0.50195193
0.96895117 3.1290195 -0.105665304 -0.6958777 -2.3068495 -0.002501393 -0.039672807 -1.5255537
-0.72978413 -2.309654 -0.0814953 -0.037979845 -0.0688315 -0.09204545 -0.042710785 1.001934
-0.3632676 -0.9596054 0.5028936 -0.06890788 -0.804897 -0.08274471 -0.01718116 -0.05720644
-0.26938558 -0.11657054 -0.018531546 -0.047139503 -0.124806695 -0.4719115 1.2509286 0.6507783
1.6748846 0.62187725 0.21794082 -0.45346648 0.66881454 -0.9561252 0.46785855 -1.1908729
-1.9572194 -0.82238245 -0.5465375 -0.42352423 -0.83749694 -1.3877692 0.24660218 -0.05878671
0.14322852 -0.027271092 -0.3567394 0.25739056 -0.11106791 0.35603622 0.21473193 0.4072442
0.4763623 1.5110447 -0.012146972 -0.12692073 2.5160506 0.6311856 -0.005437964 1.7311212
2.1219893 -0.6362235 -1.0942187 -0.1008903 -0.15333952 -1.0128106 -1.307329 0.014517342
-0.11556673 -1.1062526 2.4940603 1.172405 1.346506 -0.08912753 -0.43389803 0.69845945
-0.9355525 -0.5944801 1.1366704 1.1732551 2.5072005 -0.8553531 -0.07547648 -0.028392145
-0.07807013 -0.6983985 0.026131334 0.013561641 0.13003467 -0.30223405 -1.7418014 0.07129136
-0.3381487 0.012533605 -0.0076777125 0.0020128915 -2.6583514 0.060467567 -0.60025096 -0.4725602
1.2169436 -1.2727604 -0.3709476 -1.8012656 -1.0130699 1.1140447 0.9662893 -0.20649403
-0.7962745 -0.37099326 -2.0361059 0.09779635 0.33580613 -0.34094307 -0.26627764 -1.1844642
-0.19301534 -1.0945048 -0.06399026 1.5010223 -0.122783504 -0.15276867 -1.0360751 -0.07710374
-0.6486446 -1.7010516 -1.3105416 -0.016763989 0.0051378636 -0.38727042 -0.025093013 0.040371038
-0.042374805 -0.18843418 0.4181096 -0.00955754 -1.4904755 -0.049510103 -0.35947055 -0.0731673
-0.67610383 -0.24769604 -0.1301031 -2.9990234 1.720708 -3.3606074 -0.7736262 -0.81676424
-0.14802362 -0.02148049 -0.17928118 1.4124815 -1.0067993 0.26030135 -0.019061057 -0.5965371
-0.0769324 -2.0454333 0.70018005 -0.044454463 -0.08594662 0.01727153 -1.9796462 -3.654411
-0.062201962 -0.017910125 -0.020884305 -0.10211581 -1.1282276 2.2241879 3.6080267 2.1731634
-3.416737 -0.01744859 -0.11907621 1.4508289 2.9853716 0.4718976 1.4936867 -0.030292934
0.1837548 -0.80561554 0.73443955 -0.87847257 0.7602127 -0.0821646 -0.06668643 -0.13205981
00000000: bf6c 5340 7bbe 63bd 654f 553e 392b 68bf
00000010: 6b90 7dbc b01f 79bc 6568 40bc ec7f 003f
00000020: 2f0d 783f db41 4840 0d67 d8bd 0a25 32bf
00000030: 6ca3 13c0 69ee 23bb f47f 22bd 5845 c3bf
00000040: 22d3 3abf 5fd1 13c0 02e7 a6bd c190 1bbd
00000050: 88f7 8cbd 5382 bcbd 81f1 2ebd 603f 803f
00000060: 36fe b9be b3a8 75bf a3bd 003f 931f 8dbd
00000070: bb0d 4ebf 0f76 a9bd 81bf 8cbc 4d51 6abd
00000080: e8ec 89be 89bc eebd 78cf 97bc 5a15 41bd
00000090: a79a ffbd 629e f1be 6e1e a03f 6899 263f
000000a0: 9e62 d63f 5933 1f3f e12b 5f3e c22c e8be
000000b0: 6e37 2b3f 9fc4 74bf 288b ef3e 866e 98bf
000000c0: 2a86 fabf a887 52bf e2e9 0bbf 2bd8 d8be
000000d0: 3366 56bf 6ca2 b1bf 4885 7c3e 55ca 70bd
000000e0: 7faa 123e a067 dfbc 8ca6 b6be b2c8 833e
000000f0: 9377 e3bd 614a b63e b0e2 5b3e 5082 d03e
00000100: c2e5 f33e ea69 c13f 1804 47bc 82f7 01be
00000110: f906 2140 6195 213f f330 b2bb 6195 dd3f
00000120: acce 0740 8bdf 22bf 5c0f 8cbf 939f cebd
00000130: 0905 1dbe c7a3 81bf 8f56 a7bf 25da 6d3c
00000140: 40ae ecbd af99 8dbf af9e 1f40 5e11 963f
00000150: 4f5a ac3f 7f88 b6bd e227 debe 3dce 323f
00000160: 5e80 6fbf d92f 18bf 6a7e 913f 392d 963f
00000170: f975 2040 6cf8 5abf 6a93 9abd a596 e8bc
00000180: 3be3 9fbd 3eca 32bf 6111 d63c a531 5e3c
00000190: cf27 053e 6cbe 9abe 59f3 debf 3401 923d
000001a0: d421 adbe c059 4d3c 5295 fbbb b7ea 033b
000001b0: 6e22 2ac0 d7ac 773d 0caa 19bf 69f3 f1be
000001c0: cfc4 9b3f d0e9 a2bf d8ec bdbe df8f e6bf
000001d0: 46ac 81bf 0499 8e3f bc5e 773f 2c73 53be
000001e0: a5d8 4bbf d4f2 bdbe 8f4f 02c0 7449 c83d
000001f0: c8ee ab3e 1790 aebe 8b55 88be 869c 97bf
00000200: d0a5 45be bc18 8cbf 530d 83bd 8021 c03f
00000210: eb75 fbbd 646f 1cbe 1c9e 84bf 91e8 9dbd
00000220: 930d 26bf 0fbc d9bf d4bf a7bf a254 89bc
00000230: 865b a83b 4f48 c6be dd8f cdbc 1a5c 253d
00000240: 3491 2dbd e4f4 40be 7612 d63e 3a97 1cbc
00000250: e7c7 bebf 1bcb 4abd 860c b8be bdd8 95bd
00000260: 2415 2dbf 08a4 7dbe bf39 05be 00f0 3fc0
00000270: 2940 dc3f 3114 57c0 5e0c 46bf 7617 51bf
00000280: 8193 17be daf7 afbc 7c95 37be 32cc b43f
00000290: cdde 80bf 3846 853e ef25 9cbc a8b6 18bf
000002a0: bc8e 9dbd 61e8 02c0 003f 333f e215 36bd
000002b0: c804 b0bd 067d 8d3c 0c65 fdbf dfe1 69c0
000002c0: 7cc7 7ebd 41b8 92bc 9015 abbc 1822 d1bd
000002d0: c369 90bf 1859 0e40 e9e9 6640 1c15 0b40
000002e0: d2ab 5ac0 58f0 8ebc 3ade f3bd c3b4 b93f
000002f0: 5410 3f40 909c f13e 2031 bf3f e328 f8bc
00000300: 382a 3c3e d23c 4ebf 3b04 3c3f 94e3 60bf
00000310: 4d9d 423f ea45 a8bd e592 88bd b03a 07be

rcsl.backbone.model.6.weight f4 [200, 200]
-0.1070275 0.06718261 0.15260026 0.13731727 0.036481917 0.16124365 -0.13275969 0.099227645
0.17578983 0.0614181 -0.040081713 0.021174807 0.010872232 -0.058938194 0.07099039 -0.10043225
-0.21742687 -0.101164125 0.013437936 -0.1512679 0.04209811 -0.032509793 -0.027235838 0.10053442
0.070422485 0.07222576 0.09655881 0.31557566 -0.23513575 0.07890391 -0.05583232 0.055863567
0.20110303 -0.030441372 -0.15790218 -0.047274917 -0.052366637 0.037310682 -0.31323949 0.062915795
-0.0083722845 0.32333127 -0.051923472 0.2668636 -0.2521897 0.05977025 -0.15554267 -0.31308544
-0.17614995 -0.15679434 -0.072463244 0.2652454 -0.11077312 -0.003383543 -0.047888074 -0.3099411
0.08057326 0.05379961 -1.270101 -0.05317386 0.008034433 -0.17685479 0.06611717 0.04286927
-0.05168086 -0.12977362 -0.007749279 0.025731081 -0.060207643 0.12848504 -0.021968089 -0.022990497
-0.17970408 -0.008355064 -0.19347997 -0.027657557 0.03721312 -0.017946754 0.0058460915 -0.15351029
-0.028752595 -0.065729156 -0.05970744 -0.07620706 0.16828729 -0.013559163 -0.23451468 -0.00016465032
0.13093789 -0.049198497 -0.006261015 0.15920494 0.10329584 -0.0014796538 -0.023225648 -0.048224147
0.009457799 -0.09634166 -0.039448436 -0.060095225 -0.5583662 -0.04879856 0.09101741 0.032653928
-0.09848694 0.007957325 -0.006846376 0.02201713 -0.2466188 -0.0054080533 -0.037578225 -0.04800161
-0.014306572 -0.118900724 -0.2807423 0.21298216 -0.25638494 -0.10752244 0.08242702 -0.011732863
-0.23619957 0.13236423 -0.038732044 0.18556406 0.18665336 -0.19957505 -0.17777736 0.18218017
0.07993754 0.17992337 -0.05197319 -0.021551043 -0.05823067 0.14480154 0.015556088 -0.03464569
-0.007888698 0.1932096 -0.07274279 0.26862875 0.019847924 -0.10899498 0.029132223 0.07579356
0.23316604 -0.028688094 0.05369725 -0.18233706 -0.15456197 0.056625064 -0.026976755 0.016017528
-0.2117246 0.08601652 0.18312952 -0.004324637 0.046385664 0.028569344 0.06463592 -0.064128354
-0.14532025 0.14566661 0.17233175 0.010884583 0.057038765 -0.37040618 0.021368751 0.123072095
0.001161216 -0.092686355 -0.030238302 -0.015538126 0.013211486 -0.04021571 -0.06985611 0.018137295
0.04596586 -0.047303516 0.07381372 -0.10688664 -0.08462161 -0.15869531 -0.018568274 0.11842037
0.1320773 -0.04742677 -0.023534836 0.055571206 -0.30672556 0.034598824 -0.14827818 0.046021786
-0.1608032 0.13338065 0.2741406 0.42101598 0.28371605 -0.048412953 -0.04857976 0.1616428
-0.5442327 -0.046339706 -0.8898435 0.67476356 -0.009873498 0.07853408 0.21052545 -0.8382398
-1.1697873 0.03856651 0.036196314 0.076526746 -0.38038284 -0.038491946 0.026856184 0.14654927
-2.674777 0.3753436 -0.018008018 -1.3615555 -0.016374255 0.021300782 -0.041382853 1.0091628
-0.12893325 -1.3747922 0.12862141 0.48136172 0.5738345 0.054501075 0.06397875 0.02039478
0.10417243 0.051247124 0.02135539 -0.05612712 -0.041859396 -0.39860824 0.4583425 0.057231892
0.244136 -0.5847425 -0.14334376 -0.0061989995 0.72043407 0.44219 -0.12931244 -1.3529727
-0.24391286 0.26252505 -0.638227 -0.035632145 0.6415579 0.14326201 0.11840584 -0.13027811
00000000: 3c31 dbbd 0997 893d 3e43 1c3e e69c 0c3e
00000010: 106e 153d 0e1d 253e 28f2 07be dd37 cb3d
00000020: 4002 343e 8c91 7b3d b92c 24bd ca76 ad3c
00000030: 7221 323c 2d69 71bd 6963 913d 6caf cdbd
00000040: 26a5 5ebe 232f cfbd ca2a 5c3c f9e5 1abe
00000050: 116f 2c3d fd28 05bd b11d dfbc fde4 cd3d
00000060: aa39 903d 19eb 933d a0c0 c53d 2293 a13e
00000070: 6dc7 70be 6098 a13d 6eb0 64bd 32d1 643d
00000080: f4ed 4d3e 2f60 f9bc 1cb1 21be 58a3 41bd
00000090: 667e 56bd 16d3 183d ed60 a0be ffd9 803d
000000a0: e82b 09bc ad8b a53e b5ad 54bd 59a2 883e
000000b0: 021f 81be a6d1 743d 9446 1fbe bc4c a0be
000000c0: a760 34be b28e 20be 9c67 94bd 3fce 873e
000000d0: 04dd e2bd 6fbe 5dbb 4926 44bd 9ab0 9ebe
000000e0: 9803 a53d fb5c 5c3d ab92 a2bf d5cc 59bd
000000f0: dba2 033c 6c19 35be 7068 873d b097 2f3d
00000100: 4faf 53bd 60e3 04be aaed fdbb fdc9 d23c
00000110: 4a9c 76bd 9591 033e 6cf6 b3bc 9156 bcbc
00000120: 5904 38be aee3 08bc 9d1f 46be 1a92 e2bc
00000130: c96c 183d 1205 93bc 9290 bf3b cd31 1dbe
00000140: 908a ebbc 029d 86bd ca8f 74bd 7212 9cbd
00000150: 8153 2c3e 4027 5ebc 9e24 70be fca5 2cb9
00000160: 9514 063e 5d84 49bd 3329 cdbb 9f06 233e
00000170: c58c d33d f1f0 c1ba b743 bebc af86 45bd
00000180: e2f4 1a3c c74e c5bd af94 21bd 6926 76bd
00000190: 16f1 0ebf 00e1 47bd 5667 ba3d 20c0 053d
000001a0: 85b3 c9bd 715f 023c 9157 e0bb 455d b43c
000001b0: a489 7cbe 0a36 b1bb a0eb 19bd 569d 44bd
000001c0: 1d66 6abc 3982 f3bd 74bd 8fbe ff17 5a3e
000001d0: e344 83be ba34 dcbd 7fcf a83d 323b 40bc
000001e0: 4dde 71be 7d8a 073e 7ea5 1ebd 8104 3e3e
000001f0: 0f22 3f3e 675d 4cbe 450b 36be 708d 3a3e
00000200: 4bb6 a33d d53d 383e d7e1 54bd d08b b0bc
00000210: 4883 6ebd db46 143e f6de 7e3c a4e8 0dbd
00000220: 993f 01bc bdd8 453e 2cfa 94bd b589 893e
00000230: 1d98 a23c c338 dfbd b3a6 ee3c a739 9b3d
00000240: 14c3 6e3e 4b03 ebbc a6f1 5b3d 91b6 3abe
00000250: 7e45 1ebe afef 673d 5bfe dcbc 3137 833c
00000260: 55ce 58be 6e29 b03d 4e86 3b3e afb5 8dbb
00000270: e5fe 3d3d 420a ea3c d65f 843d ba55 83bd
00000280: d5ce 14be a129 153e bc77 303e 4055 323c
00000290: 7ba1 693d e1a5 bdbe 850d af3c 390d fc3d
000002a0: f133 983a 58d2 bdbd 51b6 f7bc a093 7ebc
000002b0: fd74 583c 3ab9 24bd b810 8fbd aa94 943c
000002c0: b346 3c3d 55c1 41bd a62b 973d 62e7 dabd
000002d0: 184e adbd 0681 22be 7e1c 98bc 6186 f23d
000002e0: 463f 073e 9342 42bd 21cc c0bc a29e 633d
000002f0: 220b 9dbe 7fb7 0d3d 3cd6 17be 5781 3c3d
00000300: 98a9 24be f094 083e 285c 8c3e 688f d73e
00000310: 3b43 913e a94c 46bd 92fb 46bd b185 253e
00000320: d652 0bbf b4ce 3dbd c9cc 63bf 4ebd 2c3f
00000330: 74c4 21bc 7ad6 a03d fc93 573e e296 56bf
00000340: 97bb 95bf ebf7 1d3d 9642 143d 0eba 9c3d
00000350: 8ac1 c2be bba9 1dbd 8001 dc3c 0311 163e
00000360: 8c2f 2bc0 092d c03e 8d85 93bc 7347 aebf
00000370: 4d23 86bc fa7e ae3c 1181 29bd 3f2c 813f
00000380: 1407 04be 31f9 afbf 55b5 033e 0b75 f63e
00000390: d1e6 123f 853c 5f3d 4a07 833d f412 a73c
000003a0: 5b58 d53d 81e8 513d 80f1 ae3c 8de5 65bd
000003b0: c274 2bbd 6116 ccbe deab ea3e fd6b 6a3d
000003c0: cafe 793e afb1 15bf b5c8 12be fa20 cbbb
000003d0: 5e6e 383f ba66 e23e 7b6a 04be 362e adbf
000003e0: 4bc4 79be af69 863e d862 23bf 03f3 11bd
000003f0: 233d 243f 47b3 123e c37e f23d a067 05be

rcsl.backbone.model.6.bias f4 [200]
-0.95212865 -1.5830857 1.1385909 -3.487145 1.3435484 -0.37548277 -0.05565953 -0.04581322
0.7550234 -0.25125262 -0.37000093 -0.16303934 -0.19137518 1.4153033 0.13258071 -1.2802553
-0.13276798 -0.9778474 2.0863998 -0.334029 -0.85151845 0.26987526 -0.99599385 -0.11127067
-1.49475 0.7844762 0.414608 0.4100724 -1.2442766 0.48455283 0.25937116 2.4007359
0.58033735 -0.0033884598 -1.1322743 1.1426902 0.70764893 1.2676154 -1.5932913 1.6595918
0.97449327 -0.6013145 -1.9247663 -0.14029905 0.49652883 1.0265677 -0.17177778 1.2984341
-0.024976294 0.115177244 -0.63132346 0.76740736 -0.4072454 -0.9533037 -0.18068506 -0.06908698
-0.064523555 0.47727054 1.1234791 -0.78305995 -0.8344276 1.1103001 -0.066131756 -0.06147506
1.868551 -0.20686056 -0.08196861 -1.4083066 -0.39869833 -0.0045603714 -0.16252549 -1.1676861
-0.38990575 1.9150529 -1.3790743 -0.19294906 1.4102137 0.75836426 -0.10929277 -1.3466147
-1.3876238 -0.22654495 -0.01826734 -1.8678786 2.0310462 -0.28525898 -0.51111627 0.82822126
-0.810536 0.2849546 1.2284989 -0.3755305 -0.6220794 1.457177 1.1774144 0.7642497
-3.019513 0.60191417 0.59606946 -1.6240216 -0.16716178 -1.0064411 -0.019982196 -1.6110415
1.4118204 -0.12666208 2.8668823 1.1392695 0.20592046 1.6040046 0.07527659 -0.5596396
-0.17840472 -4.537001 -0.23354952 -0.6230528 -1.445491 1.4270859 0.44298235 1.3840146
0.25617337 -1.0702015 -0.19543102 1.673754 2.396984 -1.3409734 1.985707 0.48947486
0.60731673 -3.154068 -0.75617 -0.025531888 -0.2340847 -0.12581386 -1.120837 -0.049027182
1.4091891 0.34609866 -0.0056580394 1.5927511 -0.038522143 -1.5458027 0.5230633 -0.051992342
1.1463655 0.17999958 -0.39819056 -0.09343728 -0.9090222 1.2439173 -0.47043905 -0.1551893
-0.13485056 1.3384345 0.28824508 0.9518107 -0.17586742 -0.073530845 3.5978124 -1.6231928
-0.84752464 1.1662123 -0.13488677 -0.08557676 -1.8045577 -0.08987511 0.5768465 -0.66591054
-0.7688758 -0.17590864 1.1243166 -0.7457545 -0.54446846 2.2626626 0.6822998 -0.6633588
-1.11884 -0.137919 1.3559043 -2.3873987 2.9826035 0.15571013 1.8177316 -0.16503409
0.6349771 -0.11329101 2.0572128 0.87608975 -0.023527686 -0.33278978 2.1338394 -0.019889416
-0.9575938 -0.48052487 0.060456984 -0.13257362 -0.13064799 0.914632 0.91559285 -2.1021137
00000000: b4be 73bf 8da2 cabf 59bd 913f 622d 5fc0
00000010: 65f9 ab3f 473f c0be 3ffb 63bd a5a6 3bbd
00000020: 3749 413f 2fa4 80be c370 bdbe c9f3 26be
00000030: dbf7 43be a928 b53f 3dc3 073e 68df a3bf
00000040: 54f4 07be 3554 7abf 9387 0540 d905 abbe
00000050: 1dfd 59bf 172d 8a3e 74f9 7ebf e1e1 e3bd
00000060: f853 bfbf 6fd3 483f 8047 d43e 02f5 d13e
00000070: 7544 9fbf 4f17 f83e 4ccc 843e a8a5 1940
00000080: fd90 143f ec10 5ebb 5dee 90bf ac43 923f
00000090: 7b28 353f 3941 a23f f8f0 cbbf 816d d43f
000000a0: 6478 793f bfef 19bf be5e f6bf 8eaa 0fbe
000000b0: 0739 fe3e 9266 833f 84e6 2fbe 1733 a63f
000000c0: 169b ccbc 0ce2 eb3d 6a9e 21bf cf74 443f
000000d0: 7882 d0be b60b 74bf 8105 39be 797d 8dbd
000000e0: ed24 84bd ce5c f43e 2ace 8f3f 9e76 48bf
000000f0: 0c9d 55bf 501e 8e3f 1670 87bd 46cd 7bbd
00000100: ae2c ef3f 41d3 53be 29df a7bd 6443 b4bf
00000110: 3022 ccbe 2b6f 95bb 156d 26be bd76 95bf
00000120: baa1 c7be 7420 f53f 8285 b0bf 7094 45be
00000130: e281 b43f 2924 423f e3d4 dfbd df5d acbf
00000140: a89d b1bf 66fb 67be 63a5 95bc a516 efbf
00000150: a9fc 0140 770d 92be 84d8 02bf 4f06 543f
00000160: 4a7f 4fbf 92e5 913e 743f 9d3f 8945 c0be
00000170: 9840 1fbf c784 ba3f 84b5 963f dea5 433f
00000180: b33f 41c0 0c17 1a3f 0298 183f f1df cfbf
00000190: 752c 2bbe 10d3 80bf b4b1 a3bc 9c36 cebf
000001a0: 88b6 b43f b4b3 01be 007b 3740 95d3 913f
000001b0: d0dc 523e 0650 cd3f 9d2a 9a3d 8a44 0fbf
000001c0: baaf 36be 1d2f 91c0 9b27 6fbe 6380 1fbf
000001d0: d905 b9bf c0aa b63f 95ce e23e 6427 b13f
000001e0: 2829 833e 5dfc 88bf 121f 48be 923d d63f
000001f0: 3068 1940 04a5 abbf a62b fe3f 739c fa3e
00000200: 1c79 1b3f 40dc 49c0 5b94 41bf 4028 d1bc
00000210: e6b3 6fbe 59d5 00be 9677 8fbf bad0 48bd
00000220: 4f60 b43f d833 b13e 1367 b9bb 45df cb3f
00000230: 65c9 1dbd dddc c5bf 7ae7 053f ecf5 54bd
00000240: 1bbc 923f cf51 383e a2df cbbe 0b5c bfbd
00000250: aeb5 68bf af38 9f3f 63dd f0be f2e9 1ebe
00000260: 4416 0abe d251 ab3f dc94 933e dea9 733f
00000270: 9716 34be 5797 96bd 8f42 6640 c8c4 cfbf
00000280: 60f7 58bf 7246 953f c21f 0abe de42 afbd
00000290: bffb e6bf 7110 b8bd 36ac 133f 1d79 2abf
000002a0: 0bd5 44bf 6521 34be 9be9 8f3f c4e9 3ebf
000002b0: 4962 0bbf 77cf 1040 33ab 2e3f e2d1 29bf
000002c0: 2636 8fbf a33a 0dbe 468e ad3f 24cb 18c0
000002d0: fae2 3e40 7a72 1f3e 6eab e83f b2fe 28be
000002e0: dc8d 223f 1e05 e8bd 60a9 0340 6b47 603f
000002f0: 22bd c0bc 6c63 aabe d390 0840 21ef a2bc
00000300: de24 75bf 5b07 f6be bea1 773d 61c1 07be
00000310: 96c8 05be 5325 6a3f 4b64 6a3f 0889 06c0
