backup/halfcheetah-medium-expert-v2/rcsl/timestamp_23-0830-214428&1/model/policy.pth (torch, 505723 bytes, 10 tensors)

rcsl.backbone.model.0.weight f4 [200, 18]
3.610783 -1.6374643 -7.8943095 1.7216364 10.692367 -3.918668 2.4383752 1.5659121
-2.4068804 -1.6008762 3.5133042 0.38722292 0.3265032 -0.5786993 -0.88423395 1.6227102
0.24091087 -0.024738979 -8.853552 -0.06282482 6.732898 2.5312262 6.8360796 -2.848758
9.219133 9.37639 -4.4690766 4.443806 -0.25661606 0.42681727 -0.70253825 0.9581124
0.40119857 -1.2914066 -0.35787326 -0.051829677 33.743214 30.058172 70.75966 11.36251
-4.493497 10.957995 -1.2452799 -50.480034 -3.7182593 5.6754384 1.2843941 0.5654318
2.3794482 1.3836954 -0.16583572 1.1037673 -0.5223283 -0.00037373506 172.73056 -42.75147
30.201717 13.022763 -2.5014591 -15.585492 -12.408445 -11.669955 -0.39069334 38.800285
13.954269 4.9414186 4.3116803 0.42568526 -1.5132738 -0.44650483 -0.54590654 4.128573e-05
5.732607 -0.19703238 3.2268844 -1.9604863 6.2618694 3.1469908 3.4531114 -11.738348
-1.1334006 -0.27650726 1.8271673 0.37986478 1.1099811 -0.5588624 -0.17704003 0.49711737
0.13989776 -0.077748396 -2.1511352 2.8386898 9.3145685 4.433484 5.0220456 2.3535678
7.9397306 7.474637 -3.9386435 4.8355613 -0.43072683 -0.92814535 -1.1609398 0.40714896
-0.9778124 -0.25678852 -0.85069275 -0.039297942 14.365554 1.3263652 -7.6828456 8.497791
-3.4500432 -9.51201 11.338968 2.2392697 -2.548201 -1.8883091 -2.270949 0.7883255
-0.6530713 0.5373168 0.26596662 0.010164447 -0.53767675 -0.09495717 3.1206517 1.2717878
-2.2357836 7.633064 -1.4645163 -3.4090729 7.9800763 4.028296 -2.0641043 -3.8426607
-4.014015 -0.13703376 -1.0274107 0.4725872 -1.2452899 -0.72800326 -0.16197199 -0.07370106
4.975235 9.154239 2.959485 4.7900186 5.288169 -6.245151 10.695664 5.413008
-0.3998962 4.9054494 1.907451 0.4954334 0.19365731 -0.09274232 0.6293927 -0.010582669
-0.15761156 -0.06084473 3.801716 -2.8164525 -12.733232 -1.6712334 1.0687302 3.0011816
7.751218 0.30031672 -8.317054 -9.424717 -2.6717665 0.39580578 2.69987 0.13273664
1.596734 1.6807488 -0.29916644 -0.015664188 3.9852169 -0.85671914 5.418901 7.4519734
6.003527 -2.213099 8.3108635 2.295648 -1.2511214 -2.2792885 -2.0577974 -0.32336178
-0.18260795 1.0064316 0.08716016 -1.1531223 1.3548077 -0.102182336 7.8405232 -0.32780918
-11.400864 -0.6215954 -2.036885 8.392941 5.6251793 7.2693014 -5.1925216 -0.44481596
-0.93075824 0.5255774 -0.16083272 -0.621749 -0.39088354 0.40436226 -1.7642696 -0.020043029
15.753778 2.1166217 -1.2564082 3.5367396 3.696276 3.7961938 6.222661 -6.0262437
-1.6663458 5.429844 2.3830748 0.84894145 0.64549214 -0.43154955 -0.41290328 -0.06754138
0.6400648 -0.02679789 -160.55637 -4.073505 17.831188 -27.45918 -7.88024 -6.5085554
-24.377571 -5.8272405 2.5538971 15.805642 1.1030365 1.0893888 1.336741 -1.9546983
0.23269905 2.5535486 1.9134301 3.010863e-05 16.763079 21.04581 7.009556 4.236464
00000000: 1217 6740 6e98 d1bf 2f9e fcc0 955e dc3f
00000010: ef13 2b41 75cb 7ac0 570e 1c40 cf6f c83f
00000020: 540a 1ac0 83e9 ccbf fad9 6040 1542 c63e
00000030: 6d2b a73e a325 14bf 285d 62bf f8b4 cf3f
00000040: 57b1 763e 66a9 cabc 26a8 0dc1 4daa 80bd
00000050: e773 d740 9cff 2140 2ac1 da40 0d52 36c0
00000060: 9281 1341 b205 1641 ad02 8fc0 a933 8e40
00000070: 2e63 83be cb87 da3e 8cd9 33bf db46 753f
00000080: e669 cd3e d04c a5bf 2a3b b7be 5b4b 54bd
00000090: 0df9 0642 2377 f041 f284 8d42 d7cc 3541
000000a0: baca 8fc0 f353 2f41 5565 9fbf 8eeb 49c2
000000b0: f6f7 6dc0 319d b540 0767 a43f 23c0 103f
000000c0: e148 1840 ee1c b13f d7d0 29be 3f48 8d3f
000000d0: 4fb7 05bf dff1 c3b9 06bb 2c43 8101 2bc2
000000e0: 1e9d f141 3d5d 5041 e817 20c0 2d5e 79c1
000000f0: fe88 46c1 23b8 3ac1 f508 c8be 7e33 1b42
00000100: b044 5f41 1a20 9e40 49f9 8940 6bf3 d93e
00000110: f5b2 c1bf 489c e4be 88c0 0bbf 372a 2d38
00000120: 8471 b740 dbc2 49be 4685 4e40 37f1 fabf
00000130: 3c61 c840 4c68 4940 c7ff 5c40 46d0 3bc1
00000140: 4513 91bf 5c92 8dbe 9ee0 e93f a37d c23e
00000150: dc13 8e3f 9b11 0fbf fb49 35be 2b86 fe3e
00000160: 5c41 0f3e 8d3a 9fbd 33ac 09c0 18ad 3540
00000170: 7908 1541 1adf 8d40 99b4 a040 dba0 1640
00000180: 4612 fe40 3a30 ef40 bc12 7cc0 ebbc 9a40
00000190: 3a88 dcbe ef9a 6dbf ad99 94bf d475 d03e
000001a0: ea51 7abf c979 83be 00c7 59bf e1f6 20bd
000001b0: 4fd9 6541 56c6 a93f dfd9 f5c0 f4f6 0741
000001c0: 82cd 5cc0 3131 18c1 6a6c 3541 3250 0f40
000001d0: ba15 23c0 1db4 f1bf 3a57 11c0 b3cf 493f
000001e0: ae2f 27bf 988d 093f c72c 883e c888 263c
000001f0: 2fa5 09bf e878 c2bd c2b8 4740 f1c9 a23f
00000200: 1417 0fc0 0f42 f440 4575 bbbf 402e 5ac0
00000210: c95c ff40 cde7 8040 491a 04c0 27ee 75c0
00000220: d072 80c0 9452 0cbe 3282 83bf f3f6 f13e
00000230: a965 9fbf 6c5e 3abf fcdb 25be 95f0 96bd
00000240: 2035 9f40 c377 1241 3468 3d40 d547 9940
00000250: ae38 a940 47d8 c7c0 7121 2b41 5d37 ad40
00000260: 32bf ccbe 71f9 9c40 5b27 f43f 72a9 fd3e
00000270: 1a4e 463e afef bdbd e11f 213f ee62 2dbc
00000280: ed64 21be 5338 79bd 514f 7340 c240 34c0
00000290: 51bb 4bc1 faea d5bf 27cc 883f 5c13 4040
000002a0: fa09 f840 1dc3 993e a712 05c1 a4cb 16c1
000002b0: 39fe 2ac0 0ea7 ca3e acca 2c40 1dec 073e
000002c0: c861 cc3f c722 d73f 582c 99be 2f52 80bc
000002d0: cb0d 7f40 f251 5bbf a367 ad40 9176 ee40
000002e0: e51c c040 6aa3 0dc0 4cf9 0441 e6eb 1240
000002f0: bf24 a0bf dddf 11c0 f4b2 03c0 ad8f a5be
00000300: 94fd 3abe c0d2 803f 0781 b23d 8399 93bf
00000310: 576a ad3f f944 d1bd 91e5 fa40 9bd6 a7be
00000320: f069 36c1 e020 1fbf 535c 02c0 7d49 0641
00000330: 7801 b440 1e9e e840 2329 a6c0 ebbe e3be
00000340: 2c46 6ebf 3e8c 063f 55b1 24be f12a 1fbf
00000350: e321 c8be 9208 cf3e 96d3 e1bf 4731 a4bc
00000360: 7a0f 7c41 bb76 0740 fcd1 a0bf f159 6240
00000370: c98f 6c40 d7f4 7240 0a20 c740 fdd6 c0c0
00000380: d24a d5bf 48c1 ad40 4c84 1840 3a54 593f
00000390: f93e 253f 10f4 dcbe 0f68 d3be 2353 8abd
000003a0: 49db 233f 4087 dbbc 6e8e 20c3 275a 82c0
000003b0: 46a6 8e41 67ac dbc1 ed2a fcc0 1646 d0c0
000003c0: 4405 c3c1 c178 bac0 0d73 2340 e9e3 7c41
000003d0: 4d30 8d3f 1871 8b3f 541a ab3f 8e33 fabf
000003e0: a948 6e3e 576d 2340 47eb f43f ca91 fc37
000003f0: c91a 8641 d25d a841 484e e040 1d91 8740

rcsl.backbone.model.0.bias f4 [200]
-9.284669 -2.9254458 10.82411 -2.986421 -9.266883 -5.935898 -5.008587 -12.213584
-6.457297 -7.127275 -10.123864 -4.1605053 -7.7134604 4.477425 -5.152751 -2.6048138
-12.15489 -7.901943 -8.136287 -4.78353 -38.064587 -2.187363 -6.4090896 -5.5084453
-5.7902045 5.982054 -3.8335378 -6.2250457 -8.992805 -4.6021123 10.93881 19.618345
-6.3973765 6.2690363 -8.420578 -6.809066 9.767318 1.5645347 8.257123 -1.27131
-0.94300014 -2.8862295 -5.08207 -3.5853598 12.047373 -9.187501 -4.8449183 -6.7446785
-10.043402 -5.4193163 -4.817017 -3.273372 -8.216743 -4.174378 -4.830082 0.4911864
-5.3755465 -7.230555 -9.012396 -2.822944 -6.8142447 -5.38451 -8.219928 -8.319593
-0.84185064 -3.1267736 -9.100736 -9.883918 -14.908341 -10.604568 -5.505743 -5.064173
-5.069163 -5.24256 -9.762038 -7.098851 -8.37439 -6.0042953 1.1290861 -6.3380575
-7.009634 -6.8550854 -7.6878414 -5.418176 -3.934809 -7.706372 -28.605307 -5.5406556
-3.0258071 -8.414149 -7.4024615 -4.689714 -0.35806325 4.716148 -6.090152 -3.536812
-5.4199452 -8.072487 -8.979944 -2.791805 -4.3541665 1.9274986 -3.7306864 -6.1646
18.006575 -9.066824 19.900362 -3.9959147 -6.718253 -8.438048 -6.900802 -7.135156
-3.2779992 -4.3868017 -0.24180259 13.513271 -5.2201877 -2.1741257 -1.8467084 -7.2865314
-6.9671144 -3.6001005 -4.239061 -2.8974552 -2.8252213 1.4207779 -8.755814 3.0914853
-5.9613194 23.529593 17.51915 -7.122284 -5.3674936 -3.2316532 -7.7071104 -4.9841814
-3.819478 -4.0943832 12.559454 -7.0377917 -1.1021351 -5.794084 -6.0806313 -7.098424
-4.138285 -3.6160452 -8.372723 -7.3846674 -3.6155372 -3.4116902 -6.5662804 -7.042233
1.743333 -5.057617 -7.0401506 -6.1809034 -4.7980003 -2.7641025 -5.4698286 -4.8241715
15.561197 -7.1635046 2.5156403 -7.3701997 -6.243839 2.2743254 -5.1963754 -7.179367
-0.02368919 -5.0753345 -8.039298 -0.9533392 -6.880707 -8.232195 -5.2666397 -6.3993063
-7.7709427 -2.7351103 -6.6736746 -0.043990485 -7.156511 -5.089143 -9.955286 -7.5011616
-8.85099 -7.827657 -2.3424478 -9.3876 -9.283645 -6.948255 -10.966248 -4.816943
-2.8822138 -10.264186 -6.1257105 -4.7274556 4.4949465 -4.2630324 -2.6458614 -2.8912435
00000000: 018e 14c1 813a 3bc0 8e2f 2d41 8621 3fc0
00000010: 2745 14c1 e0f2 bdc0 5846 a0c0 d76a 43c1
00000020: 2da2 cec0 a312 e4c0 59fb 21c1 dc22 85c0
00000030: abd4 f6c0 1147 8f40 56e3 a4c0 45b5 26c0
00000040: 6e7a 42c1 b8dc fcc0 3b2e 02c1 ae12 99c0
00000050: 2342 18c2 c1fd 0bc0 4317 cdc0 2f45 b0c0
00000060: 5b49 b9c0 fd6c bf40 af58 75c0 9333 c7c0
00000070: 87e2 0fc1 8144 93c0 5e05 2f41 5ff2 9c41
00000080: 4fb7 ccc0 f29b c840 b0ba 06c1 dee3 d9c0
00000090: ef46 1c41 ac42 c83f 2d1d 0441 49ba a2bf
000000a0: 7568 71bf fcb7 38c0 51a0 a2c0 8976 65c0
000000b0: 0ac2 4041 0100 13c1 9209 9bc0 68d4 d7c0
000000c0: c6b1 20c1 0a6b adc0 0125 9ac0 ed7e 51c0
000000d0: c877 03c1 8194 85c0 0890 9ac0 c97c fb3e
000000e0: 7a04 acc0 b560 e7c0 c632 10c1 1dab 34c0
000000f0: 4b0e dac0 e84d acc0 d384 03c1 0e1d 05c1
00000100: 8683 57bf 0f1d 48c0 9d9c 11c1 8724 1ec1
00000110: 9188 6ec1 4fac 29c1 0c2f b0c0 b50d a2c0
00000120: 9536 a2c0 0dc3 a7c0 4f31 1cc1 ca29 e3c0
00000130: 80fd 05c1 3023 c0c0 e585 903f 5ed1 cac0
00000140: ec4e e0c0 dc5c dbc0 cc02 f6c0 b361 adc0
00000150: e9d3 7bc0 999a f6c0 abd7 e4c1 0d4d b1c0
00000160: d3a6 41c0 5ba0 06c1 f7e0 ecc0 2312 96c0
00000170: 1154 b7be afea 9640 86e2 c2c0 215b 62c0
00000180: 3170 adc0 e828 01c1 daad 0fc1 efac 32c0
00000190: 5555 8bc0 46b8 f63f 91c3 6ec0 6744 c5c0
000001a0: 770d 9041 b611 11c1 f133 9f41 11bd 7fc0
000001b0: eefb d6c0 3f02 07c1 5fd3 dcc0 3353 e4c0
000001c0: bdca 51c0 ae60 8cc0 199b 77be 5c36 5841
000001d0: c70b a7c0 e024 0bc0 f160 ecbf 442b e9c0
000001e0: 9af2 dec0 0c68 66c0 63a6 87c0 e86f 39c0
000001f0: 6dd0 34c0 0ddc b53f d017 0cc1 e5da 4540
00000200: 21c3 bec0 9b3c bc41 3827 8c41 c0e9 e3c0
00000210: 82c2 abc0 68d3 4ec0 a6a0 f6c0 6a7e 9fc0
00000220: 5472 74c0 3005 83c0 86f3 4841 9735 e1c0
00000230: c312 8dbf 2369 b9c0 8894 c2c0 4a26 e3c0
00000240: d56c 84c0 496d 67c0 acf6 05c1 324f ecc0
00000250: f664 67c0 2259 5ac0 f81e d2c0 f959 e1c0
00000260: 8925 df3f 00d8 a1c0 ea48 e1c0 f6c9 c5c0
00000270: 3889 99c0 0ee7 30c0 d608 afc0 9d5f 9ac0
00000280: aafa 7841 6e3b e5c0 4000 2140 add8 ebc0
00000290: 87cd c7c0 8c8e 1140 b548 a6c0 60bd e5c0
000002a0: d50f c2bc 2469 a2c0 f7a0 00c1 0a0e 74bf
000002b0: c02e dcc0 12b7 03c1 5088 a8c0 1ec7 ccc0
000002c0: 90ab f8c0 0c0c 2fc0 be8e d5c0 5e2f 34bd
000002d0: 2302 e5c0 42da a2c0 da48 1fc1 8409 f0c0
000002e0: a89d 0dc1 2b7c fac0 aaea 15c0 9c33 16c1
000002f0: cf89 14c1 1b58 dec0 c075 2fc1 6624 9ac0
00000300: 3176 38c0 1b3a 24c1 d205 c4c0 5147 97c0
00000310: 9ad6 8f40 c36a 88c0 cb55 29c0 220a 39c0

rcsl.backbone.model.2.weight f4 [200, 200]
-0.06652909 -0.07141552 -0.01584754 -0.026355928 -0.040347677 -0.07025562 -0.051126666 -0.05523093
-0.04849049 0.055093344 -0.066634536 0.06310944 0.015356178 -0.10810099 -0.0398659 -0.07473494
-0.028446551 -0.088646285 -0.0754245 -0.00082796544 -0.008961854 -0.054462064 -0.042236485 -0.04186052
-0.072839625 -0.06568898 -0.10382208 -0.059850056 0.027735835 -0.036617786 -0.09382239 -0.11023623
0.06046412 -0.014048025 -0.06371681 -0.024722429 0.020229848 -0.10183158 -0.026950207 -0.08683711
-0.088895544 -0.026227001 0.019007731 -0.07493042 -0.0758837 -0.09894908 -0.028602999 -0.024239857
0.0046441215 -0.0055413824 -0.015073559 -0.06993911 -0.0075386693 -0.10023986 -0.0684961 -0.03834308
-0.13191304 -0.003858345 -0.00659953 0.004545251 0.015767612 -0.022817079 0.04422841 -0.07475777
-0.061214544 -0.05382988 0.011459215 -0.01771173 -0.07036153 -0.015676921 -0.064060174 0.0035554848
-0.01469096 -0.036680248 -0.030277075 -0.05336759 -0.026428025 -0.03062547 -0.09687747 0.02087767
-0.0031838273 0.00850176 0.01826826 -0.024115821 -0.010822057 -0.00013192161 -0.003066523 -0.057004876
-0.06401526 -0.03377099 0.04850592 -0.038587388 -0.04044306 -0.06936043 -0.059116885 -0.04116899
-0.04557472 0.00094392145 0.03376973 -0.00023626591 0.025541103 -0.025432182 -0.011790534 0.008042473
-0.022196328 -0.01781886 -0.06483488 -0.04363665 -0.010779974 0.041856103 0.01930397 -0.0017517473
-0.08190359 -0.0069926037 0.0031391573 0.009366325 -0.034821946 -0.06439319 -0.010649555 -0.039891753
0.06548997 -0.08406438 0.027154408 -0.09127069 -0.09286083 -0.10034313 0.020891707 -0.057075094
-0.051440455 0.007567863 0.013846025 0.016209217 -0.064503394 -0.034055926 0.0061328444 -0.013243801
0.01138596 -0.019197993 -0.058608644 -0.040533334 -0.0645286 -0.059010133 0.0008498843 -0.032489363
-0.0570576 -0.06501223 -0.0027607267 -0.018006988 0.048828844 0.019383086 -0.060673762 0.06560667
-0.09993192 -0.06475362 0.022025604 -0.040276617 0.016034845 0.019215982 -0.027784865 -0.033052314
-0.015531546 -0.00039262284 0.010588356 -0.01703645 -0.037037004 -0.005577121 -0.010004548 -0.09276462
-0.028237937 -0.03889982 0.014665208 -0.103175074 -0.079687744 -0.0747984 -0.026393607 0.038676474
-0.09423243 0.021739861 -0.0014610316 0.027085608 -0.04424094 -0.028800987 0.01318711 -0.08793218
0.041109573 -0.05608895 -0.02138024 -0.07716727 0.042565815 0.014169825 0.0011867386 -0.08554673
-0.1192566 -0.029571101 -0.056434207 -0.038068898 0.031832427 -0.02364691 -0.026696768 -0.03471383
-1.4929497 1.6591233 0.33428672 -0.026552493 -0.13168068 -0.4804084 0.41534856 0.19724329
1.2661434 -1.2283995 2.3293617 3.8408723 -5.852733 0.029893707 -1.051998 -0.28579235
4.039835 -0.27837 0.9606225 -0.69757456 2.690878 0.36849573 0.00088712247 3.2996671
-0.18618207 -0.59316754 0.21401979 -1.7139822 -2.6737897 2.0540862 0.046591576 0.25814652
-0.5251155 -0.22929403 -1.5735859 -0.2863986 -0.96789545 -0.14471212 -0.084933616 0.73582697
2.4996731 -0.24382049 1.3134834 -2.2570875 -0.8467604 -2.0356321 -2.752285 -0.29268494
0.5823835 0.17107335 -0.6598273 0.20544502 -0.41440436 -0.059653252 0.17761469 -0.49032968
00000000: 6740 88bd 4d42 92bd b3d2 81bc 63e8 d7bc
00000010: 9b43 25bd 2ee2 8fbd 326a 51bd d439 62bd
00000020: f79d 46bd 8fa9 613d b077 88bd 863f 813d
00000030: 7b98 7b3c 0d64 ddbd 6d4a 23bd a20e 99bd
00000040: be08 e9bc 2f8c b5bd 2978 9abd d20b 59ba
00000050: bdd4 12bc 9d13 5fbd 2a00 2dbd f075 2bbd
00000060: f12c 95bd f287 86bd aca0 d4bd 5525 75bd
00000070: 4336 e33c 88fc 15bd f425 c0bd 88c3 e1bd
00000080: 3aa9 773d b029 66bc f57d 82bd b186 cabc
00000090: 11b9 a53c 138d d0bd aec6 dcbc a8d7 b1bd
000000a0: de0e b6bd 02da d6bc 1ab6 9b3c 1f75 99bd
000000b0: ea68 9bbd d1a5 cabd d650 eabc aa92 c6bc
000000c0: b72d 983b 7c94 b5bb 17f7 76bc 3c3c 8fbd
000000d0: f106 f7bb 8e4a cdbd af47 8cbd a20d 1dbd
000000e0: 3614 07be 4adc 7cbb df40 d8bb 54f0 943b
000000f0: 142b 813c e2ea babc d928 353d 9a1a 99bd
00000100: 1abc 7abd b87c 5cbd 6ebf 3b3c 3118 91bc
00000110: b519 90bd e36c 80bc fb31 83bd 2303 693b
00000120: 5ab2 70bc 073e 16bd a107 f8bc f997 5abd
00000130: 967f d8bc 44e2 fabc b267 c6bd a607 ab3c
00000140: c2a7 50bb f74a 0b3c 51a7 953c 8b8e c5bc
00000150: ff4e 31bc 7054 0ab9 b8f7 48bb f27d 69bd
00000160: 6f1a 83bd 7353 0abd 25ae 463d cf0d 1ebd
00000170: 9fa7 25bd d70c 8ebd 8c24 72bd d1a0 28bd
00000180: 8fac 3abd 7f71 773a 2152 0a3d 26be 77b9
00000190: 933b d13c 2757 d0bc 152d 41bc 94c4 033c
000001a0: 13d5 b5bc dcf8 91bc 26c8 84bd 58bc 32bd
000001b0: 7d9e 30bc 4e71 2b3d 5c23 9e3c e39a e5ba
000001c0: 12bd a7bd 3622 e5bb 52ba 4d3b 3775 193c
000001d0: 75a1 0ebd 94e0 83bd 797b 2ebc 8965 23bd
000001e0: 9b1f 863d f229 acbd ec72 de3c 21ec babd
000001f0: d22d bebd b380 cdbd 1625 ab3c 93c7 69bd
00000200: 3ab3 52bd d6fb f73b 70da 623c 31c9 843c
00000210: 5b1a 84bd 3a7e 0bbd 07f6 c83b 87fc 58bc
00000220: 2d8c 3a3c 1c45 9dbc 9e0f 70bd 4806 26bd
00000230: 9227 84bd 9cb4 71bd c5ca 5e3a 9113 05bd
00000240: 3bb5 69bd 2225 85bd 4fed 34bb 6483 93bc
00000250: c100 483d 47c9 9e3c 0d85 78bd ca5c 863d
00000260: 1ba9 ccbd 8c9d 84bd 0a6f b43c 18f9 24bd
00000270: 825b 833c d66a 9d3c 169d e3bc dd61 07bd
00000280: 0778 7ebc f2d8 cdb9 c97a 2d3c 0690 8bbc
00000290: 1db4 17bd 48c0 b6bb 1eea 23bc 61fb bdbd
000002a0: 3f53 e7bc 6b55 1fbd 5746 703c 744d d3bd
000002b0: 5433 a3bd e72f 99bd 6837 d8bc 396b 1e3d
000002c0: effc c0bd cb17 b23c 1680 bfba a3e2 dd3c
000002d0: fd35 35bd 0cf0 ebbc c00e 583c c915 b4bd
000002e0: 8362 283d 87bd 65bd 9d25 afbc e009 9ebd
000002f0: 7e59 2e3d 8e28 683c 578c 9b3a 2033 afbd
00000300: ce3c f4bd 183f f2bc 8e27 67bd 22ee 1bbd
00000310: b862 023d 2ab7 c1bc 2eb3 dabc 1730 0ebd
00000320: fa18 bfbf 275e d43f a127 ab3e 9d84 d9bc
00000330: 4dd7 06be 17f8 f5be 91a8 d43e 25fa 493e
00000340: fd10 a23f 323c 9dbf 4314 1540 dad0 7540
00000350: 9749 bbc0 a6e3 f43c dfa7 86bf 6053 92be
00000360: 5446 8140 8386 8ebe 5beb 753f 3f94 32bf
00000370: 5837 2c40 79ab bc3e c88d 683a bf2d 5340
00000380: 83a6 3ebe d4d9 17bf 0128 5b3e c563 dbbf
00000390: 5f1f 2bc0 2676 0340 cfd6 3e3d c82b 843e
000003a0: f86d 06bf 0ecc 6abe 436b c9bf d6a2 92be
000003b0: ffc7 77bf 6a2f 14be adf1 adbd 285f 3c3f
000003c0: a5fa 1f40 14ac 79be 3920 a83f 1f74 10c0
000003d0: 4ac5 58bf cc47 02c0 7025 30c0 cdda 95be
000003e0: 1617 153f da2d 2f3e 71ea 28bf 2e60 523e
000003f0: cf2c d4be f856 74bd a0e0 353e 7e0c fbbe

rcsl.backbone.model.2.bias f4 [200]
-0.075608715 -5.6773047 -0.0067762667 5.795664 5.3182154 -0.04947114 -12.872847 -0.15783204
-16.0971 15.269366 -1.2262896 0.71604586 -0.046353705 -11.4608345 -9.334154 -0.052655995
-0.06835714 0.007827558 -0.13748121 0.0064097242 -0.017050197 -0.15967914 -0.003066594 -0.09572911
-0.8307035 1.8219991 -0.10403169 2.2646868 -3.7699862 10.5208645 -0.118247755 2.772078
-0.05358713 -3.5811236 -8.579544 -19.59394 -0.022060815 3.3342762 -0.027720222 -19.694986
-0.14590044 -0.06079344 -6.076492 -4.0366583 7.4724855 -12.708514 1.7420999 -0.12422729
-0.07256595 7.1633654 -0.03512061 -0.5380758 0.74912995 -0.1626212 -0.11355352 -0.1608163
-0.10596917 -15.911633 -0.11034129 -0.10745322 -0.042870812 -0.3328727 -0.118926205 7.110341
-2.2780728 -4.289201 7.3032646 -0.07233942 24.701664 -0.06745862 -0.13129015 -1.3615925
8.129621 -13.887692 4.5707545 0.026783174 -0.12224193 -0.03494231 -9.866715 -0.03791553
-0.08056006 -3.9840968 -3.0515893 -0.08259536 -0.12567039 -0.04040013 -0.016795238 -0.08197025
-5.123654 3.3040638 -0.14614826 -0.108628176 -0.066079326 -0.05974633 -0.3314359 -0.0706302
-9.044311 18.27708 -0.0065888125 -28.463476 1.4208726 -0.23482189 8.677825 7.53863
-0.06949142 -0.1126481 -6.326321 -8.004351 -0.055202115 0.25227502 -7.0780396 -7.3090663
-0.05764459 7.318236 -0.04916414 -0.08161395 7.601497 -0.22856468 -3.9815104 -9.29463
-6.166591 -0.13686417 4.0259314 4.3898773 2.1045535 -0.080304734 -0.10301815 6.572399
-0.23212962 5.121295 -8.634632 4.188777 0.4335814 -8.236058 -0.29459974 -0.028980346
10.860643 12.805155 6.9572897 -13.360341 -0.14799713 3.8717315 15.005793 -11.969108
-1.3460169 -0.41014406 -6.9967413 -0.028488135 3.5708187 -8.212105 0.98300934 -0.066797204
-8.051182 -0.11244703 -9.65213 14.125392 -0.05048849 -0.0625259 -0.008527752 -0.12130194
-3.2087367 6.1933093 -9.334294 -0.093142994 0.19179305 -0.060734622 -0.24197002 -8.26007
-0.07439004 -9.23189 -6.205141 -0.05692334 -0.03240998 -0.07767794 -13.954008 -0.012639202
-0.7558735 -0.13312867 -3.3218038 -3.3860133 -0.13901114 -1.7936214 -0.0015396699 26.612192
-21.215715 -0.043690074 0.2311994 -0.287459 -6.9551373 12.63325 -0.06784208 6.94389
-1.8047229 4.4755554 1.4539521 -3.8548043 -0.066061825 -0.11838454 -0.027748613 -0.028603302
00000000: bed8 9abd 7bac b5c0 720b debb 1476 b940
00000010: d22e aa40 40a2 4abd 2ef7 4dc1 b99e 21be
00000020: dcc6 80c1 534f 7441 0ff7 9cbf c84e 373f
00000030: 62dd 3dbd 945f 37c1 b258 15c1 d0ad 57bd
00000040: d4fe 8bbd 283f 003c e0c7 0cbe aa08 d23b
00000050: dbac 8bbc ee82 23be e9f8 48bb a00d c4bd
00000060: fca8 54bf 4437 e93f 910e d5bd a1f0 1040
00000070: 7447 71c0 7655 2841 e12b f2bd ba69 3140
00000080: 2e7e 5bbd 2131 65c0 d045 09c1 64c0 9cc1
00000090: e2b8 b4bc c864 5540 8515 e3bc 558f 9dc1
000000a0: ed66 15be 8b02 79bd 9f72 c2c0 4e2c 81c0
000000b0: 9a1e ef40 1356 4bc1 21fd de3f e16a febd
000000c0: 759d 94bd 4a3a e540 a1da 0fbd 56bf 09bf
000000d0: fbc6 3f3f 2c86 26be bf8e e8bd 07ad 24be
000000e0: 5d06 d9bd 0c96 7ec1 9dfa e1bd 6f10 dcbd
000000f0: 4e99 2fbd 4a6e aabe 958f f3bd ea87 e340
00000100: f2cb 11c0 2241 89c0 58b4 e940 b126 94bd
00000110: 029d c541 bf27 8abd ed70 06be aa48 aebf
00000120: ed12 0241 fd33 5ec1 9f43 9240 6368 db3c
00000130: fa59 fabd ab1f 0fbd 11de 1dc1 514d 1bbd
00000140: acfc a4bd 71fb 7ec0 3d4d 43c0 c227 a9bd
00000150: bdaf 00be 9b7a 25bd 2b96 89bc 05e0 a7bd
00000160: f9f4 a3c0 c875 5340 e4a7 15be 7378 debd
00000170: 9954 87bd 91b8 74bd f7b1 a9be 91a6 90bd
00000180: 7fb5 10c1 7637 9241 f7e6 d7bb 33b5 e3c1
00000190: 27df b53f 2675 70be 5fd8 0a41 753c f140
000001a0: 8551 8ebd 0cb4 e6bd 3971 cac0 d211 00c1
000001b0: 9d1b 62bd 312a 813e 4d7f e2c0 dfe3 e9c0
000001c0: bc1c 6cbd fd2e ea40 5660 49bd 3725 a7bd
000001d0: 773f f340 dc0c 6abe 11d1 7ec0 ceb6 14c1
000001e0: b754 c5c0 1f26 0cbe 6ed4 8040 e079 8c40
000001f0: 01b1 0640 cf76 a4bd 2efb d2bd 1851 d240
00000200: 63b3 6dbe a6e1 a340 7427 0ac1 760a 8640
00000210: 62fe dd3e e5c6 03c1 c7d5 96be 3168 edbc
00000220: 32c5 2d41 eae1 4c41 1ea2 de40 f5c3 55c1
00000230: 8f8c 17be 73ca 7740 ba17 7041 7781 3fc1
00000240: 484a acbf 67fe d1be 4ee5 dfc0 f35f e9bc
00000250: 4b88 6440 c864 03c1 80a6 7b3f f9cc 88bd
00000260: a4d1 00c1 a14a e6bd 206f 1ac1 9b01 6241
00000270: 05cd 4ebd 940d 80bd fcb7 0bbc 276d f8bd
00000280: f15b 4dc0 972f c640 4559 15c1 c1c1 bebd
00000290: 6665 443e dec4 78bd fdc6 77be 3f29 04c1
000002a0: ce59 98bd d2b5 13c1 8490 c6c0 7328 69bd
000002b0: 54c0 04bd 9d15 9fbd 9e43 5fc1 a814 4fbc
000002c0: ed80 41bf e252 08be 6f98 54c0 71b4 58c0
000002d0: f058 0ebe 6395 e5bf c0ce c9ba c5e5 d441
000002e0: c9b9 a9c1 5df4 32bd 89bf 6c3e d32d 93be
000002f0: 7c90 dec0 cb21 4a41 caf0 8abd 5934 de40
00000300: 2901 e7bf c037 8f40 1a1b ba3f 1db5 76c0
00000310: 6c4b 87bd 9873 f2bd 0f51 e3bc 7951 eabc

rcsl.backbone.model.4.weight f4 [200, 200]
0.06022894 -0.11068955 0.039760675 -0.17996967 0.054736067 -0.0028979443 -0.006921298 0.022721386
0.14106017 0.03035564 -0.22862087 -0.21069703 -0.0069764243 0.30957803 0.22547069 0.05430558
0.06352123 -0.0737423 -0.034046806 0.041584525 -0.03151545 -0.008603225 0.084644854 0.007384875
0.1569016 -0.3733721 0.067259744 -0.10790734 -0.012320607 0.028269885 -0.0648076 0.11815876
0.0042754454 -0.58879256 -0.10869573 -0.07072035 0.03333933 -0.112134635 0.12218263 -0.19900328
-0.03628432 0.019092489 0.011562684 0.118426204 -0.16177727 -0.3803803 -3.189088 -0.05597504
-0.0037299409 -0.8958776 -0.03238581 -0.16991743 -1.266254 -0.046763007 -0.0047353394 -0.023055363
-0.011720124 -1.1153164 0.041840054 0.08271504 -0.026331171 0.19451888 0.04621826 -0.3929185
-0.043563705 -0.74812347 -0.23341615 -0.0036453498 -0.08082245 -0.045604188 0.068908274 -0.26091605
-0.5143092 -0.6067978 0.13063464 -0.05344045 0.0065169157 0.005911392 -0.12563367 0.003447338
0.068929344 0.48705405 -0.40781993 0.014556624 0.03971803 -0.05460835 0.006778806 -0.03344821
-0.04652506 0.16488454 -0.021436686 -0.015835615 -0.036084417 -0.0135246795 -0.30453497 0.015918523
0.4325556 0.1237248 0.03119449 -4.3404317 0.115524985 -0.14853914 -0.11219378 -0.110657975
-0.050700456 -0.09540697 -5.8581786 0.2380559 -0.06502536 0.18703096 -0.6487873 -0.61308324
-0.0058051813 0.42945197 0.0669016 0.04445819 -0.029292146 -0.082011335 -0.14981696 -0.01752203
0.12057794 0.010374068 -1.4382954 -0.18149815 0.19870508 0.0029430555 0.030851752 -0.14486827
0.12316042 -1.9909717 0.44385895 0.08471108 0.0052194763 -0.031711176 0.112547144 -0.076356314
0.074516214 -0.45975107 -0.003626629 -0.2717622 -0.02943897 0.047630526 0.017235693 0.36992645
0.015560026 0.17716038 0.021686321 0.015527087 -0.09875856 0.049761023 -0.7438845 -0.0061095045
-0.31964025 -0.039925583 -0.051432513 0.12317137 0.011832837 -0.03898733 -0.08758811 -0.000343642
0.11313171 0.31802624 0.0048167105 0.06659 -0.13803351 0.018405925 0.033082873 -0.19163993
0.02429435 -0.22645779 0.14620575 -0.02603578 -0.06528213 -0.036579564 -0.21525005 -0.04011531
-0.15008152 0.08385763 -0.11775593 -0.29790273 -0.072143845 -0.058836345 -0.062119626 -0.18989444
-0.21579492 0.04417954 -0.10937679 -0.12598526 0.24492718 -0.0898232 0.024923135 -0.2919574
-0.15896527 -1.1466464 0.08751854 0.31471762 -0.03211777 0.047070034 -0.08669177 0.023106297
0.02101753 0.2575612 0.01966027 -0.09134832 0.1543097 0.1275442 0.18156752 0.06335016
-0.345531 0.06911117 0.03505822 0.016472207 0.035061877 0.5310903 -0.71744454 0.01595835
0.034150787 0.053153053 -0.041341282 0.06355638 0.112692654 0.010760353 0.049121074 -0.11810842
-0.3112681 0.4018937 0.08133539 0.2213307 -0.109692015 0.0831576 -0.017498078 -0.141784
-0.045290746 0.17819656 -0.021140978 -0.19608587 0.012965367 0.2624673 -0.006581852 -0.12410394
-0.008747331 0.019656168 -0.091066755 -0.06496187 0.044609476 -0.76420516 -3.4210222 0.17857733
-0.052076496 0.08500321 0.108677745 -0.377081 0.12171214 -0.056204148 -0.02769168 0.09758623
00000000: 9fb2 763d 34b1 e2bd 17dc 223d f849 38be
00000010: ed32 603d 70eb 3dbb 0ecc e2bb 3322 ba3c
00000020: 1472 103e 64ac f83c 971b 6abe f6c0 57be
00000030: 7d9a e4bb 0381 9e3e cae1 663e 876f 5e3d
00000040: 6b17 823d 3406 97bd aa74 0bbd 8954 2a3d
00000050: 5816 01bd 8bf4 0cbc 485a ad3d d2fc f13b
00000060: d0aa 203e a12a bfbe 7abf 893d 86fe dcbd
00000070: 5fdc 49bc 3f96 e73c d9b9 84bd 38fd f13d
00000080: 0919 8c3b 1cbb 16bf de9b debd d5d5 90bd
00000090: d28e 083d d8a6 e5bd e33a fa3d 84c7 4bbe
000000a0: de9e 14bd da67 9c3c 6971 3d3c 7089 f23d
000000b0: f1a8 25be 35c1 c2be 051a 4cc0 1546 65bd
000000c0: 0672 74bb 3c58 65bf fca6 04bd d6fe 2dbe
000000d0: 9c14 a2bf 918a 3fbd e82a 9bbb 9ade bcbc
000000e0: c305 40bc b0c2 8ebf 7a60 2b3d 8166 a93d
000000f0: 78b4 d7bc f52f 473e 5c4f 3d3d 9d2c c9be
00000100: db6f 32bd 0585 3fbf a504 6fbe d2e6 6ebb
00000110: 3e86 a5bd 75cb 3abd c81f 8d3d ca96 85be
00000120: c5a9 03bf 1a57 1bbf 16c5 053e 60e4 5abd
00000130: da8b d53b 5ab4 c13b 1da6 00be bcec 613b
00000140: d42a 8d3d 265f f93e c6cd d0be e87e 6e3c
00000150: 5faf 223d 01ad 5fbd bf20 de3b fe00 09bd
00000160: 1091 3ebd 7ed7 283e fd9b afbc b1b9 81bc
00000170: 41cd 13bd 9e96 5dbc 02ec 9bbe 9067 823c
00000180: ed77 dd3e 6e63 fd3d 968b ff3c d1e4 8ac0
00000190: 5d98 ec3d a51a 18be dac5 e5bd a6a0 e2bd
000001a0: 48ab 4fbd bb64 c3bd 3376 bbc0 edc4 733e
000001b0: 042c 85bd 0b85 3f3e ed16 26bf 06f3 1cbf
000001c0: 6439 bebb 21e1 db3e b503 893d cb19 363d
000001d0: 15f6 efbc 8ff5 a7bd 9e69 19be 5c8a 8fbc
000001e0: 91f1 f63d fff7 293c 101a b8bf a7da 39be
000001f0: 5879 4b3e 47e0 403b d0bc fc3c 5958 14be
00000200: 883b fc3d 29d8 febf 7b41 e33e 017d ad3d
00000210: 2408 ab3b 94e3 01bd 1e7f e63d b360 9cbd
00000220: f59b 983d 7e64 ebbe bdac 6dbb 6a24 8bbe
00000230: ff29 f1bc 3a18 433d de31 8d3c 0067 bd3e
00000240: 7bef 7e3c 8869 353e 83a7 b13c 5365 7e3c
00000250: ee41 cabd 37d2 4b3d 376f 3ebf 3d32 c8bb
00000260: e3a7 a3be 0289 23bd e6aa 52bd 4541 fc3d
00000270: 84de 413c 2eb1 1fbd 6561 b3bd d92a b4b9
00000280: 99b1 e73d 56d4 a23e 7fd5 9d3b 5760 883d
00000290: a858 0dbe 06c8 963c e881 073d 423d 44be
000002a0: f204 c73c 8de4 67be f6b6 153e fd48 d5bc
000002b0: a3b2 85bd 74d4 15bd 826a 5cbe f44f 24bd
000002c0: f8ae 19be 8dbd ab3d 052a f1bd b586 98be
000002d0: 27c0 93bd 61fe 70bd 2671 7ebd b073 42be
000002e0: 58f9 5cbe 9bf5 343d f000 e0bd 4802 01be
000002f0: 31ce 7a3e 3af5 b7bd 9a2b cc3c 717b 95be
00000300: cbc7 22be 4fc5 92bf ec3c b33d ab22 a13e
00000310: ec8d 03bd 82cc 403d 748b b1bd 6b49 bd3c
00000320: f42c ac3c 10df 833e 930e a13c d414 bbbd
00000330: 5d03 1e3e f29a 023e d6ec 393e bbbd 813d
00000340: 70e9 b0be 288a 8d3d 3599 0f3d b9f0 863c
00000350: 0b9d 0f3d 89f5 073f 72aa 37bf 16bb 823c
00000360: b2e1 0b3d 04b7 593d 7a55 29bd d929 823d
00000370: 68cb e63d 314c 303c 2e33 493d d4e2 f1bd
00000380: 885e 9fbe 03c5 cd3e 2b93 a63d 84a4 623e
00000390: 35a6 e0bd 884e aa3d 2158 8fbc d32f 11be
000003a0: ca82 39bd 2979 363e d82f adbc bcca 48be
000003b0: b16c 543c 1d62 863e 94ac d7bb 352a febd
000003c0: f750 0fbc f905 a13c 3581 babd bb0a 85bd
000003d0: 6db8 363d f3a2 43bf 07f2 5ac0 fadc 363e
000003e0: 2a4e 55bd 2a16 ae3d 7092 de3d c310 c1be
000003f0: 3744 f93d 5236 66bd a9d9 e2bc 4adb c73d

rcsl.backbone.model.4.bias f4 [200]
1.4258902 10.825356 -5.5503664 -9.966232 -5.3582377 9.697025 -1.7983688 -0.059940062
-0.7605872 2.5557208 -0.28462195 6.2082987 -1.0090113 2.3833718 4.032678 -3.7087147
0.92339104 3.64636 -0.02144959 0.9807214 -6.9182906 12.453518 -2.095042 2.9084244
-0.12823318 -7.0295143 6.191599 -5.8322163 1.6022111 -3.811389 -1.1629593 4.2972054
-3.850235 -0.06299373 -6.8606486 -12.156796 -8.962429 -15.764251 8.214077 -11.14564
7.440894 -11.648917 0.9615788 10.959412 3.089165 -2.1953092 -2.891565 0.652149
-0.20513408 -0.07914641 -0.29531163 -3.6085358 -11.30084 -7.8916426 1.637692 0.18402825
-0.34787363 2.271046 -8.868755 -4.9165697 -7.981454 -17.348717 -5.2328024 -0.2737983
-1.0775752 -0.36279005 0.041015808 1.9318444 0.51794237 -0.90088725 2.4062452 -7.142133
-0.33938113 9.131472 -3.9905257 2.5432103 3.2023664 -11.004946 2.850083 -0.22620116
4.0213227 -4.3790317 -3.3388662 -0.24599665 -4.7450924 -5.5227985 -0.31698126 -6.1308546
4.9311814 -4.073186 -0.031827208 -5.3386993 -8.9057455 -0.25262922 -2.580693 -0.095278345
-4.3308816 -7.6625657 -0.5877004 -0.22725195 -0.8008223 -9.854662 -11.508767 -1.9945174
-0.9928289 2.5292578 6.862019 5.966857 -6.9532714 5.56668 3.5577466 -0.26381245
-11.87646 7.459155 -9.404843 -0.5911284 -1.7261416 -0.29654554 -2.4503932 18.501263
1.3517011 -0.12459644 -2.2996752 -14.631252 -23.788774 -0.39965338 -1.0355966 -17.208017
-8.721482 -4.5913315 -0.25041044 -1.1867825 -5.405875 5.7295427 -10.002841 -13.521556
8.593979 -0.3472128 7.0060987 1.8504595 2.0489984 0.011381381 2.7390044 1.8038038
0.13618705 -10.209239 18.581257 -4.5085516 3.1885371 4.865774 -1.889917 -13.102892
-10.336526 2.1051064 5.1952186 -4.9504476 -0.14023308 -14.505587 -0.7707871 0.38240397
-19.197592 6.012489 -1.1225125 11.553851 -11.213292 8.318996 -2.1172643 10.578803
-8.699437 -0.3441124 -0.26822755 -13.051882 -3.4080563 7.808607 -1.6899326 10.248205
-0.8606939 2.0023494 6.2898006 -0.18823713 -0.13019596 -9.46104 -5.619562 6.3696823
-13.212603 1.4417572 4.724089 -0.89900255 -9.321033 2.1605477 -0.4415998 -7.2234945
-7.7697735 5.0510173 -4.721885 -14.602327 1.3243177 -0.378384 -3.744206 -0.2618488
00000000: 9283 b63f a834 2d41 9a9c b1c0 b075 1fc1
00000010: af76 abc0 0427 1b41 f330 e6bf b683 75bd
00000020: d8b5 42bf ee90 2340 f8b9 91be 62aa c640
00000030: 4827 81bf 2a89 1840 b30b 8140 955b 6dc0
00000040: 5b63 6c3f f65d 6940 0db7 afbc 8f10 7b3f
00000050: a362 ddc0 9c41 4741 2b15 06c0 a023 3a40
00000060: 8f4f 03be c8f1 e0c0 9421 c640 84a1 bac0
00000070: 4115 cd3f cced 73c0 dadb 94bf b582 8940
00000080: 406a 76c0 db02 81bd 6f8a dbc0 3d82 42c1
00000090: 1c66 0fc1 5f3a 7cc1 dc6c 0341 8b54 32c1
000000a0: ce1b ee40 f761 3ac1 072a 763f c059 2f41
000000b0: e1b4 4540 f27f 0cc0 670f 39c0 3df3 263f
000000c0: ab0e 52be 8317 a2bd 1633 97be 40f2 66c0
000000d0: 3ed0 34c1 5688 fcc0 e49f d13f e771 3c3e
000000e0: 7e1c b2be d158 1140 6ce6 0dc1 8a54 9dc0
000000f0: 1268 ffc0 2cca 8ac1 1e73 a7c0 4a2f 8cbe
00000100: fced 89bf 9ebf b9be 3100 283d ad46 f73f
00000110: df97 043f 8ca0 66bf ecff 1940 5b8c e4c0
00000120: 5dc3 adbe 821a 1241 c664 7fc0 f5c3 2240
00000130: 92f3 4c40 4214 30c1 c367 3640 47a1 67be
00000140: adae 8040 0721 8cc0 fcaf 55c0 8ce6 7bbe
00000150: ccd7 97c0 c4ba b0c0 5e4b a2be f62f c4c0
00000160: 3dcc 9d40 8a57 82c0 3f5d 02bd a0d6 aac0
00000170: ef7d 0ec1 9e58 81be 132a 25c0 4b21 c3bd
00000180: 9596 8ac0 bd33 f5c0 8973 16bf bcb4 68be
00000190: b102 4dbf b2ac 1dc1 e923 38c1 594c ffbf
000001a0: 092a 7ebf 5cdf 2140 a995 db40 7ef0 be40
000001b0: 3381 dec0 3e22 b240 1fb2 6340 6d12 87be
000001c0: fb05 3ec1 66b1 ee40 3d7a 16c1 3154 17bf
000001d0: 35f2 dcbf d1d4 97be 3ed3 1cc0 9602 9441
000001e0: 8b04 ad3f 6b2c ffbd e12d 13c0 9c19 6ac1
000001f0: 694f bec1 5e9f ccbe 6e8e 84bf 05aa 89c1
00000200: 318b 0bc1 30ec 92c0 cc35 80be 7de8 97bf
00000210: eefc acc0 6a58 b740 a30b 20c1 4b58 58c1
00000220: f080 0941 e0c5 b1be f631 e040 dbdb ec3f
00000230: ca22 0340 f978 3a3c d94b 2f40 0be3 e63f
00000240: 9e74 0b3e 0b59 23c1 6aa6 9441 0e46 90c0
00000250: fe10 4c40 6cb4 9b40 cde8 f1bf 72a5 51c1
00000260: 6962 25c1 10ba 0640 3b3f a640 116a 9ec0
00000270: 4399 0fbe e216 68c1 4e52 45bf 74ca c33e
00000280: ab94 99c1 4f66 c040 7dae 8fbf 93dc 3841
00000290: a569 33c1 9c1a 0541 4281 07c0 c742 2941
000002a0: e530 0bc1 802f b0be 1f55 89be 82d4 50c1
000002b0: 981d 5ac0 1ce0 f940 b64f d8bf a6f8 2341
000002c0: 6f56 5cbf 7e26 0040 0c46 c940 3cc1 40be
000002d0: 1752 05be 6b60 17c1 74d3 b3c0 70d4 cb40
000002e0: d266 53c1 808b b83f bd2b 9740 0825 66bf
000002f0: f322 15c1 6a46 0a40 5e19 e2be de26 e7c0
00000300: fca1 f8c0 efa1 a140 af19 97c0 22a3 69c1
00000310: 3e83 a93f 8cbb c1be 12a1 6fc0 0c11 86be

rcsl.backbone.model.6.weight f4 [200, 200]
0.050642367 0.011059944 -0.07145686 0.052684747 0.0982761 0.003397785 -0.00431275 -0.021087255
-0.28558013 -0.29472816 -0.07558809 -1.8818235 -0.30040756 -0.001867381 -0.09178275 0.044281095
0.0117371455 -0.16114764 -0.0021408321 -0.23672837 -0.9060317 0.14167482 -0.39568964 0.056927014
-0.13706484 -1.278958 0.20217794 -0.14948621 0.07456368 -0.2561275 -0.20471548 0.017317971
-0.55574185 -0.037836917 -0.22649446 -0.10584361 -0.052247573 -0.79982173 -0.5685868 -0.2215113
-0.18952899 -0.053149614 -0.13080867 -0.10484053 -0.07758958 0.17234336 -1.9131399 -0.013846749
0.09918826 0.041362308 0.022770634 -0.05140724 -0.53196895 -0.01643491 -2.5125222 0.043596867
-0.03199145 -1.028091 -1.5361559 0.056612175 -0.3558323 -1.7169365 -0.19015394 0.059935134
-2.032784 -0.0653709 -0.16704264 -0.056918304 -1.0226275 -0.29402164 -1.8967155 -0.014785339
0.06823395 -0.13464531 -0.052884687 -0.06254816 -0.038085725 0.01471554 -0.20485923 0.0038877635
0.038780626 -1.8382441 0.17153795 0.03142641 -2.1092281 -0.13333775 0.06262437 -0.015041054
0.12518331 -0.13512646 -0.02439829 -0.37268165 -0.027878879 -0.12339757 -2.6928215 -0.010139512
-0.09341816 -0.025367325 0.11951547 0.026340641 -0.6875714 0.031135151 -0.08919225 0.25848508
-0.13987437 -0.14031577 -0.1740532 -0.31429607 -0.30893412 0.14319263 0.06365391 -0.04252582
0.469289 0.25724956 -3.8934186 -0.1905603 -0.049454078 0.0042209886 -0.062779956 -0.15570015
-0.22185077 0.035806615 0.29656154 0.09896764 -0.47018823 0.37384287 -0.019227961 -0.035738803
-0.13605677 0.15317707 -0.049020413 -1.3163382 0.021903124 -0.04773198 0.10486793 0.19462258
0.031518903 -0.003788509 -0.3390617 -0.0070313397 -1.281057 -3.5561047 -0.16770367 -0.023556229
0.103067905 -0.22004628 0.038105562 -0.0050092107 -2.0777647 -1.446897 -6.3598866 -0.27137396
0.22111297 0.03832478 -2.4863563 -0.0030235536 -0.029270371 -0.05563576 -0.0128893405 -0.33152735
-0.06613932 -0.04564761 -0.13573006 -0.21730623 -0.22385341 -0.02465857 0.12246178 0.007976638
-0.23690033 0.07822734 -0.059039235 0.15690608 -0.0404481 -0.32378194 0.025110533 -0.9112505
0.028704422 -0.017338922 -1.6068019 0.0038361512 0.038164947 0.12565675 -1.0990853 0.0061040204
0.10988298 -0.06886483 0.15355702 0.31811264 0.32097587 0.13702402 -0.20436522 -5.563048
0.111286275 -1.8745531 -0.113976285 0.015442675 -0.24485219 -0.008545799 -0.17121524 -0.0589214
-0.02422308 -0.11811834 0.003005626 0.01795871 0.20081894 0.03654771 0.041872896 0.14874455
-0.009675541 0.0057098353 -0.10282023 0.06428918 -0.087088704 -0.26929024 0.09228445 0.012148941
0.09214548 -0.14793658 0.017938081 0.10802899 0.033225562 -0.02508545 0.023726907 -0.03794159
-0.34013215 -0.057818774 0.06237 0.058460448 -0.04170686 0.04839427 0.08040046 -0.015775941
0.012474576 -0.096216016 -0.019123703 -0.18433632 0.025496347 -0.019607184 0.008730545 -0.016694698
-0.07734091 -0.0127634555 -0.08291184 -0.036590904 0.08970723 -0.072840706 -0.009960273 -0.16865002
-0.11499416 -0.019248985 -0.150735 -0.21142644 0.032844853 -0.013438388 -0.0372041 0.09255163
00000000: 5f6e 4f3d c434 353c f957 92bd f6cb 573d
00000010: fb44 c93d 5fad 5e3b f851 8dbb 2ebf acbc
00000020: 8f37 92be 9ce6 96be eecd 9abd 98df f0bf
00000030: 05cf 99be e9c2 f4ba 98f8 bbbd 1860 353d
00000040: 284d 403c e303 25be 344d 0cbb ec68 72be
00000050: b2f1 67bf 3413 113e d597 cabe 4d2c 693d
00000060: ba5a 0cbe e5b4 a3bf bc07 4f3e ea12 19be
00000070: d8b4 983d 2523 83be efa0 51be 6bde 8d3c
00000080: 1945 0ebf e2fa 1abd 2aee 67be 89c4 d8bd
00000090: 8d01 56bd 1ec1 4cbf e88e 11bf dcd3 62be
000000a0: e313 42be 69b3 59bd b5f2 05be a2b6 d6bd
000000b0: 49e7 9ebd c77a 303e c5e1 f4bf 7add 62bc
000000c0: 3723 cb3d 866b 293d 7b89 ba3c 6690 52bd
000000d0: 1e2f 08bf 81a2 86bc 2acd 20c0 a192 323d
000000e0: 7709 03bd 7c98 83bf c2a0 c4bf 2be2 673d
000000f0: a72f b6be 93c4 dbbf b7b7 42be 8b7e 753d
00000100: 2219 02c0 2ee1 85bd 3a0d 2bbe 2b23 69bd
00000110: 75e5 82bf 018a 96be 93c7 f2bf 353e 72bc
00000120: 3ebe 8b3d 76e0 09be 9d9d 58bd 4019 80bd
00000130: c7ff 1bbd 7319 713c 9ec6 51be d9c9 7e3b
00000140: 6fd8 1e3d 954b ebbf a5a7 2f3e fbb8 003d
00000150: 98fd 06c0 b189 08be 3541 803d c16e 76bc
00000160: 0e30 003e 975e 0abe ecde c7bc 21d0 bebe
00000170: 3f62 e4bc ddb7 fcbd 3057 2cc0 3220 26bc
00000180: 0552 bfbd 23cf cfbc 87c4 f43d 54c8 d73c
00000190: ae04 30bf 250f ff3c 6daa b6bd 2858 843e
000001a0: 3a3b 0fbe f0ae 0fbe 013b 32be 6aeb a0be
000001b0: 9d2c 9ebe 17a1 123e fb5c 823d 8e2f 2ebd
000001c0: a646 f03e 37b6 833e c52d 79c0 3d22 43be
000001d0: 5c90 4abd 3850 8a3b c792 80bd dc6f 1fbe
000001e0: d92c 63be f5a9 123d ead6 973e 8caf ca3d
000001f0: 83bc f0be 5568 bf3e f583 9dbc da62 12bd
00000200: 7752 0bbe 73da 1c3e a1c9 48bd c57d a8bf
00000210: 2e6e b33c 9c82 43bd ffc4 d63d 244b 473e
00000220: f719 013d a248 78bb 7f99 adbe 2767 e6bb
00000230: adf9 a3bf 3897 63c0 83ba 2bbe fef8 c0bc
00000240: 4415 d33d d053 61be 9414 1c3d 4e24 a4bb
00000250: 19fa 04c0 ec33 b9bf 3184 cbc0 87f1 8abe
00000260: 706b 623e 72fa 1c3d 7620 1fc0 d026 46bb
00000270: 6bc8 efbc 53e2 63bd d02d 53bc f4bd a9be
00000280: 0d74 87bd fdf8 3abd d2fc 0abe 8685 5ebe
00000290: d439 65be c500 cabc 3ecd fa3d 72b0 023c
000002a0: 0096 72be a835 a03d 20d3 71bd fdab 203e
000002b0: e8ac 25bd bfc6 a5be 9bb4 cd3c b647 69bf
000002c0: 8925 eb3c 5b0a 8ebc afab cdbf f067 7b3b
000002d0: d952 1c3d 2aac 003e d4ae 8cbf 3c04 c83b
000002e0: 540a e13d 0109 8dbd 0d3e 1d3e a9df a23e
000002f0: f356 a43e 0650 0c3e 1e45 51be 7d04 b2c0
00000300: 0fea e33d 5bf1 efbf 666c e9bd 4603 7d3c
00000310: 88ba 7abe ae03 0cbc 0c53 2fbe 9157 71bd
00000320: 7b6f c6bc 07e8 f1bd 09fa 443b 251e 933c
00000330: 7ba3 4d3e 0db3 153d ea82 2b3d 7e50 183e
00000340: 2986 1ebc 9219 bb3b 6a93 d2bd 0caa 833d
00000350: 905b b2bd 69e0 89be a1ff bc3d 5a0c 473c
00000360: c5b6 bc3d b07c 17be e2f2 923c 4e3e dd3d
00000370: 8717 083d 0080 cdbc ee5e c23c a468 1bbd
00000380: cd25 aebe 61d3 6cbd af77 7f3d 3974 6f3d
00000390: d0d4 2abd 1239 463d ffa8 a43d 8c3c 81bc
000003a0: 2a62 4c3c e70c c5bd 50a9 9cbc a9c2 3cbe
000003b0: b7dd d03c 3f9f a0bc 8f0a 0f3c 52c3 88bc
000003c0: e964 9ebd d01d 51bc afcd a9bd 58e0 15bd
000003d0: 6db8 b73d 822d 95bd 6a30 23bc 97b2 2cbe
000003e0: 0f82 ebbd 0cb0 9dbc 475a 1abe 2c80 58be
000003f0: 5388 063d af2c 5cbc 5463 18bd b68b bd3d

rcsl.backbone.model.6.bias f4 [200]
5.2934866 3.653419 -1.4947233 -1.7913096 -4.4398828 1.5886238 2.7634897 1.0549545
-2.6823854 -12.787201 -12.651512 -9.816225 2.9467313 -0.7540434 -4.9767075 6.2034507
2.1154137 7.1420355 -6.724336e-08 -2.367983 -0.9737712 -5.7686777 4.2819552 -6.81471
-0.56198025 -4.797628 -1.500862 -3.5360656 -1.2862455 -2.5077653 -2.2598498 -2.1443536
2.324759 -5.399628 -12.946524 0.7823635 -4.5827928 4.264907 2.8383667 -4.7304316
2.4429104 -3.6441534 -3.4033215 -7.0100656 -10.1508 -2.6378207 -1.5509567 8.432542
-8.080077 -0.5261977 3.2837038 2.9866347 -0.35442144 -0.47896013 2.0395293 -4.161427
-8.99958 -4.0879116 -1.539196 4.7320523 4.822211 -5.754165 3.1731079 5.6743135
-4.058353 -1.2592607 5.0231457 1.601899 0.27345446 -3.7728252 -4.3619223 -9.545079
-14.116382 -2.024675 -6.0279965 -3.6399121 -6.829196 -5.6821876 -0.5293408 -7.561873
-0.45746666 2.4798803 1.5977871 -0.9304155 -0.63923997 -0.5790337 -4.012808 -4.3673654
-2.3654048 -1.1186708 -4.5708766 0.38339093 -3.6566274 0.0070876502 -0.7280599 -1.6522462
-4.190812 -0.43564808 -8.475347 -8.543461 -10.262584 5.341232 1.3417699 3.4187415
-3.3079767 3.1883984 -5.475596 5.300812 1.2700967 4.927402 4.074961 -5.3012958
-4.511003 1.404298 -0.81436336 1.5532093 3.6083164 -0.546796 4.2685986 -2.2934327
0.12580484 -7.0911217 -0.72153723 -1.9009236 4.3777213 -1.3749071 1.5642152 3.1467729
-2.2121022 0.84305567 5.7549844 -4.0428333 2.0408466 -3.6435018 -0.4123227 -1.3321122
-2.6000047 4.1223435 -6.7148027 -8.520981 3.7670367 -4.829148 6.5320587 -1.2774835
6.743103 -1.2165679 -6.1433983 -0.9178912 -6.5225368 -1.0070745 5.0937862 -0.5482842
-13.632816 -2.9189126 -4.226981 -4.801106 -0.94802505 -3.8849826 -9.202203 -1.3977947
0.3932808 2.065218 2.5990105 -13.667839 -0.7988788 -3.6638992 -1.9724945 1.306843
-6.346152 -12.582745 -1.357686 -0.5262515 -6.682694 -7.6106024 -0.6189181 0.08189347
-0.5123844 -0.49883744 -0.92222077 -8.383151 -6.797335 -5.3236814 2.1589704 3.0127952
-5.8981466 2.3618429 5.527779 -1.4338508 -1.6746383 3.024891 -1.8933818 2.190939
-0.5539162 -6.162603 -5.8195987 -5.5839205 -3.7890975 2.3423781 -0.14684853 -5.302692
00000000: 3e64 a940 9ed1 6940 1853 bfbf a249 e5bf
00000010: 8513 8ec0 0658 cb3f 04dd 3040 c008 873f
00000020: 34ac 2bc0 6098 4cc1 986c 4ac1 420f 1dc1
00000030: 3f97 3c40 fd08 41bf 3041 9fc0 ab82 c640
00000040: f062 0740 8e8b e440 6e67 90b3 098d 17c0
00000050: 1249 79bf 0299 b8c0 c705 8940 1b12 dac0
00000060: f0dd 0fbf 2b86 99c0 3f1c c0bf e64e 62c0
00000070: b1a3 a4bf 3a7f 20c0 61a1 10c0 173d 09c0
00000080: dac8 1440 c1c9 acc0 f624 4fc1 f948 483f
00000090: 3da6 92c0 1e7a 8840 cda7 3540 b25f 97c0
000000a0: a558 1c40 cf39 69c0 05d0 59c0 7552 e0c0
000000b0: ad69 22c1 0ed2 28c0 c085 c6bf b1eb 0641
000000c0: ff47 01c1 e4b4 06bf 3428 5240 0625 3f40
000000d0: ba76 b5be 433a f5be a687 0240 692a 85c0
000000e0: 48fe 0fc1 2cd0 82c0 6004 c5bf f96c 9740
000000f0: 8d4f 9a40 1f22 b8c0 3314 4b40 fa93 b540
00000100: 07de 81c0 742f a1bf 9cbd a040 070b cd3f
00000110: 3902 8c3e f875 71c0 de94 8bc0 a5b8 18c1
00000120: b3dc 61c1 4694 01c0 59e5 c0c0 52f4 68c0
00000130: c688 dac0 7bd4 b5c0 e182 07bf ddfa f1c0
00000140: 1239 eabe 5cb6 1e40 4a84 cc3f b62f 6ebf
00000150: 3ba5 23bf 8d3b 14bf ec68 80c0 75c1 8bc0
00000160: cb62 17c0 9b30 8fbf 9f44 92c0 d14b c43e
00000170: 2f06 6ac0 853f e83b 2262 3abf ce7c d3bf
00000180: 221b 86c0 440d dfbe 059b 07c1 04b2 08c1
00000190: 8b33 24c1 5feb aa40 1ebf ab3f a9cc 5a40
000001a0: e4b5 53c0 b80e 4c40 1538 afc0 40a0 a940
000001b0: 8792 a23f 47ad 9d40 1566 8240 37a4 a9c0
000001c0: 235a 90c0 09c0 b33f 1e7a 50bf 90cf c63f
000001d0: a8ee 6640 d3fa 0bbf 5c98 8840 9ac7 12c0
000001e0: fcd2 003e 78ea e2c0 aab6 38bf 7751 f3bf
000001f0: 4b16 8c40 f5fc afbf 3438 c83f ba64 4940
00000200: 1593 0dc0 7fd2 573f d528 b840 e45e 81c0
00000210: 3b9d 0240 222f 69c0 f61b d3be a782 aabf
00000220: 7a66 26c0 3dea 8340 aadf d6c0 f055 08c1
00000230: 2117 7140 6188 9ac0 a006 d140 9484 a3bf
00000240: 80c7 d740 7fb8 9bbf b896 c4c0 ebfa 6abf
00000250: 9fb8 d0c0 d1e7 80bf 4c00 a340 5a5c 0cbf
00000260: 0420 5ac1 77cf 3ac0 6e43 87c0 a9a2 99c0
00000270: c5b1 72bf 8ea3 78c0 393c 13c1 f0ea b2bf
00000280: 1a5c c93e 882c 0440 3056 2640 78af 5ac1
00000290: 5283 4cbf 537d 6ac0 b37a fcbf a246 a73f
000002a0: ad13 cbc0 ec52 49c1 a8c8 adbf 6bb8 06bf
000002b0: a1d8 d5c0 0e8a f3c0 6b71 1ebf c3b7 a73d
000002c0: a02b 03bf 9f67 ffbe a916 6cbf 6321 06c1
000002d0: c583 d9c0 995b aac0 922c 0a40 a3d1 4040
000002e0: 9ebd bcc0 6f28 1740 91e3 b040 6c88 b7bf
000002f0: 8c5a d6bf d097 4140 565a f2bf 5838 0c40
00000300: 74cd 0dbf 0b34 c5c0 273a bac0 7aaf b2c0
00000310: 9380 72c0 86e9 1540 765f 16be a7af a9c0

rcsl.backbone.model.8.weight f4 [6, 200]
0.022906927 0.004933372 -0.124675214 -0.00037104244 0.0136867035 0.0016315683 -0.004352934 0.007734172
-0.07295167 -0.012636317 -0.007492676 0.002035587 0.001591577 -0.25034747 -0.007605667 0.023912786
0.0031379864 -0.00472426 -0.12092794 0.0060634455 0.00028958856 -0.00022069491 0.01636961 -0.08629768
-0.033966847 0.041004412 -0.0063280617 -0.0017698973 -0.08469214 0.0010670522 -0.004285065 0.013326018
-0.02422361 0.0057136584 -0.0112423515 0.0018903082 0.0003572875 0.0055722143 -0.012288117 -0.00023094974
-0.0015292811 0.010496328 -0.008535821 0.0070589785 -0.00085695734 0.0955809 -0.025879256 -0.11236947
-0.0061599645 -0.05204008 -0.0067844368 0.0047663683 -0.055863008 -0.037409183 0.00051730784 -0.0032347785
0.01071337 -0.0052767494 -0.07163569 -0.006974797 0.00806442 -0.07232331 0.0040138625 -0.013507206
0.00024603735 -0.22016115 -0.007482818 -0.0026515156 -0.026580693 0.08326576 -0.017410897 -0.06915698
-0.09650713 0.0042053275 0.005824524 -0.0025103225 -0.0071106725 -0.0035573887 0.025691817 -0.044819433
-0.16471994 0.0071621495 0.0026805971 -0.0019112021 -0.024146155 -0.00298263 -0.0024846708 0.00024927908
0.0030704045 0.0015166503 -0.004202838 -0.0008524407 -0.010113702 -0.0017080111 -0.004908331 0.05546009
0.02183555 -0.0004419197 -0.0020701326 0.0013451907 -0.0010736642 0.0005003012 -0.006610964 -0.01944321
-0.0043628686 -0.057615865 0.003589312 0.031160165 -0.036556184 -0.012563605 0.005463483 0.008040704
0.0019077807 0.08426053 -0.031607457 -0.015153064 -0.006637094 -0.16400781 0.012824747 -0.0030653267
-0.0343491 0.058074493 -0.057525273 0.043195456 0.0019181494 -0.000532097 0.03304634 -0.007987392
0.0046717995 0.00024117954 -0.005010438 0.020232592 0.0013467738 0.0071133557 0.11057816 0.0032266253
0.014272737 -0.0032972833 -0.011382746 8.5775966e-05 -0.011045617 0.012790586 0.012514116 -0.0756383
-0.0034400003 0.072313115 0.029466229 0.0027237653 0.0012139005 0.0014976809 0.0032511398 -0.05831944
-0.0059575695 0.019062785 0.0044971644 0.03970831 0.0003244373 0.029040348 -0.0028166887 0.015692575
-0.0010648847 0.015919408 0.01068714 0.00088684174 -0.20302427 0.2306037 -0.0009575791 -0.015585366
0.036335424 -0.0069992696 0.045357678 -0.003132127 -0.008763057 0.0041116243 -0.021882167 -0.002729009
-0.78285074 -0.0012775467 -0.016081316 0.0004989738 -0.012861521 -0.0039636623 0.034699704 -0.0057765148
-0.0025560101 0.008843372 -0.017252775 -0.002150436 0.0305083 -0.020232 0.0010300652 0.0010931316
-0.0550747 0.0072476575 0.033010352 0.06125557 -0.022910805 -0.00017829565 0.00130102 0.040664814
-0.026114767 -0.0007218073 -0.30641308 -0.0029251135 0.05447398 0.0064179054 0.005275986 0.000868806
-0.043295838 -0.0089545455 -0.044197366 0.0006506999 -0.0019764912 0.016464887 -0.03686424 0.009937114
-0.014132515 -0.008918215 0.17473765 0.0012628905 0.0004449216 -0.0023365202 0.00030972928 0.00088484207
0.09025021 0.028669095 -0.02300777 0.002633364 0.0055866404 -0.008039393 0.003954604 0.0006243149
-0.040280774 0.003519549 -0.00338295 -0.0026070694 0.001422016 0.07425847 -0.024264833 0.010816108
0.044810884 -0.011066583 -0.003334163 0.021293541 -0.0024963245 0.04865777 -0.012401345 -0.0059976974
0.0034454851 -0.034542095 -0.008240546 -0.0087782955 0.17200069 0.001177214 0.039302763 -0.0010021587
00000000: 4fa7 bb3c 20a8 a13b b855 ffbd 7988 c2b9
00000010: 323e 603c 59da d53a 0fa3 8ebb f06e fd3b
00000020: af67 95bd 8e08 4fbc 1f85 f5bb 7c67 053b
00000030: 769c d03a 8b2d 80be f638 f9bb bfe4 c33c
00000040: ada6 4d3b f7cd 9abb 11a9 f7bd deaf c63b
00000050: ebd3 9739 576a 67b9 8f19 863c d7bc b0bd
00000060: d220 0bbd 3ef4 273d a15b cfbb e6fb e7ba
00000070: 1373 adbd 55dc 8b3a bb69 8cbb 5f55 5a3c
00000080: 9870 c6bc a439 bb3b d731 38bc 38c4 f73a
00000090: 5152 bb39 1f97 b63b 1954 49bc 192b 72b9
000000a0: 2972 c8ba caf8 2b3c d4d9 0bbc 014f e73b
000000b0: 6fa5 60ba ebbf c33d bc00 d4bc f721 e6bd
000000c0: 87d9 c9bb fb27 55bd fb4f debb 322f 9c3b
000000d0: 9cd0 64bd 5f3a 19bd f19b 073a 94fe 53bb
000000e0: 2187 2f3c 95e8 acbb bcb5 92bd d78c e4bb
000000f0: a120 043c 3e1e 94bd b886 833b 544d 5dbc
00000100: 93fe 8039 ed71 61be 6d32 f5bb 0dc5 2dbb
00000110: c1bf d9bc 3d87 aa3d 4ca1 8ebc 2da2 8dbd
00000120: 88a5 c5bd d8cc 893b a6db be3b 3984 24bb
00000130: a500 e9bb 1423 69bb a577 d23c 9594 37bd
00000140: 58ac 28be 77b0 ea3b f5ac 2f3b 4d81 faba
00000150: 28ce c5bc 3a78 43bb dcd5 22bb acb1 8239
00000160: d738 493b 57ca c63a f6b7 89bb 5476 5fba
00000170: f1b3 25bc 58df dfba 11d6 a0bb 1f2a 633d
00000180: 78e0 b23c 75b1 e7b9 10ab 07bb 1c51 b03a
00000190: 31ba 8cba a526 033a c9a0 d8bb 5e47 9fbc
000001a0: 65f6 8ebb 9dfe 6bbd aa3a 6b3b 9a43 ff3c
000001b0: f0bb 15bd 94d7 4dbc 0407 b33b 28bd 033c
000001c0: 7f0e fa3a c990 ac3d d276 01bd 8f44 78bc
000001d0: fb7b d9bb aaf1 27be e31e 523c a6e3 48bb
000001e0: a4b1 0cbd 85df 6d3d 9f9f 6bbd b8ed 303d
000001f0: 6a6a fb3a 6d7c 0bba 995b 073d 8ddd 02bc
00000200: e515 993b 24e5 7c39 9a2e a4bb d2be a53c
00000210: 3b86 b03a 2717 e93b cd76 e23d ca75 533b
00000220: 33d8 693c 3c17 58bb b27e 3abc 9fe2 b338
00000230: adf8 34bc 9b8f 513c 0208 4d3c 41e8 9abd
00000240: a171 61bb e618 943d 2963 f13c 3381 323b
00000250: be1b 9f3a d54d c43a 1311 553b 5de0 6ebd
00000260: b737 c3bb 8f29 9c3c f35c 933b 2ea5 223d
00000270: 3d19 aa39 06e6 ed3c 3298 38bb b78d 803c
00000280: 9a93 8bba 6b69 823c 1d19 2f3c f17a 683a
00000290: 98e5 4fbe 6023 6c3e 0c06 7bba c359 7fbc
000002a0: 74d4 143d 215a e5bb f9c8 393d 5f44 4dbb
000002b0: ed92 0fbc ceba 863b 3b42 b3bc 2cd9 32bb
000002c0: e868 48bf 5b73 a7ba f7bc 83bc 91cd 023a
000002d0: 21b9 52bc 9ce1 81bb 4721 0e3d eb48 bdbb
000002e0: bc82 27bb cae3 103c b155 8dbc 54ee 0cbb
000002f0: 8bec f93c 94bd a5bc 4103 873a 6947 8f3a
00000300: 0296 61bd c27d ed3b dd35 073d 1fe7 7a3d
00000310: 71af bbbc e0f4 3ab9 fd86 aa3a 2690 263d
00000320: a3ee d5bc ab37 3dba 2de2 9cbe 43b3 3fbb
00000330: 1c20 5f3d 4b4d d23b 2ee2 ac3b 95c0 633a
00000340: fa56 31bd 16b6 12bc 4c08 35bd bb93 2a3a
00000350: 0588 01bb 5fe1 863c f5fe 16bd 47cf 223c
00000360: 108c 67bc b41d 12bc 6dee 323e 9387 a53a
00000370: 5e44 e939 4e20 19bb 2963 a239 bff4 673a
00000380: 1ad5 b83d 73db ea3c ca7a bcbc 8494 2c3b
00000390: 2310 b73b a9b7 03bc 9f95 813b 10a9 233a
000003a0: 74fd 24bd 3ca8 663b 7cb4 5dbb 5edb 2abb
000003b0: f062 ba3a d314 983d 0bc7 c6bc 0c36 313c
000003c0: 9e8b 373d 9d50 35bc f981 5abb cb6f ae3c
000003d0: 6099 23bb 5f4d 473d 032f 4bbc 5588 c4bb
000003e0: a6cd 613b 037c 0dbd 5b03 07bc d7d2 0fbc
000003f0: f320 303e bf4c 9a3a effb 203d de5a 83ba

rcsl.backbone.model.8.bias f4 [6]
0.5015988 -0.48949602 -0.8258606 -0.46028367 -0.6710442 -0.36392897
00000000: c768 003f 399f fabe 9a6b 53bf 4daa ebbe
00000010: 8dc9 2bbf e654 babe
